model/CVAE_3000_0.001_16_[12, 64, 16]_12_[16, 64, 6].pth (torch, 22442 bytes, 14 tensors)

encoder.MLP.L0.weight f4 [64, 12]
0	0x3c5e37b4	0.013563085
1	0x3d2a066c	0.04151003
2	0xbe88fb2c	-0.2675413
3	0xbe6bc0d2	-0.23022774
4	0xbe00fa97	-0.12595592
5	0x3da5e095	0.08099476
6	0x3c998343	0.018739348
7	0x3e6f6579	0.23378552
8	0xbce23eb5	-0.027617792
9	0x3d9a349b	0.07529565
10	0xbdadd467	-0.08487778
11	0xbd628d4d	-0.055310536
12	0xbec9153a	-0.39274007
13	0xbe8e9089	-0.27844647
14	0xbd7ec120	-0.062195897
15	0x3ce3dfdd	0.027816707
16	0x3e017045	0.12640484
17	0x3df3a559	0.11896772
18	0xbe65ded8	-0.2244829
19	0xbdfccf35	-0.12344209
20	0x3e290917	0.16507374
21	0x3e953ec3	0.29149446
22	0xbc09a563	-0.008401248
23	0x3e4d1ff9	0.20031728
24	0xbd3e95d8	-0.04652962
25	0x3cfa3b60	0.03054589
26	0x3e85d4b6	0.26138848
27	0xbe891c79	-0.26779535
28	0xbe3a17f0	-0.18173194
29	0xbd95ac48	-0.07308251
30	0xbde673cc	-0.11252555
31	0x3e7f66c8	0.24941552
32	0xbe3f9aa4	-0.18711334
33	0xbe081370	-0.13288665
34	0xbe4e853c	-0.20168012
35	0xbe8a6cdf	-0.27036187
36	0xbe95c00d	-0.29248086
37	0x3e9aa26e	0.3020205
38	0x3dd059bb	0.10173365
39	0x3de9c4ca	0.11414488
40	0xbc311c24	-0.010809932
41	0xbe9067ce	-0.28204197
42	0xbe8f2355	-0.27956644
43	0xbf17090e	-0.5899819
44	0xbedec018	-0.4350593
45	0xbe9212e7	-0.28530046
46	0xbdf70579	-0.12061591
47	0xbe77805a	-0.24170056
48	0xbe9208ab	-0.28522238
49	0xbc62b4d4	-0.013837058
50	0x3e3139e1	0.17307235
51	0x3e755170	0.23956847
52	0x3d7bb406	0.06145098
53	0xbd862ac5	-0.065511264
54	0x3ddac2c4	0.1068168
55	0xbe5424dc	-0.20717186
56	0x3e0dcf5e	0.13848636
57	0xbde56f1e	-0.112028345
58	0xbc57afb1	-0.013164447
59	0xbe3ac4ba	-0.18239108
60	0x3e215791	0.1575606
61	0x3e80f499	0.25186613
62	0xbe560759	-0.2090124
63	0x3d804815	0.062637486
64	0x3e088fe3	0.13336138
65	0xbc21f855	-0.009885867
66	0xba8dabf1	-0.0010808689
67	0x3d2f5827	0.042808678
68	0x3e137ef7	0.14403902
69	0x3e7ede33	0.2488945
70	0xbe7a76ff	-0.24459456
71	0xbe0ca24a	-0.13733783
72	0xbd2d1e8a	-0.042265452
73	0x3e61b463	0.22041468
74	0x3e68067a	0.2265872
75	0x3e4b3d4e	0.19847605
76	0xbae96e73	-0.0017809406
77	0xbebe0050	-0.37109613
78	0xbd90f7d5	-0.0707852
79	0xbe735f5b	-0.23766844
80	0xbe619fda	-0.22033635
81	0x3ea6fe44	0.32615864
82	0x3eb0b232	0.34510952
83	0xbe9aa4c6	-0.30203837
84	0x3d0cf0c1	0.03440929
85	0x3d5e0108	0.054200202
86	0xbdb2d8f3	-0.08732786
87	0xbe311b66	-0.17295608
88	0x3d8a9a11	0.06767667
89	0xbe55cc25	-0.20878656
90	0x3d7c5825	0.0616075
91	0x3de54b4d	0.11196003
92	0x3e36dc56	0.17857489
93	0x3dad112b	0.0845054
94	0xbe9cc247	-0.30616972
95	0xbe5fd803	-0.21859746
96	0x3dd63b27	0.10460501
97	0x3dde6b52	0.108603135
98	0xbe87ada6	-0.2649967
99	0xbe51325f	-0.20429371
100	0x3e6ff701	0.23434068
101	0x3e204368	0.15650713
102	0xbe2bce72	-0.16777971
103	0xbdea6e71	-0.11446846
104	0xbea326fc	-0.3186568
105	0xbd63294f	-0.055459317
106	0xbe7f64b7	-0.24940763
107	0xbe846ffe	-0.25866693
108	0xbc824d10	-0.015905887
109	0x3d318898	0.043343157
110	0xbdf21df6	-0.11822121
111	0x3e2f6786	0.17129335
112	0xbe33e2dd	-0.1756701
113	0x3e861c5e	0.26193517
114	0x3e4a93b2	0.19782904
115	0xbe7946fa	-0.24343482
116	0xbd93245e	-0.07184671
117	0x3c556a20	0.01302579
118	0x3d2c83f0	0.042118013
119	0x3d8c3810	0.068466306
120	0x3de80198	0.11328429
121	0x3c8da750	0.017291695
122	0xbe103bbe	-0.1408529
123	0x3e0be052	0.1365979
124	0xbe8dc751	-0.2769113
125	0xbe2f34c1	-0.17109968
126	0xbd93ff26	-0.072264
127	0xbe0ffe09	-0.1406175
128	0xbdced2e6	-0.100988194
129	0xbe72486c	-0.23660439
130	0xbd7b8468	-0.06140557
131	0x3d7cbf98	0.061706156
132	0xbe80640c	-0.2507633
133	0x3daf341e	0.085548624
134	0x3e10a658	0.14125955
135	0xbdd5a74a	-0.104322985
136	0xbd91e53a	-0.071237996
137	0xbdd5c07d	-0.10437105
138	0xbbfc94eb	-0.007708182
139	0x3e0bc1c4	0.13648134
140	0x3e764d98	0.24053037
141	0x3e1f8234	0.15577012
142	0x3e8077fe	0.25091547
143	0xbd8b71d3	-0.068088196
144	0xbe84c5ff	-0.2593231
145	0xbe0c2389	-0.1368543
146	0x3e494722	0.19656041
147	0xbaf54700	-0.0018713176
148	0xbe12edb6	-0.14348492
149	0xbe62863a	-0.22121516
150	0xbe8a520c	-0.27015722
151	0xbe797ddc	-0.24364418
152	0xbd6fd63c	-0.05855392
153	0x3e221c54	0.15831119
154	0x3e1fd0b8	0.15606964
155	0xbe8e8b6d	-0.27840748
156	0x3e38645e	0.18007037
157	0xbe674ffa	-0.22589102
158	0xbd79f970	-0.061028898
159	0xbdefb7d8	-0.11704987
160	0xbd63c038	-0.055603236
161	0xbd682880	-0.05667925
162	0xbe84a13c	-0.25904262
163	0xbe7f3c31	-0.24925305
164	0xbd390600	-0.045171738
165	0x3b74a880	0.003733188
166	0xbe064901	-0.13113786
167	0x3ddeb504	0.1087437
168	0xbeb3cc86	-0.35116976
169	0xbd36fcc5	-0.044674654
170	0x3e85fd68	0.26169896
171	0xbe12ffea	-0.14355436
172	0x3e6c6e40	0.23088932
173	0x3cb34b30	0.021886438
174	0xbe9710ed	-0.295051
175	0x3e302a41	0.17203619
176	0xbc619fe8	-0.013771035
177	0xbde5df68	-0.11224252
178	0x3e78c18b	0.24292581
179	0xbe8201cd	-0.25392
180	0xbe18b6d9	-0.14913501
181	0xbdbd3ed1	-0.09240497
182	0x3e58d011	0.21173121
183	0x3d31783c	0.043327555
184	0x3dc32b10	0.09529698
185	0xbc4178ed	-0.011808616
186	0xbe2f6665	-0.17128904
187	0xbde9fb98	-0.11424941
188	0xbe4f3dea	-0.20238462
189	0x3e440240	0.19141483
190	0x3e8dbbbf	0.276823
191	0x3e14083e	0.14456269
192	0xbe50831e	-0.20362517
193	0x3c52f120	0.0128748715
194	0xbe506181	-0.20349695
195	0xbe22b997	-0.1589111
196	0xbe2c3fec	-0.1682126
197	0x3dca0abc	0.09865329
198	0xbe302768	-0.17202532
199	0xbbce6040	-0.006298095
200	0x3c46f7c0	0.012144029
201	0x3e3e8d80	0.18608665
202	0xbe5f73d6	-0.21821532
203	0xbe4aef70	-0.198179
204	0xbe4531ad	-0.19257231
205	0x3e88c362	0.26711565
206	0xbe49f3dd	-0.19721933
207	0x3e2fb4d9	0.17158832
208	0x3d027a09	0.031854663
209	0x3c8050a0	0.015663445
210	0xbd703993	-0.058648657
211	0xbde1e3b5	-0.1102976
212	0xbc61e814	-0.013788242
213	0xbde44297	-0.111455135
214	0xbd1580e6	-0.03649988
215	0xbc4ae9bc	-0.012384828
216	0xbe6738f2	-0.22580317
217	0xbe1aef5c	-0.15130371
218	0x3e6eb294	0.2331031
219	0xbe6fe55a	-0.23427334
220	0xbca9cf20	-0.020728648
221	0x3e92360c	0.2855686
222	0x3dd590d4	0.104280144
223	0x3c05e920	0.008173257
224	0xbe80161e	-0.25016874
225	0x3e126f74	0.14300328
226	0xbe528d75	-0.20561774
227	0xbda7d28c	-0.081944555
228	0x3d0b8e36	0.03407117
229	0x3c60a2a4	0.013710652
230	0xbd8763de	-0.06610845
231	0x3e639721	0.2222562
232	0x3cd2a8df	0.02571529
233	0x3ea8ae3f	0.3294544
234	0x3e5790d1	0.21051337
235	0xbe484047	-0.1955577
236	0x3ca337c3	0.01992405
237	0xbea8a72a	-0.32940036
238	0xbe86aba8	-0.26302838
239	0xbcbda28c	-0.023148797
240	0x3d941f49	0.0723253
241	0x3eaa42ce	0.33254093
242	0xbdc50f81	-0.09622098
243	0xbc8df972	-0.017330859
244	0x3e015550	0.126302
245	0xbe80655c	-0.2507733
246	0x3e5fa51d	0.2184033
247	0xbe780067	-0.24218903
248	0xbcd47a38	-0.025937185
249	0xbda4c114	-0.08044639
250	0xbe30ebc1	-0.17277433
251	0xbded82a3	-0.115971826
252	0x3e7470a0	0.23871088
253	0xbdacd23e	-0.08438538
254	0xbe2f7f7a	-0.17138472
255	0xbddaa6b4	-0.10676327

encoder.MLP.L0.bias f4 [64]
0	0xbe6094cb	-0.2193176
1	0xbe14f8e9	-0.14548077
2	0x3dc1e774	0.09467974
3	0xbeca6efa	-0.39537793
4	0x3d4fe81b	0.050758462
5	0x3e3dacd2	0.18522957
6	0x3d56f322	0.052477963
7	0xbe606c1f	-0.21916245
8	0x3e7f5d84	0.24938017
9	0xbe2f38e8	-0.17111552
10	0x3e938e70	0.2881961
11	0xbeb5db02	-0.35518652
12	0xbe83afd5	-0.25720087
13	0x3e358ef8	0.1773032
14	0xbd6b116c	-0.05738966
15	0xbdd1c331	-0.10242308
16	0xbe23b15d	-0.15985627
17	0xbe090936	-0.1338242
18	0xbdacdc86	-0.08440499
19	0xbe4e7dd9	-0.20165195
20	0x3d50cc10	0.05097586
21	0x3d511ed0	0.051054776
22	0x3d895935	0.06706468
23	0x3d2e67d2	0.04257948
24	0x3ebe30c7	0.3714659
25	0x3db2c495	0.08728901
26	0xbe1ff491	-0.15620638
27	0xbe5e8d25	-0.2173353
28	0xbe59e3f2	-0.2127836
29	0xbe02f459	-0.12788524
30	0x3d78c679	0.060736153
31	0x3d591d31	0.053006355
32	0x3df4f1bf	0.11960172
33	0xbe2d9357	-0.16950737
34	0x3ea23fa1	0.3168917
35	0xbe876904	-0.26447308
36	0x3a571400	0.00082045794
37	0x3eaa946c	0.33316362
38	0x3e92f8c6	0.28705424
39	0xbea0a031	-0.31372216
40	0x3cfb7ea5	0.030700037
41	0x3df52418	0.11969775
42	0xbe5a1bf8	-0.21299732
43	0xbe45625c	-0.19275802
44	0xbc8ff62b	-0.017573437
45	0xbe4d8d62	-0.20073465
46	0x3d9e8d5a	0.077418044
47	0x3e3b71d0	0.18305135
48	0xbe40eb77	-0.18839823
49	0x3e7b5e2e	0.24547645
50	0xbd1cb0c2	-0.038254507
51	0x3cae6685	0.02128912
52	0x3e872925	0.26398578
53	0xbdc25055	-0.09487978
54	0x3dcb038e	0.099127874
55	0xbddcdfa6	-0.10784845
56	0x3c48d4ad	0.012257737
57	0xbd85f0da	-0.065400794
58	0xbaeb1100	-0.0017934144
59	0xbde26e74	-0.110562235
60	0x3d8a9234	0.06766167
61	0xbdc3f860	-0.09568858
62	0x3e235d2b	0.1595351
63	0xbdde1056	-0.108429596

encoder.MLP.L1.weight f4 [16, 64]
0	0x3d325b96	0.043544374
1	0xbd31045d	-0.04321705
2	0xbdd6635e	-0.104681715
3	0xbda5fede	-0.08105253
4	0xbbea1c48	-0.0071444847
5	0xbd9ada84	-0.0756121
6	0xbd8f2f23	-0.069914125
7	0x3b0ff1a5	0.00219641
8	0xbd0340fb	-0.032044392
9	0x3da74a32	0.081684485
10	0x3be802a0	0.007080391
11	0x3c8e45d3	0.01736728
12	0x3d5f1394	0.05446203
13	0xbcfb4150	-0.030670792
14	0xbb8576a4	-0.004072981
15	0x3d34c322	0.044131406
16	0x3bbc7dc0	0.0057522953
17	0x3d17b3d3	0.037036728
18	0x3b94d4a0	0.0045419484
19	0x3d89fc79	0.067376085
20	0xbb08ed18	-0.0020893272
21	0xbd8814f6	-0.06644623
22	0x3d887d20	0.06664491
23	0xbe006ed7	-0.12542282
24	0x3d04e884	0.032448307
25	0xbd71855e	-0.05896508
26	0x3d817f36	0.06323092
27	0xbe6524e2	-0.22377351
28	0x3c3eadf2	0.0116381515
29	0x3dabbc76	0.083855554
30	0x3d81dd71	0.06341065
31	0xbcf55214	-0.029946364
32	0x3de6264c	0.11237773
33	0xbda25fe5	-0.07928447
34	0x3ca07cca	0.019590754
35	0xbd9f9887	-0.07792764
36	0xbc8d5ab0	-0.017255157
37	0xbc9303db	-0.017946174
38	0x3c88c450	0.016695172
39	0xbcb0efa4	-0.021598645
40	0xbdf01bbd	-0.11724041
41	0xbd7cfe88	-0.061766177
42	0xbd436574	-0.047704175
43	0x3ad08014	0.0015907311
44	0xbdc876b1	-0.097882636
45	0x3df8d59c	0.12150118
46	0xbca90819	-0.020633744
47	0xbd1441fc	-0.03619574
48	0xbdec20d5	-0.115297
49	0xbdd85c81	-0.10564519
50	0xbd8c216e	-0.06842314
51	0x3d900394	0.070319325
52	0x3cad6767	0.02116747
53	0x3db8ab97	0.09017103
54	0x3d56cc64	0.052441016
55	0xbe3fad97	-0.18718563
56	0xbd445560	-0.047932982
57	0x3ddf5faa	0.10906918
58	0xbd8edeb8	-0.06976074
59	0x3df5e9aa	0.120074585
60	0x3d0692c4	0.03285481
61	0x3bb82ec1	0.005620808
62	0xbd6807d1	-0.05664808
63	0x3d7d5a8e	0.061853938
64	0xbdde7abf	-0.10863256
65	0xbd0d664f	-0.034521397
66	0x3d2ac738	0.041693896
67	0x3c09b9f0	0.008406147
68	0x3d8f0673	0.06983652
69	0x3dc9d693	0.0985538
70	0x3da288ef	0.07936274
71	0x3da94cb1	0.08266581
72	0x3d972e0e	0.07381831
73	0xbc842060	-0.016128719
74	0xbdc6ab02	-0.09700586
75	0xbd562278	-0.052278966
76	0xbc65eaf0	-0.014033064
77	0xbd8a56c6	-0.06754832
78	0x3cf189c5	0.029484639
79	0x3c11a724	0.008889947
80	0x3ca53970	0.02016899
81	0xbaeec652	-0.0018217063
82	0x3de0e240	0.10980654
83	0x3c162657	0.009164414
84	0xbe1b24bd	-0.15150733
85	0xbdb9d352	-0.09073509
86	0x3c87945d	0.016550237
87	0x3c49c57f	0.012315153
88	0x3cb3e9d3	0.021962082
89	0xbe148261	-0.1450286
90	0xbe0c0bd4	-0.13676387
91	0x3d360853	0.044441532
92	0x3d66a34b	0.056308072
93	0xbe124c15	-0.14286835
94	0x3c0661db	0.0082020415
95	0xbdd853bf	-0.10562848
96	0x3d815784	0.063155204
97	0x3c632d88	0.013865836
98	0x3dad4076	0.084595606
99	0xbe284837	-0.16433798
100	0xbdf671f2	-0.12033452
101	0x3d9b748c	0.07590589
102	0x3de34860	0.11097789
103	0x3d2bf41c	0.041980848
104	0x3d7311b6	0.059343062
105	0xbde155de	-0.11002706
106	0x3d88c4b4	0.06678143
107	0xbe22513e	-0.15851304
108	0xbb348369	-0.0027544147
109	0xbda7b05c	-0.08187935
110	0xbdbfd0a2	-0.093659654
111	0xbc0bfa75	-0.0085436
112	0xbdb6c70e	-0.089246854
113	0xbca90f02	-0.02063704
114	0xbe0e4c33	-0.13896255
115	0xbe1b522e	-0.15168068
116	0x3d3edcf8	0.04659745
117	0xbd7e43bf	-0.062076326
118	0xbde92a30	-0.11385
119	0xbd698014	-0.05700691
120	0xbe0972cb	-0.13422696
121	0xbdd05a04	-0.10173419
122	0x3d992eee	0.07479654
123	0x3d7a674b	0.061133664
124	0x3c886680	0.016650438
125	0xbdaebaf3	-0.085317515
126	0x3d2a03d5	0.04150756
127	0x3bca2406	0.006168845
128	0xbdb6f4cc	-0.0893341
129	0x3b035cb0	0.002004426
130	0x3de91968	0.11381799
131	0xbe176343	-0.14783959
132	0xbe18c64c	-0.14919394
133	0xbc11770f	-0.008878483
134	0x3d8dca1a	0.069233134
135	0xbd9bc5fc	-0.07606122
136	0x3ce16ba0	0.02751714
137	0x3db3f6d8	0.08787316
138	0x3d1ddba4	0.038539544
139	0x3cdd9ac8	0.027051345
140	0x3dff6af8	0.124715745
141	0x3da6c6ea	0.081434086
142	0xbdc2f732	-0.09519805
143	0xbc66da40	-0.014090121
144	0x3d82c888	0.063859046
145	0x3daec8fd	0.08534429
146	0xbdfeb3ec	-0.12436661
147	0x3d2f4833	0.042793464
148	0xbd7a9d1f	-0.061185
149	0xbdfaae3e	-0.12240265
150	0x3b3ae918	0.0028520282
151	0xbd8b5eb2	-0.06805171
152	0xbbeb4a1f	-0.007180467
153	0xbdd92d5a	-0.10604353
154	0xbdc0a5be	-0.09406613
155	0xbd116727	-0.035498764
156	0xbd88fb16	-0.06688516
157	0x3d457ce3	0.048214804
158	0xbc674d62	-0.014117571
159	0x3d94d740	0.07267618
160	0xbac07056	-0.0014681916
161	0xbd854dd8	-0.06508988
162	0x3d74d39c	0.05977212
163	0xbc93fb23	-0.018064087
164	0x3cc03240	0.023461461
165	0xbd854f5a	-0.06509276
166	0x39eb3200	0.00044859946
167	0xbd4869b6	-0.04892894
168	0xbd117e13	-0.035520624
169	0xbdc7a62c	-0.09748492
170	0xbcd23886	-0.025661718
171	0xbe03bcb6	-0.12864956
172	0xbd541511	-0.051777903
173	0x3d945d24	0.07244328
174	0xbde4fc97	-0.1118099
175	0xbddf8a90	-0.109151006
176	0xbd62fc79	-0.055416558
177	0xbd0c5b4c	-0.034266755
178	0x3cad59b0	0.02116093
179	0xbb87c1fe	-0.0041429987
180	0x3d81d114	0.063387066
181	0xbdb05a7a	-0.08611007
182	0xbd0a197e	-0.033715717
183	0x3d8f2db6	0.069911405
184	0x3daa7310	0.08322728
185	0xbc156470	-0.009118184
186	0xbd942074	-0.072327524
187	0x3d132e4c	0.035932824
188	0x3d91c944	0.071184665
189	0xbdd2dbbd	-0.10295818
190	0xbd948e1c	-0.07253668
191	0x3d624d98	0.05524978
192	0xbc980af9	-0.01855992
193	0xbe00ac88	-0.12565815
194	0xbd939b14	-0.07207313
195	0x3d270a02	0.04078103
196	0xbd62d6e6	-0.055380724
197	0x3d996819	0.07490558
198	0x3db0ad84	0.086268455
199	0x3be2793e	0.006911426
200	0xbc8cc979	-0.017185913
201	0xbd2285d0	-0.039678395
202	0xbbcf1e20	-0.00632073
203	0x3c43473a	0.011918837
204	0xbdc38bbe	-0.09548138
205	0xbcf4bb48	-0.029874459
206	0xbded9e6d	-0.11602483
207	0x3d84f8d2	0.06492771
208	0xbda307b4	-0.07960454
209	0x3dcfe560	0.10151172
210	0xbd03fbd8	-0.0322226
211	0xbdad3611	-0.08457578
212	0x3d55ece9	0.05222789
213	0x3c98a830	0.018634886
214	0x3d9c5a5f	0.076344244
215	0x3d2a5b9c	0.04159127
216	0xbe047196	-0.12933955
217	0x3d899bef	0.06719195
218	0xbd138723	-0.03601755
219	0xbd844585	-0.06458572
220	0x3d8b4111	0.0679952
221	0x3da25c54	0.079277664
222	0xbdf9e62b	-0.12202104
223	0xbcb5f017	-0.02220921
224	0x3db93811	0.09043897
225	0x3d186681	0.03720713
226	0x3dc5850f	0.096445195
227	0xbd58f831	-0.05297107
228	0xbd8d3870	-0.0689553
229	0x3dc594bf	0.09647512
230	0x3d5569d0	0.052102864
231	0x3ddc9c66	0.10772018
232	0xbd830482	-0.06397344
233	0xbdbaa6f0	-0.09113872
234	0xbcd52b52	-0.026021633
235	0xbe034c35	-0.1282204
236	0x3d1983ce	0.037479214
237	0x3dbcd298	0.09219855
238	0x3c8604e8	0.016359761
239	0xbcc7954f	-0.024363188
240	0x3d50eb39	0.051005576
241	0xbdb5d57e	-0.08878611
242	0x3df7bebd	0.12096927
243	0xbe0bc548	-0.13649476
244	0xbe05b083	-0.13055615
245	0xbcfd4e1b	-0.030921033
246	0x3dbb42f6	0.09143631
247	0x3a99ed2f	0.001174366
248	0x3d1218a3	0.035668027
249	0xbdcf3526	-0.10117559
250	0x3d3ab818	0.04558572
251	0xbcb90f79	-0.022590386
252	0x3d4d38c0	0.05010295
253	0x3da83579	0.08213324
254	0x3d37a4b0	0.044834793
255	0xbca65aa2	-0.020306889

encoder.MLP.L1.bias f4 [16]
0	0x3ddcc55e	0.10779832
1	0x3cee4f55	0.029090563
2	0xbca5750b	-0.020197412
3	0x3dc33b61	0.0953281
4	0xbd965ea8	-0.07342273
5	0x3df174a6	0.11789827
6	0x3d1f224c	0.038851067
7	0x3df48c6e	0.11940847
8	0xbcdbee0e	-0.026846912
9	0xbce18c3c	-0.02753269
10	0xbada56a4	-0.0016657901
11	0xbd169520	-0.03676331
12	0x3d159f5f	0.03652894
13	0x3c979b7f	0.018506764
14	0x3da4686d	0.0802773
15	0xbd533bd3	-0.051570725

encoder.linear_means.weight f4 [12, 16]
0	0x3d5d7806	0.05406954
1	0x3da92c95	0.082604565
2	0x3d5b7ab9	0.053583834
3	0xbe20c90c	-0.15701693
4	0x3cc61790	0.024181157
5	0xbe425e32	-0.18981245
6	0xbe038eac	-0.12847394
7	0xbdc8f23c	-0.098118275
8	0x3ea76419	0.32693556
9	0xbda26471	-0.07929314
10	0xbe078cb6	-0.1323727
11	0xbe92f685	-0.28703704
12	0x3d4ab663	0.049490344
13	0xbe37bc56	-0.17942938
14	0x3d8cf848	0.068832934
15	0xbe24e42f	-0.1610267
16	0xbd188a5a	-0.037241317
17	0xbdd6a60b	-0.10480889
18	0x3d7dc686	0.061956905
19	0x3e682cfa	0.22673407
20	0x3e6fcc60	0.23417807
21	0xbc9ab9d0	-0.01888743
22	0xbe033161	-0.12811805
23	0xbda926ec	-0.08259377
24	0xbd670b36	-0.056407176
25	0x3ccba600	0.024859428
26	0x3db8126b	0.08987888
27	0x3e232ea8	0.15935767
28	0x3ddc010d	0.10742388
29	0x3dc3cfd6	0.09561126
30	0xbdcfcbb1	-0.10146273
31	0xbbbd0d91	-0.0057694395
32	0xbde24164	-0.110476285
33	0xbe1060f8	-0.1409949
34	0xbd40e370	-0.0470919
35	0xbd30638f	-0.043063696
36	0xbe71df40	-0.2362032
37	0x3e2d8c56	0.16948065
38	0xbc2765e8	-0.010217167
39	0xbe5d4d3c	-0.21611494
40	0x3da1e438	0.079048574
41	0xbe151743	-0.14559655
42	0x3dd05dfa	0.101741746
43	0x3e889854	0.26678717
44	0xbaef1a7f	-0.0018242149
45	0x3d78a1b3	0.060701083
46	0x3daea99b	0.085284434
47	0x3e365ef9	0.17809667
48	0x3ccdaeb9	0.025107728
49	0xbe1c86d7	-0.15285812
50	0xbd35fec8	-0.04443243
51	0x3e3c4424	0.18385369
52	0x3cb01740	0.021495461
53	0x3e31df28	0.17370284
54	0xbd373663	-0.0447296
55	0x3d9d1788	0.07670504
56	0x3d2dc5ef	0.042425092
57	0x3e152029	0.1456305
58	0xbe63fc0e	-0.2226412
59	0xbe743aeb	-0.238506
60	0x3c038d28	0.00802926
61	0x3e023a78	0.12717617
62	0x3e1e486c	0.15457314
63	0xbb31ed62	-0.0027149548
64	0x3e1bb2b8	0.15204895
65	0x3dc63086	0.09677224
66	0xbe438d7b	-0.1909694
67	0xbe563ab6	-0.20920834
68	0xbe467d14	-0.19383651
69	0x3b8cd7c0	0.0042981803
70	0xbe98571e	-0.29753965
71	0xbda3d8c0	-0.08000326
72	0x3cc1867b	0.023623696
73	0x3e1e284a	0.15445057
74	0x3d395fb5	0.04525729
75	0x3d7fe7b2	0.06247682
76	0x3e65d20b	0.22443406
77	0xbe01cbdd	-0.12675424
78	0xb8b5aaf6	-8.6625965e-05
79	0x3d7a1eff	0.061064716
80	0x3d1c7aa8	0.03820291
81	0xbd877890	-0.06614792
82	0xbdfc1e54	-0.12310472
83	0xbe15fa85	-0.14646347
84	0x3e3ca2ee	0.18421528
85	0xbd910db4	-0.07082692
86	0xbdc0496d	-0.09389005
87	0x3e2d268e	0.16909239
88	0x3da81e95	0.08208958
89	0xbe30f6f1	-0.172817
90	0xbe321966	-0.17392501
91	0x3e62451e	0.22096679
92	0xbd97a575	-0.07404605
93	0xbdfd3172	-0.123629466
94	0xbe25db9a	-0.16197053
95	0xbde84f1c	-0.11343214
96	0xbe28c79d	-0.16482396
97	0xbe097bab	-0.13426082
98	0xbe81382f	-0.25238177
99	0xbd1b9e2b	-0.037992638
100	0x3dcddccc	0.10051879
101	0xbe42560c	-0.18978137
102	0xbcb09b35	-0.021558383
103	0xbdbcce58	-0.092190444
104	0x3df4708d	0.1193553
105	0x3c7abb56	0.015303453
106	0xbd4774fc	-0.04869555
107	0xba5a9813	-0.0008338701
108	0xbe3c0a9e	-0.18363425
109	0xbe0a9f63	-0.13537364
110	0x3dab1314	0.08353248
111	0x3d95245e	0.07282327
112	0x3e20b5a2	0.15694287
113	0xbd674b03	-0.05646802
114	0x3e1d0254	0.1533292
115	0xbe71910b	-0.23590486
116	0x3d89a2a8	0.06720477
117	0x3e7885ee	0.2426984
118	0xbedcf892	-0.43158394
119	0xbe04e58a	-0.12978187
120	0x3e95b7de	0.29241842
121	0x3c8cc289	0.017182605
122	0xbe13baa7	-0.14426671
123	0xbd8a70e0	-0.067598104
124	0xbb6387ef	-0.0034718474
125	0xbae07260	-0.001712393
126	0xbdc4806d	-0.09594808
127	0x3e39efdc	0.18157905
128	0xbd377b2d	-0.044795204
129	0x3d04727b	0.03233574
130	0x3c599556	0.013280233
131	0x3df08728	0.11744529
132	0x3e1f7d94	0.15575248
133	0xbdd205ec	-0.10255036
134	0xbd9df0b5	-0.07711927
135	0x3de0c790	0.109755635
136	0xbe2446c4	-0.1604262
137	0x3e0edc38	0.13951194
138	0xbe24a463	-0.16078334
139	0x3e50ee2d	0.20403357
140	0xbe37f49c	-0.17964405
141	0x3d82b846	0.063828036
142	0x3e2934bd	0.16524024
143	0x3c97abd0	0.018514544
144	0xbe0954e4	-0.1341129
145	0x3e06d0eb	0.13165633
146	0xbe51438a	-0.2043592
147	0xbe3b348a	-0.18281761
148	0xbe5a301a	-0.21307412
149	0xbe1d94a0	-0.15388727
150	0x3e30a22f	0.17249368
151	0xbde82a0c	-0.11336145
152	0xbdc13af3	-0.09435072
153	0xbdc945a5	-0.09827737
154	0x3e455ec4	0.19274431
155	0x3e0caa5c	0.13736862
156	0xbdb45869	-0.088059254
157	0x3dffe515	0.12494866
158	0xbda92080	-0.08258152
159	0x3e63573c	0.22201246
160	0xbe1a3ee0	-0.15063047
161	0xbcadcfd6	-0.021217268
162	0xbd0ccd1c	-0.034375295
163	0x3dd3272a	0.10310204
164	0x3dc42e88	0.09579188
165	0xbe0853c6	-0.13313207
166	0x3e6c7bfa	0.23094168
167	0xbc822270	-0.015885562
168	0xbe05ebc7	-0.13078223
169	0xbe10cf6b	-0.14141624
170	0x3e296b6d	0.16544886
171	0x3ea1b0c6	0.3158018
172	0x3dd645e5	0.1046255
173	0xbb62ccf2	-0.003460702
174	0x3e143aec	0.14475602
175	0xbdece47e	-0.11567019
176	0xbe704a94	-0.2346595
177	0xbdb17f62	-0.086668745
178	0xbe3f26f8	-0.18667209
179	0x3dc30035	0.09521524
180	0x3cc28a00	0.023747444
181	0xbdaf2c3c	-0.08553359
182	0xbbc04f8b	-0.0058688573
183	0xbba26e00	-0.0049569607
184	0x3de3c4a5	0.11121491
185	0x3d3f85d5	0.04675849
186	0xbe5019e1	-0.20322372
187	0x3da964b6	0.08271162
188	0x3da60118	0.08105677
189	0x3d3e6f7d	0.046493042
190	0xbd45d0c6	-0.048294805
191	0x3d4edbff	0.050502773

encoder.linear_means.bias f4 [12]
0	0xb85103dd	-4.983308e-05
1	0xb81735f0	-3.605144e-05
2	0x38832917	6.25422e-05
3	0x392db874	0.0001656728
4	0x37fe515d	3.0317047e-05
5	0xba059b02	-0.00050966453
6	0x398e5c3e	0.00027153076
7	0xb905aa2c	-0.00012747262
8	0x39a0bbd6	0.00030657527
9	0xba3e203a	-0.0007252727
10	0x399f6eef	0.00030409495
11	0x3935a081	0.00017321297

encoder.linear_log_var.weight f4 [12, 16]
0	0x3cc719ad	0.024304235
1	0xbdc9b11d	-0.09848235
2	0x3d9f3397	0.07773512
3	0xbdd0bcb3	-0.101922415
4	0xbdc773bc	-0.097388715
5	0xbe2b5ee2	-0.16735414
6	0xbe2e7d69	-0.17040028
7	0x3e4c4aaa	0.19950357
8	0xbcaf7010	-0.02141574
9	0xbd268e27	-0.04066291
10	0xbddeddca	-0.10882147
11	0x3e575a31	0.21030499
12	0xbdff9ac4	-0.12480691
13	0xbdec34ab	-0.11533483
14	0xbe34a28b	-0.1764013
15	0xbe4be7d0	-0.19912648
16	0x3e245845	0.16049297
17	0xbe345bf6	-0.17613205
18	0xbd704714	-0.058661535
19	0xbd7705ae	-0.06030815
20	0x3dbb8a10	0.09157193
21	0x3d88f1b4	0.06686726
22	0xbd97d797	-0.074141674
23	0x3e65e834	0.2245186
24	0xbe13f70f	-0.14449714
25	0x3c5c09d2	0.013430076
26	0xbbc9b7a3	-0.0061559244
27	0x3d76ba0c	0.060236022
28	0x3e3abb20	0.18235445
29	0x3e58db50	0.21177411
30	0x3d282a3f	0.041055914
31	0xbdac32e1	-0.08408142
32	0x3e3134e0	0.17305326
33	0x3e25f693	0.16207342
34	0x3cab7d02	0.020933632
35	0xbd7252e5	-0.059161086
36	0x3c2cafe0	0.010539979
37	0x3e642bd8	0.2228235
38	0x3d4f9815	0.050682146
39	0xbd49cb70	-0.04926628
40	0xbe09c7a3	-0.13455062
41	0xbdb9880b	-0.09059151
42	0x3e343330	0.17597651
43	0x3ba80046	0.0051269857
44	0xbb8ec2bf	-0.0043567116
45	0x3dee843b	0.11646315
46	0xbe1ed896	-0.15512308
47	0xbbe0b7ac	-0.006857833
48	0xbc1a836b	-0.009430747
49	0x3deec154	0.11657968
50	0x3e69cbe6	0.22831687
51	0x3e143f82	0.14477351
52	0x3e3edcbc	0.18638891
53	0xbe64c9a6	-0.22342548
54	0xbd33d2a6	-0.043902062
55	0x3cf28410	0.029603988
56	0xbdd0bc28	-0.10192138
57	0x3d3817ff	0.04494476
58	0xbe1c6a52	-0.15274933
59	0x3dcd264e	0.10017072
60	0x3e423d76	0.18968758
61	0xbe5bcf2d	-0.2146575
62	0x3e45de73	0.19323139
63	0x3dcd52be	0.100255474
64	0xbcd712fa	-0.026254166
65	0x3e80937a	0.25112516
66	0xbe444ab0	-0.19169116
67	0xbe20650f	-0.15663551
68	0xbdfeb134	-0.124361426
69	0xbc4f6a40	-0.012659609
70	0xbd4940e2	-0.049134143
71	0xbd9641c8	-0.073367655
72	0xbdbc9ff7	-0.092101984
73	0x3d1ed94e	0.038781457
74	0x3e3f28e3	0.18667941
75	0x3dbaa773	0.0911397
76	0x3e0fea36	0.14054188
77	0x3a1dbe53	0.0006017435
78	0x3d9d3c37	0.07677501
79	0xbe3ae74f	-0.182523
80	0x3df62d92	0.120204106
81	0xbe653792	-0.2238448
82	0xbda0d703	-0.0785351
83	0xbd530a3f	-0.051523443
84	0x3e3bfd32	0.18358305
85	0xbbeecd40	-0.0072876513
86	0xbc994d86	-0.018713724
87	0x3d32e6d8	0.04367718
88	0xbdf07c46	-0.11742453
89	0xbc011869	-0.007879355
90	0x3d9e04d9	0.07715768
91	0x3cfebfe7	0.031097366
92	0xbc0b83b4	-0.008515287
93	0x3e358193	0.1772521
94	0xbe308e18	-0.17241704
95	0xbde6c544	-0.11268094
96	0x3ded6aa1	0.115926035
97	0x3cf598b1	0.029980035
98	0xbd85b17a	-0.065279916
99	0x3deeb5fb	0.11655804
100	0x3e1a0170	0.15039611
101	0xbd2b1c90	-0.041775286
102	0x3b4f5069	0.0031633622
103	0xbd276170	-0.040864408
104	0x3c98fb30	0.018674463
105	0xbe1cff2c	-0.15331715
106	0x3e08fbd3	0.13377313
107	0x3b04a7c9	0.002024161
108	0xbe0e3b2c	-0.1388976
109	0x3e3356d8	0.17513597
110	0x3c82d1af	0.015969126
111	0x3d14cc1e	0.036327474
112	0x3c58a483	0.013222816
113	0xbdb8a377	-0.090155534
114	0xbd99d220	-0.07510781
115	0x3d74b0a3	0.059738766
116	0xbd87b224	-0.066257745
117	0xbdd38190	-0.103274465
118	0x3bcb113c	0.006197123
119	0x3d77afc0	0.060470343
120	0xbcef35c3	-0.02920044
121	0xbe790dbc	-0.24321645
122	0xbcd6a588	-0.026201978
123	0xbd845714	-0.06461921
124	0x3df00a83	0.11720755
125	0xbe54ccdc	-0.20781273
126	0x3e3b94b1	0.1831844
127	0x3db35c58	0.087578475
128	0xbcf5c34e	-0.030000355
129	0x3e370f4b	0.17876928
130	0xbe63b671	-0.22237565
131	0xbcb368f4	-0.021900631
132	0xbe1fd5de	-0.15608928
133	0xbe5c3b00	-0.21506882
134	0x3d133e27	0.035947945
135	0xbdf83f68	-0.12121469
136	0x3d8c62ab	0.06854757
137	0xbe1f0c2e	-0.1553199
138	0x3e46dd16	0.19420275
139	0x3d8224ce	0.06354676
140	0x3e5a763c	0.21334165
141	0xbd897ba6	-0.06713037
142	0xbe1d2bb0	-0.15348697
143	0xbe36237e	-0.17786977
144	0x3d43e7d4	0.04782851
145	0xbe103f66	-0.14086685
146	0xbd63c926	-0.055611752
147	0xbd4be73f	-0.04978108
148	0x3d302aa8	0.04300943
149	0xbe52117c	-0.20514482
150	0x3dad87b7	0.08473151
151	0xbe3d6c9c	-0.18498462
152	0x3d34c59a	0.04413376
153	0xbe3f7087	-0.1869527
154	0xbde04f3a	-0.10952611
155	0xbd94ae39	-0.07259793
156	0x3d7b578a	0.06136278
157	0xbd75a87d	-0.059975136
158	0xbe8695a2	-0.26286036
159	0x3e1db179	0.15399732
160	0x3df3d2be	0.1190543
161	0x3dd262b7	0.102727346
162	0x3e610c8f	0.21977447
163	0x3d606264	0.054781333
164	0xbca07b10	-0.01958993
165	0xbe4be71e	-0.19912383
166	0xbdf77188	-0.12082201
167	0xbe304156	-0.17212424
168	0xbe0c7bcb	-0.13719098
169	0xbd3375cd	-0.043813515
170	0xbdef15c1	-0.11674071
171	0x3dc340f8	0.09533876
172	0xbcc8718c	-0.024468206
173	0xbe334a18	-0.17508733
174	0xbce91a5b	-0.02845495
175	0x3e5e1fdf	0.21691845
176	0x3dfd0c89	0.123559065
177	0x3e3177af	0.17330812
178	0x39358f3e	0.00017314867
179	0xbc0f18f5	-0.008733978
180	0x3e0bf3a8	0.13667166
181	0xbdaa4e08	-0.083156645
182	0xbafc124f	-0.0019231531
183	0x3e5b07de	0.2138972
184	0xbd7c9739	-0.061667655
185	0xbe2b41d0	-0.16724324
186	0x3e4c5578	0.19954479
187	0x3da5377f	0.08067226
188	0x3df1afc6	0.11801104
189	0xbe4c2933	-0.19937591
190	0x3ceeec34	0.029165365
191	0x3e0b212a	0.1358687

encoder.linear_log_var.bias f4 [12]
0	0x38451a4f	4.6992962e-05
1	0x393a82e8	0.00017787109
2	0xba09d1da	-0.00052574056
3	0xb9bde0ba	-0.00036216323
4	0xba4e5705	-0.0007871243
5	0xb91dfb84	-0.00015066384
6	0x3759675c	1.2958273e-05
7	0x3a96d48c	0.0011507436
8	0xb9bf7608	-0.000365183
9	0xb9a55c7e	-0.00031540164
10	0xb8ac17b7	-8.206016e-05
11	0x39291e5b	0.00016128404

decoder.MLP.L0.weight f4 [16, 18]
0	0xbc9dd97f	-0.01926875
1	0x3b1b3f06	0.0023688688
2	0x3b3faaa8	0.0029246006
3	0xbc183c78	-0.009291761
4	0x3c60b52e	0.013715072
5	0x3c062ed6	0.0081898775
6	0x39bb2fee	0.0003570313
7	0xbaf530e0	-0.0018706582
8	0x3b9864dc	0.0046506952
9	0x3c901378	0.017587408
10	0xbc824d65	-0.015906045
11	0xbaa6ef23	-0.0012736063
12	0x3faf6804	1.3703618
13	0xbf69f5f5	-0.91390926
14	0xc031592f	-2.7710683
15	0x3f11fc9f	0.57026094
16	0x3fce808c	1.6132979
17	0x404ec2ba	3.2306352
18	0xbbc753af	-0.006082974
19	0xba064739	-0.00051223073
20	0x3cc01c03	0.023450857
21	0xba31a4e2	-0.00067765836
22	0xbc76af42	-0.015056433
23	0x3bb6a6a1	0.005574063
24	0xbac963ab	-0.0015364786
25	0x3cbf7763	0.023372358
26	0xbcd0a680	-0.025470018
27	0x3c605453	0.013691979
28	0x3be252b3	0.006906831
29	0xbb93e027	-0.004512805
30	0x3f24eaf7	0.6442103
31	0x3f032428	0.51227045
32	0xbfbf6b6a	-1.4954655
33	0x3f3c761b	0.73617715
34	0x3eb0ca51	0.34529355
35	0xbdf245d5	-0.11829726
36	0xbb8b85a9	-0.004257877
37	0xbc1c8ff1	-0.009555803
38	0x3b8d47d4	0.004311541
39	0xbb9315f8	-0.004488703
40	0x3c1b2eee	0.009471638
41	0x3b346e73	0.0027531653
42	0x3a9d64fe	0.0012008247
43	0x3bbc8929	0.0057536555
44	0xbb1d3d60	-0.0023992881
45	0xbb5a84da	-0.0033343346
46	0x3ca4147f	0.020029305
47	0x3b89554a	0.0041910755
48	0xbf4967ce	-0.7867402
49	0xbac4b14a	-0.001500645
50	0x4033b7de	2.8080974
51	0x3ea54f1d	0.3228692
52	0xc066c73e	-3.6059108
53	0xc039a8ff	-2.9009397
54	0xbc1080ef	-0.008819803
55	0x3c2b2a24	0.010447059
56	0xbb8ed04f	-0.0043583284
57	0xbc97524e	-0.018471863
58	0xbcff083d	-0.031131858
59	0x3ba77468	0.0051103123
60	0xbb0479e5	-0.0020214256
61	0x3cb0293c	0.021504037
62	0xbc19effe	-0.0093955975
63	0xbca6ef2b	-0.020377716
64	0xb9ab18dc	-0.00032634183
65	0xbbf20c36	-0.0073867096
66	0xbfb6f11a	-1.4292328
67	0xbf1c7df1	-0.6112967
68	0x3fbf746a	1.4957402
69	0x40a3e24f	5.1213756
70	0xc16da225	-14.852086
71	0xc13ea519	-11.915307
72	0x3d19d04a	0.037552156
73	0x3b892d33	0.0041862964
74	0x3c7a7ee5	0.015289043
75	0xbdd3868b	-0.103283964
76	0x3e2899e7	0.16464959
77	0x3c8c6de0	0.017142236
78	0xbe2705d6	-0.1631082
79	0x3d6ef862	0.058342345
80	0x3d1e26df	0.03861129
81	0x3cb2db13	0.021832978
82	0xbda752be	-0.08170079
83	0x3d722273	0.059114885
84	0xbf998def	-1.199644
85	0xbf8cee92	-1.1010306
86	0xbfa47ba9	-1.2850238
87	0xbf86d69c	-1.0534244
88	0xbf8a6ef1	-1.0815107
89	0xbf7a91d4	-0.97878766
90	0xbc0027c2	-0.007821979
91	0xbc2398f5	-0.009985198
92	0xbc4d83a1	-0.01254359
93	0xbc20d951	-0.009817437
94	0x3cf2f769	0.02965899
95	0xbc8b0a2d	-0.016972626
96	0xbbe1a6b1	-0.0068863262
97	0x3c965a27	0.018353535
98	0x3bc44ffc	0.00599098
99	0xbaa675d0	-0.0012699906
100	0xbc961c6e	-0.018324103
101	0xbb8d4cb9	-0.0043121246
102	0x3d80efab	0.06295713
103	0xbedf33ab	-0.43594107
104	0xbff10d71	-1.8832227
105	0x3f23f9ce	0.64053047
106	0x407b533c	3.9269552
107	0xc044b672	-3.0736356
108	0x3b2e6f7c	0.0026616743
109	0x3a8f4a5b	0.0010932194
110	0xb8a57314	-7.889248e-05
111	0xbc402c40	-0.0117293
112	0xbc3bc352	-0.011460142
113	0x3c96295f	0.018330274
114	0xbcc80239	-0.024415122
115	0xbc88e412	-0.016710315
116	0xbc17e42f	-0.009270712
117	0xbbdc79b5	-0.006728376
118	0xba7de7e3	-0.0009685738
119	0xbc128f7d	-0.008945343
120	0x3f3cc462	0.73737156
121	0x3e9b811a	0.30371934
122	0xc0199f51	-2.400349
123	0x3eac0418	0.33596873
124	0xc02bddb4	-2.6854067
125	0xbfe37f2d	-1.7773186
126	0x3c31bd5a	0.010848368
127	0x3c3352ef	0.010945066
128	0x3c700918	0.014650606
129	0x3c0076ba	0.007840807
130	0xbcf1620e	-0.029465701
131	0x3c34b875	0.011030306
132	0x3c61e271	0.013786898
133	0x397418f9	0.00023278956
134	0x3b38d2f0	0.00282019
135	0xbcf0b761	-0.029384317
136	0xba198e0d	-0.0005857654
137	0xbccd95fa	-0.025095928
138	0xbf5aa37f	-0.85405725
139	0x3d9ebde5	0.07751063
140	0xc048507e	-3.1299129
141	0xc10d49e5	-8.830541
142	0x4040fa44	3.015275
143	0x4040cc84	3.0124826
144	0x3acd3232	0.0015655218
145	0xbb7bd992	-0.0038429243
146	0x3967959b	0.00022085609
147	0xbb550dc5	-0.0032509428
148	0x3aab8fea	0.0013089154
149	0xbb47871e	-0.0030445526
150	0x3bd20bcb	0.0064100972
151	0xbb7ffb8f	-0.0039059853
152	0xba6432e2	-0.0008705092
153	0x3b86159c	0.0040919315
154	0x3c28581c	0.010274913
155	0x3c020918	0.007936738
156	0x3f01b8e1	0.5067273
157	0x3f42b37e	0.76055133
158	0xbfcacf9e	-1.584461
159	0xbf27e840	-0.6558876
160	0xbec8ba0b	-0.3920444
161	0x3ee33096	0.44373006
162	0xbad96aff	-0.0016587673
163	0xbc9f6d4c	-0.019461296
164	0x3ae964e0	0.0017806552
165	0x3c05abdc	0.00815865
166	0x3c88bd93	0.016691959
167	0xbbe55f5a	-0.006999892
168	0x3c42f613	0.011899489
169	0x3ccc46b7	0.024936063
170	0xbcfc3cf5	-0.030790785
171	0xbb9925b0	-0.004673682
172	0x39c0b5b1	0.00036756464
173	0xbc17386a	-0.009229759
174	0xbe9953d2	-0.29946762
175	0xbed7434a	-0.42043525
176	0x3eb6ee40	0.35728645
177	0x3fd690db	1.6762956
178	0xc0502c29	-3.2526953
179	0xc0d38434	-6.609888
180	0x3a8df383	0.0010830018
181	0x3ae3702f	0.0017352159
182	0x3c05411a	0.008133197
183	0x3c9c8182	0.019104723
184	0x3b93a79a	0.0045060636
185	0x3abd7d3c	0.0014456878
186	0xbbda0fa1	-0.006654695
187	0xbad80f60	-0.0016484074
188	0xbb91427b	-0.004432974
189	0xbc3c800b	-0.011505137
190	0x3baf0781	0.0053414707
191	0xbb98384d	-0.0046453835
192	0xbf2af1d2	-0.6677524
193	0xbe18b129	-0.14911331
194	0x3fbc7178	1.4722128
195	0xbe918917	-0.28424904
196	0x3e937277	0.28798267
197	0xbfefe97e	-1.8743131
198	0xbaed4a36	-0.0018103782
199	0xbb2b57d0	-0.002614487
200	0x3ce18d13	0.02753309
201	0x3c14338f	0.009045496
202	0x3ad87fa5	0.0016517533
203	0x3c58a84e	0.013223721
204	0xbba31877	-0.0049772817
205	0x3c6b8ecd	0.014377308
206	0xbc896638	-0.016772375
207	0x3aff0940	0.0019457713
208	0x3b7c5bb1	0.00385068
209	0xbc720412	-0.014771478
210	0xbf2bf294	-0.6716702
211	0x3eae5ea6	0.34056586
212	0x3f95c328	1.1700182
213	0x3f3532ac	0.70780444
214	0xc00dc659	-2.2152312
215	0xbfb3dc3d	-1.4051586
216	0x3c22612f	0.009910866
217	0x3ae10457	0.0017167431
218	0xbc254fa3	-0.010089788
219	0xbb1ab309	-0.0023605248
220	0x3bb04977	0.0053798514
221	0xbbbb3209	-0.0057127518
222	0x3ba7b598	0.005118083
223	0xbc02fbc5	-0.007994597
224	0x3c33110b	0.010929356
225	0xbb928258	-0.0044711046
226	0x3b0b63c5	0.0021269184
227	0xbb9caeb4	-0.0047815684
228	0x3eafaac9	0.34309986
229	0x3f116406	0.5679325
230	0xbf690ce9	-0.91035324
231	0x3e100040	0.14062595
232	0xbe26bb4e	-0.16282389
233	0x3ed966e3	0.4246131
234	0x3a7a9078	0.00095582707
235	0xbbf20917	-0.0073863375
236	0xbb62e900	-0.0034623742
237	0x3a75c789	0.00093757414
238	0xbb9d1833	-0.0047941445
239	0x3ca2f3ce	0.019891646
240	0xbbe9528a	-0.007120435
241	0xbb5706e3	-0.0032810501
242	0xbc087cda	-0.008330548
243	0x3c3837e3	0.011243793
244	0x3c7d527f	0.015461563
245	0xbb5f7dca	-0.0034102076
246	0x3f901e97	1.1259335
247	0xbfae6adb	-1.362636
248	0x3eacb687	0.33733007
249	0x3fa3e06e	1.2802866
250	0x3eded05d	0.43518344
251	0xbf0bc43c	-0.54596305
252	0xbc75ddf6	-0.015006533
253	0x3cb2a4b5	0.021807054
254	0xbc61e71b	-0.01378801
255	0xbc5ea929	-0.013590136

decoder.MLP.L0.bias f4 [16]
0	0xbe061034	-0.13092119
1	0xc0566fe0	-3.3505783
2	0x3f64e604	0.89413476
3	0x403fb43a	2.9953752
4	0xbeeb844a	-0.45999366
5	0x401e8548	2.4768848
6	0x3faf98cd	1.3718506
7	0x3fe05066	1.7524536
8	0xbe4d1559	-0.20027675
9	0x4010e081	2.2637026
10	0x3fce248e	1.6104906
11	0xbe6b13f0	-0.22956824
12	0xc005078e	-2.078586
13	0x4012c890	2.2934914
14	0x40200e63	2.500878
15	0xbf23ce8a	-0.6398703

decoder.MLP.L1.weight f4 [64, 16]
0	0x3cc00df4	0.023444153
1	0x3d841586	0.06449418
2	0xbe758486	-0.23976335
3	0xc0c68040	-6.2031555
4	0xbec934d0	-0.39298105
5	0x3fd934c5	1.6969229
6	0x3f1acacf	0.6046571
7	0xbdc8dd63	-0.09807851
8	0xbf16941c	-0.58819747
9	0x3ff449b6	1.9084995
10	0xbe93c1cb	-0.2885879
11	0xbca4fc39	-0.0201398
12	0x3e06b19b	0.13153689
13	0xbe9ca842	-0.3059712
14	0xc0544d91	-3.3172343
15	0x3f2d0582	0.6758653
16	0x3e51a33f	0.2047243
17	0xbe07ab0e	-0.13248846
18	0x3eac4393	0.33645305
19	0xbd9d435e	-0.07678865
20	0x3eb86ec6	0.36022013
21	0xbe9c0e74	-0.30479777
22	0xbe6a5546	-0.22884092
23	0xbf492ea6	-0.78586805
24	0xbe88902c	-0.26672494
25	0x3ea1cdb8	0.31602263
26	0xbeba406f	-0.36377284
27	0xbe87004d	-0.26367417
28	0xbdb0600d	-0.0861207
29	0xbe77a919	-0.241856
30	0x3fc31897	1.5241879
31	0xbf720bcf	-0.9454927
32	0xbea85152	-0.32874542
33	0xbe41547e	-0.18879887
34	0xbf410446	-0.75397146
35	0xbf4fb859	-0.8114067
36	0xbd01bd16	-0.031674467
37	0x3f0b39d8	0.5438514
38	0xbda90aa7	-0.08253985
39	0x3d543eef	0.05181783
40	0x3e2fe323	0.1717649
41	0x3e46a092	0.1939719
42	0xbe2c6a3f	-0.16837405
43	0xbf03f053	-0.5153858
44	0xbe1397a1	-0.1441331
45	0xbf08b303	-0.5339815
46	0x3f0a5edb	0.5405099
47	0x3f0a7b87	0.5409474
48	0xbf1e6d7d	-0.61885816
49	0xbebc7492	-0.36807686
50	0x3f85c05d	1.044933
51	0x3ebf78e9	0.37396935
52	0xbcd2bd3e	-0.025725003
53	0xbe5ded92	-0.21672657
54	0xbdf77e94	-0.1208469
55	0x3d870235	0.06592218
56	0xbebdc9cb	-0.37068018
57	0x3d7b85e2	0.061406977
58	0xbe09a189	-0.13440527
59	0xbda7dea1	-0.0819676
60	0xbe984fa3	-0.29748258
61	0x3f321372	0.6956092
62	0xbd0eccb2	-0.03486318
63	0x3eaf7cec	0.34274995
64	0x3c22c213	0.009933966
65	0xbfac1814	-1.3444848
66	0x3fdd438f	1.7286242
67	0xbe12fded	-0.14354677
68	0x3e2738a2	0.16330197
69	0xbe414e9c	-0.18877643
70	0xbdf3acc0	-0.11898184
71	0xbd020fcd	-0.03175335
72	0xbea93146	-0.33045405
73	0x3d9cd577	0.07657903
74	0x3efb93f9	0.49136332
75	0x3f061185	0.5237048
76	0x3dee0180	0.1162138
77	0xc0512914	-3.2681322
78	0xbc41f661	-0.011838526
79	0xbdebb153	-0.11508431
80	0xbdd2045e	-0.10254739
81	0x3e886870	0.2664218
82	0xbfc58dc9	-1.5433894
83	0x3e9d6a1b	0.30745015
84	0xbe891c3c	-0.26779354
85	0x3ea4e29b	0.32204136
86	0xbe073fef	-0.13207982
87	0xbe8fe8af	-0.2810721
88	0xbef8a0e6	-0.48560256
89	0x3e1d66c4	0.15371233
90	0xbf52ff26	-0.82420576
91	0x3f3106da	0.6915108
92	0x3d4da397	0.05020484
93	0xbf873f3b	-1.0566171
94	0xbe1abd64	-0.1511131
95	0xc0407a0b	-3.007449
96	0x3e89f0c5	0.26941505
97	0xbf95459b	-1.1661867
98	0xbe60ee79	-0.2196597
99	0x3efe42eb	0.4966043
100	0xbd86ca5e	-0.06581567
101	0x3cf42174	0.029801108
102	0x3e57a6d4	0.21059734
103	0xbe1f5ade	-0.15562007
104	0xbda83c6a	-0.08214648
105	0x3e031553	0.12801103
106	0xbf6217b2	-0.88317406
107	0x3fa85b6f	1.3152903
108	0xbef4fca7	-0.47849008
109	0x3f161cb7	0.58637565
110	0xbeb0cffd	-0.34533682
111	0x3e92b18b	0.2865108
112	0xbe5c736d	-0.21528406
113	0xbe8cac5e	-0.27475256
114	0xbe896969	-0.26838234
115	0x3f20760b	0.6268012
116	0x3db91661	0.090374716
117	0xbdf9f610	-0.12205136
118	0xbe09c86b	-0.1345536
119	0xbcef59f3	-0.029217696
120	0xbe52eb4c	-0.20597571
121	0xbcb23a25	-0.021756241
122	0xbea5cb99	-0.32381895
123	0xbcb7f1d4	-0.02245418
124	0xbe4e69a8	-0.20157492
125	0xbeaaf126	-0.33387107
126	0xbfcb6a55	-1.5891825
127	0xbe407c31	-0.18797375
128	0xbe82a0d0	-0.25513315
129	0x3bca2bde	0.00616978
130	0xbe838a8e	-0.25691646
131	0xbe7f8dde	-0.24956462
132	0xbe170077	-0.14746271
133	0xbe58244c	-0.21107596
134	0xbdf18b00	-0.1179409
135	0xbe2129f6	-0.15738663
136	0xbe03563e	-0.12825868
137	0x3e7362ac	0.23768109
138	0xbe06c40e	-0.13160726
139	0x3dfc44c3	0.12317803
140	0xbda17874	-0.07884303
141	0xbd03ae10	-0.03214842
142	0xbd95e78c	-0.07319555
143	0xbe36feea	-0.1787068
144	0xc010b746	-2.2611861
145	0x3dcf674f	0.101271264
146	0x3cb4a93c	0.022053353
147	0xc01cc65f	-2.4496076
148	0xbcf4614c	-0.029831551
149	0x3eae2e9d	0.34019938
150	0xbd5adc06	-0.053432487
151	0xbf9e5990	-1.2371082
152	0xbe21030a	-0.15723816
153	0x3f86229f	1.0479316
154	0xbe1a518a	-0.15070167
155	0xbe931eb2	-0.28734356
156	0xbe8b95cc	-0.27262723
157	0x3ed4022c	0.41407907
158	0x3efbbffd	0.49169913
159	0xbe16ad78	-0.1471461
160	0xbefd4b81	-0.49471667
161	0xbf243d12	-0.64155686
162	0x3fa16115	1.2607752
163	0xbff20f3e	-1.8910902
164	0x3e4b89c1	0.19876768
165	0xbe21a9f3	-0.15787487
166	0x3e292979	0.16519727
167	0x3e11607a	0.14196959
168	0x3e647998	0.2231201
169	0x3cf92bb7	0.030416353
170	0xbf1cb1c6	-0.6120876
171	0xbfd30048	-1.6484461
172	0xbe558729	-0.20852341
173	0x3f6f1a1a	0.933992
174	0xbf17ed6f	-0.5934667
175	0xbcc5eaf2	-0.024159882
176	0xbf6c92db	-0.92411584
177	0xbf81d395	-1.0142695
178	0x3eddbc35	0.43307653
179	0xc0ea415d	-7.320479
180	0x3e3a15fb	0.18172447
181	0x3f5c7f6c	0.8613193
182	0xbe1388f1	-0.14407708
183	0x3f204043	0.62598056
184	0x3e8e2221	0.27760413
185	0xbfe7d9e6	-1.8113372
186	0xbe50d8c8	-0.20395195
187	0x3ea447e2	0.32086092
188	0xbf304745	-0.6885875
189	0xbfa4c64f	-1.2873019
190	0x3ec2f36b	0.38076338
191	0xc042b66d	-3.0423844
192	0xbf9787b7	-1.1838292
193	0xbd803b38	-0.06261295
194	0x3edde6cd	0.4334015
195	0x3fbf196b	1.4929632
196	0x3eaf93d9	0.34292486
197	0xbe9c5eff	-0.30541226
198	0xbf132be6	-0.5748886
199	0x3f91212b	1.1338247
200	0x3f1b8bfd	0.6076048
201	0x3f28ebfe	0.65985096
202	0x3d9e007e	0.077149376
203	0xbf1d2f0d	-0.6139992
204	0xbefdd77e	-0.4957847
205	0x3ebea837	0.37237713
206	0xc013f878	-2.3120403
207	0x3f20f116	0.6286787
208	0x3e6b992e	0.23007652
209	0xbd731640	-0.05934739
210	0xbe2cc876	-0.16873345
211	0x3f4f72b3	0.8103439
212	0xbddffbb7	-0.10936683
213	0xbe898237	-0.2685716
214	0xbdcdbd1b	-0.10045835
215	0xbecb0d5b	-0.39658627
216	0xbdb304de	-0.08741163
217	0xbe3b83d4	-0.18312007
218	0xbdc8577e	-0.09782313
219	0xbc8ff7b6	-0.017574172
220	0xbe7f2f47	-0.24920379
221	0xbeafa669	-0.34306648
222	0x3ed0d575	0.40787855
223	0x3c820504	0.015871532
224	0xbf0e4ea8	-0.5558877
225	0xbf20539f	-0.62627596
226	0xbf48feb7	-0.78513664
227	0xbe90c051	-0.28271726
228	0x3d10683d	0.03525566
229	0x3f1a615c	0.6030481
230	0xbf2752f8	-0.65360975
231	0xbf820639	-1.0158149
232	0xbfb630ca	-1.4233639
233	0xbf7dcaca	-0.99137557
234	0xbe5c0b15	-0.21488602
235	0xbfc9bcb7	-1.5760716
236	0xbfc8c771	-1.5685865
237	0x3e09e1a5	0.13464983
238	0xbe20afb6	-0.15692028
239	0x3f70564e	0.9388169
240	0x3ea836bb	0.32854256
241	0x3e011d67	0.12608872
242	0x3f2947b5	0.6612504
243	0x3f3e8a8a	0.74430144
244	0xbcf7bc35	-0.030241111
245	0x3fcdb17d	1.606979
246	0xbf2ba90a	-0.6705481
247	0xbbdc20da	-0.0067177834
248	0xbc8a150c	-0.016855739
249	0x3f8dee8b	1.1088423
250	0x3ef66e91	0.4813123
251	0x3dd915b2	0.10599841
252	0x3ef9e0f6	0.48804444
253	0xbf2c0dd9	-0.6720863
254	0x3f118554	0.5684407
255	0x3e56ca7b	0.20975678

decoder.MLP.L1.bias f4 [64]
0	0x3f88f430	1.069952
1	0x3fd9db47	1.7020043
2	0x3f9c2c73	1.2201065
3	0x402bd529	2.6848853
4	0xc0008250	-2.0079536
5	0xbf597850	-0.8494921
6	0x3fbd16c2	1.477257
7	0x3eda7d8a	0.42673904
8	0xbe7fd4a5	-0.24983461
9	0x3fb1a91b	1.3879732
10	0x3eb05385	0.3443872
11	0x3fe99110	1.8247395
12	0xbf8ce09c	-1.1006045
13	0x3fe2d45c	1.7721057
14	0x3fe5fe15	1.7968165
15	0xc0410da8	-3.0164585
16	0x40179442	2.368424
17	0x4014e453	2.3264358
18	0x3f0185c9	0.50594765
19	0xc048e43a	-3.1389298
20	0xbf83bf26	-1.0292709
21	0x40164fe6	2.3486266
22	0x3fc60656	1.5470684
23	0x3fb8b545	1.4430319
24	0x3f4ffe23	0.81247157
25	0x3efeaf22	0.4974299
26	0x3f36fbcf	0.7147798
27	0x3f2bac7a	0.67060053
28	0x3ef84d6d	0.4849657
29	0xbf4233a8	-0.7586007
30	0xbe828d6a	-0.25498515
31	0xbfcb1346	-1.5865257
32	0xc03e26c7	-2.9711168
33	0xbe661bd7	-0.22471558
34	0xbf9b5f75	-1.2138506
35	0x3f733d33	0.9501526
36	0x3f9bf383	1.2183689
37	0xbf0e045f	-0.5547542
38	0x400d6294	2.2091417
39	0x3f929658	1.1452131
40	0x3f87bf24	1.0605206
41	0x40251dae	2.5799365
42	0x3f46ccf2	0.7765647
43	0xbe7416da	-0.23836842
44	0x401b3230	2.4249382
45	0x40022e53	2.0340774
46	0x3f113f9f	0.56737703
47	0x3fac8778	1.3478842
48	0x3fed91b9	1.8560096
49	0x3ffee123	1.9912456
50	0x3fefddc3	1.8739551
51	0x3fa14dd9	1.2601882
52	0xbe81e4f0	-0.25369978
53	0x3f3da2bb	0.7407643
54	0xbe529cef	-0.20567678
55	0x403cc5c9	2.9495718
56	0xc01349c0	-2.3013763
57	0xbcbc1b38	-0.022962198
58	0x400821a3	2.127053
59	0x3d7d3c28	0.061824948
60	0x3eb96490	0.36209536
61	0x401ffdea	2.4998727
62	0x3fbb3a59	1.4627181
63	0xc00ce441	-2.2014315

decoder.MLP.L2.weight f4 [6, 64]
0	0xbaab6cbd	-0.0013078671
1	0x3b874c2d	0.004128954
2	0x3c7196cd	0.014745426
3	0xbb72bbf1	-0.0037038291
4	0x3b134fcd	0.0022477985
5	0x3b4d3894	0.003131424
6	0x3b26ca6c	0.0025450243
7	0x3d81c186	0.0633574
8	0x3d753b0e	0.059870772
9	0xbbcd96f7	-0.0062741
10	0x3bb3d3bc	0.005487887
11	0x3c1da985	0.009622936
12	0xbb0f6b8e	-0.0021884176
13	0xbad658ee	-0.0016353407
14	0xbc444b1b	-0.011980797
15	0x3be03c6d	0.006843141
16	0x39d0210b	0.0003969747
17	0xba039286	-0.0005019087
18	0x3bbbf1b0	0.0057355985
19	0xbb88abe7	-0.004170883
20	0x3b1dabae	0.0024058628
21	0xbc29b456	-0.010357937
22	0xbb4e4b74	-0.003147808
23	0xbbd5d245	-0.00652531
24	0xbc0a13e8	-0.008427598
25	0x3bbe382c	0.005805036
26	0xbae5e6b7	-0.0017540072
27	0xb9f267bc	-0.00046235125
28	0xbb5f3682	-0.0034059589
29	0x3bb8aea5	0.0056360536
30	0xbd6debf0	-0.058086336
31	0xbab2c281	-0.0013638289
32	0x3b7071f6	0.003668902
33	0xbc6e3345	-0.014538591
34	0x3b70d59c	0.0036748415
35	0x3b11b5ba	0.0022233562
36	0xbc061888	-0.00818456
37	0xbc07708f	-0.008266582
38	0x3c18c94e	0.0093253385
39	0x3bb7057b	0.00558537
40	0x3bdbdffe	0.0067100516
41	0x3ba40efb	0.0050066686
42	0xbc89a4b0	-0.016802162
43	0x3d33fb2c	0.043940708
44	0xbad2d90e	-0.0016086416
45	0x3a76a0f1	0.00094081374
46	0xbc8924c8	-0.016741171
47	0xbc4e4fb0	-0.012592241
48	0x3b8656e0	0.004099712
49	0x3b9cf2a8	0.004789669
50	0x3bb94120	0.0056535155
51	0x3c10275f	0.008798449
52	0x3d18a6e8	0.03726855
53	0x3b311bc2	0.0027024602
54	0xbce15362	-0.02750558
55	0xbac5b642	-0.0015084224
56	0x3b9dd6ae	0.0048168516
57	0x3c13f00d	0.009029401
58	0x3c470f66	0.012149667
59	0x3c818d8c	0.015814565
60	0xba074436	-0.00051600055
61	0xbbe18774	-0.0068826023
62	0xbcba9c99	-0.02277975
63	0xbaba5a35	-0.0014217558
64	0xbb229628	-0.0024808738
65	0xbc253415	-0.010083218
66	0x3ad34e35	0.001612133
67	0xb9e4915c	-0.0004359585
68	0xbc5c4876	-0.01344501
69	0xba10de54	-0.00055262935
70	0xbc33ca76	-0.010973563
71	0xbd500871	-0.0507893
72	0xbb6fac82	-0.0036571329
73	0x3b617ef6	0.003440795
74	0x3c0b698e	0.008509053
75	0xbc29156b	-0.010320048
76	0xbc877c5c	-0.016538791
77	0x3d1fb3fb	0.038990002
78	0x3d0456c8	0.032309324
79	0xbc67a27f	-0.014137863
80	0xbaaed97a	-0.001333996
81	0xbb840174	-0.0040284935
82	0xbc367d2d	-0.011138243
83	0x3a361135	0.0006945313
84	0xb98825dd	-0.00025968152
85	0xbb451ddd	-0.0030077614
86	0x3a9656de	0.001146998
87	0xbad2f924	-0.0016095978
88	0x3c34a698	0.011026047
89	0xbc43d688	-0.011953004
90	0xbbc90d8f	-0.0061356495
91	0x3c53b84b	0.012922357
92	0x3bc8397a	0.0061103674
93	0x398aedd2	0.000264986
94	0xbbad8b78	-0.005296167
95	0x3ba557b0	0.0050458536
96	0x3a732a50	0.00092760194
97	0x3b3325ec	0.0027335836
98	0x379712f1	1.8009423e-05
99	0xbc25bd16	-0.010115882
100	0x3c1d4326	0.009598529
101	0xbb506d5e	-0.003180347
102	0x3c18be83	0.009322765
103	0xbb120351	-0.0022279809
104	0xbc556968	-0.013025619
105	0x3885cd2a	6.380149e-05
106	0x3d4e7c4b	0.050411504
107	0xbd360634	-0.04443951
108	0xbb2100b1	-0.0024567063
109	0xbae75cb6	-0.0017651531
110	0x3c8ed8b1	0.01743731
111	0x3c8555a1	0.016276183
112	0x3b8b6019	0.004253399
113	0x3aa166b4	0.0012313933
114	0xbbb40033	-0.005493188
115	0xbc08628d	-0.008324278
116	0xbbb5d512	-0.0055490816
117	0x3ad7c139	0.0016460783
118	0x3ddf4751	0.109022744
119	0x3c7e6fb2	0.01552956
120	0xb9f17434	-0.0004605368
121	0xbb5555a4	-0.0032552266
122	0xbac6aa4c	-0.0015156954
123	0x3cb6bf09	0.02230789
124	0x3c1b0e35	0.009463836
125	0xbc0fba23	-0.008772406
126	0xbacca471	-0.0015612972
127	0x3a9388e0	0.0011256002
128	0x3c028dfa	0.00796842
129	0xbe3b92fe	-0.18317792
130	0xbe517eca	-0.20458522
131	0x3e6e0e93	0.23247747
132	0x3da4390c	0.08018693
133	0xbdcd3b1b	-0.10021039
134	0x3e0dfb78	0.13865459
135	0xbc9ca291	-0.019120486
136	0xbd2bc57b	-0.04193638
137	0x3e86a541	0.26297954
138	0xbd990e0e	-0.07473384
139	0xbeb6ae7b	-0.35679993
140	0xbe78d2df	-0.24299191
141	0x3da71b1b	0.08159467
142	0xbecde2b3	-0.4021202
143	0xbe66ed20	-0.22551394
144	0xbe6aa439	-0.22914208
145	0x3e7eb0c6	0.24872121
146	0xbec0290a	-0.3753131
147	0xbdaf35bb	-0.0855517
148	0xbe86b767	-0.263118
149	0x3ed19588	0.40934396
150	0xbe8ddd78	-0.2770803
151	0x3eda3ea5	0.4262592
152	0x3d6bc3bb	0.05755971
153	0xbdf1185c	-0.11772224
154	0xbe24ace5	-0.16081579
155	0xbdd87dbf	-0.10570859
156	0x3eb6158c	0.35563314
157	0xbe111208	-0.14167035
158	0x3b655d2f	0.0034998169
159	0xbdd0fdbc	-0.10204646
160	0xbdd111fe	-0.1020851
161	0x3ee31f3e	0.44359773
162	0xbdff9539	-0.12479634
163	0xbe8042f5	-0.25051084
164	0xbddd9788	-0.10819918
165	0x3e89b0ef	0.26892802
166	0x3eb52b91	0.353848
167	0x3d835c03	0.06414034
168	0xbdf44048	-0.11926323
169	0x3e34a8d4	0.17642528
170	0xbde80738	-0.11329502
171	0x3dc34a4a	0.09535654
172	0x3df78889	0.12086589
173	0x3ddb8ac3	0.10719826
174	0x3e30dafe	0.17271039
175	0x3dc3389d	0.095322825
176	0x3c69c27f	0.014267563
177	0x3eb24c22	0.3482371
178	0x3e69dcc2	0.22838119
179	0xbc8a07f8	-0.016849503
180	0x3cf756e8	0.030192807
181	0xbd4f1df3	-0.05056567
182	0x3dba2963	0.09089925
183	0x3f163ec0	0.586895
184	0xbe88733f	-0.26650426
185	0x3bde3fc5	0.0067825043
186	0xbe9accf8	-0.30234504
187	0x3d818267	0.063237004
188	0xbe173ef0	-0.14770103
189	0x3e03161d	0.12801404
190	0xbe1ca61e	-0.15297744
191	0xbe1be768	-0.15224993
192	0x3e0d4602	0.13796237
193	0x3dc4ccf5	0.09609405
194	0xbbced8eb	-0.0063124797
195	0x3e98b3e7	0.29824755
196	0x3df0e962	0.11763264
197	0xbe1327c4	-0.14370638
198	0x3eca5343	0.3951665
199	0xbca88353	-0.020570433
200	0x3aa7528d	0.0012765691
201	0xbe1d7f3c	-0.15380567
202	0xbe38f78f	-0.18063186
203	0xbe237a05	-0.15964516
204	0x3dea7610	0.114483
205	0xbdf96c2d	-0.12178836
206	0xbf6a4cf8	-0.91523695
207	0xbe16b2d4	-0.14716655
208	0x3e8a0264	0.2695495
209	0x3e81d7b3	0.25359878
210	0xbe1c9b6d	-0.15293665
211	0xbe1d1a2a	-0.15342012
212	0xbe94a756	-0.29033917
213	0x3efa881c	0.48931968
214	0xbef1ea1a	-0.47248918
215	0x3f2efbab	0.68352765
216	0xbe46aada	-0.19401112
217	0xbb9dc2ad	-0.004814467
218	0xbde512c4	-0.1118522
219	0xbe97ab0f	-0.29622695
220	0x3d1cb357	0.03825697
221	0xbe59bebd	-0.21264167
222	0xbce0b6df	-0.02743095
223	0xbe600852	-0.21878174
224	0xbdf2da0c	-0.118579954
225	0x3eaa795a	0.3329571
226	0xbe23245f	-0.15931843
227	0x3ebe8bc9	0.37216023
228	0xbe2ded14	-0.1698497
229	0x3ea11da6	0.31467932
230	0x3f1030b1	0.563243
231	0x3dbf7fac	0.09350523
232	0x3df92846	0.12165885
233	0x3e2435ae	0.16036102
234	0x3e366a51	0.17813994
235	0xbdb02312	-0.08600439
236	0x3e24f924	0.16110665
237	0x3e320208	0.17383587
238	0xbcc6fb48	-0.024289742
239	0x3d235102	0.039872177
240	0xbdd0855a	-0.10181685
241	0x3e96849d	0.2939805
242	0x3e219b8a	0.1578199
243	0x3e354fb2	0.17706183
244	0xbccdb520	-0.025110781
245	0xbd436326	-0.047701977
246	0xbd96bf90	-0.073607564
247	0x3f2198d0	0.631238
248	0xbeabe913	-0.3357626
249	0x3d989b08	0.07451445
250	0xbe99449a	-0.2993515
251	0xbd2cd06a	-0.042190947
252	0xbebfa7a3	-0.37432584
253	0x3e8a769c	0.27043617
254	0xbc133314	-0.008984346
255	0xbe53576f	-0.20638822

decoder.MLP.L2.bias f4 [6]
0	0x3d7744e7	0.060368445
1	0xbde06c1b	-0.109581195
2	0x401b04b6	2.4221625
3	0x40491e1d	3.142463
4	0x405809e1	3.375603
5	0x3fba4292	1.4551566
