model/CVAE_8000_0.005_32_[12, 256, 128, 80]_12_[80, 128, 256, 6].pth (torch, 387778 bytes, 18 tensors)

encoder.MLP.L0.weight f4 [256, 12]
-0.04833101 0.20017838 -0.2833792 -0.25832185 -0.15707305 0.03142583 -0.05175136 0.18325365
-0.07099236 0.031080438 -0.13255037 -0.10197514 -0.32022452 -0.14953817 -0.16339295 -0.03271396
0.07069702 0.12957504 -0.23974577 -0.17217922 0.05767749 0.19192816 -0.10779692 0.16733012
-0.04652962 0.03054589 0.26138848 -0.26779535 -0.18173194 -0.07308251 -0.11252555 0.24941552
-0.18711334 -0.13288665 -0.20168012 -0.27036187 -0.19193046 0.23914786 0.16735622 0.14747265
0.01867028 -0.16420843 0.053310636 -0.255512 -0.15093358 -0.07909364 0.28855893 0.13733834
-0.2809386 0.032755025 0.14114614 0.17943904 0.0014429713 -0.10029004 0.12736312 -0.19653668
0.1467479 -0.10412969 -0.0070510446 -0.21018629 0.13615982 0.17033282 -0.22023077 0.07984233
0.15484793 -0.026347095 -0.0285133 0.018682906 0.12421257 0.22413564 -0.27565104 -0.14625676
0.004041595 0.21866353 0.2738929 0.22104579 0.016996315 -0.323444 -0.008097023 -0.19598043
-0.19319053 0.34814742 0.37480718 -0.37851694 0.06482729 -0.0019021342 -0.09826906 -0.16853568
0.07894716 -0.1826343 0.098780364 0.124006934 0.1743297 0.07449392 -0.32190293 -0.2130947
0.1025485 0.099638 -0.24814789 -0.19537216 0.24219917 0.16811386 -0.14930977 -0.09552538
-0.29349342 -0.02211439 -0.19321716 -0.24637616 -0.015905887 0.043343157 -0.11822121 0.17129335
-0.1756701 0.26193517 0.19782904 -0.24343482 -0.07184671 0.01302579 0.042118013 0.068466306
0.11328429 0.017291695 -0.1408529 0.1365979 -0.2769113 -0.17109968 -0.072264 -0.1406175
-0.100988194 -0.23660439 -0.06140557 0.061706156 -0.23523116 0.035738084 0.15313342 -0.08840159
-0.050197337 -0.0838613 0.012717331 0.14218476 0.23412092 0.14423588 0.23524612 -0.058306035
-0.2593231 -0.1368543 0.19656041 -0.0018713176 -0.14348492 -0.22121516 -0.27015722 -0.24364418
-0.05855392 0.15831119 0.15606964 -0.27840748 0.18007037 -0.22589102 -0.061028898 -0.11704987
-0.055603236 -0.05667925 -0.25904262 -0.24925305 -0.045171738 0.003733188 -0.13113786 0.1087437
-0.31624642 0.04470081 0.20556484 -0.19404356 0.18433294 0.031235885 -0.27686346 0.17823853
-0.027925894 -0.12444791 0.23617741 -0.23397067 -0.011777019 0.0013209411 0.1525781 0.013374295
0.07188926 0.0398125 -0.10280107 -0.090136245 -0.26497152 0.12983802 0.2031336 0.17133893
-0.20362517 0.0128748715 -0.20349695 -0.1589111 -0.1682126 0.09865329 -0.17202532 -0.006298095
0.012144029 0.18608665 -0.21821532 -0.198179 -0.22792996 0.21710996 -0.089633115 0.21962507
0.07561252 -0.007510145 -0.021692237 -0.06612788 0.042865798 -0.05943711 0.005938983 0.004820774
-0.22580317 -0.15130371 0.2331031 -0.23427334 -0.020728648 0.2855686 0.104280144 0.008173257
-0.25016874 0.14300328 -0.20561774 -0.081944555 -0.16769856 -0.101004295 0.030620541 0.21890381
0.011600777 0.21812743 0.16566719 -0.17758416 0.18742768 -0.14122674 -0.03246859 0.033042006
0.26882088 0.13111286 0.0065912735 0.14805067 0.2996299 -0.104246974 0.26073843 -0.2337606
-0.12011783 -0.19038671 -0.31775346 0.031415712 0.23871088 -0.08438538 -0.17138472 -0.10676327
00000000: bdf6 45bd 90fb 4c3e 1417 91be c342 84be
00000010: c2d7 20be 5fb8 003d 3cf9 53bd d8a6 3b3e
00000020: 7164 91bd 679c fe3c 49bb 07be 58d8 d0bd
00000030: 78f4 a3be 8920 19be 7b50 27be 13ff 05bd
00000040: 99c9 903d 52af 043e ea7f 75be c04f 30be
00000050: 3b3f 6c3d d188 443e a2c4 dcbd 9658 2b3e
00000060: d895 3ebd 603b fa3c b6d4 853e 791c 89be
00000070: f017 3abe 48ac 95bd cc73 e6bd c866 7f3e
00000080: a49a 3fbe 7013 08be 3c85 4ebe df6c 8abe
00000090: 6b89 44be 2de3 743e 6e5f 2b3e 1203 173e
000000a0: 6af2 983c 4126 28be 415c 5a3d 78d2 82be
000000b0: 558e 1abe d9fb a1bd ffbd 933e 6ca2 0c3e
000000c0: 2fd7 8fbe 222a 063d 9d88 103e debe 373e
000000d0: 1522 bd3a dd64 cdbd 7a6b 023e e940 49be
000000e0: 1545 163e f241 d5bd 730c e7bb 133b 57be
000000f0: 7b6d 0b3e ba6b 2e3e 2d84 61be 6084 a33d
00000100: 7590 1e3e ddd5 d7bc b994 e9bc e50c 993c
00000110: 2963 fe3d d083 653e 2222 8dbe 55c4 15be
00000120: 5b6f 843b 55e9 5f3e b13b 8c3e d459 623e
00000130: db3b 8b3c 749a a5be 60a9 04bc 18af 48be
00000140: bdd3 45be 6140 b23e bae6 bf3e f9cc c1be
00000150: 2cc4 843d 0851 f9ba 4a41 c9bd 9e94 2cbe
00000160: 0caf a13d 7c04 3bbe 5c4d ca3d 59f7 fd3d
00000170: 7c83 323e 4590 983d 76d0 a4be 7f35 5abe
00000180: f304 d23d 020f cc3d 7b1a 7ebe a40f 48be
00000190: 0f03 783e 0a26 2c3e a9e4 18be cfa2 c3bd
000001a0: c544 96be 3d29 b5bc b8da 45be 084a 7cbe
000001b0: 104d 82bc 9888 313d f61d f2bd 8667 2f3e
000001c0: dde2 33be 5e1c 863e b293 4a3e fa46 79be
000001d0: 5e24 93bd 206a 553c f083 2c3d 1038 8c3d
000001e0: 9801 e83d 50a7 8d3c be3b 10be 52e0 0b3e
000001f0: 51c7 8dbe c134 2fbe 26ff 93bd 09fe 0fbe
00000200: e6d2 cebd 6c48 72be 6884 7bbd 98bf 7c3d
00000210: 70e0 70be 1962 123d 02cf 1c3e e50b b5bd
00000220: b99b 4dbd 79bf abbd 5a5c 503c e298 113e
00000230: 65bd 6f3e 92b2 133e 5ce4 703e 4fd2 6ebd
00000240: ffc5 84be 8923 0cbe 2247 493e 0047 f5ba
00000250: b6ed 12be 3a86 62be 0c52 8abe dc7d 79be
00000260: 3cd6 6fbd 541c 223e b8d0 1f3e 6d8b 8ebe
00000270: 5e64 383e fa4f 67be 70f9 79bd d8b7 efbd
00000280: 38c0 63bd 8028 68bd 3ca1 84be 313c 7fbe
00000290: 0006 39bd 80a8 743b 0149 06be 04b5 de3d
000002a0: 0deb a1be 3218 373d 977f 523e 5bb3 46be
000002b0: c6c1 3c3e 66e2 ff3c 0cc1 8dbe 2984 363e
000002c0: d8c4 e4bc 8cde febd 7ed8 713e 0296 6fbe
000002d0: 66f4 40bc 6e23 ad3a 6f3d 1c3e dc1f 5b3c
000002e0: ad3a 933d 6f12 233d 5e89 d2bd 5a99 b8bd
000002f0: 59aa 87be 42f4 043e 4102 503e 7973 2f3e
00000300: 1e83 50be 20f1 523c 8161 50be 97b9 22be
00000310: ec3f 2cbe bc0a ca3d 6827 30be 4060 cebb
00000320: c0f7 463c 808d 3e3e d673 5fbe 70ef 4abe
00000330: 7966 69be 1352 5e3e 9191 b7bd 65e5 603e
00000340: bdda 9a3d aa17 f6bb ebb3 b1bc 0e6e 87bd
00000350: 0c94 2f3d 5474 73bd cd9b c23b 95f7 9d3b
00000360: f238 67be 5cef 1abe 94b2 6e3e 5ae5 6fbe
00000370: 20cf a9bc 0c36 923e d490 d53d 20e9 053c
00000380: 1e16 80be 746f 123e 758d 52be 8cd2 a7bd
00000390: 2cb9 2bbe 57db cebd eed7 fa3c 5228 603e
000003a0: 2f11 3e3c cc5c 5f3e a9a4 293e 9fd8 35be
000003b0: 0bed 3f3e be9d 10be c9fd 04bd 0e57 073d
000003c0: e4a2 893e 7342 063e 9cfb d73b 989a 173e
000003d0: 1769 993e 707f d5bd 827f 853e f05e 6fbe
000003e0: 5600 f6bd bcf4 42be 95b0 a2be c3ad 003d
000003f0: a070 743e 3ed2 acbd 7a7f 2fbe b4a6 dabd

encoder.MLP.L0.bias f4 [256]
0.22353077 0.17548917 -0.25259373 -0.12970874 0.013201894 -0.15355588 -0.016506895 -0.1354701
0.03100921 0.1408563 0.090734005 0.15017693 -0.034737766 0.1567134 0.019668203 -0.15300395
-0.2038815 0.21989265 -0.08606896 0.17584303 0.35806584 -0.011624455 -0.21045516 0.047619957
-0.18662195 0.052436024 -0.1574724 0.14006779 -0.2909556 -0.113531545 -0.01308827 -0.015383364
0.21781258 -0.10559964 -0.2681696 0.1352532 0.080664486 0.13843195 -0.17085397 -0.24801831
-0.14821142 -0.020355416 0.05491092 -0.20677093 -0.086016014 -0.049892753 0.35613203 -0.091801964
0.20932502 -0.19018023 -0.14203286 -0.3116476 0.15367588 -0.17959376 0.061673272 -0.13268812
0.19926913 0.012428833 -0.27370286 0.05089207 -0.004896483 -0.3113044 0.040038157 0.2990432
0.059120074 -0.0015351772 -0.05984299 0.05900932 -0.20146906 0.27459148 0.20043671 0.088781886
-0.15858068 -0.29267886 -0.14493814 0.18804948 -0.30694458 -0.3470492 -0.06206148 0.06005837
-0.31726328 -0.3252447 0.0052741724 -0.09683147 0.14412062 0.046541292 -0.28059614 -0.2902125
0.23221183 -0.10109527 -0.18768065 0.049351826 -0.0567348 0.13805813 0.060435936 -0.12498872
-0.23137008 0.10312694 -0.17343912 -0.08103464 0.039470047 -0.13260667 0.107614234 -0.20305051
-0.026765678 -0.016050322 0.025167305 -0.3106317 -0.03126162 0.11574325 -0.18481475 0.13007662
-0.073192045 0.14643992 -0.05007277 -0.035600252 -0.16542865 -0.11970828 0.030976465 -0.27700877
0.2189911 0.18182124 0.09358569 0.1383484 -0.21461146 0.04593278 0.014686257 -0.21404546
-0.15355262 -0.21907559 -0.07137591 -0.3047949 -0.18811096 -0.027413368 -0.043914154 -0.3005456
0.13151655 0.10655325 0.20088378 0.20298547 -0.23174375 -0.15933456 -0.15009078 0.010137224
0.033690568 0.06422627 0.1432642 0.09191459 -0.27045035 0.13131371 0.1947312 -0.014041651
-0.2511543 -0.23116544 -0.023678385 0.039204273 0.2691751 0.12184303 0.018462896 -0.032316685
0.10156078 -0.14234284 0.034025203 -0.22752729 -0.018088242 0.08106877 0.09348526 -0.041445825
-0.0036552548 -0.191001 0.010810329 0.15667765 0.064112164 -0.32475382 -0.21001214 0.14628404
-0.04133378 0.113414295 0.14113897 -0.16452916 -0.21392809 -0.28328237 0.058669902 0.0972415
-0.11895713 -0.25834715 -0.19505028 -0.03620077 0.13496004 -0.15930067 -0.042793427 -0.24237894
0.16865224 0.07423917 -0.26161635 -0.1689188 -0.34722596 -0.0071749175 -0.22344767 -0.0009772182
-0.07883747 -0.25268942 -0.29232407 -0.28887177 -0.150922 -0.029622478 -0.21691588 -0.055724774
0.02297694 0.17360766 -0.13159831 0.27122003 -0.26820537 -0.24085173 0.103672564 -0.21151598
0.0738841 -0.15970874 0.14606917 0.25814384 -0.04910318 -0.0026837632 0.25278345 0.29250944
-0.29681715 -0.06666376 -0.26058054 0.22051507 -0.09963282 -0.036072727 -0.24487673 -0.16155604
-0.004787715 0.26757282 -0.14510338 -0.023523679 0.2847609 0.19244266 -0.09978756 0.27056408
0.08302745 0.18032824 0.008564889 -0.24465069 -0.12667352 0.072645746 0.03611203 -0.3516769
0.1495569 -0.28562474 0.1235832 0.23647168 0.0063070427 -0.054482043 0.1097995 -0.098303355
00000000: 40e5 643e 6fb3 333e f753 81be 5ed2 04be
00000010: c24c 583c c13d 1dbe 7839 87bc adb8 0abe
00000020: 0707 fe3c a23c 103e c0d2 b93d fbc7 193e
00000030: 3049 0ebd 7a79 203e 361f a13c 11ad 1cbe
00000040: 50c6 50be 8a2b 613e ec44 b0bd 3210 343e
00000050: 6854 b73e 8074 3ebc 8f81 57be 250d 433d
00000060: d319 3fbe 28c7 563d 7240 21be ee6d 0f3e
00000070: 22f8 94be 3a83 e8bd 2f70 56bc 810a 7cbc
00000080: 430a 5f3e a044 d8bd 874d 89be d17f 0a3e
00000090: 6c33 a53d 1bc1 0d3e 58f4 2ebe 83f8 7dbe
000000a0: bcc4 17be 67c0 a6bc 46ea 603d c2bb 53be
000000b0: 2a29 b0bd 585c 4cbd f056 b63e ab02 bcbd
000000c0: 4c59 563e 9bbe 42be 1071 11be 4690 9fbe
000000d0: 365d 1d3e 6de7 37be 1d9d 7c3d 65df 07be
000000e0: 350d 4c3e 4ea2 4b3c c822 8cbe 3474 503d
000000f0: ad72 a0bb 4a63 9fbe 0dff 233d 311c 993e
00000100: e427 723d 0038 c9ba ec1d 75bd c2b3 713d
00000110: e84d 4ebe 4197 8c3e 483f 4d3e 47d3 b53d
00000120: f962 22be 01da 95be aa6a 14be 0b90 403e
00000130: d727 9dbe 6fb0 b1be 2e34 7ebd c4ff 753d
00000140: 5570 a2be 7986 a6be f7d2 ac3b 944f c6bd
00000150: 5b94 133e 15a2 3e3d 4caa 8fbe bc96 94be
00000160: f0c8 6d3e 090b cfbd 5b2f 40be 2425 4a3d
00000170: c062 68bd 1c5f 0d3e ac8b 773d 16fa ffbd
00000180: 47ec 6cbe 3834 d33d 069a 31be 7df5 a5bd
00000190: 58ab 213d 0bca 07be da64 dc3d 79ec 4fbe
000001a0: b243 dbbc f77b 83bc aa2b ce3c 1e0b 9fbe
000001b0: 2f0c 00bd cc0a ed3d 1440 3dbe ce32 053e
000001c0: b6e5 95bd 59f4 153e 1b19 4dbd 92d1 11bd
000001d0: 2166 29be 9d29 f5bd 5bc2 fd3c 18d4 8dbe
000001e0: 343f 603e 592f 3a3e dba9 bf3d 34ab 0d3e
000001f0: 1bc3 5bbe 0324 3c3d a09e 703c bc2e 5bbe
00000200: e63c 1dbe 5a55 60be 882d 92bd 140e 9cbe
00000210: 29a0 40be 0092 e0bc 54df 33bd 1de1 99be
00000220: 46ac 063e 9738 da3d 7ab4 4d3e 6cdb 4f3e
00000230: 3c4e 6dbe 9928 23be 66b1 19be 9916 263c
00000240: 1fff 093d 1089 833d dab3 123e b73d bc3d
00000250: 7878 8abe 1a77 063e 9e67 473e f40e 66bc
00000260: 4c97 80be a2b6 6cbe 2cf9 c1bc a994 203d
00000270: 52d1 893e d788 f93d 803f 973c 805e 04bd
00000280: 19ff cf3d 52c2 11be 035e 0b3d eafc 68be
00000290: cb2d 94bc 6207 a63d 3375 bf3d 19c3 29bd
000002a0: 008d 6fbb c495 43be ce1d 313c 1b70 203e
000002b0: 3d4d 833d 2246 a6be 6c0d 57be 7ccb 153e
000002c0: 9c4d 29bd c145 e83d bc86 103e 557a 28be
000002d0: f70f 5bbe 630a 91be da4f 703d 8d26 c73d
000002e0: cc9f f3bd 1446 84be 43bb 47be 4247 14bd
000002f0: f732 0a3e b71f 23be 2948 2fbd 2f32 78be
00000300: 2cb3 2c3e b50a 983d 94f2 85be 0df9 2cbe
00000310: 9ac7 b1be 921b ebbb 77cf 64be 0016 80ba
00000320: 8a75 a1bd 8260 81be 80ab 95be 00e7 93be
00000330: 4c8b 1abe d7aa f2bc 321f 5ebe a93f 64bd
00000340: 233a bc3c 35c6 313e b5c1 06be 5add 8a3e
00000350: 3752 89be d6a1 76be 4852 d43d a597 58be
00000360: 8c50 973d b08a 23be 2893 153e 6e2b 843e
00000370: 6b20 49bd 13e2 2fbb d56c 813e ccc3 953e
00000380: 6bf8 97be 0287 88bd d06a 85be b4ce 613e
00000390: 4b0c ccbd ffc0 13bd f7c0 7abe f26e 25be
000003a0: 44e2 9cbb 4eff 883e fb95 14be bbb4 c0bc
000003b0: 2ecc 913e b00f 453e 6c5d ccbd 6087 8a3e
000003c0: 4c0a aa3d f7a7 383e c053 0c3c b685 7abe
000003d0: b4b6 01be 4bc7 943d 35ea 133d ff0e b4be
000003e0: 7225 193e 683d 92be 3019 fd3d a225 723e
000003f0: 4fab ce3b 9028 5fbd 8fde e03d 4553 c9bd

encoder.MLP.L1.weight f4 [128, 256]
-0.046295792 -0.044355482 0.029386371 0.047732756 0.0025307983 -0.06059937 -0.061412998 -0.014112964
0.033738703 -0.0416497 0.0168463 -0.03416063 0.050850913 -0.016376942 -0.013024949 -0.054817528
-0.055980727 0.004224047 0.010105699 0.03376671 -0.05465182 0.010951288 -0.009028718 0.036662236
-0.028418496 0.018620431 0.0251856 0.031396106 -0.021436825 0.020113178 -0.012248896 0.01682996
-0.038431443 -0.04966308 -0.051124148 -0.0392892 -0.02645173 0.009303249 -0.013671078 -0.03557974
0.00052503496 -0.019737296 0.0385269 -0.05147534 -0.023069292 -0.04016456 0.007711932 0.0034097359
-0.0035953745 0.062012263 -0.023842737 -0.008983076 0.01614733 0.052163243 0.047373526 0.0071399063
-0.023645416 0.020532407 0.03932409 -0.0013338327 0.034314603 0.05115132 -0.03348553 -0.013817266
-0.056269713 0.014347084 0.04454314 -0.012136944 0.009973057 0.019970872 -0.0013330802 0.04859005
0.00910759 -0.061434105 -0.051611632 -0.061922833 0.0025760233 0.033785492 -0.008245654 0.05619456
-0.011243932 0.012778148 0.056358792 0.03163074 -0.0019939318 0.060201436 -0.037341528 0.023279727
0.03947106 -0.038699478 -0.058708973 0.019991383 -0.0237118 -0.031540103 0.012431584 -0.045339264
0.05621274 -0.005610369 -0.020015776 0.052248828 0.017402597 0.011907645 -0.029883184 0.05956717
-0.01903554 0.051983133 -0.0045942813 0.03135235 0.04394517 -0.0465314 -0.04165645 -0.061803386
0.04507891 0.053749107 -0.022841848 -0.030611202 0.010461889 0.033648707 0.015427217 -0.013025619
-0.039754674 0.053454243 -0.040475853 -0.06039369 -0.024954535 0.012463003 0.02323068 0.024166703
-0.03620617 -0.023986869 -0.027792484 -0.030266218 -0.052642085 0.012793727 -0.018176086 -0.06015663
-0.03649483 -0.037534125 -0.026960172 -0.03861901 -0.010838702 0.022397675 -0.05058212 -0.0053540394
-0.017986856 -0.03195364 -0.013878018 -0.026489452 0.0020092353 -0.045115627 0.011852428 0.05738327
0.051788196 -0.028022446 0.019264266 -0.05907526 0.05262146 -0.062285297 -0.05585164 -0.05610182
-0.058040872 0.008464366 -0.016527042 0.014959216 -0.0038671345 -0.0013425723 -0.022580087 -0.03708092
-0.052328475 0.031536482 -0.03222496 -0.012711175 0.030355923 -0.015478864 -0.015758418 -0.041665345
-0.053475037 0.02999793 -0.014101133 0.039300308 0.0041135326 -7.9385936e-05 -0.056425065 0.0013798773
-0.014124796 -0.035664648 -0.014464863 0.0032674223 -0.047092646 0.0103927255 0.043488435 0.0123467
0.059659548 0.029165134 -0.04929056 -0.024600893 -0.015040182 0.018696412 -0.0017825961 0.050293542
0.0072603896 -0.03958191 -0.022913486 -0.051997572 -0.017233096 0.030728556 0.0006035343 -0.05960027
-0.054081112 0.02265913 -0.054856412 -0.04985124 -0.03726343 0.059569895 -0.01777161 -0.025768831
-0.042200804 0.039981693 -0.0100917965 0.012052178 0.014930621 0.017626666 0.040005535 0.003243342
0.0064648464 -0.004058756 -0.048566706 -0.014303021 0.05948464 -0.044295147 -0.03944432 -0.062019616
0.003789857 -0.05845765 -0.032012135 0.057590067 0.025885306 0.033298224 0.010701947 -0.053111233
-0.029082485 -0.050597407 -0.03864743 0.021284014 -0.017334633 0.06107895 -0.045559816 -0.053338125
0.061712652 -0.053990997 0.053183205 0.016829863 -0.05696571 0.054436207 -0.017015263 -0.025771089
00000000: a8a0 3dbd 18ae 35bd b0bb f03c 6c83 433d
00000010: c0db 253b 0c37 78bd 328c 7bbd 103a 67bc
00000020: 9831 0a3d e098 2abd 4001 8a3c 04ec 0bbd
00000030: 0c49 503d f028 86bc 9866 55bc 5888 60bd
00000040: 0c4c 65bd e069 8a3b 6092 253c f64e 0a3d
00000050: 96da 5fbd 086d 333c 30ed 13bc 242b 163d
00000060: e8cd e8bc e089 983c 0852 ce3c 3499 003d
00000070: 489c afbc 64c4 a43c 98af 48bc fcde 893c
00000080: 4a6a 1dbd 846b 4bbd 8e67 51bd b6ed 20bd
00000090: 4cb1 d8bc a86c 183c a8fc 5fbc 10bc 11bd
000000a0: 80a2 093a 1cb0 a1bc 62ce 1d3d ced7 52bd
000000b0: d0fb bcbc 9883 24bd 60b4 fc3b e075 5f3b
000000c0: 60a0 6bbb 9200 7e3d d851 c3bc c02d 13bc
000000d0: 6847 843c 20a9 553d be0a 423d e0f5 e93b
000000e0: 08b4 c1bc 9433 a83c 4c12 213d 00d4 aeba
000000f0: 788d 0c3d 0c84 513d 2028 09bd d061 62bc
00000100: 127b 66bd 0810 6b3c de72 363d 08da 46bc
00000110: 0866 233c f499 a33c c0ba aeba 5c06 473d
00000120: 0038 153c 54a2 7bbd b866 53bd cca2 7dbd
00000130: 80d2 283b a862 0a3d c818 07bc 442c 663d
00000140: 7838 38bc 705b 513c 7ad8 663d 3c8f 013d
00000150: a0ac 02bb c895 763d 6ef3 18bd 20b5 be3c
00000160: 68ac 213d 5883 1ebd d278 70bd f8c4 a33c
00000170: 403f c2bc 3230 01bd d8ad 4b3c aab5 39bd
00000180: 543f 663d 30d7 b7bb 20f8 a3bc de02 563d
00000190: e48f 8e3c 4818 433c 94cd f4bc b4fc 733d
000001a0: 6cf0 9bbc 44ec 543d a08b 96bb 526b 003d
000001b0: daff 333d b697 3ebd f49f 2abd 8c25 7dbd
000001c0: aaa4 383d 0628 5c3d d41e bbbc 58c4 fabc
000001d0: 5868 2b3c 3ad3 093d 70c2 7c3c 6869 55bc
000001e0: ccd5 22bd d6f2 5a3d 02ca 25bd 605f 77bd
000001f0: 746d ccbc a031 4c3c 444e be3c 40f9 c53c
00000200: ec4c 14bd 1c80 c4bc 10ad e3bc dcf0 f7bc
00000210: 3a9f 57bd c89c 513c 04e6 94bc cc66 76bd
00000220: 9a7b 15bd 62bd 19bd 94db dcbc f82e 1ebd
00000230: d094 31bc 547b b73c 322f 4fbd f070 afbb
00000240: 2c59 93bc d2e1 02bd a060 63bc 6800 d9bc
00000250: 60ad 033b 2acb 38bd b030 423c b80a 6b3d
00000260: dc1f 543d 548f e5bc 18d0 9d3c e6f8 71bd
00000270: 9a89 573d de1e 7fbd b0c4 64bd 06cb 65bd
00000280: 44bc 6dbd 20ae 0a3c b863 87bc 8017 753c
00000290: c06f 7dbb 40f9 afba e0f9 b8bc 2ae2 17bd
000002a0: 6256 56bd 662c 013d 52fe 03bd 8842 50bc
000002b0: fcac f83c 109b 7dbc cc17 81bc 48a9 2abd
000002c0: a408 5bbd 38be f53c 7008 67bc 5cf9 203d
000002d0: d0ca 863b 007c a6b8 f81d 67bd 00dd b43a
000002e0: b06b 67bc 1815 12bd 08fe 6cbc 4022 563b
000002f0: 38e4 40bd 4046 2a3c ee20 323d d049 4a3c
00000300: 925d 743d b8eb ee3c e6e4 49bd d087 c9bc
00000310: 186b 76bc 3829 993c 00a6 e9ba 9a00 4e3d
00000320: 90e8 ed3b a420 22bd 10b5 bbbc 68fb 54bd
00000330: 6c2c 8dbc 74ba fb3c 8036 1e3a 6a1f 74bd
00000340: 2884 5dbd a49f b93c 1eb1 60bd d030 4cbd
00000350: 8aa1 18bd 90ff 733d c495 91bc 2819 d3bc
00000360: c0da 2cbd d8c3 233d 1058 25bc 8076 453c
00000370: 909f 743c cc65 903c d8dc 233d 408e 543b
00000380: 10d7 d33b 50ff 84bb e2ed 46bd 3857 6abc
00000390: 2aa6 733d d46e 35bd 5e90 21bd 4808 7ebd
000003a0: 405f 783b 4a71 6fbd 281f 03bd 90e3 6b3d
000003b0: 6c0d d43c b863 083d 3857 2f3c 2a8b 59bd
000003c0: 643e eebc 3a3f 4fbd c44c 1ebd d05b ae3c
000003d0: 5c01 8ebc ec2d 7a3d ee9c 3abd 1479 5abd
000003e0: 68c6 7c3d aa25 5dbd a2d6 593d c8de 893c
000003f0: e054 69bd 80f8 5e3d 9863 8bbc e41d d3bc

encoder.MLP.L1.bias f4 [128]
0.05648282 -0.02766544 0.07009406 -0.05850633 -0.0245512 0.012719286 -0.03567234 0.0049637733
-0.07929943 -0.036052823 -0.064583905 0.014584341 -0.052422065 -0.018277556 -0.04228603 0.008925665
0.0008956831 -0.05201789 -0.07788562 -0.06518088 -0.05999359 -0.050794892 -0.060759716 0.09126959
-0.04329911 -0.042646293 -0.010224565 -0.0273209 -0.040134907 0.017535994 -0.014835552 0.014190474
-0.06473954 0.016449325 -0.063121505 -0.03483373 -0.020460224 0.060933962 -0.041956358 0.011494007
-0.038003724 0.03820954 0.004628356 -0.05387914 0.008618809 0.069950774 -0.020278044 -0.021936443
-0.018689478 -0.047749713 -0.061855815 0.023519441 -0.048019953 0.01452931 -0.072441086 0.028481947
-0.06721383 -0.023639202 -0.08010663 -0.04722896 -0.042246435 -0.011406171 0.0024544252 -0.05880425
-0.006691233 -0.03161569 -0.0247568 -0.040078565 -0.0836922 -0.09386508 0.02254222 0.078170374
-0.03432274 -0.055430397 0.020494636 -0.03239731 -0.05736949 -0.02648548 -0.044205356 0.004573191
0.00093910436 0.034230266 0.056492455 -0.0125750825 0.022518046 -0.054165382 0.033625655 -0.030957215
0.016609574 -0.017456962 -0.018660642 -0.008093998 -0.08371785 -0.07223344 -0.07003762 -0.06185328
0.023542851 -0.0663358 -0.0817448 -0.0448739 0.09770004 -0.05500409 -0.04726116 -0.08994357
-0.07330158 -0.020548422 -0.021855494 -0.011198851 -0.021106131 -0.012187886 -0.059667103 -0.020235777
-0.05542282 -0.071507685 -0.038341545 -0.00065952906 -0.030284092 -0.08397196 0.025165148 -0.0232536
-0.08405818 0.015148234 -0.041845173 -0.05359613 -0.030120458 -0.08216302 0.014133252 -0.051892612
00000000: 885a 673d a2a2 e2bc 798d 8f3d 55a4 6fbd
00000010: 991f c9bc 8d64 503c 291d 12bd 26a7 a23b
00000020: bd67 a2bd 20ac 13bd 9144 84bd 29f3 6e3c
00000030: 85b8 56bd d0ba 95bc 1e34 2dbd f43c 123c
00000040: 46cc 6a3a b610 55bd 7f82 9fbd 8e7d 85bd
00000050: d7bb 75bd 4e0e 50bd 2edf 78bd 8deb ba3d
00000060: 685a 31bd e1ad 2ebd ef84 27bc 14d0 dfbc
00000070: 8064 24bd a5a7 8f3c d110 73bc 297f 683c
00000080: 2a96 84bd bcc0 863c d945 81bd d0ad 0ebd
00000090: 339c a7bc e495 793d 6eda 2bbd 5c51 3c3c
000000a0: cba9 1bbd 9b81 1c3d 77a9 973b 60b0 5cbd
000000b0: e835 0d3c 5a42 8f3d 241e a6bc 0eb4 b3bc
000000c0: ad1a 99bc 3495 43bd 865c 7dbd d8ab c03c
000000d0: 92b0 44bd 580c 6e3c fe5b 94bd f952 e93c
000000e0: 68a7 89bd 00a7 c1bc f20e a4bd 2773 41bd
000000f0: 990a 2dbd f3e0 3abc 6cda 203b badc 70bd
00000100: 2142 dbbb 747f 01bd c6ce cabc 6c29 24bd
00000110: d166 abbd 563c c0bd 76aa b83c ca17 a03d
00000120: 0096 0cbd fc0a 63bd 5ee4 a73c 0bb3 04bd
00000130: 45fc 6abd 14f8 d8bc ad10 35bd b5da 953b
00000140: 3a2e 763a 0935 0c3d a264 673d b807 4ebc
00000150: c477 b83c 85dc 5dbd 0ebb 093d fc99 fdbc
00000160: cd10 883c e701 8fbc 34de 98bc b09c 04bc
00000170: 4474 abbd 20ef 93bd e26f 8fbd dd59 7dbd
00000180: f0dc c03c 10db 87bd d169 a7bd b2cd 37bd
00000190: f516 c83d f84b 61bd eb94 41bd 5634 b8bd
000001a0: 241f 96bd 2a55 a8bc 4b0a b3bc 637b 37bc
000001b0: c4e6 acbc b3af 47bc 7e65 74bd 80c5 a5bc
000001c0: 0a03 63bd 9f72 92bd 060c 1dbd 3fe4 2cba
000001d0: 5816 f8bc 7ef9 abbd 2427 ce3c 557e bebc
000001e0: b226 acbd 4c30 783c d865 2bbd 9e87 5bbd
000001f0: 2ebf f6bc 1645 a8bd 288f 673c 598d 54bd

encoder.MLP.L2.weight f4 [80, 128]
0.086776264 -0.061685376 0.057690438 -0.10915621 -0.031800285 0.059386916 0.029072344 0.013185613
-0.009243747 -0.015708055 0.046153657 -0.084331214 -0.08436603 -0.07746984 -0.11014078 -0.030889349
-0.014603443 -0.08720763 -0.08450771 -0.06955223 0.012661617 -0.027402602 -0.045738213 -0.0076588457
-0.0897696 0.023212425 -0.05451716 0.033222176 0.0018221141 -0.03534733 -0.0931137 0.0062400685
-0.0040055467 0.011753537 0.024738468 -0.020014333 -0.02256575 0.08635119 -0.09264743 0.008523128
-0.033129714 0.050213877 -0.029722797 -0.084428474 0.030181639 -0.11479052 -0.107837915 -0.05076964
-0.06781027 -0.013290942 -0.05573635 -0.11711243 0.05099901 0.0020136386 0.017657802 -0.10628382
-0.04844405 0.016641453 0.030262206 0.04059031 0.048663665 0.03692044 -0.086533986 0.0026524067
-0.04672135 -0.019869504 0.04969383 -0.095112406 -0.059420638 0.053315856 -0.029214969 -0.14693595
-0.03972172 -0.08964132 -0.07082167 -0.0052944124 -0.055504967 -0.06774864 -0.11702125 0.011133313
-0.029055532 -0.08638501 0.043783672 0.04007683 -0.023220755 0.03497369 0.024936542 0.046667866
0.035772853 0.029855423 0.03522829 0.027813748 0.011144173 0.020689115 -0.0023290915 -0.08923554
0.055379003 -0.10118853 -0.050212543 -0.048569214 -0.021021653 -0.049024917 -0.014911572 -0.052642465
-0.043193523 0.044343095 -0.09218172 0.025886536 0.04370115 -0.06850224 -0.046605706 -0.03222943
-0.029331993 -0.09263873 -0.053809676 0.01821926 -0.054811828 0.04943464 0.031217441 -0.048593108
-0.11817566 0.0060602776 -0.028679878 -0.05310742 -0.06939964 0.027972681 0.08569687 -0.028752876
0.06734405 -0.016219512 -0.19342119 -0.052218653 0.05622728 -0.074749544 0.088098206 -0.070358746
-0.109443754 -0.010808032 0.01727419 0.03589598 -0.07586849 -0.11574546 -0.074444525 -0.024996046
0.04656089 -0.023004089 -0.03596513 0.046915364 -0.047132675 -0.06661874 0.07058305 -0.04263362
-0.06460349 -0.038989574 0.029950717 -0.025793165 -0.15600155 0.20003037 -0.06266984 0.014660242
-0.030397981 -0.034152213 0.01577891 -0.08236678 0.0031583037 -0.084070995 -0.035890207 -0.027080145
-0.075401135 0.04191435 -0.11020522 -0.11475915 0.057660736 -0.08224566 0.025211675 -0.1742373
0.00998252 -0.018955885 0.03216178 -0.08011348 0.047294095 0.07858267 0.015934017 0.0039833332
-0.1162546 0.0214528 -0.09791423 0.013769671 -0.07031342 0.004699393 -0.03516988 0.009926826
0.08505414 -0.05540206 0.0036004384 -0.0081917755 -0.023538522 -0.016407862 -0.02335684 -0.12383937
0.03691388 0.04222002 -0.07509652 0.050089218 -0.036782745 -0.05824038 0.010594069 -0.0556604
-0.009374853 -0.017150154 -0.019253632 -0.022183158 0.032983787 -0.084230475 -0.09502204 -0.098226726
-0.06851161 -0.036428344 -0.033080366 0.030926503 -0.00749031 -0.055244595 -0.03324274 0.036895275
0.036388785 -0.026100587 -0.017028995 0.020652777 -0.109474644 -0.116250664 -0.05029654 -0.006532969
0.076706834 0.004929418 -0.014933489 0.020066354 0.014648348 -0.14288135 -0.023680953 -0.055655777
0.06702002 0.03229942 -0.07301466 -0.0029421954 0.025134958 -0.050921507 -0.008207485 -0.032550663
0.010872519 0.04776861 -0.08108994 0.07617489 -0.075786546 -0.0380886 -0.016902 -0.037022173
00000000: c1b7 b13d cea9 7cbd cf4c 6c3d 4b8d dfbd
00000010: 0441 02bd b23f 733d 2029 ee3c 7808 583c
00000020: 1673 17bc 2eae 80bc 9e0b 3d3d d8b5 acbd
00000030: 19c8 acbd 82a8 9ebd 7d91 e1bd a90b fdbc
00000040: 4843 6fbc ea99 b2bd 6112 adbd 6671 8ebd
00000050: ac72 4f3c 6c7b e0bc fe57 3bbd 0ef7 fabb
00000060: 20d9 b7bd fc27 be3c 634d 5fbd fa13 083d
00000070: 01d4 ee3a 5dc8 10bd 65b2 bebd 7d79 cc3b
00000080: f640 83bb e891 403c 54a8 ca3c 19f5 a3bc
00000090: cfdb b8bc e5d8 b03d f0bd bdbd 97a4 0b3c
000000a0: 06b3 07bd 11ad 4d3d 397d f3bc d6e8 acbd
000000b0: 7c3f f73c 4b17 ebbd 20da dcbd d3f3 4fbd
000000c0: 1ce0 8abd 40c2 59bc cd4b 64bd a4d8 efbd
000000d0: 57e4 503d 40f7 033b 18a7 903c 55ab d9bd
000000e0: 456d 46bd a853 883c 72e8 f73c 0642 263d
000000f0: 8d53 473d e339 173d bb38 b1bd 00d4 2d3b
00000100: e35e 3fbd 5fc5 a2bc c28b 4b3d 4bca c2bd
00000110: 0e63 73bd ba61 5a3d 3b54 efbc 6176 16be
00000120: 3eb3 22bd de95 b7bd f40a 91bd c07c adbb
00000130: 2d59 63bd cdbf 8abd d6a8 efbd 8068 363c
00000140: de05 eebc a0ea b0bd 8256 333d 9a27 243d
00000150: 7439 bebc 9240 0f3d b847 cc3c ce26 3f3d
00000160: 8e86 123d 5c93 f43c 8a4b 103d a8d9 e33c
00000170: 0d96 363c 387c a93c aca3 18bb 1fc1 b6bd
00000180: 18d5 623d ef3b cfbd abab 4dbd 83f0 46bd
00000190: 9a35 acbc 5ace 48bd ab4f 74bc a09f 57bd
000001a0: b1eb 30bd 1ba1 353d c5c9 bcbd 0010 d43c
000001b0: faff 323d e74a 8cbd a0e5 3ebd 0203 04bd
000001c0: a649 f0bc 60b9 bdbd 8967 5cbd 8f40 953c
000001d0: 5e82 60bd fa7b 4a3d b8bb ff3c 9109 47bd
000001e0: 1506 f2bd 4b95 c63b 10f2 eabc 2b87 59bd
000001f0: 6621 8ebd f726 e53c d781 af3d 278b ebbc
00000200: adeb 893d c8de 84bc 3410 46be 3ae3 55bd
00000210: 944e 663d 4a16 99bd d56c b43d 3f18 90bd
00000220: 0c24 e0bd 2c14 31bc 9a82 8d3c aa07 133d
00000230: f060 9bbd f50b edbd 5f76 98bd 82c4 ccbc
00000240: a2b6 3e3d 1273 bcbc 2c50 13bd 532a 403d
00000250: 310e 41bd 686f 88bd d98d 903d 97a0 2ebd
00000260: d64e 84bd 88b3 1fbd 355b f53c 304c d3bc
00000270: dfbe 1fbe c3d4 4c3e 0c59 80bd 8331 703c
00000280: 3005 f9bc 31e3 0bbd c642 813c eaaf a8bd
00000290: 8bfb 4e3b 6a2d acbd 9c01 13bd 2ed7 ddbc
000002a0: e96b 9abd 62ae 2b3d 46b3 e1bd d806 ebbd
000002b0: aa2d 6c3d 6a70 a8bd b788 ce3c 436b 32be
000002c0: b98d 233c 5f49 9bbc 12bc 033d 8912 a4bd
000002d0: 74b7 413d f3ef a03d 0e88 823c 9f86 823b
000002e0: e416 eebd c8bd af3c 4187 c8bd 309a 613c
000002f0: 7b00 90bd 5efd 993b 4b0e 10bd 20a4 223c
00000300: dd30 ae3d 45ed 62bd 55f5 6b3b cc36 06bc
00000310: dcd3 c0bc c869 86bc d856 bfbc 7f9f fdbd
00000320: 0233 173d e6ee 2c3d 34cc 99bd 5a2a 4d3d
00000330: 81a9 16bd 778d 6ebd bf92 2d3c 29fc 63bd
00000340: fc98 19bc 7b7e 8cbc cbb9 9dbc 74b9 b5bc
00000350: 021a 073d 0781 acbd ea9a c2bd 182b c9bd
00000360: d14f 8cbd e335 15bd 477f 07bd 9459 fd3c
00000370: 4671 f5bb 2848 62bd 8a29 08bd 801f 173d
00000380: 680c 153d e6d0 d5bc 6480 8bbc 0330 a93c
00000390: 3e34 e0bd d414 eebd bf03 4ebd 8412 d6bb
000003a0: 7918 9d3d f586 a13b 98ab 74bc 3262 a43c
000003b0: a0ff 6f3c 7d4f 12be 8ffe c1bc 50f7 63bd
000003c0: cb41 893d 664c 043d b688 95bd d9d1 40bb
000003d0: d4e7 cd3c 1293 50bd b078 06bc d853 05bd
000003e0: a622 323c 05a9 433d 7c12 a6bd 9501 9c3d
000003f0: fa35 9bbd cb02 1cbd 1076 8abc 90a4 17bd

encoder.MLP.L2.bias f4 [80]
-0.10403512 -0.07299907 -0.06018812 -0.13141166 -0.04500095 -0.1117245 -0.0733155 -0.08455458
-0.061562557 -0.11502664 -0.09352116 -0.026701776 -0.09351329 -0.09021814 -0.007990564 -0.0058214115
-0.07845242 -0.045210753 -0.03953567 -0.057191726 -0.025094636 -0.08139303 -0.10202476 -0.011356375
-0.12585303 -0.053469133 -0.06622044 -0.07658682 -0.07139133 -0.009085543 -0.055249333 -0.09116634
-0.055402633 -0.058663744 -0.08303216 -0.04639756 -0.10588518 -0.09928359 -0.041386954 -0.13778597
-0.009529059 -0.08515587 -0.09670145 -0.10679731 -0.025509672 -0.0586952 -0.059975725 -0.11517055
-0.0412716 -0.0032036663 -0.022555461 -0.17848305 -0.03768191 0.04532591 -0.08137574 -0.059474748
-0.0049903514 -0.04349379 -0.16296403 -0.08499289 0.041699234 -0.069713265 -0.11303091 0.14085723
-0.060083944 -0.011256602 -0.0036394882 -0.094010085 -0.05342481 -0.08145594 -0.022732591 -0.08820519
-0.009479239 -0.10433563 -0.035149265 -0.0877036 -0.02726559 -0.11477168 -0.07487497 -0.0058217007
00000000: 5d10 d5bd 8980 95bd d187 76bd c790 06be
00000010: eb52 38bd d1cf e4bd 7026 96bd f42a adbd
00000020: 0529 7cbd 1693 ebbd 0688 bfbd afbd dabc
00000030: e583 bfbd 4ac4 b8bd dbea 02bc 8ac1 bebb
00000040: aaab a0bd e92e 39bd 28f0 21bd df41 6abd
00000050: 4493 cdbc 64b1 a6bd 5bf2 d0bd 1710 3abc
00000060: 9edf 00be 7302 5bbd 959e 87bd 8dd9 9cbd
00000070: 9e35 92bd 88db 14bc 204d 62bd 6bb5 babd
00000080: dfed 62bd 6549 70bd c40c aabd 5e0b 3ebd
00000090: 54da d8bd 3255 cbbd 5e85 29bd c417 0dbe
000000a0: c51f 1cbc 3366 aebd 690b c6bd 8cb8 dabd
000000b0: a9f9 d0bc 616a 70bd 1ba9 75bd 8ade ebbd
000000c0: 690c 29bd 9af4 51bb 3bc6 b8bc 43c4 36be
000000d0: 5958 1abd a9a7 393d 53a8 a6bd cb9b 73bd
000000e0: 1a86 a3bb 8b26 32bd 0be0 26be c110 aebd
000000f0: d1cc 2a3d d4c5 8ebd c07c e7bd e13c 103e
00000100: 951a 76bd 9c6d 38bc 7b84 6ebb 5c88 c0bd
00000110: f9d3 5abd 5fd2 a6bd b339 babc eca4 b4bd
00000120: cf4e 1bbc ebad d5bd adf8 0fbd f29d b3bd
00000130: 165c dfbc 6a0d ebbd 0c58 99bd f7c3 bebb

encoder.linear_means.weight f4 [12, 80]
-0.09486684 0.060247242 -0.07656161 -0.012458312 -0.15205613 0.06678348 -0.04312682 -0.035971686
0.0070441933 -0.06118333 0.024242304 0.078933984 -0.021097584 0.058752634 0.00746103 0.12735477
-0.01849887 0.081237495 -0.030688828 -0.069957085 0.03740618 -0.009949632 -0.12156679 -0.03129404
-0.07310459 0.05429876 -0.06841825 -0.08109762 -0.08814897 -0.0011181151 -0.09083171 0.06689846
-0.03152996 0.033306077 -0.04143652 0.08689741 -0.03504073 -0.045302972 -0.10830774 -0.106626056
0.11319545 -0.06798486 -0.013113305 -0.12449181 0.08828467 -0.10536329 0.061486315 -0.023592927
0.019041922 -0.056849267 0.11706256 -0.10919677 -0.033556994 0.11288192 -0.13070081 -0.036382575
0.11829581 0.01181514 0.048441857 -0.053531237 -0.014905797 0.09590972 0.045525532 -0.0119276
0.034891844 -0.037500825 -0.04261652 -0.02673206 -0.08016075 -0.09434485 0.027564568 -0.017556177
0.0752435 -0.08990845 0.0064751045 0.075570986 0.038592745 0.0038961957 -0.012326413 0.070086
-0.07748035 0.07795177 0.03242973 0.014736979 -0.03392457 0.09258877 0.039459795 -0.037929676
0.048436143 -0.13513307 -0.14155033 0.016052883 0.08052607 0.043562897 -0.03955905 0.073048905
-0.084897086 -0.0123800635 -0.040064193 0.184741 -0.018840611 -0.056452535 -0.09916976 -0.01610387
0.08358699 0.11101207 -0.049116515 -0.07367769 -0.0074386327 0.07310254 0.109968066 0.08110785
0.013707026 0.035757314 0.0027463385 0.13200086 -0.07051741 -0.04988502 0.021989284 -0.050365463
-0.0709556 0.06203059 0.05746591 0.06769554 0.2136174 0.024480443 -0.04221572 -0.13928854
0.009298876 0.031325195 0.05349271 0.06976232 0.06606164 0.08043834 -0.024117263 0.0816651
-0.09239933 -0.08334865 -0.06703725 0.1377883 0.05896171 -0.020542435 0.058993004 -0.0018872677
0.034546994 0.012168315 -0.049158756 0.00874773 0.0362426 0.082952075 -0.0031129876 0.054784007
0.0001601544 -0.03548578 -0.09212781 0.044512987 -0.0711233 0.053245593 -0.06292549 -0.044708382
-0.043058045 0.19199115 0.026017277 -0.07808621 0.021262525 -0.06690863 -0.08745265 -0.13420421
-0.046495438 -0.06958599 0.026109202 0.00016448647 -0.07697473 0.018902592 -0.046593893 -0.0549179
0.022650821 -0.057795834 -0.03655316 0.01011118 -0.010416039 0.08612188 0.10695834 -0.04899977
-0.06506568 0.089398205 0.055717066 -0.01409976 0.04050963 0.0027612087 0.01642781 0.032545604
-0.043571677 -0.019813415 0.037520885 -0.0022090152 -0.043778453 0.018098809 -0.03237515 -0.065308884
-0.10205609 0.03247494 -0.034948334 0.022676941 0.14057027 -0.09068673 -0.004784822 0.095496066
-0.12131387 -0.077781126 0.0045142774 0.06714573 -0.09016144 -0.0012532343 0.08099535 0.011489951
-0.05452498 0.059715085 0.03031793 0.04476589 0.0038300166 0.10228862 -0.044886257 -0.015683414
-0.039478905 0.10097944 -0.13673928 0.109613754 -0.009508759 -0.0052437624 -0.1350285 0.15319987
-0.13498446 0.12782118 0.0059551303 -0.037855346 0.014029104 -0.028835252 -0.024733024 -0.08198476
0.04039269 0.08192333 -0.032988314 -0.0042552277 0.001951633 0.11903493 0.017677749 -0.042418618
0.008754318 -0.028025625 0.0037993381 0.083407134 -0.012164154 0.035970923 -0.054972816 -0.020776879
00000000: 8c49 c2bd d0c5 763d 55cc 9cbd f31d 4cbc
00000010: 9ab4 1bbe c7c5 883d c0a5 30bd 0c57 13bd
00000020: fad2 e63b 5f9b 7abd cc97 c63c 24a8 a13d
00000030: d7d4 acbc 9aa6 703d a87b f43b 4a69 023e
00000040: f18a 97bc d85f a63d 2367 fbbc a945 8fbd
00000050: 3937 193d c803 23bc 02f8 f8bd 2e2e 00bd
00000060: dcb7 95bd 6068 5e3d de1e 8cbd 8216 a6bd
00000070: 7287 b4bd b88d 92ba fa05 babd 0f02 893d
00000080: 8f25 01bd f46b 083d 57b9 29bd 45f7 b13d
00000090: de86 0fbd 9c8f 39bd 73d0 ddbd c35e dabd
000000a0: 04d3 e73d a53b 8bbd 30d9 56bc 90f5 febd
000000b0: 98ce b43d b5c8 d7bd 13d9 7b3d f445 c1bc
000000c0: cefd 9b3c c7da 68bd 7fbe ef3d 8ea2 dfbd
000000d0: 0f73 09bd a32e e73d 6fd6 05be e505 15bd
000000e0: 1345 f23d 4a94 413c f86a 463d 9243 5bbd
000000f0: 7237 74bc 516c c43d fb78 3a3d fb6b 43bc
00000100: c0ea 0e3d 779a 19bd a98e 2ebd 31fd dabc
00000110: 522b a4bd df37 c1bd 17cf e13c f9d1 8fbc
00000120: 4419 9a3d ec21 b8bd 1d2d d43b f6c4 9a3d
00000130: 6d13 1e3d 5157 7f3b b9f4 49bc 4089 8f3d
00000140: 05ae 9ebd 2da5 9f3d 09d5 043d 5f73 713c
00000150: 7df4 0abd 2e9f bd3d 98a0 213d 265c 1bbd
00000160: fa64 463d 5360 0abe 92f2 10be 5681 833c
00000170: daea a43d 026f 323d ac08 22bd aa9a 953d
00000180: 86de adbd c0d5 4abc 5a1a 24bd bf2c 3d3e
00000190: a057 9abc c63a 67bd 8419 cbbd 43ec 83bc
000001a0: a82f ab3d 4c5a e33d 662e 49bd 54e4 96bd
000001b0: c6bf f3bb c9b6 953d f036 e13d df1b a63d
000001c0: 6f93 603c 4376 123d eafb 333b 3c2b 073e
000001d0: 6f6b 90bd 3c54 4cbd df22 b43c 044c 4ebd
000001e0: 2b51 91bd ca13 7e3d 6061 6b3d f6a3 8a3d
000001f0: 85be 5a3e 368b c83c 64ea 2cbd a8a1 0ebe
00000200: 505a 183c d94e 003d 2c1b 5b3d 8cdf 8e3d
00000210: 534b 873d dbbc a43d 9191 c5bc 0840 a73d
00000220: dc3b bdbd b2b2 aabd d34a 89bd 6018 0d3e
00000230: d681 713d 9c48 a8bc a6a2 713d 325e f7ba
00000240: 2681 0d3d 9d5d 473c b15a 49bd a452 0f3c
00000250: 1f73 143d c7e2 a93d 4403 4cbb 3265 603d
00000260: 1fef 2739 8a59 11bd 81ad bcbd 4053 363d
00000270: 18a9 91bd 0d18 5a3d 14df 80bd 2320 37bd
00000280: a25d 30bd 5499 443e 2f22 d53c aaeb 9fbd
00000290: bf2e ae3c 6407 89bd 601a b3bd d46c 09be
000002a0: 0072 3ebd 1983 8ebd f7e2 d53c 007a 2c39
000002b0: eda4 9dbd 9cd9 9a3c 3dd9 3ebd 98f1 60bd
000002c0: 378e b93c 53bb 6cbd c4b8 15bd 5da9 253c
000002d0: 09a8 2abc ab60 b03d f90c db3d fcb3 48bd
000002e0: 2841 85bd 6816 b73d 9437 643d ae02 67bc
000002f0: 6ded 253d 65f5 343b 9d93 863c 8a4e 053d
00000300: 3778 32bd be4f a2bc 80af 193d 20c5 10bb
00000310: 0951 33bd f443 943c ce9b 04bd aac0 85bd
00000320: c902 d1bd 7104 053d fc25 0fbd fec4 b93c
00000330: a7f1 0f3e f7b9 b9bd ffc9 9cbb 7193 c33d
00000340: 6873 f8bd b64b 9fbd 81ec 933b b383 893d
00000350: 90a6 b8bd 9143 a4ba e4e0 a53d 5940 3c3c
00000360: 9655 5fbd ce97 743d 4f5d f83c 705c 373d
00000370: 0401 7b3b b27c d13d a7da 37bd 817a 80bc
00000380: a2b4 21bd 4fce ce3d 6205 0cbe 2d7d e03d
00000390: a0ca 1bbc ded3 abbb e944 0abe 6de0 1c3e
000003a0: 5e39 0abe 8ee3 023e 4123 c33b 350e 1bbd
000003b0: 54da 653c e837 ecbc e99c cabc a0e7 a7bd
000003c0: ce72 253d 6bc7 a73d c11e 07bd 706f 8bbb
000003d0: f0cd ff3a 96c8 f33d edd0 903c 25bf 2dbd
000003e0: 456e 0f3c ff95 e5bc 51fe 783b 5cd1 aa3d
000003f0: 294c 47bc 3f56 133d 2d2b 61bd 4634 aabc

encoder.linear_means.bias f4 [12]
-0.0048687602 0.0053260345 -0.0022458448 -0.007116349 0.0048319474 -0.001767171 -0.0024177772 0.006890783
-0.0009230993 0.004974395 0.0011476566 0.00012812372
00000000: 1f8a 9fbb 0486 ae3b 062f 13bb 4330 e9bb
00000010: 5055 9e3b 6ba0 e7ba 9273 1ebb 14cc e13b
00000020: 25fc 71ba 4000 a33b f76c 963a f358 0639

encoder.linear_log_var.weight f4 [12, 80]
-0.13044848 -0.0030900238 -0.09288212 0.026219696 -0.013006105 0.03565721 0.043641735 0.02751256
0.031453922 0.04555195 -0.09527643 -0.05370377 0.01487525 -0.015480001 -0.057736147 -0.0019236308
-0.018527582 0.1152127 0.00057809026 -0.009145647 -0.05387477 0.03818513 -0.031429097 -0.05733066
0.05603434 0.03579347 0.057316594 0.004851004 0.046623506 -0.124048464 0.091666296 -0.028875768
0.032990593 0.034423403 0.016897008 0.0067479894 -0.016637627 -0.031458925 0.03078407 -0.11623394
0.06880429 0.02377611 0.029119344 -0.14201719 -0.16831288 -0.08476764 0.04766911 0.13166328
-0.0482609 -0.07762303 -0.091134734 0.12247387 -0.0050325585 0.060352664 -0.044501733 -0.024436167
0.07656927 -0.050716534 -0.0038520684 -0.05379403 -0.023950567 -0.049986858 0.051978216 -0.22626556
0.077236995 -0.050876245 0.07260483 0.13222532 -0.1589384 -0.052216228 0.08257299 0.084846266
-0.0054527223 -0.04342794 -0.025013302 0.10595025 -0.0807507 0.094385065 -0.14477457 0.08538336
0.064796664 -0.033284526 -0.050228905 -0.05603548 -0.083932415 -0.037289865 0.07667966 0.047934767
0.10212252 -0.034370653 0.043268193 0.08539132 -0.07788995 -0.078999825 0.013320225 -0.014134074
-0.04611528 0.0139604425 0.10930409 -0.121571936 -0.11097514 -0.029038034 0.0575634 0.07241156
-0.13216628 0.010782283 0.10368756 0.0573181 -0.030369183 -0.0041173333 0.03309976 -0.028290581
0.008063601 -0.08602296 -0.10243295 0.11675628 0.0055118673 -0.06778928 0.0684408 0.09267262
0.06199289 -0.03661248 0.022241673 0.044951838 -0.004915659 0.01910612 0.089238755 0.029587593
0.055333957 0.003193814 0.075304545 0.086233586 -0.111892596 -0.05422636 0.08507138 0.012625902
-0.035038438 0.11442428 -0.0059848814 -0.003082856 -0.013597567 -0.048288785 0.04055646 -0.13678072
0.026434597 0.0475832 0.008422115 -0.055373326 0.10411215 0.109029226 0.048627127 0.111291945
0.03827419 -0.0066865957 0.04416835 -0.06805805 0.03411115 0.018156098 0.039595943 -0.10298292
-0.03988612 0.005487273 0.055485755 0.1186362 -0.039775353 0.076827094 -0.076539546 0.011582739
0.09063074 -0.008922348 0.017641447 0.050463255 0.04851107 -0.050282292 0.050709616 0.10667658
0.0782341 0.040332798 -0.07853434 0.03978323 -0.18333718 -0.033463288 0.07320805 -0.076185174
0.08296264 0.10005527 -0.01578479 -0.028627817 0.06587438 -0.12736066 -0.031192249 0.015116103
0.023105148 -0.05087108 -0.06759332 -0.10427512 0.050765343 0.06680224 0.031051448 0.019014617
-0.07814823 -0.030862732 0.09253451 -0.0113907885 -0.021861618 -0.029423939 0.19325389 -0.012680281
0.0050912504 0.13763483 0.085770525 0.016726898 0.0238541 -0.084036015 0.0776116 0.07469108
0.1696289 -0.031338837 -0.027738813 0.18757133 -0.1300832 0.06413309 -0.105322465 -0.16412875
0.05536405 -0.038698077 0.010050001 -0.06161029 -0.047749124 0.011629125 -0.06708725 0.0024957997
-0.004322049 -0.008672366 0.107611045 0.036017947 -0.075017944 0.0016938735 0.10620485 0.03646879
0.016958676 0.19380985 -0.09140965 -0.07024687 -0.13987727 -0.03362552 -0.110219024 0.04758729
0.033834368 -0.008903805 0.08445132 -0.11712448 -0.061370425 0.012790178 0.053854715 0.11737213
00000000: 4994 05be ff81 4abb fb38 bebd b0ca d63c
00000010: 8f17 55bc 4b0d 123d adc1 323d 0562 e13c
00000020: d4d5 003d ae94 3a3d 4a20 c3bd 7cf8 5bbd
00000030: 52b7 733c d59f 7dbc bd7c 6cbd 5722 fcba
00000040: 28c7 97bc a3f4 eb3d fb8a 173a a0d7 15bc
00000050: caab 5cbd 0368 1c3d ccbb 00bd 8ed3 6abd
00000060: 4484 653d 2c9c 123d cec4 6a3d 2cf5 9e3b
00000070: 4af8 3e3d 1f0d febd 8abb bb3d e08c ecbc
00000080: 2521 073d 8eff 0c3d 986b 8a3c 3d1e dd3b
00000090: a24b 88bc 13db 00bd e02e fc3c 0f0c eebd
000000a0: 43e9 8c3d 1ec6 c23c b18b ee3c f46c 11be
000000b0: 365a 2cbe a89a adbd af40 433d bdd2 063e
000000c0: 39ad 45bd d3f8 9ebd d9a4 babd 95d3 fa3d
000000d0: 29e8 a4bb 5b34 773d 7347 36bd 5b2e c8bc
000000e0: 59d0 9c3d 24bc 4fbd fc72 7cbb 2157 5cbd
000000f0: fb33 c4bc 05bf 4cbd 1ce7 543d 29b2 67be
00000100: 6e2e 9e3d 9c63 50bd d7b1 943d 1366 073e
00000110: bfc0 22be afe0 55bd 071c a93d e1c3 ad3d
00000120: c0ac b2bb 7fe1 31bd b2e8 ccbc 72fc d83d
00000130: 9f60 a5bd f54c c13d c93f 14be 79dd ae3d
00000140: 1db4 843d 5b55 08bd d3bc 4dbd 7685 65bd
00000150: c2e4 abbd 42bd 18bd 3a0a 9d3d 3f57 443d
00000160: 9d25 d13d 3ec8 0cbd fd39 313d a5e1 ae3d
00000170: c484 9fbd a9ca a1bd 133d 5a3c 9a92 67bc
00000180: 60e3 3cbd 57ba 643c d3da df3d b5fa f8bd
00000190: ef46 e3bd 2ce1 edbc 9ac7 6b3d 834c 943d
000001a0: 9956 07be 2ca8 303c 255a d43d 62c6 6a3d
000001b0: cbc8 f8bc b2ea 86bb 9d93 073d a6c1 e7bc
000001c0: 321d 043c ce2c b0bd 5ec8 d1bd eb1d ef3d
000001d0: e59c b43b 1bd5 8abd b12a 8c3d 25cb bd3d
000001e0: 42ec 7d3d f8f6 15bd 2b34 b63c 6b1f 383d
000001f0: 8913 a1bb 7084 9c3c cfc2 b63d ae61 f23c
00000200: dca5 623d 4f4f 513b 4539 9a3d 3c9b b03d
00000210: f227 e5bd 761c 5ebd e739 ae3d dfdc 4e3c
00000220: 7784 0fbd 4757 ea3d d31c c4bb be09 4abb
00000230: 54c8 5ebc 76ca 45bd 881e 263d 3f10 0cbe
00000240: 5e8d d83c 9ae6 423d e9fc 093c 24cf 62bd
00000250: c038 d53d b74a df3d 3d2d 473d 08ed e33d
00000260: 66c5 1c3d 3b1b dbbb dfe9 343d 0562 8bbd
00000270: 22b8 0b3d 19bc 943c 5b2f 223d b6e8 d2bd
00000280: a15f 23bd 95ce b33b 0845 633d 89f7 f23d
00000290: 7beb 22bd 8657 9d3d c4c0 9cbd 87c5 3d3c
000002a0: 9c9c b93d 0a2f 12bc cc84 903c 8fb2 4e3d
000002b0: 8bb3 463d cef4 4dbd e3b4 4f3d 4079 da3d
000002c0: 3339 a03d 0134 253d 9dd6 a0bd bdf3 223d
000002d0: bebc 3bbe cd10 09bd 1aee 953d f906 9cbd
000002e0: 51e8 a93d c7e9 cc3d 1b4f 81bc e284 eabc
000002f0: 26e9 863d d56a 02be e386 ffbc 88a9 773c
00000300: 0247 bd3c 325e 50bd 5e6e 8abd 328e d5bd
00000310: 52ef 4f3d 9dcf 883d 9b5f fe3c 8bc4 9b3c
00000320: 2e0c a0bd d7d3 fcbc bc82 bd3d 6ea0 3abc
00000330: 2317 b3bc 790a f1bc 59e4 453e f4c0 4fbc
00000340: 81d4 a63b 25f0 0c3e 75a8 af3d d906 893c
00000350: ac69 c33c 131b acbd d5f2 9e3d a3f7 983d
00000360: 33b3 2d3e 275d 00bd 823c e3bc b312 403e
00000370: 8834 05be 3658 833d 4eb3 d7bd 5e11 28be
00000380: 6ac5 623d e081 1ebd c2a8 243c 125b 7cbd
00000390: 9694 43bd 1688 3e3c 0a65 89bd 9290 233b
000003a0: fa9f 8dbb 8a16 0ebc 2e63 dc3d 8e87 133d
000003b0: 02a3 99bd f704 de3a ee81 d93d 4c60 153d
000003c0: ecec 8a3c 1776 463e fc34 bbbd 97dd 8fbd
000003d0: fd3b 0fbe eaba 09bd 83ba e1bd e4ea 423d
000003e0: e895 0a3d 44e1 11bc d0f4 ac3d f6de efbd
000003f0: 8e5f 7bbd e58d 513c c396 5c3d cd60 f03d

encoder.linear_log_var.bias f4 [12]
-0.0026788155 -0.00084813085 -0.0021920325 -0.008151164 0.00018308482 -0.004479627 -0.008984858 -0.0022257047
0.0018620995 -0.004953142 0.00047454776 -0.0055243294
00000000: 118f 2fbb 1955 5eba 34a8 0fbb 768c 05bc
00000010: 75fa 3f39 d6c9 92bb 3a35 13bc 21dd 11bb
00000020: b111 f43a f74d a2bb b9cc f839 6f05 b5bb

decoder.MLP.L0.weight f4 [80, 18]
0.36586708 -0.19764286 0.24648024 0.17412104 0.29375267 0.06678088 -0.11461806 0.09262056
0.3238541 0.06608013 -0.12444841 0.448093 -1.878516 -1.8063567 -1.1655372 -0.7106349
-1.7020528 -2.220509 -0.05531978 -0.14934605 -0.06113187 0.048621025 -0.019611616 -0.06988114
0.0033722555 0.16334933 -0.15988298 -0.01580486 0.057826836 0.06665245 -1.1951466 -1.1858618
-0.8842759 -0.5793943 -0.70924926 -1.2977599 -0.17193045 -0.10826699 -0.09496734 0.26044235
-0.025384327 0.09524739 0.054014243 0.021969499 -0.0066507985 0.1371946 0.09893287 0.059383746
-1.250286 -1.0434396 -0.54303926 -0.5192144 -0.73145854 -0.9746101 0.013284357 0.21397386
0.17718466 0.070779316 -0.14798772 0.39198628 -0.05146962 -0.05756999 -0.06927352 -0.17850757
0.14994974 -0.256426 -2.2844255 -1.8234612 -1.1056012 -1.2989066 -0.7628049 -1.445313
-0.024780704 0.07338781 -0.11870305 -0.048773464 -0.023848735 0.046156485 -0.07094647 0.12340141
-0.092451334 -0.16796027 -0.09587411 0.0043525873 -0.35461336 -0.40376842 -0.42018658 -0.109962344
-0.31853595 -0.5760615 -0.056842852 -0.044853065 0.20203465 0.180392 0.071281135 -0.103517495
0.111711964 0.14744185 0.22379798 0.1399825 0.20433167 -0.20106591 -1.9096155 -1.9161817
-1.1892469 -0.9332463 -1.2174655 -2.0717084 0.04958509 -0.05618977 0.019022387 -0.056697085
0.01316979 -0.051054534 0.030567897 -0.14073864 -0.16332962 -0.16291589 0.0769838 -0.19072123
-1.0615178 -1.037303 -0.65235716 -0.6088488 -0.16394764 -0.53187156 -0.2384607 -0.10725727
0.008575722 0.13682026 -0.22711553 -0.007462896 0.31354904 -0.08069222 -0.0477692 -0.043269854
-0.08316277 -0.10417775 -1.4002686 -1.0735787 -0.87792253 -0.58431023 -0.64277744 -1.139028
-0.14806277 0.11413388 -0.1739834 -0.01623603 0.06627964 -0.093793325 -0.037337117 -0.07525776
0.09180616 -0.039352924 0.12144165 0.14925426 -1.3397334 -0.9941088 -0.7553141 -0.73097545
-0.5004457 -0.8467327 -0.0011473558 0.044442847 -0.014838579 -0.034162715 -0.046403404 -0.033333026
0.030405387 -0.0053700604 -0.024129277 0.045492314 0.056132916 0.06004137 -0.1495966 -4.745696
3.6849597 -4.253369 -23.04525 25.544106 -0.0686217 -0.18842848 -0.09053688 -0.03839746
-0.12236588 0.008053958 -0.060269546 0.17575477 -0.2450855 0.16056855 -0.13346697 0.04872175
-2.4025662 -2.161776 -1.7875202 -1.1234859 -0.56401026 -0.9910973 0.12081195 -0.16528055
-0.18443854 0.07527481 0.04744229 0.0800026 0.09822824 -0.18953265 0.10868043 0.028604364
-0.13110451 -0.08415284 -1.1509914 -1.2983978 -1.0395415 -0.61426127 -1.1067126 -1.1522183
0.016677152 -0.079984605 -0.0024329217 0.17961355 0.06516605 -0.11359363 -0.12841447 -0.026459677
-0.021893831 0.1092519 -0.007298107 0.19127813 -0.9722779 -0.82361555 -0.5736582 -0.5632555
-0.834359 -0.6747773 0.16209017 -0.13402252 -0.09902661 0.033687714 0.1773329 0.039368037
0.14746636 0.09888892 0.062483214 0.08303328 -0.07718113 0.15209538 -1.2127796 -1.4797658
-1.140674 -1.0699147 -0.5208955 -1.2298493 -0.25097212 0.10742874 0.055010058 -0.0061694006
00000000: ee52 bb3e e462 4abe 5165 7c3e c94c 323e
00000010: c066 963e 6ac4 883d e0bc eabd d9af bd3d
00000020: 34d0 a53e 0555 873d cfde febd 726c e53e
00000030: 3673 f0bf b236 e7bf 5330 95bf 2bec 35bf
00000040: dedc d9bf d21c 0ec0 fe96 62bd 2cee 18be
00000050: 6965 7abd d726 473d 8aa8 a0bc d81d 8fbd
00000060: 0f01 5d3b 0c45 273e 5db8 23be 3279 81bc
00000070: d5db 6c3d 1481 883d 90fa 98bf 52ca 97bf
00000080: e85f 62bf 2f53 14bf 5c91 35bf ff1c a6bf
00000090: 890e 30be 15bb ddbd 3d7e c2bd b358 853e
000000a0: cbf2 cfbc 1011 c33d 0a3e 5d3d 61f9 b33c
000000b0: f1ee d9bb be7c 0c3e 519d ca3d 5f3c 733d
000000c0: 5f09 a0bf 6e8f 85bf 9f04 0bbf 3ceb 04bf
000000d0: de40 3bbf 0c80 79bf a2a6 593c f71b 5b3e
000000e0: e56f 353e bff4 903d 188a 17be 6db2 c83e
000000f0: cfd1 52bd 83ce 6bbd 46df 8dbd b0ca 36be
00000100: 6d8c 193e 454a 83be 0734 12c0 2d67 e9bf
00000110: 5784 8dbf 9242 a6bf 2f47 43bf 0400 b9bf
00000120: e700 cbbc 594c 963d 961a f3bd afc6 47bd
00000130: 6c5e c3bc 950e 3d3d 624c 91bd e1b9 fc3d
00000140: 2057 bdbd c7fd 2bbe a559 c4bd 26a0 8e3b
00000150: e28f b5be bcba cebe b222 d7be f033 e1bd
00000160: 2517 a3be c478 13bf 0dd4 68bd d9b7 37bd
00000170: 2ce2 4e3e aeb8 383e d8fb 913d fb00 d4bd
00000180: 3ec9 e43d fffa 163e 4c2b 653e 9357 0f3e
00000190: 523c 513e 39e4 4dbe 486e f4bf 7145 f5bf
000001a0: 3e39 98bf 3be9 6ebf e9d5 9bbf df96 04c0
000001b0: bc19 4b3d 3f27 66bd d6d4 9b3c 343b 68bd
000001c0: 1ac6 573c 8f1e 51bd 8769 fa3c ca1d 10be
000001d0: e13f 27be 6cd3 26be afa9 9d3d 6d4c 43be
000001e0: d1df 87bf 58c6 84bf e100 27bf 84dd 1bbf
000001f0: e4e1 27be bc28 08bf 0b2f 74be b3a9 dbbd
00000200: 2f81 0c3c 9c1a 0c3e f990 68be 4f8b f4bb
00000210: 8089 a03e f641 a5bd a3a9 43bd bb3b 31bd
00000220: 3e51 aabd 255b d5bd 003c b3bf 076b 89bf
00000230: 88bf 60bf 5b95 15bf 108d 24bf abcb 91bf
00000240: c49d 17be 06bf e93d b428 32be 6c01 85bc
00000250: 9fbd 873d b716 c0bd ceee 18bd be20 9abd
00000260: de04 bc3d 8830 21bd 66b6 f83d 1cd6 183e
00000270: 627c abbf ea7d 7ebf 445c 41bf 3521 3bbf
00000280: 361d 00bf 79c3 58bf df62 96ba b409 363d
00000290: 831d 73bc 34ee 0bbd 7f11 3ebd 3688 08bd
000002a0: b814 f93c 55f7 afbb c3aa c5bc 2656 3a3d
000002b0: a1eb 653d f1ed 753d da2f 19be bedc 97c0
000002c0: 61d6 6b40 991b 88c0 ac5c b8c1 545a cc41
000002d0: 8989 8cbd 65f3 40be 666b b9bd a846 1dbd
000002e0: f69a fabd c0f4 033c 33dd 76bd 0ff9 333e
000002f0: b1f7 7abe 156c 243e 91ab 08be 7590 473d
00000300: a5c3 19c0 8a5a 0ac0 76cd e4bf 63ce 8fbf
00000310: fa62 10bf 8db8 7dbf 416c f73d 4e3f 29be
00000320: 75dd 3cbe ae29 9a3d d952 423d 67d8 a33d
00000330: e32b c93d d914 42be d893 de3d b353 ea3c
00000340: 4340 06be 5358 acbd b053 93bf e631 a6bf
00000350: b20f 85bf 3a40 1dbf c2a8 8dbf e47b 93bf
00000360: 869e 883c f8ce a3bd a771 1fbb 9dec 373e
00000370: c775 853d c7a3 e8bd 157f 03be f7c1 d8bc
00000380: b15a b3bc 76bf df3d f524 efbb 6ade 433e
00000390: 34e7 78bf 78d8 52bf 44db 12bf 8331 10bf
000003a0: 8d98 55bf 35be 2cbf f7fa 253e 333d 09be
000003b0: 77ce cabd 21fc 093d c196 353e 6140 213d
000003c0: 6c01 173e 4686 ca3d 66ee 7f3d 5a0d aa3d
000003d0: 2411 9ebd e4be 1b3e 5d3c 9bbf f768 bdbf
000003e0: 9b01 92bf f7f2 88bf 6859 05bf b46b 9dbf
000003f0: 6b7f 80be 9903 dc3d 3a52 613d af28 cabb
