model/CVAE_10000_0.001_16_[12, 256, 128, 64]_12_[64, 128, 256, 6].pth (torch, 368600 bytes, 18 tensors)

encoder.MLP.L0.weight f4 [256, 12]
-0.013823234 0.16555992 -0.24914274 -0.2239095 -0.12264962 0.06618732 -0.016844029 0.2175937
-0.03688709 0.065173075 -0.09837121 -0.06780073 -0.3119111 -0.16362353 -0.15521793 -0.029483689
0.07407798 0.1347033 -0.21398865 -0.14242943 0.08894554 0.2236827 -0.07555435 0.19933
-0.04652962 0.03054589 0.26138848 -0.26779535 -0.18173194 -0.07308251 -0.11252555 0.24941552
-0.18711334 -0.13288665 -0.20168012 -0.27036187 -0.1741608 0.24363951 0.13139565 0.13297538
0.008581992 -0.15178114 0.070534796 -0.2410839 -0.16305956 -0.10221774 0.24910665 0.20263629
-0.20593178 0.0054092086 0.17939548 0.25527775 0.07978166 -0.02361518 0.14092359 -0.19917224
0.09085143 -0.1690947 -0.10374168 -0.18720809 0.13853063 0.14902832 -0.21289672 0.066827334
0.14006647 -0.026148833 0.0056700036 0.05045508 0.15113215 0.24962668 -0.24950151 -0.11655865
0.047070876 0.23360203 0.2663 0.23620087 0.035511237 -0.30537653 -0.007952706 -0.18888022
-0.20458293 0.341022 0.3451053 -0.2964582 0.08387657 -0.06442189 -0.04743795 -0.12036773
0.12491931 -0.14689434 0.1208314 0.14982635 0.19901307 0.10020619 -0.29734755 -0.18623716
0.12765245 0.09156535 -0.24595512 -0.18610816 0.25116035 0.181027 -0.11528881 -0.060981292
-0.25904667 0.005076591 -0.20197538 -0.20212936 -0.015905887 0.043343157 -0.11822121 0.17129335
-0.1756701 0.26193517 0.19782904 -0.24343482 -0.07184671 0.01302579 0.042118013 0.068466306
0.11328429 0.017291695 -0.1408529 0.1365979 -0.2769113 -0.17109968 -0.072264 -0.1406175
-0.100988194 -0.23660439 -0.06140557 0.061706156 -0.2115831 -0.020674953 0.19527091 -0.06293632
-0.024214087 -0.06157234 0.043524638 0.16517715 0.26095104 0.16893137 0.2568127 -0.043167807
-0.2593231 -0.1368543 0.19656041 -0.0018713176 -0.14348492 -0.22121516 -0.27015722 -0.24364418
-0.05855392 0.15831119 0.15606964 -0.27840748 0.18007037 -0.22589102 -0.061028898 -0.11704987
-0.055603236 -0.05667925 -0.25904262 -0.24925305 -0.045171738 0.003733188 -0.13113786 0.1087437
-0.31559715 -0.024249628 0.2614304 -0.13714018 0.23869787 0.050839588 -0.29380563 0.16564077
-0.023293974 -0.11696396 0.24376619 -0.25593698 -0.041290592 -0.035265237 0.18696219 0.041228727
0.09706254 0.03361849 -0.12798607 -0.09940867 -0.24825883 0.14859667 0.22577447 0.16246252
-0.20362517 0.0128748715 -0.20349695 -0.1589111 -0.1682126 0.09865329 -0.17202532 -0.006298095
0.012144029 0.18608665 -0.21821532 -0.198179 -0.23039041 0.19735408 -0.10064456 0.21935524
0.07737041 -0.016068852 -0.03741712 -0.074168764 0.0726724 -0.01928147 0.06717101 -0.0104414
-0.22580317 -0.15130371 0.2331031 -0.23427334 -0.020728648 0.2855686 0.104280144 0.008173257
-0.25016874 0.14300328 -0.20561774 -0.081944555 -0.14875707 -0.03182333 0.005142077 0.2163494
0.009322258 0.21381879 0.15215638 -0.19111772 0.14740829 -0.18183711 -0.08948879 0.07781264
0.13939308 0.23686329 -0.07890042 0.023952048 0.17256251 -0.2195455 0.27044824 -0.18960598
0.006591166 -0.06600342 -0.15202494 0.12186507 0.23871088 -0.08438538 -0.17138472 -0.10676327
00000000: d87a 62bc 8a88 293e 461f 7fbe 8848 65be
00000010: b92f fbbd 388d 873d 7dfc 89bc e2d0 5e3e
00000020: eb16 17bd 7679 853d d876 c9bd 1cdb 8abd
00000030: d0b2 9fbe ed8c 27be 73f1 1ebe c787 f1bc
00000040: 32b6 973d a9ef 093e d71f 5bbe 05d9 11be
00000050: 1429 b63d 140d 653e 3dbc 9abd 2a1d 4c3e
00000060: d895 3ebd 603b fa3c b6d4 853e 791c 89be
00000070: f017 3abe 48ac 95bd cc73 e6bd c866 7f3e
00000080: a49a 3fbe 7013 08be 3c85 4ebe df6c 8abe
00000090: 3557 32be a37c 793e 958c 063e b32a 083e
000000a0: 7c9b 0c3c 846c 1bbe 8c74 903d b3de 76be
000000b0: 16f9 26be 8957 d1bd d015 7f3e e37f 4f3e
000000c0: c8df 52be bb3f b13b 73b3 373e c4b3 823e
000000d0: 9164 a33d 9f74 c1bc 464e 103e cff3 4bbe
000000e0: 5110 ba3d 2927 2dbe 8576 d4bd 7ab3 3fbe
000000f0: f9da 0d3e e19a 183e 9901 5abe c5dc 883d
00000100: 966d 0f3e 1436 d6bc 70cb b93b fca9 4e3d
00000110: 63c2 1a3e 239e 7f3e 537d 7fbe 4db6 eebd
00000120: 64cd 403d 5f35 6f3e 7958 883e a4de 713e
00000130: 3b74 113d 505a 9cbe 114c 02bc d169 41be
00000140: 307e 51be 709a ae3e a4b1 b03e 5fc9 97be
00000150: 7bc7 ab3d a0ef 83bd 4c4e 42bd 5b83 f6bd
00000160: b2d5 ff3d 786b 16be 7476 f73d 146c 193e
00000170: 15ca 4b3e e738 cd3d f03d 98be f4b4 3ebe
00000180: 53b7 023e 9d86 bb3d a9db 7bbe 2393 3ebe
00000190: 1798 803e 245f 393e 8a1c ecbd 85c7 79bd
000001a0: c4a1 84be 8859 a63b a2d2 4ebe 00fb 4ebe
000001b0: 104d 82bc 9888 313d f61d f2bd 8667 2f3e
000001c0: dde2 33be 5e1c 863e b293 4a3e fa46 79be
000001d0: 5e24 93bd 206a 553c f083 2c3d 1038 8c3d
000001e0: 9801 e83d 50a7 8d3c be3b 10be 52e0 0b3e
000001f0: 51c7 8dbe c134 2fbe 26ff 93bd 09fe 0fbe
00000200: e6d2 cebd 6c48 72be 6884 7bbd 98bf 7c3d
00000210: 3da9 58be 855e a9bc 19f5 473e c2e4 80bd
00000220: 9f5c c6bc 4733 7cbd e446 323d 3324 293e
00000230: 609b 853e 58fc 2c3e f47c 833e bad0 30bd
00000240: ffc5 84be 8923 0cbe 2247 493e 0047 f5ba
00000250: b6ed 12be 3a86 62be 0c52 8abe dc7d 79be
00000260: 3cd6 6fbd 541c 223e b8d0 1f3e 6d8b 8ebe
00000270: 5e64 383e fa4f 67be 70f9 79bd d8b7 efbd
00000280: 38c0 63bd 8028 68bd 3ca1 84be 313c 7fbe
00000290: 0006 39bd 80a8 743b 0149 06be 04b5 de3d
000002a0: f395 a1be 28a7 c6bc 35da 853e 7a6e 0cbe
000002b0: 376d 743e 2c3d 503d b16d 96be bc9d 293e
000002c0: 01d3 bebc cd8a efbd d89d 793e 2c0a 83be
000002d0: 5320 29bd 4872 10bd 0473 3f3e 74df 283d
000002e0: bac8 c63d 8bb3 093d c80e 03be c696 cbbd
000002f0: 9037 7ebe ba29 183e 6c31 673e 935c 263e
00000300: 1e83 50be 20f1 523c 8161 50be 97b9 22be
00000310: ec3f 2cbe bc0a ca3d 6827 30be 4060 cebb
00000320: c0f7 463c 808d 3e3e d673 5fbe 70ef 4abe
00000330: 77eb 6bbe 3017 4a3e bc1e cebd a99e 603e
00000340: 6174 9e3d d3a2 83bc b242 19bd cbe5 97bd
00000350: 44d5 943d 2cf4 9dbc f490 893d 6812 2bbc
00000360: f238 67be 5cef 1abe 94b2 6e3e 5ae5 6fbe
00000370: 20cf a9bc 0c36 923e d490 d53d 20e9 053c
00000380: 1e16 80be 746f 123e 758d 52be 8cd2 a7bd
00000390: c653 18be 2e59 02bd de7e a83b b28a 5d3e
000003a0: 62bc 183c 50f3 5a3e e2ce 1b3e 5db4 43be
000003b0: 33f2 163e 8233 3abe e645 b7bd 3c5c 9f3d
000003c0: 0fbd 0e3e 4a8c 723e 8b96 a1bd 1637 c43c
000003d0: 3ab4 303e 89d0 60be 3178 8a3e 1228 42be
000003e0: b5fa d73b cd2c 87bd 6dac 1bbe 6594 f93d
000003f0: a070 743e 3ed2 acbd 7a7f 2fbe b4a6 dabd

encoder.MLP.L0.bias f4 [256]
0.2582196 0.18030295 -0.25259373 -0.117117785 0.090008266 -0.15288386 0.0011917768 -0.10034011
0.04389318 0.1408563 0.090734005 0.17170383 -0.034737766 0.1567134 0.03822967 -0.16000803
-0.2038815 0.21078753 -0.08606896 0.17258328 0.24366899 -0.011624455 -0.27029192 0.040938307
-0.18221727 0.08896386 -0.1466427 0.17887078 -0.24916133 -0.04766623 0.0449475 -0.007743593
0.2771279 -0.08168484 -0.21697158 0.15633875 0.080664486 0.21435238 -0.17085397 -0.22498766
-0.079493575 0.019363856 0.09635727 -0.18559971 -0.061701227 -0.049892753 0.31520158 -0.08194943
0.22494727 -0.15430568 -0.05752208 -0.2670076 0.18944193 -0.20339607 0.066021495 -0.12184412
0.25466377 0.060053486 -0.24999383 0.03063117 0.11223137 -0.30026358 0.09245671 0.28561625
0.07665258 -0.0015351772 -0.05984299 0.068024606 -0.16674796 0.24240385 0.26312816 0.14007606
-0.026022652 -0.2908465 -0.13786896 0.22564618 -0.2784222 -0.3455389 -0.031524017 0.117844634
-0.29521543 -0.26840487 -0.00079982466 -0.09683147 0.12836505 0.090323135 -0.25371307 -0.2674643
0.20828344 -0.089587204 -0.13438813 0.0914999 -0.0567348 0.13805813 0.024524823 -0.12498872
-0.23137008 0.22438386 -0.17343912 -0.096304804 0.039470047 -0.15796168 0.1709439 -0.20305051
0.049355842 0.019355169 0.03306956 -0.29222548 -0.022540152 0.103007585 -0.18481475 0.13366461
-0.020667149 0.19242696 -0.046183098 -0.021725664 -0.13446987 -0.11556486 0.05103176 -0.31320462
0.2189911 0.25363386 0.102768175 0.14662486 -0.1723171 0.072466515 0.014686257 -0.2123424
-0.1729154 -0.12302128 -0.07137591 -0.21912318 -0.17345901 -0.027413368 -0.043914154 -0.30855632
0.1206369 0.23589802 0.22514173 0.27173957 -0.19875044 -0.16288689 -0.15271042 -0.0045587127
0.011076364 0.06422627 0.25824103 0.08420628 -0.21677423 0.13448332 0.1947312 0.021868596
-0.2511543 -0.10817289 0.05779158 0.07967876 0.2691751 0.16048494 0.05979893 -0.02366018
0.14094114 -0.1543595 0.06456685 -0.1947355 -0.0116732735 0.12064414 0.08964385 -0.05608274
-0.0036552548 -0.1966788 0.08452102 0.20618394 0.090194784 -0.28409603 -0.19292799 0.14425318
-0.04133378 0.13144617 0.17962116 -0.1337909 -0.17133035 -0.27993113 0.100278415 0.17186004
-0.08307242 -0.2603011 -0.18152307 -0.030845312 0.15096064 -0.16211404 -0.19975978 -0.22928761
0.2112882 0.2043873 -0.2278825 -0.21697891 -0.27637872 0.034868 -0.18328583 -0.0009772182
-0.07378467 -0.25268942 -0.25721797 -0.25891605 -0.1292368 -0.021212755 -0.17451566 -0.011305106
-0.00061605126 0.23733397 -0.13159831 0.27122003 -0.25501078 -0.24085173 0.09100766 -0.18370576
0.12424633 -0.15970874 0.17547297 0.29288226 0.04087906 0.061810825 0.34530348 0.25084183
-0.28994927 -0.01413017 -0.26058054 0.22051507 -0.08025008 0.019708024 -0.16764805 -0.14965384
0.11354725 0.2621421 -0.14510338 0.0017928013 0.31793448 0.24246466 -0.13969621 0.27056408
0.058828436 0.21080728 0.008564889 -0.24465069 -0.08852968 0.119553305 0.089008205 -0.34576872
0.19913091 -0.27566022 0.108289234 0.24944039 0.031333305 -0.054482043 0.10143803 -0.057256736
00000000: 5c35 843e 56a1 383e f753 81be 73db efbd
00000010: 4156 b83d 968d 1cbe 6535 9c3a 1e7f cdbd
00000020: 56c9 333d a23c 103e c0d2 b93d 21d3 2f3e
00000030: 3049 0ebd 7a79 203e b796 1c3d 25d9 23be
00000040: 50c6 50be b0d8 573e ec44 b0bd acb9 303e
00000050: 5d84 793e 8074 3ebc b463 8abe edae 273d
00000060: 2a97 3abe af32 b63d 8129 16be e729 373e
00000070: 2624 7fbe aa3d 43bd df1a 383d f7bd fdbb
00000080: b5e3 8d3e 624a a7bd cc2d 5ebe 4417 203e
00000090: 6c33 a53d 317f 5b3e 58f4 2ebe 2a63 66be
000000a0: 87cd a2bd f3a0 9e3c f656 c53d da0d 3ebe
000000b0: 6dba 7cbd 585c 4cbd 1a62 a13e 1ad5 a7bd
000000c0: 9458 663e 4f02 1ebe 469c 6bbd 38b5 88be
000000d0: 11fd 413e 0f47 50be 4736 873d 6989 f9bd
000000e0: 4a63 823e a5fa 753d 62fe 7fbe 38ee fa3c
000000f0: 8fd9 e53d 26bc 99be f259 bd3d 4b3c 923e
00000100: 07fc 9c3d 0038 c9ba ec1d 75bd 7c50 8b3d
00000110: fabf 2abe b738 783e bcb8 863e 1970 0f3e
00000120: 752d d5bc d5e9 94be 852d 0dbe cb0f 673e
00000130: 5b8d 8ebe 7aea b0be 541f 01bd 8758 f13d
00000140: 7a26 97be 5d6c 89be 53ab 51ba 944f c6bd
00000150: 2172 033e 56fb b83d aee6 81be 15f1 88be
00000160: 4148 553e 7f79 b7bd 0b9d 09be 4d64 bb3d
00000170: c062 68bd 1c5f 0d3e 48e8 c83c 16fa ffbd
00000180: 47ec 6cbe e2c4 653e 069a 31be 743b c5bd
00000190: 58ab 213d b5c0 21be eb0b 2f3e 79ec 4fbe
000001a0: 5a29 4a3d bb8e 9e3c f273 073d 949e 95be
000001b0: 20a6 b8bc a4f5 d23d 1440 3dbe 60df 083e
000001c0: 274e a9bc 930b 453e 7d2a 3dbd 05fa b1bc
000001d0: 78b2 09be 45ad ecbd ae06 513d 5b5c a0be
000001e0: 343f 603e 4cdc 813e 1f78 d23d d424 163e
000001f0: e573 30be 5369 943d a09e 703c 4970 59be
00000200: bc10 31be 95f2 fbbd 882d 92bd d461 60be
00000210: 3d9f 31be 0092 e0bc 54df 33bd 18fb 9dbe
00000220: 7b10 f73d 408f 713e 8e8b 663e 7321 8b3e
00000230: 3c85 4bbe d2cb 26be 1f60 1cbe 4161 95bb
00000240: a379 353c 1089 833d 2b38 843e 5874 ac3d
00000250: 10fa 5dbe ffb5 093e 9e67 473e c525 b33c
00000260: 4c97 80be c089 ddbd ddb6 6c3d 9e2e a33d
00000270: 52d1 893e 2a56 243e b9ef 743d fed2 c1bc
00000280: e052 103e 6b10 1ebe a03b 843d be68 47be
00000290: 4241 3fbc 4614 f73d 3297 b73d 04b7 65bd
000002a0: 008d 6fbb 2b66 49be 5b19 ad3d e221 533e
000002b0: 0bb8 b83d 0975 91be ea8e 45be 1bb7 133e
000002c0: 9c4d 29bd d399 063e 9cee 373e 7b00 09be
000002d0: 3971 2fbe 2253 8fbe c55e cd3d 14fc 2f3e
000002e0: df21 aabd 3046 85be 2fe1 39be 4faf fcbc
000002f0: 6d95 1a3e 3901 26be d48d 4cbe 5fca 6abe
00000300: ef5b 583e e84a 513e 085a 69be b82f 5ebe
00000310: 8381 8dbe bfd1 0e3d 48af 3bbe 0016 80ba
00000320: 6b1c 97bd 8260 81be 13b2 83be a590 84be
00000330: a756 04be 5fc6 adbc 3cb4 32be 0d39 39bc
00000340: 807e 21ba ad07 733e b5c1 06be 5add 8a3e
00000350: c690 82be d6a1 76be 3962 ba3d 5d1d 3cbe
00000360: dc74 fe3d b08a 23be 30af 333e aaf4 953e
00000370: cd70 273d 592d 7d3d 9ecb b03e 576e 803e
00000380: 3b74 94be 3b82 67bc d06a 85be b4ce 613e
00000390: 275a a4bd b972 a13c eeab 2bbe db3e 19be
000003a0: 768b e83d 7d37 863e fb95 14be 6efc ea3a
000003b0: 4fc8 a23e a848 783e 860c 0fbe 6087 8a3e
000003c0: 16f6 703d dddd 573e c053 0c3c b685 7abe
000003d0: 0d4f b5bd 5dd8 f43d ef49 b63d 9908 b1be
000003e0: f9e8 4b3e 5623 8dbe bfc6 dd3d 4d6d 7f3e
000003f0: 5a57 003d 9028 5fbd bebe cf3d 0a86 6abd

encoder.MLP.L1.weight f4 [128, 256]
-0.046295792 -0.044355482 0.029386371 0.047732756 0.0025307983 -0.06059937 -0.061412998 -0.014112964
0.033738703 -0.0416497 0.0168463 -0.03416063 0.050850913 -0.016376942 -0.013024949 -0.054817528
-0.055980727 0.004224047 0.010105699 0.03376671 -0.05465182 0.010951288 -0.009028718 0.036662236
-0.028418496 0.018620431 0.0251856 0.031396106 -0.021436825 0.020113178 -0.012248896 0.01682996
-0.038431443 -0.04966308 -0.051124148 -0.0392892 -0.02645173 0.009303249 -0.013671078 -0.03557974
0.00052503496 -0.019737296 0.0385269 -0.05147534 -0.023069292 -0.04016456 0.007711932 0.0034097359
-0.0035953745 0.062012263 -0.023842737 -0.008983076 0.01614733 0.052163243 0.047373526 0.0071399063
-0.023645416 0.020532407 0.03932409 -0.0013338327 0.034314603 0.05115132 -0.03348553 -0.013817266
-0.056269713 0.014347084 0.04454314 -0.012136944 0.009973057 0.019970872 -0.0013330802 0.04859005
0.00910759 -0.061434105 -0.051611632 -0.061922833 0.0025760233 0.033785492 -0.008245654 0.05619456
-0.011243932 0.012778148 0.056358792 0.03163074 -0.0019939318 0.060201436 -0.037341528 0.023279727
0.03947106 -0.038699478 -0.058708973 0.019991383 -0.0237118 -0.031540103 0.012431584 -0.045339264
0.05621274 -0.005610369 -0.020015776 0.052248828 0.017402597 0.011907645 -0.029883184 0.05956717
-0.01903554 0.051983133 -0.0045942813 0.03135235 0.04394517 -0.0465314 -0.04165645 -0.061803386
0.04507891 0.053749107 -0.022841848 -0.030611202 0.010461889 0.033648707 0.015427217 -0.013025619
-0.039754674 0.053454243 -0.040475853 -0.06039369 -0.024954535 0.012463003 0.02323068 0.024166703
-0.03620617 -0.023986869 -0.027792484 -0.030266218 -0.052642085 0.012793727 -0.018176086 -0.06015663
-0.03649483 -0.037534125 -0.026960172 -0.03861901 -0.010838702 0.022397675 -0.05058212 -0.0053540394
-0.017986856 -0.03195364 -0.013878018 -0.026489452 0.0020092353 -0.045115627 0.011852428 0.05738327
0.051788196 -0.028022446 0.019264266 -0.05907526 0.05262146 -0.062285297 -0.05585164 -0.05610182
-0.058040872 0.008464366 -0.016527042 0.014959216 -0.0038671345 -0.0013425723 -0.022580087 -0.03708092
-0.052328475 0.031536482 -0.03222496 -0.012711175 0.030355923 -0.015478864 -0.015758418 -0.041665345
-0.053475037 0.02999793 -0.014101133 0.039300308 0.0041135326 -7.9385936e-05 -0.056425065 0.0013798773
-0.014124796 -0.035664648 -0.014464863 0.0032674223 -0.047092646 0.0103927255 0.043488435 0.0123467
0.059659548 0.029165134 -0.04929056 -0.024600893 -0.015040182 0.018696412 -0.0017825961 0.050293542
0.0072603896 -0.03958191 -0.022913486 -0.051997572 -0.017233096 0.030728556 0.0006035343 -0.05960027
-0.054081112 0.02265913 -0.054856412 -0.04985124 -0.03726343 0.059569895 -0.01777161 -0.025768831
-0.042200804 0.039981693 -0.0100917965 0.012052178 0.014930621 0.017626666 0.040005535 0.003243342
0.0064648464 -0.004058756 -0.048566706 -0.014303021 0.05948464 -0.044295147 -0.03944432 -0.062019616
0.003789857 -0.05845765 -0.032012135 0.057590067 0.025885306 0.033298224 0.010701947 -0.053111233
-0.029082485 -0.050597407 -0.03864743 0.021284014 -0.017334633 0.06107895 -0.045559816 -0.053338125
0.061712652 -0.053990997 0.053183205 0.016829863 -0.05696571 0.054436207 -0.017015263 -0.025771089
00000000: a8a0 3dbd 18ae 35bd b0bb f03c 6c83 433d
00000010: c0db 253b 0c37 78bd 328c 7bbd 103a 67bc
00000020: 9831 0a3d e098 2abd 4001 8a3c 04ec 0bbd
00000030: 0c49 503d f028 86bc 9866 55bc 5888 60bd
00000040: 0c4c 65bd e069 8a3b 6092 253c f64e 0a3d
00000050: 96da 5fbd 086d 333c 30ed 13bc 242b 163d
00000060: e8cd e8bc e089 983c 0852 ce3c 3499 003d
00000070: 489c afbc 64c4 a43c 98af 48bc fcde 893c
00000080: 4a6a 1dbd 846b 4bbd 8e67 51bd b6ed 20bd
00000090: 4cb1 d8bc a86c 183c a8fc 5fbc 10bc 11bd
000000a0: 80a2 093a 1cb0 a1bc 62ce 1d3d ced7 52bd
000000b0: d0fb bcbc 9883 24bd 60b4 fc3b e075 5f3b
000000c0: 60a0 6bbb 9200 7e3d d851 c3bc c02d 13bc
000000d0: 6847 843c 20a9 553d be0a 423d e0f5 e93b
000000e0: 08b4 c1bc 9433 a83c 4c12 213d 00d4 aeba
000000f0: 788d 0c3d 0c84 513d 2028 09bd d061 62bc
00000100: 127b 66bd 0810 6b3c de72 363d 08da 46bc
00000110: 0866 233c f499 a33c c0ba aeba 5c06 473d
00000120: 0038 153c 54a2 7bbd b866 53bd cca2 7dbd
00000130: 80d2 283b a862 0a3d c818 07bc 442c 663d
00000140: 7838 38bc 705b 513c 7ad8 663d 3c8f 013d
00000150: a0ac 02bb c895 763d 6ef3 18bd 20b5 be3c
00000160: 68ac 213d 5883 1ebd d278 70bd f8c4 a33c
00000170: 403f c2bc 3230 01bd d8ad 4b3c aab5 39bd
00000180: 543f 663d 30d7 b7bb 20f8 a3bc de02 563d
00000190: e48f 8e3c 4818 433c 94cd f4bc b4fc 733d
000001a0: 6cf0 9bbc 44ec 543d a08b 96bb 526b 003d
000001b0: daff 333d b697 3ebd f49f 2abd 8c25 7dbd
000001c0: aaa4 383d 0628 5c3d d41e bbbc 58c4 fabc
000001d0: 5868 2b3c 3ad3 093d 70c2 7c3c 6869 55bc
000001e0: ccd5 22bd d6f2 5a3d 02ca 25bd 605f 77bd
000001f0: 746d ccbc a031 4c3c 444e be3c 40f9 c53c
00000200: ec4c 14bd 1c80 c4bc 10ad e3bc dcf0 f7bc
00000210: 3a9f 57bd c89c 513c 04e6 94bc cc66 76bd
00000220: 9a7b 15bd 62bd 19bd 94db dcbc f82e 1ebd
00000230: d094 31bc 547b b73c 322f 4fbd f070 afbb
00000240: 2c59 93bc d2e1 02bd a060 63bc 6800 d9bc
00000250: 60ad 033b 2acb 38bd b030 423c b80a 6b3d
00000260: dc1f 543d 548f e5bc 18d0 9d3c e6f8 71bd
00000270: 9a89 573d de1e 7fbd b0c4 64bd 06cb 65bd
00000280: 44bc 6dbd 20ae 0a3c b863 87bc 8017 753c
00000290: c06f 7dbb 40f9 afba e0f9 b8bc 2ae2 17bd
000002a0: 6256 56bd 662c 013d 52fe 03bd 8842 50bc
000002b0: fcac f83c 109b 7dbc cc17 81bc 48a9 2abd
000002c0: a408 5bbd 38be f53c 7008 67bc 5cf9 203d
000002d0: d0ca 863b 007c a6b8 f81d 67bd 00dd b43a
000002e0: b06b 67bc 1815 12bd 08fe 6cbc 4022 563b
000002f0: 38e4 40bd 4046 2a3c ee20 323d d049 4a3c
00000300: 925d 743d b8eb ee3c e6e4 49bd d087 c9bc
00000310: 186b 76bc 3829 993c 00a6 e9ba 9a00 4e3d
00000320: 90e8 ed3b a420 22bd 10b5 bbbc 68fb 54bd
00000330: 6c2c 8dbc 74ba fb3c 8036 1e3a 6a1f 74bd
00000340: 2884 5dbd a49f b93c 1eb1 60bd d030 4cbd
00000350: 8aa1 18bd 90ff 733d c495 91bc 2819 d3bc
00000360: c0da 2cbd d8c3 233d 1058 25bc 8076 453c
00000370: 909f 743c cc65 903c d8dc 233d 408e 543b
00000380: 10d7 d33b 50ff 84bb e2ed 46bd 3857 6abc
00000390: 2aa6 733d d46e 35bd 5e90 21bd 4808 7ebd
000003a0: 405f 783b 4a71 6fbd 281f 03bd 90e3 6b3d
000003b0: 6c0d d43c b863 083d 3857 2f3c 2a8b 59bd
000003c0: 643e eebc 3a3f 4fbd c44c 1ebd d05b ae3c
000003d0: 5c01 8ebc ec2d 7a3d ee9c 3abd 1479 5abd
000003e0: 68c6 7c3d aa25 5dbd a2d6 593d c8de 893c
000003f0: e054 69bd 80f8 5e3d 9863 8bbc e41d d3bc

encoder.MLP.L1.bias f4 [128]
0.05648282 0.013827613 0.07475102 -0.04201085 0.0065953224 0.025423883 -6.876141e-05 0.024448227
-0.0556167 0.002118655 -0.049704086 0.032536782 -0.0345839 -0.03503624 -0.028598392 0.031105697
0.02342166 -0.05279107 -0.034584362 -0.04373515 0.017536672 0.004155824 -0.060759716 -0.013579974
-0.014338491 0.0013502091 0.01503791 -0.037501466 -0.033722114 0.046939295 -0.011697837 0.04234305
-0.04236231 0.018267378 -0.030402215 -0.03186473 0.0009332241 0.046756294 0.008380443 0.032992467
-0.0047640633 0.049997896 0.018799087 -0.04399052 0.008618809 0.028201528 -0.015744839 0.013400153
0.015031182 -0.025312502 -0.049837157 0.040288407 -0.039887354 0.01452931 -0.060900483 0.043696802
-0.036174864 -0.023639202 -0.009426772 -0.013349736 -0.01822546 0.010598095 0.026222913 -0.013513014
-0.008858072 -0.06841002 -0.0021797018 -0.0050719245 -0.03381327 -0.06040106 0.045665853 0.04042228
-0.03432274 -0.05189987 0.0014205686 -0.0062486515 -0.043675177 -0.008738061 -0.011268149 0.019629443
0.011890583 -0.0058108973 -0.007863773 -0.0125750825 0.022518046 -0.038801495 0.03628157 -0.0096726585
0.048536327 0.055528186 0.009784587 -0.008093998 -0.05053352 -0.048844386 -0.048574645 -0.048234105
0.019214438 -0.04748708 -0.0467822 -0.02449331 0.057573978 -0.033270773 -0.025429307 -0.06923401
-0.04715863 -0.0020553647 0.0021654593 -0.016344858 -0.021106131 0.041580554 -0.050110064 0.025688805
-0.03333201 -0.046840273 -0.022276077 0.025582097 -0.030284092 -0.036398176 0.025165148 -0.015328058
-0.09604987 0.040654987 -0.041845173 -0.05359613 -0.018502034 -0.059060507 -0.0041067274 -0.03328737
00000000: 885a 673d 368d 623c 1017 993d 9213 2cbd
00000010: 931d d83b bf45 d03c 0034 90b8 a647 c83c
00000020: 56ce 63bd 22d9 0a3b 8396 4bbd 4a45 053d
00000030: d9a7 0dbd 2982 0fbd 2d47 eabc 60d1 fe3c
00000040: c8de bf3c 733b 58bd 55a8 0dbd a123 33bd
00000050: 11a9 8f3c 942d 883b 2edf 78bd 8a7e 5ebc
00000060: fdeb 6abc 80f9 b03a 9161 763c 239b 19bd
00000070: 3320 0abd 6b43 403d 49a8 3fbc e86f 2d3d
00000080: 1a84 2dbd 78a5 953c 110e f9bc 9784 02bd
00000090: 9ca3 743a 8783 3f3d 204e 093c 1c23 073d
000000a0: dc1b 9cbb 98ca 4c3d 8b00 9a3c 672f 34bd
000000b0: e835 0d3c e406 e73c 52fb 80bc 518c 5b3c
000000c0: 5945 763c 2a5c cfbc 0c22 4cbd 7505 253d
000000d0: ec60 23bd 580c 6e3c c972 79bd 6bfb 323d
000000e0: 182c 14bd 00a7 c1bc bf72 1abc dab8 5abc
000000f0: 8f4d 95bc a2a3 2d3c 6fd1 d63c b065 5dbc
00000100: 7221 11bc 8d1a 8cbd 54d9 0ebb 6332 a6bb
00000110: c97f 0abd 1a67 77bd 1e0c 3b3d d591 253d
00000120: 0096 0cbd f594 54bd 5f32 ba3a 7dc1 ccbb
00000130: bee4 32bd 162a 0fbc 0b9e 38bc edcd a03c
00000140: b8d0 423c 5769 bebb 0ed7 00bc b807 4ebc
00000150: c477 b83c 51ee 1ebd fc9b 143d 127a 1ebc
00000160: 07ce 463d 8671 633d 884f 203c b09c 04bc
00000170: 3cfc 4ebd 0d11 48bd 35f6 46bd 2091 45bd
00000180: 9967 9d3c d081 42bd b19e 3fbd 32a6 c8bc
00000190: b1d2 6b3d ef46 08bd 1f51 d0bc 90ca 8dbd
000001a0: 6829 41bd 4cb3 06bb 61ea 0d3b a7e5 85bc
000001b0: c4e6 acbc 5f50 2a3d 3640 4dbd 5471 d23c
000001c0: 2587 08bd 96db 3fbd 527c b6bc 8c91 d13c
000001d0: 5816 f8bc 4116 15bd 2427 ce3c 8922 7bbc
000001e0: cbb5 c4bd d885 263d d865 2bbd 9e87 5bbd
000001f0: 9491 97bc 6ee9 71bd ba91 86bb 5658 08bd

encoder.MLP.L2.weight f4 [64, 128]
0.086776264 -0.07622321 0.043016233 -0.12187712 0.01955259 0.059386916 0.029072344 0.0059884572
0.015181498 -0.013260827 0.07439091 -0.0569056 -0.06562291 -0.050321 -0.08238154 -0.0067708916
-0.019872112 -0.06688605 -0.061009042 -0.040662326 0.007840074 -0.029551331 -0.045738213 0.0031157155
-0.05996597 0.023212425 -0.029147098 0.019508196 0.03019651 -0.0032091432 -0.087584965 0.07885557
0.020017989 0.011753537 0.05423325 0.010006209 0.0030237725 0.06517816 -0.0928799 0.033133753
-0.009753813 0.0823529 -0.0001983275 -0.04811837 0.030181639 -0.08867505 -0.092366025 -0.037986573
-0.043592975 0.014023868 -0.05165537 -0.08895432 0.07887059 0.0020136386 0.036022138 -0.09684657
-0.019065114 0.016641453 0.025641907 0.023556398 0.072685495 0.062176023 -0.05628007 0.0026524067
-0.08952399 -0.009246618 0.07304274 -0.07091011 -0.050065078 0.053315856 0.0015131428 -0.07451151
-0.03972172 -0.06261041 -0.06540991 -0.009572029 -0.025894506 -0.08543938 -0.08201455 0.011133313
-0.000522711 -0.077732764 0.037990987 0.04007683 -0.023220755 0.015797108 0.027807537 0.07502915
0.06627878 0.02838579 0.06356489 0.027813748 0.048821285 0.056855667 0.026701504 -0.06075822
0.064822875 -0.07214542 -0.057315044 -0.01868949 -0.025549997 -0.020666933 0.015033334 -0.024134248
-0.0077153007 0.040432055 -0.068159565 0.042958356 0.04370115 -0.06943441 -0.015946908 -0.03222943
0.00025549962 -0.057116378 -0.025116755 0.047339223 -0.054811828 0.04579519 0.031217441 -0.0367322
-0.1062174 0.030166803 -0.028679878 -0.05310742 -0.047114473 0.03198079 0.08569687 -0.004183917
0.06734405 -0.016219512 -0.06538795 -0.012282808 0.089880385 -0.06705261 0.010400623 -0.061916426
-0.074012555 0.018573483 0.043025494 0.10324202 -0.06339747 -0.030150468 -0.074444525 0.011194074
0.0518283 0.03484722 0.036654502 0.08356047 -0.03736799 -0.029746715 0.07058305 0.015542238
-0.023605699 -0.038989574 0.066291414 0.00045877183 -0.05667217 0.09326046 0.01616226 -0.056521717
0.0056342217 -0.034152213 0.049097 -0.053057615 0.04020025 -0.060505006 -0.019770725 0.008535713
-0.034451775 0.04717772 -0.076344475 -0.08025118 0.057660736 -0.042473547 0.03615002 -0.08304151
0.028287081 0.025970517 0.045624614 -0.050947733 0.0827029 0.07858267 0.05094324 0.008461402
-0.085570365 0.0214528 -0.09891471 0.030170374 -0.034282293 0.040454526 -0.03516988 0.009926826
0.08440462 0.042124186 0.041481763 0.02822303 -0.07201187 -0.016407862 0.0064034075 -0.017585311
0.03691388 0.025011085 -0.033379786 0.0693911 -0.0037530148 -0.05824038 0.059243437 -0.0556604
0.024194289 0.027060976 0.053155217 -0.022183158 0.032983787 -0.06707988 -0.060998697 -0.06283073
-0.03756298 -0.04084032 0.0053413995 0.030926503 0.07052436 -0.01532266 0.001984561 0.0721957
0.07277828 0.007574119 -0.023355555 0.053373516 -0.06488311 -0.07954473 -0.05029654 0.028216505
0.07848095 0.05559916 -0.014933489 0.0122740995 0.014648348 -0.070434935 3.320036e-05 -0.055655777
0.07531165 0.065468274 -0.031481974 0.031528026 0.025134958 -0.027770571 -0.008207485 0.00688684
0.06490573 0.083755665 -0.08108994 0.07617489 -0.07589473 0.00074118876 -0.016902 0.001227075
00000000: c1b7 b13d ea1a 9cbd ca31 303d b69a f9bd
00000010: c12c a03c b23f 733d 2029 ee3c d23a c43b
00000020: d1bb 783c f143 59bc 435a 983d d915 69bd
00000030: 4e65 86bd 651d 4ebd a7b7 a8bd 5bde ddbb
00000040: d7ca a2bc 8efb 88bd 9ee4 79bd 8a8d 26bd
00000050: a773 003c a215 f2bc fe57 3bbd 0831 4c3b
00000060: e19e 75bd fc27 be3c e5c5 eebc a7cf 9f3c
00000070: ac5e f73c 7d50 52bb bf5f b3bd 077f a13d
00000080: c4fc a33c e891 403c af23 5e3d 15f1 233c
00000090: 7c2a 463b 217c 853d d137 bebd 42b7 073d
000000a0: 75ce 1fbc a3a8 a83d 22f6 4fb9 c517 45bd
000000b0: 7c3f f73c 449b b5bd 662a bdbd cf97 1bbd
000000c0: 8c8e 32bd 5ec4 653c 9594 53bd af2d b6bd
000000d0: e786 a13d 40f7 033b f38b 133d 7f57 c6bd
000000e0: 712e 9cbc a853 883c fa0e d23c 59f9 c03c
000000f0: 22dc 943d 49ac 7e3d ee85 66bd 00d4 2d3b
00000100: 5b58 b7bd 207f 17bc 6f97 953d 5239 91bd
00000110: 0a11 4dbd ba61 5a3d a654 c63a 7e99 98bd
00000120: 3eb3 22bd e339 80bd a2f5 85bd 00d4 1cbc
00000130: b720 d4bc d7fa aebd 3ff7 a7bd 8068 363c
00000140: 8b06 09ba 5b32 9fbd 709c 1b3d 9a27 243d
00000150: 7439 bebc f068 813c a2cc e33c e2a8 993d
00000160: 2bbd 873d 5189 e83c 4f2e 823d a8d9 e33c
00000170: d4f8 473d 7de1 683d 1dbd da3c 9cdd 78bd
00000180: dbc1 843d fac0 93bd 2ec3 6abd b41a 99bc
00000190: 3a4e d1bc b34d a9bc 5f4e 763c 30b5 c5bc
000001a0: a2d0 fcbb 159c 253d 3e97 8bbd 1af5 2f3d
000001b0: faff 323d a133 8ebd 17a3 82bc 0203 04bd
000001c0: 94f4 8539 ddf2 69bd a7c1 cdbc c6e6 413d
000001d0: 5e82 60bd bd93 3b3d b8bb ff3c 8174 16bd
000001e0: 8288 d9bd 5f20 f73c 10f2 eabc 2b87 59bd
000001f0: 1bfb 40bd 4afe 023d d781 af3d 3d19 89bb
00000200: adeb 893d c8de 84bc 1eea 85bd d53d 49bc
00000210: 3513 b83d e152 89bd 6067 2a3c 149c 7dbd
00000220: e593 97bd 6b27 983c 803b 303d 8d70 d33d
00000230: 88d6 81bd 1dfe f6bc 5f76 98bd 5967 373c
00000240: e949 543d f5bb 0e3d 0823 163d c021 ab3d
00000250: 2d0f 19bd 62af f3bc d98d 903d dfa4 7e3c
00000260: bd60 c1bc 88b3 1fbd cbc3 873d 5087 f039
00000270: 1421 68bd 57ff be3d b766 843c 5183 67bd
00000280: 479f b83b 31e3 0bbd f019 493d f152 59bd
00000290: 04a9 243d 19d4 77bd 37f6 a1bc 60d9 0b3c
000002a0: 4e1d 0dbd 6d3d 413d 7e5a 9cbd bb5a a4bd
000002b0: aa2d 6c3d bef8 2dbd 0b12 143d ab11 aabd
000002c0: 4fba e73c 1fc0 d43c e0e0 3a3d 92ae 50bd
000002d0: 2360 a93d f3ef a03d dca9 503d b1a1 0a3c
000002e0: 843f afbd c8bd af3c cc93 cabd dc27 f73c
000002f0: 976b 0cbd a5b3 253d 4b0e 10bd 20a4 223c
00000300: 54dc ac3d 698a 2c3d c8e8 293d fc33 e73c
00000310: f67a 93bd c869 86bc add3 d13b 120f 90bc
00000320: 0233 173d 0ce4 cc3c 3eb9 08bd ec1c 8e3d
00000330: 24f5 75bb 778d 6ebd 3fa9 723d 29fc 63bd
00000340: 1a33 c63c fbae dd3c 49b9 593d 74b9 b5bc
00000350: 021a 073d 2d61 89bd c5d9 79bd 66ad 80bd
00000360: a4db 19bd 2e48 27bd e806 af3b 9459 fd3c
00000370: 136f 903d e50b 7bbc 690f 023b 57db 933d
00000380: c70c 953d 5130 f83b 2654 bfbc 309e 5a3d
00000390: 70e1 84bd 59e8 a2bd bf03 4ebd 4d26 e73c
000003a0: 9fba a03d f2bb 633d 98ab 74bc 4e19 493c
000003b0: a0ff 6f3c 3140 90bd 9d40 0b38 50f7 63bd
000003c0: ff3c 9a3d 3b14 863d 3ef3 00bd 8823 013d
000003d0: d4e7 cd3c 1c7f e3bc b078 06bc 00ab e13b
000003e0: 4ced 843d 1788 ab3d 7c12 a6bd 9501 9c3d
000003f0: b26e 9bbd 564c 423a 1076 8abc ced5 a03a

encoder.MLP.L2.bias f4 [64]
-0.026746426 0.019349927 0.053684127 -0.0025861731 0.014237596 -0.009888568 -0.07887884 0.07171086
-0.092823245 0.0107500795 -0.09205159 -0.09049226 -0.024277095 0.007727376 0.053119548 -0.055528447
0.10023522 0.036849193 0.06940524 0.010238196 0.005873261 -0.04587328 0.006627411 -0.015311116
0.029940741 -0.028666142 -0.02681812 0.05529641 -0.07386737 0.021745296 -0.085823886 -0.056718227
-0.06806501 0.055362407 -0.016818482 0.06304834 0.04033019 -0.03006585 0.004555142 -0.008720811
-0.079594925 0.07366046 -0.12313049 -0.1085873 -0.00083950476 0.08917784 -0.06758859 0.020420277
0.03152147 0.014908225 0.056652263 -0.06451163 -0.039104987 -0.085333474 0.0050027543 -0.026284516
-0.02794917 -0.06987276 -0.059270807 -0.03307423 -0.016892236 -0.11929262 0.08797923 -0.054888923
00000000: 521b dbbc bd83 9e3c e3e3 5b3d c97c 29bb
00000010: ce44 693c a903 22bc 3b8b a1bd 25dd 923d
00000020: 1d1a bebd 1a21 303c 8b85 bcbd 0254 b9bd
00000030: c2e0 c6bc ee35 fd3b e293 593d cc71 63bd
00000040: 1f48 cd3d 2eef 163d 5624 8e3d 1bbe 273c
00000050: 7c74 c03b 9fe5 3bbd c12a d93b 7adb 7abc
00000060: 4946 f53c 42d5 eabc adb1 dbbc 7d7e 623d
00000070: c747 97bd 3123 b23c 6fc4 afbd 5f51 68bd
00000080: ab65 8bbd b1c3 623d eac6 89bc 7d1f 813d
00000090: 4531 253d a84c f6bc 4d43 953b bce1 0ebc
000000a0: aa02 a3bd 4cdb 963d d72b fcbd 0563 debd
000000b0: 3612 5cba dfa2 b63d e36b 8abd 6d48 a73c
000000c0: a81c 013d a141 743c 340c 683d ac1e 84bd
000000d0: 8d2c 20bd 51c3 aebd 25ee a33b a052 d7bc
000000e0: a8f5 e4bc 7319 8fbd f2c5 72bd d878 07bd
000000f0: 9661 8abc b04f f4bd 742e b43d 35d3 60bd

encoder.linear_means.weight f4 [12, 64]
-0.07677035 -0.09190128 0.07667068 -0.093579695 -0.08974387 -0.06998757 -0.096771725 -0.11141398
-0.03209562 -0.01877734 0.10063349 0.0341683 -0.06951349 -0.046918377 -0.104775846 0.048203357
-0.036174424 0.071668155 0.03024056 0.061450984 0.12212243 0.028476456 0.020830099 0.012049484
-0.06720319 0.08258853 -0.08636933 -0.008780905 -0.024191655 0.053738043 -0.13024811 -0.04798691
0.1232818 -0.03090422 0.08673272 -0.04934705 -0.06543009 -0.06820073 -0.010512402 -0.042510226
0.050937902 -0.060280856 -0.040382184 -0.07514674 -0.08858221 0.03725672 0.027011143 -0.06353671
0.07145056 -0.021196982 -0.06280795 0.11092209 -0.09074174 0.11804359 -0.024797773 0.06575839
0.019456701 0.03994511 -0.068081155 0.102141984 0.0033036792 -0.06016835 -0.13289747 -0.068471745
0.013890752 0.02317557 0.027897602 0.017033612 0.083367646 -0.0024666197 0.053342044 0.12948912
-0.010436973 -0.04049938 0.07483348 -0.04128323 0.02009068 -0.065383494 0.044360604 -0.03358055
0.10599357 -0.0075423024 -0.08394663 -0.06396586 0.11542042 -0.004454555 0.037728447 -0.05945522
-0.013792277 0.110144906 0.009029559 0.103246 0.011017257 0.050595306 0.10526266 0.11296643
-0.016466998 0.047252968 0.026520522 0.050810076 0.04235449 0.095848076 -0.07995795 -0.033785984
-0.1292448 -0.08289159 0.013291969 0.062998086 0.014610585 0.08008167 -0.03804275 0.035459425
-0.066158615 0.10709932 0.0010083813 -0.027033797 -0.095531106 0.08087439 0.13164842 -0.11965437
-0.10357031 0.08812515 -0.13717318 -0.04193526 0.0012115452 0.047642767 -0.045900248 0.041340012
0.097292155 0.00082460936 0.011803298 -0.09921108 0.037858054 0.044261526 0.034814727 0.06556521
-0.08783635 -0.070956044 -0.0075533045 -0.021780027 -0.05198791 -0.09599735 -0.08283214 -0.022640254
0.03676537 0.062138304 0.08013118 0.006202843 0.038440198 -0.10486717 -0.07768211 0.124881715
-0.006908778 0.04620155 0.035047185 -0.06197592 -0.018954573 0.09989127 -0.03442219 0.06379722
-0.04657531 -0.054404426 -0.029696379 -0.094568335 -0.037913878 -0.038910087 -0.07110976 -0.07382964
-0.025492657 -0.028037138 -0.037883908 -0.06955599 -0.007629207 0.061237033 -0.037325803 -0.011309187
-0.09040305 0.066923015 -0.0061384235 -0.037697427 0.062262945 0.090877354 0.05158628 0.010719657
-0.04036423 0.04895849 0.08129888 0.04457862 0.000721333 -0.0666604 -0.077802256 0.06985213
0.07378045 0.13455363 0.05784217 -0.11744003 -0.029791072 0.12890576 0.016891617 0.08447425
-0.10054817 -0.04636712 0.07520167 -0.061181 0.04734896 -0.11366707 0.08330844 0.0029667823
0.057651564 0.07628282 0.04548084 -0.10845679 0.10469232 0.049100272 -0.025838275 -0.0029445428
0.027543837 -0.05188542 -0.0051521263 -0.11044242 -0.021540474 -0.02988963 0.031749196 0.060317412
0.08294879 0.088343784 -0.11289409 0.080762304 0.09309764 -0.09185799 0.12174817 -0.04751594
-0.042173505 0.02801434 -0.03393644 0.040147986 0.055355925 0.019408807 -0.08127549 0.016833065
0.08630791 -0.086611725 0.024734506 0.059219643 0.054148477 0.06638608 0.07578083 0.11243503
0.064194374 -0.031333048 -0.03542401 0.05712038 -0.010702929 -0.08718952 -0.039752364 -0.023631498
00000000: c639 9dbd bd36 bcbd 8405 9d3d b6a6 bfbd
00000010: a2cb b7bd a555 8fbd 4130 c6bd 032d e4bd
00000020: b276 03bd f0d2 99bc ee18 ce3d 0ff4 0b3d
00000030: 175d 8ebd 7c2d 40bd b894 d6bd e270 453d
00000040: a22b 14bd c1c6 923d 0dbb f73c 07b4 7b3d
00000050: 531b fa3d 7547 e93c e2a3 aa3c 336b 453c
00000060: d3a1 89bd 2d24 a93d 67e2 b0bd c9dd 0fbc
00000070: 942d c6bc 6c1c 5c3d c35f 05be ec8d 44bd
00000080: 2b7b fc3d d92a fdbc eda0 b13d 2220 4abd
00000090: 3600 86bd d3ac 8bbd 363c 2cbc 341f 2ebd
000000a0: 43a4 503d 0fe9 76bd ca67 25bd 89e6 99bd
000000b0: 976a b5bd 819a 183d 7946 dd3c 891f 82bd
000000c0: ac54 923d 4ba5 adbc 74a1 80bd 1f2b e33d
000000d0: ced6 b9bd d6c0 f13d b324 cbbc 56ac 863d
000000e0: a963 9f3c 7c9d 233d 226e 8bbd d12f d13d
000000f0: 8a82 583b 1673 76bd 4616 08be ea3a 8cbd
00000100: 0996 633c b1da bd3c 8389 e43c 138a 8b3c
00000110: a8bc aa3d 03a7 21bb 307d 5a3d cc98 043e
00000120: d6ff 2abc aee2 25bd 4c42 993d 9b18 29bd
00000130: 3695 a43c c8e7 85bd 77b3 353d c28b 09bd
00000140: 2813 d93d 6b25 f7bb 36ec abbd 8800 83bd
00000150: 8b61 ec3d 84f7 91bb 2589 1a3d 5187 73bd
00000160: 01f9 61bc a793 e13d b7f0 133c a472 d33d
00000170: ba81 343c 063d 4f3d f393 d73d f25a e73d
00000180: cce5 86bc 548c 413d 9141 d93c 3a1e 503d
00000190: e77b 2d3d ff4b c43d fec0 a3bd 2c63 0abd
000001a0: c058 04be 11c3 a9bd 8fc6 593c 2405 813d
000001b0: 3c61 6f3c dc01 a43d b7d2 1bbd e73d 113d
000001c0: 2b7e 87bd e356 db3d a92b 843a fb75 ddbc
000001d0: d0a5 c3bd 79a1 a53d d8ce 063e 5a0d f5bd
000001e0: ac1c d4bd f57a b43d 2077 0cbe 4fc4 2bbd
000001f0: b6cc 9e3a 1025 433d e601 3cbd 2554 293d
00000200: 1c41 c73d 992a 583a 9f62 413c 2e2f cbbd
00000210: 0c11 1b3d 934b 353d e399 0e3d 0e47 863d
00000220: 8be3 b3bd 6751 91bd b681 f7bb 076c b2bc
00000230: 46f1 54bd 429a c4bd e6a3 a9bd 0e78 b9bc
00000240: 4997 163d bc84 7e3d d11b a43d 3841 cb3b
00000250: 7873 1d3d 99c4 d6bd cc17 9fbd fcc1 ff3d
00000260: 0863 e2bb d63d 3d3d a38d 0f3d 76da 7dbd
00000270: 9f46 9bbc cb93 cc3d 48fe 0cbd 1ea8 823d
00000280: c1c5 3ebd 2dd7 5ebd d245 f3bc 0bad c1bd
00000290: 954b 1bbd 2f60 1fbd fea1 91bd ff33 97bd
000002a0: fad5 d0bc 24ae e5bc 282c 1bbd 5f73 8ebd
000002b0: 6dfe f9bb afd3 7a3d f1e2 18bd 2b4a 39bc
000002c0: 3c25 b9bd ef0e 893d d424 c9bb 9e68 1abd
000002d0: 6e07 7f3d e81d ba3d 234c 533d 80a1 2f3c
000002e0: f654 25bd b388 483d 0780 a63d 1298 363d
000002f0: d717 3d3a 3f85 88bd ca56 9fbd a20e 8f3d
00000300: 341a 973d 6dc8 093e e9eb 6c3d 6684 f0bd
00000310: 680c f4bc dfff 033e 4a60 8a3c d600 ad3d
00000320: 33ec cdbd 73eb 3dbd 5503 9a3d ee98 7abd
00000330: fcf0 413d 48ca e8bd 9e9d aa3d 596e 423b
00000340: 0c24 6c3d 2b3a 9c3d 1e4a 3a3d 981e debd
00000350: ed68 d63d 5e1d 493d caaa d3bc 3bf9 40bb
00000360: 9da3 e13c ce85 54bd 2bd3 a8bb a32f e2bd
00000370: a675 b0bc 19db f4bc 720b 023d 640f 773d
00000380: 0ee1 a93d 96ed b43d 0435 e7bd b566 a53d
00000390: faa9 be3d 0b20 bcbd 1b57 f93d 13a0 42bd
000003a0: 20be 2cbd 547e e53c f000 0bbd 3772 243d
000003b0: e5bc 623d 38ff 9e3c c473 a6bd 7fe5 893c
000003c0: 34c2 b03d 7d61 b1bd 05a0 ca3c 4c90 723d
000003d0: cbca 5d3d 6df5 873d fb32 9b3d 5644 e63d
000003e0: 5778 833d 1557 00bd c418 11bd 0ff7 693d
000003f0: 575b 2fbc 6b90 b2bd 60d3 22bd d896 c1bc

encoder.linear_means.bias f4 [12]
0.0011386715 -0.0009798995 -0.002307461 -0.0008204742 -2.309305e-05 0.00014875451 0.00014262434 -0.0011101365
-0.0005540458 0.00021249447 -0.00310683 -0.00022805993
00000000: 7a3f 953a f96f 80ba c638 17bb 1715 57ba
00000010: f2b7 c1b7 fcfa 1b39 6e8d 1539 0082 91ba
00000020: 623d 11ba 0dd1 5e39 f59b 4bbb 5f23 6fb9

encoder.linear_log_var.weight f4 [12, 64]
-0.11120989 0.059274815 0.11126345 -0.07439515 0.08022846 -0.045603856 -0.023579657 0.07328011
-0.08833232 0.033204637 -0.08117839 0.06445757 0.10566996 -0.11737026 -0.07447367 -0.019745307
0.0121382475 0.008099746 0.0032045813 0.09163792 -0.08922281 -0.067081615 0.09475902 0.093732744
0.10112878 -0.011399235 0.07695734 0.021646168 0.027414454 -0.08584856 -0.030329319 0.033124357
0.009818344 0.023739373 -0.063142404 -0.032663718 0.03314531 -0.103312336 0.098228686 0.022929916
-0.08875441 -0.094728865 -0.12145164 -0.13832934 0.040101197 -0.07340071 0.020145984 -0.07004971
0.08830015 0.07046163 -0.03275653 0.005841986 0.045319427 0.018745152 0.028128458 0.06848843
-0.11214888 -0.01608656 -0.092399225 0.036975965 0.0026275415 0.0354435 -0.080451384 0.07324053
-0.11972518 0.088846125 0.062390815 -0.106128715 -0.025784496 -0.003842726 0.07940563 0.009644434
0.059474505 0.016039265 0.0698176 0.0736307 0.00583535 0.009812802 0.063328184 -0.08496159
-0.083292566 -0.08412699 -0.1325053 -0.012146265 -0.06327069 0.05943846 -0.029295417 -0.107185
-0.0729529 0.017681407 -0.118124336 0.10529189 -0.0287694 0.07263264 0.1013544 -0.1198722
0.04993581 -0.10663243 -0.07517664 -0.091877215 -0.040699683 -0.06417074 0.11844464 0.017317178
-0.02479246 -0.04701896 -0.08775117 -0.03161237 -0.056604978 -0.08106887 0.10051218 0.10767199
0.0718109 0.11555563 0.016451988 -0.025489083 -0.08329467 0.070875876 -0.04836191 -0.0070882984
0.08817376 0.094793156 0.09262022 0.07258634 0.042715948 -0.020136878 -0.13381986 -0.03801718
0.06162158 0.03768497 -0.092734136 0.107173674 -0.14292772 0.09410802 -0.07668443 -0.09223802
-0.068273276 -0.05112631 -0.041792504 0.08268328 0.11291276 0.037868217 -0.10137496 0.09680906
-0.062421076 0.0005430535 -0.019812461 0.024849916 -0.112782404 -0.11804381 0.101869345 0.03910034
-0.0043444377 0.11477491 -0.0671192 -0.027492031 -0.043292254 -0.021887 0.11560963 0.016509607
-0.0040549245 -0.05840165 0.050108768 -0.08003686 -0.11241126 -0.04261508 0.061775416 0.04251628
-0.06739819 0.06325877 0.072965264 0.029002745 -0.0697041 -0.08851421 0.016541684 -0.018704075
0.03930884 0.0064242394 0.05039567 0.022943355 0.107058555 -0.0706001 -0.040141057 0.055574723
0.132299 0.03924058 0.11380965 0.15632376 -0.09101368 -0.055939473 -0.10819539 -0.113274544
-0.011477245 -0.13708426 -0.046726577 -0.02013473 0.092970185 0.04626801 -0.0711531 -0.010212002
-0.057452988 -0.009005185 0.013706237 0.0038308296 -0.055597305 0.0019111646 -0.093901 -0.1331482
-0.02214238 -0.014351024 -0.09188646 0.02427749 -0.07400898 -0.08828328 -0.09904467 -0.11506276
0.025922323 -0.10240705 -0.11357294 0.0258852 0.0665286 -0.0075849826 0.09339641 -0.023306638
-0.17162557 -0.09130719 -0.06597224 0.10740634 -0.022556731 -0.10390311 0.07505289 0.038486097
-0.012559709 -0.00064428424 0.018616127 0.07251905 -0.0887038 -0.1937139 0.10666958 -0.021942684
0.016000705 0.1184175 -0.10925819 0.010889955 0.011648606 0.017903997 -0.054308414 0.07174952
-0.0019387138 -0.09985224 0.08476623 0.036604237 0.09960465 0.11560649 0.032546822 0.043146644
00000000: 03c2 e3bd 26ca 723d 17de e33d 7c5c 98bd
00000010: d24e a43d 1ccb 3abd 202a c1bc e213 963d
00000020: 93e7 b4bd 9601 083d db40 a6bd 5502 843d
00000030: 7e69 d83d d25f f0bd a785 98bd e9c0 a1bc
00000040: 80df 463c ccb4 043c f403 523b a9ac bb3d
00000050: 73ba b6bd 1662 89bd 0411 c23d f4f6 bf3d
00000060: 9b1c cf3d dbc3 3abc cf9b 9d3d 4e53 b13c
00000070: 4794 e03c 5fd1 afbd 3175 f8bc 68ad 073d
00000080: 1fdd 203c 1379 c23c ce50 81bd 64ca 05bd
00000090: 60c3 073d 6b95 d3bd 1f2c c93d 85d7 bb3c
000000a0: dfc4 b5bd 3501 c2bd a3bb f8bd 35a6 0dbe
000000b0: 2741 243d 1d53 96bd 3109 a53c 3976 8fbd
000000c0: b6d6 b43d 304e 903d b62b 06bd 216e bf3b
000000d0: dda0 393d 6f8f 993c a76d e63c a943 8c3d
000000e0: 50ae e5bd f6c7 83bc ce3b bdbd 1c74 173d
000000f0: d532 2c3b 342d 113d b2c3 a4bd 22ff 953d
00000100: 7a32 f5bd f5f4 b53d 838d 7f3d 035a d9bd
00000110: 023a d3bc 3ed6 7bbb 6b9f a23d b003 1e3c
00000120: 8a9b 733d c764 833c 88fc 8e3d b1cb 963d
00000130: 7736 bf3b e0c5 203c 35b2 813d 5800 aebd
00000140: 4b95 aabd c54a acbd 78af 07be 2101 47bc
00000150: 1094 81bd be75 733d f1fc efbc cf83 dbbd
00000160: 5468 95bd 99d8 903c 2ceb f1bd 46a3 d73d
00000170: cead ebbc 6cc0 943d e592 cf3d 8e7f f5bd
00000180: 7e89 4c3d 1a62 dabd 36f6 99bd 1f2a bcbd
00000190: b6b4 26bd f36b 83bd 1a93 f23d c1dc 8d3c
000001a0: 8f19 cbbc f496 40bd e3b6 b3bd f97b 01bd
000001b0: 9fda 67bd 7007 a6bd 54d9 cd3d 2283 dc3d
000001c0: 9811 933d 6ea8 ec3d 52c6 863c 7bce d0bc
000001d0: 6596 aabd 5f27 913d 2317 46bd f544 e8bb
000001e0: 7294 b43d ea22 c23d abaf bd3d 26a8 943d
000001f0: ebf6 2e3d 18f6 a4bc 1308 09be e7b7 1bbd
00000200: e966 7c3d 8e5b 1a3d 65eb bdbd df7d db3d
00000210: a55b 12be b5bb c03d ba0c 9dbd 49e7 bcbd
00000220: dcd2 8bbd d269 51bd 9e2e 2bbd da55 a93d
00000230: ce3e e73d b41b 1b3d ad9d cfbd d443 c63d
00000240: 3ead 7fbd b45b 0e3a be4d a2bc 0d92 cb3c
00000250: 76fa e6bd f4c0 f1bd e0a0 d03d ae27 203d
00000260: c95b 8ebb 1c0f eb3d cb75 89bd f836 e1bc
00000270: 3853 31bd 5e4c b3bc bec4 ec3d 283f 873c
00000280: 2cdf 84bb 9236 6fbd da3e 4d3d 5eea a3bd
00000290: e037 e6bd 268d 2ebd 3808 7d3d 8d25 2e3d
000002a0: 1008 8abd d08d 813d d06e 953d 2a97 ed3c
000002b0: 06c1 8ebd f046 b5bd 6d82 873c 4a39 99bc
000002c0: 4e02 213d 6d82 d23b b16b 4e3d b4f3 bb3c
000002d0: 8441 db3d c996 90bd f36a 24bd 52a2 633d
000002e0: 6479 073e bbba 203d 0915 e93d 5613 203e
000002f0: 6165 babd ca20 65bd 8b95 ddbd 7cfc e7bd
00000300: 0e0b 3cbc d15f 0cbe 5e64 3fbd 97f1 a4bc
00000310: 2767 be3d 8683 3d3d b7b8 91bd 3e50 27bc
00000320: d353 6bbd 7c8a 13bc 2090 603c a80e 7b3b
00000330: 00ba 63bd 0b80 fa3a 2b4f c0bd 0058 08be
00000340: f063 b5bc 8f20 6bbc f82e bcbd 96e1 c63c
00000350: 0592 97bd ddcd b4bd efd7 cabd 06a6 ebbd
00000360: 0d5b d43c caba d1bd ee98 e8bd 330d d43c
00000370: 2640 883d 728b f8bb 9e46 bf3d 90ed bebc
00000380: 9dbe 2fbe 44ff babd 741c 87bd dbf7 db3d
00000390: e5c8 b8bc 27cb d4bd 54b5 993d 99a3 1d3d
000003a0: 3dc7 4dbc 2fe5 28ba d980 983c de84 943d
000003b0: 57aa b5bd f05c 46be 9575 da3d 25c1 b3bc
000003c0: e913 833c e084 f23d c2c2 dfbd c86b 323c
000003d0: cbd9 3e3c 67ab 923c 8072 5ebd 6af1 923d
000003e0: 711c feba 557f ccbd eb99 ad3d 53ee 153d
000003f0: 86fd cb3d 18c3 ec3d d14f 053d 89ba 303d

encoder.linear_log_var.bias f4 [12]
0.0003731658 -0.0018488533 0.00029605304 -0.00014291641 -0.0020367452 -0.00083183934 -0.00082871434 -0.0025260244
-0.0025468336 0.0017802133 -0.0007486311 -0.0019919828
00000000: 77a5 c339 3955 f2ba 9137 9b39 d5db 15b9
00000010: ea7a 05bb cb0f 5aba 143e 59ba a88b 25bb
00000020: c7e8 26bb 0c56 e93a c83f 44ba ed8b 02bb

decoder.MLP.L0.weight f4 [64, 18]
-0.012643941 -0.013663929 0.015814044 0.011954788 -0.0071009076 0.0076537556 0.0022377335 -0.006545684
0.013978542 0.0065794014 -0.007861618 -0.017329609 -0.4368691 -0.78980964 2.4278164 -2.1887279
-15.182363 6.5357614 0.00031472635 0.008454458 0.002793492 -0.002420563 -0.012032797 -0.0036484029
-0.001465596 -0.0035446633 -0.0012518382 0.0044492735 0.002808756 -0.0031085012 0.33846313 -0.5462366
5.283577 -7.213259 0.20282373 -0.73780394 0.00049377553 -0.000264818 0.0076876534 -0.0010256424
-0.0029372887 -0.0044258335 0.0069673224 0.0038678562 0.0069180294 0.0048831194 0.0026635956 0.0054678502
2.5310824 -1.512732 0.51527834 -5.0615163 5.8557296 1.8474265 -0.046012692 -0.041235983
0.009792107 -0.0038246321 0.03745394 -0.071351476 -0.009380121 0.03347184 0.044307683 -0.031105744
-0.038680587 -0.052639004 -0.16901569 -0.06275465 -0.09521352 -0.46241745 -0.33519906 -0.016619911
-0.03249925 -0.04632315 -0.013805624 0.011504731 -0.022721602 0.022676429 0.030181937 -0.0056932596
0.021786958 0.0029256758 0.0075117336 -0.08548125 -0.5879637 -0.45768526 -0.064623065 -0.35362765
-0.03331136 -0.22188717 -0.065527715 0.04504591 0.070445895 0.05700899 0.008817726 0.047401346
0.01993908 -9.375083e-05 -0.078750044 -0.077177234 -0.068522796 0.057918184 -0.66656625 -0.7155589
-0.29867876 -0.43002954 -0.30673003 -0.31599224 -0.03912731 -0.05280681 -0.0063759172 -0.07014659
0.07875259 -0.043598842 0.031360418 0.048936933 -0.006443277 -0.029639052 -0.05074233 -0.033434127
-0.80699694 -0.5008524 -0.74543893 -0.5290668 -0.25490904 -0.7625879 -0.030629504 0.05041887
0.04892599 0.028109366 -0.0033436434 0.034060888 0.02268739 0.003466044 -0.014030857 -0.0019592496
0.029288128 -0.03552908 -2.1621037 -0.95593905 -1.9625598 3.5534499 -13.834598 -22.439648
0.06435686 0.03340169 -0.0074353116 -0.008251214 -0.010983042 -0.0069995546 0.0065849167 0.05291276
0.0066064433 -0.009035491 0.006260518 0.024538187 -0.28986153 -0.16660297 -0.08731464 0.068964794
0.13390948 0.06160493 -0.013808042 0.0029063928 0.006366111 0.014601045 -0.019435039 0.006428811
-0.015908571 0.009243692 -0.025811546 0.02777306 0.027764406 0.022148874 -0.45288417 -0.47101018
-0.32752278 -0.4408438 -0.19695164 -0.5536335 -0.054140337 0.08850405 -0.02888662 -0.006260021
-0.05519042 -0.009443993 0.07954053 0.057401028 -0.015166444 0.0038741375 -0.028124081 -0.032978714
-0.25337192 -0.2183986 -0.5318464 -0.4258843 3.0981886e-05 -0.24555011 0.04140557 0.003978188
0.07338036 -0.0327942 0.062023282 0.0063088797 -0.041982703 0.0074518085 -0.03090716 0.0032050852
0.05364879 -0.03643236 -0.31079254 -0.35354123 -0.34801245 -0.6765547 -0.42298722 0.26757059
-0.03089097 0.01597922 0.023377214 -0.028236246 0.057416566 -0.02053458 -0.054138917 0.020110492
-0.0010849279 -0.057282 -0.02422713 -0.010657187 -0.5630626 -0.5805007 -0.6370181 -0.21511436
-0.0830198 -0.43360642 -0.025681976 0.025780203 -0.040995646 0.0843664 -0.018790314 0.04176042
-0.03703459 0.079067886 -0.08938738 0.08412475 0.022156466 -0.029437693 -0.28738543 -0.56808096
-0.1512017 -0.24110334 -0.24685305 -1.0067017 -0.03235614 -0.023849916 -0.036823694 -0.08604891
00000000: 8828 4fbc acde 5fbc 748c 813c 04de 433c
00000010: bbae e8bb 5bcc fa3b f0a6 123b 2d7d d6bb
00000020: 4106 653c 0598 d73b 04ce 00bc d3f6 8dbc
00000030: 4fad dfbe f730 4abf 5861 1b40 1e14 0cc0
00000040: f5ea 72c1 f524 d140 db01 a539 9184 0a3c
00000050: 0513 373b 4fa2 1ebb 3525 45bc 0b1a 6fbb
00000060: 3e19 c0ba 954d 68bb b814 a4ba 36cb 913b
00000070: 1b13 383b ffb7 4bbb 0a4b ad3e 29d6 0bbf
00000080: 1013 a940 05d3 e6c0 06b1 4f3e b8e0 3cbf
00000090: b770 013a 45d7 8ab9 b6e8 fb3b d96e 86ba
000000a0: 877f 40bb 9506 91bb 234e e43b dc7b 7d3b
000000b0: a3b0 e23b 9302 a03b b88f 2e3b a72b b33b
000000c0: 41fd 2140 34a1 c1bf 48e9 033f f1f7 a1c0
000000d0: 2362 bb40 7978 ec3f ce77 3cbd 10e7 28bd
000000e0: 136f 203c aea6 7abb 4d69 193d b920 92bd
000000f0: 14af 19bc c519 093d f97b 353d 79d1 febc
00000100: 896f 1ebd ff9b 57bd 7312 2dbe 8385 80bd
00000110: 4eff c2bd fbc1 ecbe 369f abbe 7b26 88bc
00000120: ef1d 05bd 58bd 3dbd fc30 62bc 577e 3c3c
00000130: a722 babc ebc3 b93c 1c40 f73c 868e babb
00000140: 907a b23c b2bc 3f3b fd24 f63b cb10 afbd
00000150: ca84 16bf b955 eabe 1959 84bd af0e b5be
00000160: 7e71 08bd 6436 63be 6533 86bd 0f82 383d
00000170: f045 903d 4282 693d 3978 103c ea27 423d
00000180: 4857 a33c 189c c4b8 b447 a1bd 190f 9ebd
00000190: ae55 8cbd 9e3b 6d3d 16a4 2abf de2e 37bf
000001a0: 6cec 98be d52c dcbe b80b 9dbe bcc9 a1be
000001b0: f543 20bd f44b 58bd 12ed d0bb 04a9 8fbd
000001c0: 0a49 a13d b394 32bd c873 003d 1872 483d
000001d0: 2022 d3bb 99cd f2bc 30d7 4fbd 39f2 08bd
000001e0: 5a97 4ebf dd37 00bf 16d5 3ebf ec70 07bf
000001f0: 7083 82be f638 43bf baea fabc 0484 4e3d
00000200: 9e66 483d 9d45 e63c 0721 5bbb 6e83 0b3d
00000210: e8da b93c 9226 633b aee1 65bc c166 00bb
00000220: a8ed ef3c f186 11bd e85f 0ac0 6cb8 74bf
00000230: 2935 fbbf b96b 6340 835a 5dc1 6684 b3c1
00000240: 88cd 833d 36d0 083d eaa3 f3bb 1a30 07bc
00000250: 38f2 33bc 855c e5bb 49c6 d73b 0dbb 583d
00000260: dd7a d83b 9909 14bc 0825 cd3b 4f04 c93c
00000270: bb68 94be f899 2abe 05d2 b2bd 6a3d 8d3d
00000280: 911f 093e 7355 7c3d 203b 62bc 2e79 3e3b
00000290: cf9a d03b 3939 6f3c 3b36 9fbc c6a8 d23b
000002a0: b152 82bc db72 173c bc72 d3bc 5484 e33c
000002b0: 2e72 e33c 8e71 b53c 6fe0 e7be 3f28 f1be
000002c0: 11b1 a7be 47b6 e1be b1ad 49be edba 0dbf
000002d0: 42c2 5dbd 9d41 b53d a2a3 ecbc dd20 cdbb
000002e0: 5a0f 62bd faba 1abc 25e6 a23d 571d 6b3d
000002f0: ad7c 78bc 3ee5 7d3b 7964 e6bc b014 07bd
00000300: f7b9 81be e2a3 5fbe 1627 08bf 820d dabe
00000310: 8cf2 0138 7d71 7bbe e398 293d 765b 823b
00000320: 7148 963d 3653 06bd 200c 7e3d b8ba ce3b
00000330: 0ef6 2bbd 4d2e f43b 0331 fdbc 680c 523b
00000340: d5be 5b3d 193a 15bd 3320 9fbe 5b03 b5be
00000350: b02e b2be b032 2dbf c891 d8be 03ff 883e
00000360: 0f0f fdbc dae6 823c 9281 bf3c b34f e7bc
00000370: a22d 6b3d 2338 a8bc c5c0 5dbd c2be a43c
00000380: 2434 8eba 88a0 6abd f977 c6bc 7b9b 2ebc
00000390: df24 10bf b29b 14bf 9e13 23bf f046 5cbe
000003a0: 4906 aabd a901 debe 0263 d2bc 0131 d33c
000003b0: 0deb 27bd 4bc8 ac3d 25ee 99bc f90c 2b3d
000003c0: 95b1 17bd 58ee a13d bb10 b7bd 9949 ac3d
000003d0: 7a81 b53c 5127 f1bc 2f24 93be c16d 11bf
000003e0: 9ed4 1abe cbe3 76be 0cc7 7cbe 9adb 80bf
000003f0: df87 04bd e660 c3bc 71d4 16bd 693a b0bd
