model/CVAE_8000_0.005_32_[12, 320, 180, 90]_14_[90, 180, 320, 6].pth (torch, 643842 bytes, 18 tensors)

encoder.MLP.L0.weight f4 [320, 12]
0	0xbd22fc87	-0.03979161
1	0x3e436471	0.19081284
2	0xbe8cb476	-0.2748143
3	0xbe8013a5	-0.25014988
4	0xbe189595	-0.14900811
5	0x3d1f0913	0.038827013
6	0xbd3763e8	-0.044773012
7	0x3e46afee	0.1940305
8	0xbd712b8d	-0.058879424
9	0x3d3581b1	0.044313136
10	0xbdf1f301	-0.118139274
11	0xbdb1b8c2	-0.08677818
12	0xbe9dc209	-0.308121
13	0xbe25543e	-0.16145417
14	0xbe1b3236	-0.15155873
15	0xbcb377f5	-0.021907786
16	0x3da6ee86	0.081509635
17	0x3e107a2e	0.14109108
18	0xbe68359d	-0.22676702
19	0xbe20ccf6	-0.15703186
20	0x3d969490	0.07352555
21	0x3e556101	0.20837785
22	0xbdba0fae	-0.09085022
23	0x3e3d1bad	0.18467589
24	0xbd3e95d8	-0.04652962
25	0x3cfa3b60	0.03054589
26	0x3e85d4b6	0.26138848
27	0xbe891c79	-0.26779535
28	0xbe3a17f0	-0.18173194
29	0xbd95ac48	-0.07308251
30	0xbde673cc	-0.11252555
31	0x3e7f66c8	0.24941552
32	0xbe3f9aa4	-0.18711334
33	0xbe081370	-0.13288665
34	0xbe4e853c	-0.20168012
35	0xbe8a6cdf	-0.27036187
36	0xbe6bc5c1	-0.23024656
37	0x3e849b85	0.25899902
38	0x3d90d917	0.070726566
39	0x3db0de58	0.08636159
40	0xbd20ffd1	-0.039306466
41	0xbe582280	-0.2110691
42	0xbcfd54ed	-0.030924285
43	0xbeb3f2f5	-0.351463
44	0xbe9b4c4f	-0.30331656
45	0xbe79c3c0	-0.24391079
46	0x3db2b08b	0.08725079
47	0x3dcf54d3	0.10123601
48	0xbe96964c	-0.29411542
49	0x3d2dab1a	0.042399503
50	0x3e22b5ad	0.15889616
51	0x3e2cbf2e	0.16869804
52	0xbc39e8d2	-0.011347013
53	0xbdf9b552	-0.12192787
54	0x3ddfade6	0.1092184
55	0xbe606ff0	-0.21917701
56	0x3dbc3e68	0.091915905
57	0xbe2ae0ff	-0.16687392
58	0xbdd6e12f	-0.10492169
59	0xbe77bb4c	-0.24192542
60	0x3e006155	0.12537129
61	0x3e1a9a81	0.15098001
62	0xbe4fc2d8	-0.2028917
63	0x3db18365	0.0866764
64	0x3e23a42a	0.15980592
65	0xbc94c003	-0.018157965
66	0x3936fccd	0.00017451048
67	0x3d271437	0.040790763
68	0x3e0f943a	0.14021388
69	0x3e730445	0.23732097
70	0xbe8789e7	-0.264724
71	0xbe1787a7	-0.14797841
72	0xbd83f6b2	-0.06443538
73	0x3e775912	0.24155071
74	0x3e82e061	0.25561813
75	0x3e15223d	0.14563842
76	0xbd7229d9	-0.05912194
77	0xbecdd752	-0.4020334
78	0xbbe163d8	-0.0068783574
79	0xbe3ca3a8	-0.18421805
80	0xbe4181b2	-0.18897131
81	0x3ea9e2d0	0.33180857
82	0x3e98e298	0.29860377
83	0xbee8913e	-0.4542331
84	0x3d6ee5e9	0.05832473
85	0xbc81449d	-0.015779788
86	0xbd977727	-0.073957734
87	0xbe0f9955	-0.14023335
88	0x3dd75159	0.10513563
89	0xbe16da3f	-0.14731692
90	0x3ddb75c0	0.107158184
91	0x3dd58425	0.10425595
92	0x3e116d1b	0.14201777
93	0x3d206ad8	0.039164394
94	0xbeb8b35b	-0.36074337
95	0xbe889429	-0.26675537
96	0x3dd8ccb1	0.10585917
97	0x3dac221a	0.08404942
98	0xbe81adc8	-0.25327897
99	0xbe4dee95	-0.20110543
100	0x3e711657	0.23543678
101	0x3e1de156	0.1541799
102	0xbe196338	-0.14979255
103	0xbdc25fc8	-0.09490925
104	0xbe93f692	-0.28899056
105	0xbc83738b	-0.016046306
106	0xbe78970c	-0.2427637
107	0xbe895cec	-0.26828706
108	0xbc824d10	-0.015905887
109	0x3d318898	0.043343157
110	0xbdf21df6	-0.11822121
111	0x3e2f6786	0.17129335
112	0xbe33e2dd	-0.1756701
113	0x3e861c5e	0.26193517
114	0x3e4a93b2	0.19782904
115	0xbe7946fa	-0.24343482
116	0xbd93245e	-0.07184671
117	0x3c556a20	0.01302579
118	0x3d2c83f0	0.042118013
119	0x3d8c3810	0.068466306
120	0x3de80198	0.11328429
121	0x3c8da750	0.017291695
122	0xbe103bbe	-0.1408529
123	0x3e0be052	0.1365979
124	0xbe8dc751	-0.2769113
125	0xbe2f34c1	-0.17109968
126	0xbd93ff26	-0.072264
127	0xbe0ffe09	-0.1406175
128	0xbdced2e6	-0.100988194
129	0xbe72486c	-0.23660439
130	0xbd7b8468	-0.06140557
131	0x3d7cbf98	0.061706156
132	0xbe6a247b	-0.22865479
133	0x3cabcd5d	0.020971948
134	0x3e2cb867	0.16867219
135	0xbd8cecb5	-0.06881086
136	0xbcfe881f	-0.031070767
137	0xbd87aea7	-0.06625109
138	0x3c8bfd21	0.017088475
139	0x3e13bb34	0.14426881
140	0x3e708339	0.23487557
141	0x3e1477f0	0.14498878
142	0x3e71ad6d	0.23601313
143	0xbd6d341a	-0.057911016
144	0xbe84c5ff	-0.2593231
145	0xbe0c2389	-0.1368543
146	0x3e494722	0.19656041
147	0xbaf54700	-0.0018713176
148	0xbe12edb6	-0.14348492
149	0xbe62863a	-0.22121516
150	0xbe8a520c	-0.27015722
151	0xbe797ddc	-0.24364418
152	0xbd6fd63c	-0.05855392
153	0x3e221c54	0.15831119
154	0x3e1fd0b8	0.15606964
155	0xbe8e8b6d	-0.27840748
156	0x3e38645e	0.18007037
157	0xbe674ffa	-0.22589102
158	0xbd79f970	-0.061028898
159	0xbdefb7d8	-0.11704987
160	0xbd63c038	-0.055603236
161	0xbd682880	-0.05667925
162	0xbe84a13c	-0.25904262
163	0xbe7f3c31	-0.24925305
164	0xbd390600	-0.045171738
165	0x3b74a880	0.003733188
166	0xbe064901	-0.13113786
167	0x3ddeb504	0.1087437
168	0xbea0f23c	-0.3143481
169	0x3bf556eb	0.007487168
170	0x3e6d8e33	0.23198776
171	0xbe3b0a58	-0.18265665
172	0x3e45fdba	0.1933507
173	0x3ca6b7be	0.020351287
174	0xbe94ba47	-0.29048368
175	0x3e28cc4d	0.16484185
176	0xbd2a2bfa	-0.041545846
177	0xbe0d12eb	-0.13776748
178	0x3e632ce8	0.22185099
179	0xbe800388	-0.25002694
180	0xbd3b570f	-0.045737322
181	0xbc21e2ea	-0.009880761
182	0x3e34f01e	0.17669722
183	0xbb6d73b3	-0.0036232292
184	0x3d4f64c3	0.050633203
185	0xbb28326f	-0.0025664826
186	0xbde55e7c	-0.11199662
187	0xbdc02353	-0.093817376
188	0xbe875d48	-0.26438355
189	0x3e044ac8	0.12919152
190	0x3e4e77c1	0.2016287
191	0x3e24b924	0.1608625
192	0xbe50831e	-0.20362517
193	0x3c52f120	0.0128748715
194	0xbe506181	-0.20349695
195	0xbe22b997	-0.1589111
196	0xbe2c3fec	-0.1682126
197	0x3dca0abc	0.09865329
198	0xbe302768	-0.17202532
199	0xbbce6040	-0.006298095
200	0x3c46f7c0	0.012144029
201	0x3e3e8d80	0.18608665
202	0xbe5f73d6	-0.21821532
203	0xbe4aef70	-0.198179
204	0xbe858b18	-0.26082683
205	0x3e7f22a6	0.24915561
206	0xbe05a8b5	-0.13052638
207	0x3e33681d	0.17520185
208	0x3d0508bb	0.03247903
209	0xbd48f76d	-0.04906409
210	0xbd0ab0eb	-0.03386013
211	0xbd96a711	-0.07356084
212	0x3d5adf29	0.05343548
213	0xbd433f09	-0.047667537
214	0x3c8965b5	0.01677213
215	0xbc42eec2	-0.011897745
216	0xbe6738f2	-0.22580317
217	0xbe1aef5c	-0.15130371
218	0x3e6eb294	0.2331031
219	0xbe6fe55a	-0.23427334
220	0xbca9cf20	-0.020728648
221	0x3e92360c	0.2855686
222	0x3dd590d4	0.104280144
223	0x3c05e920	0.008173257
224	0xbe80161e	-0.25016874
225	0x3e126f74	0.14300328
226	0xbe528d75	-0.20561774
227	0xbda7d28c	-0.081944555
228	0xbe041ae1	-0.12900878
229	0x39d3d96d	0.0004040705
230	0xbd50f3f9	-0.05101392
231	0x3e4f6997	0.20255123
232	0x39310318	0.00016881188
233	0x3e7ba03d	0.24572845
234	0x3e07effd	0.13275142
235	0xbe74fd41	-0.23924734
236	0x3d38e4b8	0.04514
237	0xbe9505ea	-0.29106075
238	0xbe53bbeb	-0.20677154
239	0x3afa6bf1	0.0019105655
240	0x3d2f0cb7	0.042736735
241	0x3e74d2f3	0.23908596
242	0xbdeccc81	-0.115624435
243	0xbd1cefc4	-0.038314596
244	0x3dddb3d7	0.10825317
245	0xbea58853	-0.3233057
246	0x3e349117	0.17633472
247	0xbe8837c4	-0.26605046
248	0xbb176ee1	-0.002310686
249	0xbd467dc3	-0.04845978
250	0xbe07f4aa	-0.13276926
251	0xbc722211	-0.01477863
252	0x3e7470a0	0.23871088
253	0xbdacd23e	-0.08438538
254	0xbe2f7f7a	-0.17138472
255	0xbddaa6b4	-0.10676327

encoder.MLP.L0.bias f4 [320]
0	0xbe974994	-0.29548323
1	0xbe912deb	-0.28355345
2	0xbd7daea0	-0.061934114
3	0x3e203ab6	0.15647396
4	0xbd9bd6cf	-0.07609331
5	0x3d957a1c	0.07298681
6	0xbe6b253c	-0.22963423
7	0x3e92af57	0.286494
8	0xbd1b56b4	-0.037924483
9	0x3dc79f60	0.09747195
10	0x3b965900	0.0045882463
11	0x3b6628b4	0.0035119476
12	0x3dc525e4	0.09626368
13	0x3e62d71c	0.2215237
14	0x3da3ef0e	0.080045804
15	0xbd8ce374	-0.06879321
16	0x3dec5d48	0.115412295
17	0xbe31e9a0	-0.17374277
18	0x3e4a0e54	0.19732028
19	0x3d8ed22b	0.0697368
20	0x3e320118	0.1738323
21	0xbd389d74	-0.045072034
22	0xbebd1a92	-0.36934334
23	0x3ccf070f	0.02527192
24	0x3cee8f99	0.029121207
25	0x3e482445	0.19545086
26	0x3d72d81f	0.05928814
27	0x3d20c129	0.039246712
28	0x3e1ed1d3	0.15509729
29	0xbe0f80d7	-0.14013992
30	0x3e7e9c20	0.24864244
31	0x3de1d690	0.11027253
32	0x3e931213	0.28724727
33	0x3e3ec028	0.1862799
34	0xbe956343	-0.29177293
35	0x3d51da15	0.05123337
36	0x3e708c14	0.23490936
37	0xbe44592e	-0.19174644
38	0xbccaae90	-0.024741441
39	0xbeb0f139	-0.34559038
40	0xbe09ce5e	-0.13457629
41	0x3c9cead3	0.019154942
42	0x3de45596	0.11149137
43	0xbe394b03	-0.18095021
44	0xbec713d0	-0.38882303
45	0x3e1f9d6a	0.15587392
46	0x3dc371b1	0.09543169
47	0xbd59139b	-0.052997213
48	0x3e1a05fc	0.15041345
49	0x3e43f23b	0.19135372
50	0xbdf3ae6a	-0.11898501
51	0xbd6f5dd3	-0.058439087
52	0x3c6ea603	0.014565947
53	0xbd97d37b	-0.074133836
54	0xbe0fdee8	-0.14049876
55	0xbe16a16f	-0.1471002
56	0xbe71e411	-0.23622157
57	0x3de81407	0.11331945
58	0xbe033707	-0.1281396
59	0xbe34b5b1	-0.17647435
60	0x3edb600f	0.42846724
61	0xbc920a50	-0.017827183
62	0x3e38f99c	0.18063968
63	0x3e735bf4	0.23765546
64	0xbd90c734	-0.07069245
65	0x3d305f98	0.043059915
66	0x3e890860	0.26764202
67	0xbe4b62ae	-0.19861862
68	0xbe3f460d	-0.18679066
69	0xba9faef3	-0.0012182876
70	0xbd6c1ffe	-0.057647698
71	0x3d277d9b	0.04089127
72	0x3deec975	0.11659519
73	0xbe217c7b	-0.15770142
74	0x3c85e04d	0.016342307
75	0x3e049243	0.1294642
76	0xbe39d885	-0.18149002
77	0xbe934595	-0.28764024
78	0xbe7a7ded	-0.244621
79	0x3e0014ff	0.1250801
80	0xbe95b464	-0.2923919
81	0xbe4db6e4	-0.20089298
82	0x3e3aefd4	0.1825555
83	0xbe313560	-0.17305517
84	0x3e46ca51	0.19413115
85	0xbe3ecc99	-0.18632735
86	0x3c926ca9	0.017874079
87	0x3cc9134d	0.024545336
88	0x3c8328f5	0.01601074
89	0x3e0564e3	0.13026766
90	0x3e57e516	0.21083483
91	0xbe645efa	-0.22301856
92	0x3e25c8c2	0.16189864
93	0x3d9df670	0.0771302
94	0xbdffc70c	-0.12489137
95	0xbe4eb02d	-0.20184393
96	0x3daf5fe0	0.085632086
97	0x3e68fd64	0.22752911
98	0xbe7dba59	-0.24778117
99	0xbea5486f	-0.32281825
100	0xbe914d2c	-0.2837919
101	0x3d3d6d74	0.04624696
102	0xbde85d87	-0.11345964
103	0xbdb7a524	-0.08967045
104	0x3e598180	0.21240807
105	0xbe01b643	-0.12667184
106	0xbe636429	-0.22206177
107	0xbd5e3d9a	-0.054257967
108	0xbe5b5c9f	-0.21422051
109	0xbdf4b43c	-0.119484395
110	0x3e1c2574	0.15248662
111	0x3e171665	0.14754637
112	0xbe5ad55d	-0.21370454
113	0x3e015ab4	0.12632257
114	0x3e6682cb	0.22510831
115	0xbe5248e9	-0.20535626
116	0x3e5834ed	0.2111394
117	0x3d8ee8f4	0.06978026
118	0xbe8e1ac4	-0.27754796
119	0xbe8f1080	-0.27942276
120	0xbe74c446	-0.23902997
121	0x3ddd184c	0.1079565
122	0xbde88cc0	-0.11354971
123	0xbcc1bb01	-0.02364874
124	0xbe5563a6	-0.20838794
125	0x3e585612	0.21126583
126	0x3d16fb30	0.036860645
127	0xbe34c618	-0.17653692
128	0xbe2afd6c	-0.16698235
129	0x3d255f50	0.0403741
130	0x3d81ff04	0.063474685
131	0xbc8847bd	-0.01663577
132	0xbe63f12b	-0.22259967
133	0xbe37e2b0	-0.17957568
134	0x3e7ef7ac	0.24899167
135	0xbe749ffe	-0.23889157
136	0x3e9613cf	0.29311988
137	0x3d30bbb0	0.043147743
138	0x3cd7d834	0.02634821
139	0xbea70617	-0.32621834
140	0xbdeac64e	-0.11463605
141	0x3dd19bf3	0.10234823
142	0xbe985f0b	-0.29760012
143	0x3dc00909	0.09376723
144	0xbe9fa323	-0.3117915
145	0x3d2c7548	0.042104036
146	0xbe8ec925	-0.27887836
147	0xbe8e20fe	-0.27759546
148	0xbec4f357	-0.38466904
149	0xbe292491	-0.16517855
150	0x3d20fe88	0.03930524
151	0xbe8adaf7	-0.27120182
152	0x3d95d54c	0.07316074
153	0x3e0b12ef	0.13581441
154	0x3e372bfc	0.17887872
155	0x3e390420	0.1806798
156	0x3e429f3c	0.19006056
157	0xbdde4cf1	-0.10854519
158	0xbe0f9328	-0.1402098
159	0x3e6b02c3	0.22950272
160	0x3de2ee1a	0.110805705
161	0xbe29296c	-0.16519707
162	0x3de9aa65	0.11409453
163	0xbeadecba	-0.3396967
164	0x3e85d0a4	0.26135743
165	0x3d61af1e	0.055098645
166	0xbe5c0464	-0.2148605
167	0xbe86d83e	-0.26336855
168	0x3e672b60	0.2257514
169	0x3e9dad82	0.30796438
170	0xbdad3460	-0.08457255
171	0xbe3c6b45	-0.18400295
172	0x3e2182a2	0.15772489
173	0x3dd5efb4	0.1044611
174	0xbcfea4fd	-0.031084532
175	0x3e5058e1	0.20346405
176	0x3e3f9a40	0.18711185
177	0xbd650c3f	-0.055919882
178	0x3d8ef7f0	0.06980884
179	0xbedbe020	-0.4294443
180	0xbe189b74	-0.1490305
181	0x3c859df4	0.01631067
182	0x3c93e68b	0.018054267
183	0x3ca5338b	0.02016618
184	0x3d0beba7	0.034160282
185	0x3ce29dc6	0.027663123
186	0xbe8d0647	-0.27543852
187	0x3e0389c4	0.12845522
188	0xbd4f7f64	-0.0506586
189	0xbeacb2f0	-0.33730268
190	0xbc5988ee	-0.0132772755
191	0xbdf700d2	-0.12060703
192	0xbe6d8dcc	-0.23198622
193	0xbe8dbc23	-0.276826
194	0x3e546123	0.2074018
195	0xbe684d46	-0.22685727
196	0xb97b80ad	-0.00023985161
197	0x3e1e4c0b	0.15458696
198	0xbdd2fc01	-0.10301972
199	0xbe41be18	-0.18920171
200	0xbea471db	-0.32118115
201	0x3d447650	0.047964394
202	0xbe2d8421	-0.16944934
203	0xbd79286f	-0.060829576
204	0x3d737af6	0.059443437
205	0xbe1d82c0	-0.15381908
206	0x3da06d90	0.078333974
207	0xbda00715	-0.07813851
208	0xbd981ce8	-0.074273884
209	0xbe92f1e1	-0.28700164
210	0x3db35f84	0.087584525
211	0xbe36c21c	-0.17847484
212	0x3ca704fd	0.02038812
213	0xbd153b70	-0.036433637
214	0x3e04519e	0.1292176
215	0xbe3dd688	-0.18538868
216	0xbe4f82a4	-0.20264679
217	0xbd18cf10	-0.037306845
218	0xbe8ec073	-0.27881202
219	0x3dd34827	0.10316496
220	0xbe1bb7ea	-0.15206876
221	0x3db2306d	0.08700643
222	0x3e159940	0.14609241
223	0x3de50339	0.11182255
224	0xbdceb1a0	-0.10092473
225	0x3e03182b	0.12802188
226	0xbe1c87be	-0.15286157
227	0xbe934318	-0.28762126
228	0xbe2048ed	-0.15652819
229	0xbe459b47	-0.19297515
230	0xbe86c48a	-0.26321822
231	0x3985a74d	0.00025492386
232	0x3e65261b	0.22377817
233	0xbd9b3f6d	-0.07580457
234	0xbc85c5e0	-0.016329706
235	0xbe988e8d	-0.29796258
236	0xbbca12fb	-0.0061668134
237	0x3d7b02c1	0.061281923
238	0xbe20a4bb	-0.1568784
239	0x3e60e75c	0.21963257
240	0xbeaaf233	-0.33387908
241	0xbd8f3a3e	-0.06993531
242	0xbe2414a6	-0.16023502
243	0x3e81c75c	0.25347412
244	0x3e8b5b1f	0.27217957
245	0x3e7329f7	0.23746477
246	0x3ddb82e3	0.10718324
247	0x3dd51270	0.10403907
248	0xbea88759	-0.32915762
249	0xbe846b71	-0.2586322
250	0x3d5a0a75	0.05323263
251	0xbea096e9	-0.31365135
252	0x3dc27f7f	0.09496974
253	0x3e0082ea	0.1254994
254	0xbc2127c3	-0.00983614
255	0xbe9c019a	-0.30469972

encoder.MLP.L1.weight f4 [180, 320]
0	0xbd91c518	-0.07117671
1	0xbac6ecad	-0.0015176736
2	0xbc69d094	-0.01427092
3	0xbd22255c	-0.03958641
4	0x3b8817c8	0.0041532256
5	0xbc1aef41	-0.009456457
6	0xbd7a22ef	-0.06106847
7	0xbd36955b	-0.04457603
8	0xbd14a3f5	-0.036289174
9	0xbc624910	-0.013811365
10	0xbc41e4f8	-0.011834376
11	0xbd6bf632	-0.057607837
12	0x3d25dfd4	0.040496662
13	0x3ced804c	0.02899184
14	0xbc07b616	-0.008283159
15	0xbbe9a02f	-0.007129691
16	0x3bd671a8	0.0065443106
17	0x3c71b70c	0.014753114
18	0x3c4f3fd0	0.012649491
19	0xbc86b5ca	-0.016444106
20	0xbd6d9d4a	-0.05801133
21	0x3c98c460	0.018648326
22	0xbda407b1	-0.080092795
23	0xbadd2f9f	-0.0016875154
24	0xbd9c27f6	-0.076248094
25	0xbd2c0325	-0.041995186
26	0x3c429260	0.011875719
27	0xbd5e880a	-0.054328956
28	0x3ccf9f73	0.025344586
29	0xbd4ebb2a	-0.050471462
30	0x3cdc2bf5	0.02687643
31	0xbb070091	-0.0020599703
32	0xbd556f87	-0.052108314
33	0x3c73d4d9	0.01488229
34	0xbd9e4e63	-0.07729795
35	0xbd8172e3	-0.06320741
36	0xbd0f743e	-0.035022967
37	0xbc455991	-0.01204528
38	0x3bb3f5d0	0.0054919496
39	0xbd9b39ce	-0.07579385
40	0x3d0f25ed	0.03494828
41	0xbc9cd6e6	-0.01914544
42	0xbd48ac0e	-0.04899221
43	0xbcd8bde0	-0.026457727
44	0xbd5420ef	-0.05178922
45	0x3c7cb010	0.015422836
46	0xbad01298	-0.0015874682
47	0xbd0f7295	-0.035021383
48	0xbc8971e0	-0.016777933
49	0x3c5ce798	0.013482951
50	0xbd14ee72	-0.03636021
51	0xbcfdf4cd	-0.03100052
52	0xbce24a69	-0.027623372
53	0xbd6062a4	-0.05478157
54	0xbc96b25b	-0.018395593
55	0xbc8c717c	-0.017143957
56	0xbd82bca7	-0.06383639
57	0xbc0b9c2b	-0.00852112
58	0x3cd16b27	0.02556379
59	0x3c15cbe5	0.0091428505
60	0xbcb467ba	-0.022022117
61	0x3cbf8ce5	0.023382613
62	0xbd6f0ab3	-0.058359813
63	0xbd478f93	-0.048720907
64	0x3cc9ff44	0.024657853
65	0x3d362864	0.044472113
66	0x3d5a8190	0.053346217
67	0x3d4520f8	0.048127145
68	0xbd5b687a	-0.053566433
69	0xbbebaa44	-0.007191928
70	0xbd5eb905	-0.054375667
71	0xbca11c53	-0.019666826
72	0x3ce3e781	0.02782035
73	0x3c0046b1	0.007829354
74	0xbd950ab8	-0.07277435
75	0xbd433312	-0.047656126
76	0xbd8c3d46	-0.068476245
77	0x3bad23bb	0.0052838004
78	0xbd06ae26	-0.032880925
79	0xbd768e8b	-0.060194533
80	0xbd3ac99c	-0.045602426
81	0xbbc621fc	-0.0060465317
82	0xbc68306b	-0.0141717
83	0x3d56d8ee	0.052452974
84	0xbca38498	-0.019960687
85	0xbb0be3c9	-0.0021345487
86	0xbd373529	-0.04472843
87	0x3c9d78f1	0.019222708
88	0xbc5a9042	-0.013340058
89	0x3ca5ae97	0.020224852
90	0x3c03e6c9	0.008050629
91	0xbd5cb61e	-0.053884618
92	0xbd4b74bb	-0.04967187
93	0xbd59daaa	-0.05318705
94	0xbd409669	-0.047018442
95	0x3becc950	0.0072261468
96	0x3d57690e	0.052590422
97	0xbc9aa652	-0.018878136
98	0x3cb30d8c	0.021857046
99	0x3c1c8029	0.00955204
100	0xbd2f64c8	-0.042820722
101	0xbd8778bd	-0.06614826
102	0x3b1faa5f	0.0024363024
103	0x3cd57404	0.026056297
104	0xbd385449	-0.045002256
105	0xbc2e13e1	-0.010624857
106	0xbd9461af	-0.07245194
107	0xbc7f9875	-0.015600313
108	0xbbad6e7f	-0.005292713
109	0xbcdbf572	-0.026850436
110	0xbc116134	-0.008873273
111	0x3b7eaa2d	0.0038858757
112	0xbd0eacc8	-0.034832746
113	0x3cb5f5d7	0.022211952
114	0xbd87aa80	-0.06624317
115	0xbd52ff8b	-0.051513236
116	0xbd94a863	-0.0725868
117	0xbd8f8bb4	-0.07009068
118	0x3d29c00c	0.041442916
119	0xbd2a80eb	-0.041626852
120	0xbd33dd5f	-0.043912288
121	0x3c3df710	0.011594549
122	0xbd7b2baa	-0.06132094
123	0xbc86924a	-0.016427178
124	0x3bf5e83e	0.007504492
125	0xbcfee46e	-0.031114783
126	0x3ceb6b60	0.028737724
127	0xbbdca365	-0.0067333453
128	0xbd8289f0	-0.06373966
129	0xbc82d750	-0.01597181
130	0x3d139b10	0.03603655
131	0xbcfb2c6c	-0.03066083
132	0xbc6280cc	-0.013824653
133	0x3be9b040	0.0071316063
134	0x3b9d84e8	0.0048071034
135	0xbb923661	-0.004462049
136	0xbd982e81	-0.07430745
137	0x3d070a64	0.032968894
138	0x3ba39a3d	0.004992752
139	0xbc8715c4	-0.01648987
140	0xbc8e539a	-0.017373849
141	0xbd8dedb9	-0.069301076
142	0xbcfae480	-0.030626535
143	0xbcae4842	-0.02127469
144	0xbbbc2aaf	-0.005742393
145	0xbcfb35f5	-0.030665377
146	0xbc63f419	-0.013913178
147	0xbd19842f	-0.037479576
148	0x3c8abe06	0.016936313
149	0xbd8a4371	-0.06751145
150	0x3bbf7b60	0.005843565
151	0x3c54d8bb	0.012991126
152	0xbd31d6ea	-0.04341785
153	0xbcef1aad	-0.029187525
154	0x3be10ab8	0.006867733
155	0x3b464d2f	0.0030258407
156	0x3bd76b20	0.0065740496
157	0x3b60487e	0.0034222896
158	0xbd8240f1	-0.06360043
159	0x3cddda48	0.027081624
160	0xbcb2273d	-0.021747226
161	0x3c08ae4f	0.00834234
162	0xbbc375af	-0.0059649567
163	0xbcb7ad15	-0.0224214
164	0x3b8e4783	0.004342021
165	0x3cd8db8c	0.026471876
166	0x3d12c5d9	0.035833213
167	0xbd8936b8	-0.0669989
168	0x3b5e3190	0.0033904053
169	0xbd740396	-0.059573732
170	0x3c028905	0.007967238
171	0x3ca8c35b	0.020600965
172	0xbd74bfe1	-0.059753302
173	0xbcbf41fc	-0.023346893
174	0x3d26c6ea	0.040717043
175	0x3c8b2968	0.016987517
176	0xbd2c2879	-0.042030785
177	0x3c50026a	0.012695888
178	0xbd173a09	-0.03692058
179	0xbd99d3f3	-0.07511129
180	0x3c3671f8	0.011135571
181	0x3bf5fd1b	0.007506979
182	0x3bdcf3f2	0.0067429477
183	0xbd72f25d	-0.059313167
184	0xbd72c7ba	-0.059272505
185	0xbd70c889	-0.058784995
186	0x3c26647e	0.010155795
187	0xbd8be1e8	-0.068301976
188	0xbc9e3b10	-0.019315273
189	0xbd1121c2	-0.035432585
190	0xbb5dffe9	-0.0033874458
191	0xbc89bf07	-0.016814722
192	0xbd41ef33	-0.04734726
193	0xbc30c7bd	-0.010789809
194	0x3cfc274e	0.03078046
195	0xbc1de721	-0.009637625
196	0xbd3e1546	-0.046407007
197	0xbcd45c17	-0.025922818
198	0xbd8e1a3a	-0.06938596
199	0xbd12e88e	-0.035866313
200	0xbd1c57b0	-0.038169563
201	0xbd0eaf64	-0.034835234
202	0x3ce1bcda	0.027555872
203	0xbc680aac	-0.014162701
204	0x3c7e97ed	0.015539152
205	0xbcfdcfff	-0.03098297
206	0xbd10d132	-0.035355754
207	0xbbd1351f	-0.0063845064
208	0xbd123830	-0.035698116
209	0xbd3fe528	-0.0468494
210	0xbd609e05	-0.0548382
211	0x3d2c7f10	0.042113364
212	0x3cfd34d3	0.030908978
213	0xbd62b62e	-0.05534952
214	0xbd147047	-0.03623989
215	0xbd7d430d	-0.061831523
216	0xbd291940	-0.041283846
217	0x3d2e51e2	0.04255856
218	0x3c4fc1cf	0.012680485
219	0xbcc2f8ea	-0.023800332
220	0x3b916155	0.0044366517
221	0xbb020224	-0.0019837702
222	0x3d1363ea	0.035983957
223	0xbd8d764f	-0.06907331
224	0xbb038152	-0.0020066095
225	0xbd9440a5	-0.072388925
226	0xbd16967f	-0.036764618
227	0xbcaaa7dc	-0.020831995
228	0xbd082755	-0.033240635
229	0xbd92eb33	-0.07173767
230	0xbc8fb7fc	-0.017543785
231	0xbc2bebff	-0.010493278
232	0xbd26f79b	-0.04076348
233	0x3a8f87f7	0.0010950555
234	0x3d48150e	0.048848204
235	0xbd18f4f8	-0.037342995
236	0xbd63cdd0	-0.0556162
237	0xbd9e5490	-0.07730973
238	0xbd6f889d	-0.058479894
239	0xbcfd48db	-0.03091853
240	0xbd78bb89	-0.060725722
241	0xbd293ef2	-0.041319795
242	0x3cfc46a0	0.030795395
243	0x3c8f4d38	0.017492875
244	0x3cfc8741	0.030826213
245	0x3d177a8b	0.0369821
246	0xbd2eab9a	-0.04264412
247	0xbd1e6aaf	-0.03867596
248	0xbc9d2223	-0.019181317
249	0xbd3653d1	-0.044513527
250	0x3c396d80	0.011317611
251	0xbcef9801	-0.029247286
252	0xbd85361d	-0.06504462
253	0xbd2cdee5	-0.042204756
254	0xbd6c0859	-0.05762515
255	0xbb9947ae	-0.0046777343

encoder.MLP.L1.bias f4 [180]
0	0xbd174c7c	-0.036938176
1	0xbcded886	-0.027202856
2	0x3d27b198	0.04094085
3	0x3c622f34	0.013805199
4	0xbd8ce536	-0.06879656
5	0xbd668690	-0.056280673
6	0x3d2c4cad	0.04206531
7	0xbd31d3fa	-0.043415047
8	0x3c60f95a	0.013731325
9	0xbd78a43d	-0.060703505
10	0x3a2e1ec0	0.00066421553
11	0xbd6ac4bc	-0.057316527
12	0xbd3cd060	-0.04609716
13	0xbd88bcfb	-0.0667667
14	0x3c82ab77	0.015950901
15	0xbd05b357	-0.032641735
16	0xbd1d1dae	-0.038358383
17	0xbd66ac22	-0.056316502
18	0xbd628062	-0.055298217
19	0x3c8dbc08	0.017301574
20	0xbdb1e297	-0.08685797
21	0xbc8e5988	-0.017376676
22	0xbd214196	-0.03936919
23	0xbd71810f	-0.05896097
24	0x3cab80ee	0.020935502
25	0x3c2e17aa	0.010625759
26	0xbd9cb35f	-0.076514
27	0xbd3c6b7c	-0.046000943
28	0x3d3667d5	0.044532616
29	0x3bb0104e	0.0053730374
30	0xbd9742bc	-0.073857754
31	0xbd2416e1	-0.04006088
32	0x3d1d5fc6	0.038421415
33	0x3be5cf61	0.007013247
34	0xbdd8c7cf	-0.105849855
35	0xbd593a47	-0.053034093
36	0xbd856711	-0.06513799
37	0xbc7300b5	-0.014831712
38	0xbcac2403	-0.021013265
39	0xbd5123fa	-0.0510597
40	0x3d64054e	0.05566912
41	0xbac07b0b	-0.0014685107
42	0xbcaa9396	-0.020822328
43	0xbd01dd62	-0.031705268
44	0xbd1a5724	-0.03768076
45	0xbb63d9ec	-0.0034767343
46	0xbd329fa3	-0.043609273
47	0xbd735d7d	-0.05941533
48	0xbb294e8b	-0.0025834169
49	0xbd1d9ab2	-0.038477607
50	0xbcc8df90	-0.024520665
51	0xbd78cde4	-0.060743228
52	0xbcc0cc5b	-0.023534944
53	0x3cc47978	0.023983702
54	0xbd5c25e5	-0.053747077
55	0xbc480754	-0.012208778
56	0x3cad612e	0.021164503
57	0x3ca17754	0.01971022
58	0x3c9c21ff	0.01905918
59	0x3a05f8e7	0.00051106367
60	0xbda12da9	-0.07870037
61	0x3c6cdf1e	0.014457492
62	0xbc7174e5	-0.0147373425
63	0xbd1b01a3	-0.037843358
64	0xbd31e2af	-0.043429073
65	0xbc00407c	-0.007827874
66	0xbc474966	-0.012163496
67	0xbd6b9680	-0.057516575
68	0xbe2d2f4f	-0.16912578
69	0x3c6e03cf	0.014527275
70	0x3cbea544	0.023272164
71	0x3b8c9d66	0.0042912243
72	0xbda64cd5	-0.08120123
73	0xbc1715c2	-0.009221496
74	0xbd252e8f	-0.040327605
75	0x3ac0bd77	0.0014704902
76	0xbd92f2e0	-0.07175231
77	0x3d05ace1	0.032635573
78	0x3bee64af	0.007275186
79	0xbd0eeced	-0.03489392
80	0xbcd468a3	-0.0259288
81	0xbd1e29d8	-0.038614124
82	0xbd4ed1cc	-0.050493047
83	0x3d008f61	0.031386737
84	0xbcb5c3cf	-0.022188095
85	0x3be0bd91	0.0068585356
86	0xbcb304ea	-0.02185293
87	0xbc8fc4c1	-0.017549874
88	0xbc8a7dfa	-0.016905773
89	0xbc0b4e20	-0.008502513
90	0xbd812c17	-0.063072376
91	0xbdac7cee	-0.08422266
92	0xbd9a0d8b	-0.07522114
93	0x3c5fc267	0.013657189
94	0xbd59f457	-0.053211536
95	0xbc4e85a4	-0.012605105
96	0xbd2a0831	-0.04151172
97	0xbc9f310a	-0.019432563
98	0xbd83152a	-0.06400521
99	0xbd70e6ae	-0.058813743
100	0x3d94c406	0.07263951
101	0x3c78e8d5	0.01519223
102	0xbcd5960a	-0.02607252
103	0xbd033ba3	-0.032039296
104	0x3d3132fa	0.043261506
105	0xbd95b4b1	-0.07309855
106	0x3deea9ed	0.116535045
107	0x3cce16e7	0.025157405
108	0xbafda9c0	-0.0019352958
109	0xbd16a949	-0.036782537
110	0x3c171c4a	0.009223053
111	0xbd12c116	-0.035828672
112	0xbd11fcf2	-0.035641618
113	0xbb2ec0a8	-0.0026665125
114	0xbd3e3184	-0.04643394
115	0x3d029d97	0.03188857
116	0x3d2266a0	0.039648652
117	0xbd3e46ff	-0.046454426
118	0x3cc53b71	0.024076195
119	0x3a915c41	0.0011090116
120	0xbd5983be	-0.053104155
121	0xbd0b2e39	-0.03397963
122	0xbbad8c3f	-0.0052962597
123	0xbd4ec7f0	-0.050483644
124	0xbd49151a	-0.04909239
125	0xbd535c70	-0.051601827
126	0x3d61b786	0.055106662
127	0x3d2cae32	0.042158313
128	0x3c55c596	0.013047596
129	0xbd17f4a4	-0.03709854
130	0xbd6fcf36	-0.05854722
131	0x3c8fbdcd	0.017546559
132	0x3c8af012	0.016960178
133	0xbd840558	-0.06446332
134	0xbb55bc3f	-0.0032613424
135	0xbd2c93df	-0.04213321
136	0x3c84cfe5	0.016212413
137	0xbb806385	-0.0039181137
138	0x3cf17d38	0.029478654
139	0x3d13708f	0.035996016
140	0x3d5daa4f	0.054117497
141	0xbd84b7be	-0.064803585
142	0xbd986ee5	-0.074430265
143	0xbd89c970	-0.06727874
144	0x3a79374a	0.0009506835
145	0x3b2f7967	0.0026775242
146	0x3c8f94de	0.01752704
147	0xbbe49665	-0.0069759362
148	0xbce48496	-0.027895253
149	0xbe021744	-0.12704188
150	0x3ce0b32d	0.027429188
151	0xbd3be5e3	-0.045873534
152	0xbac77843	-0.0015218336
153	0x3c1ade48	0.00945241
154	0xbd5a8e09	-0.05335811
155	0x3c4e14da	0.012578214
156	0xbd887278	-0.06662458
157	0xbd1427b7	-0.036170688
158	0x3c8378e4	0.016048856
159	0xbd87dfa4	-0.06634453
160	0xbc9d2eec	-0.019187413
161	0xbd6bcf10	-0.057570517
162	0xbc0ea6a4	-0.008706722
163	0xbd022faa	-0.031783737
164	0xbcf3a886	-0.029743444
165	0xbb05f440	-0.0020439774
166	0xbd9bb299	-0.07602424
167	0x3d3cec02	0.046123512
168	0xbd745d3a	-0.05965922
169	0xbd2375ba	-0.039907195
170	0xbd3a1cae	-0.045437507
171	0xbd9a63fb	-0.07538601
172	0xbc16d355	-0.009205659
173	0xbcf26823	-0.029590672
174	0xbd8fe111	-0.0702535
175	0x3c99fa7b	0.018796196
176	0xbd6b2695	-0.05740984
177	0xbd15c5c9	-0.036565576
178	0xbd2e2898	-0.042519182
179	0xbd0f645a	-0.035007812

encoder.MLP.L2.weight f4 [90, 180]
0	0x3d262532	0.040562816
1	0x3d624f0e	0.055251174
2	0xbd95bff2	-0.07312001
3	0xbd6ca770	-0.05777687
4	0xbda8fa10	-0.08250821
5	0xbdb50f5d	-0.08840821
6	0xbd945427	-0.07242613
7	0xbd6e0526	-0.05811038
8	0xbd9fcd00	-0.078027725
9	0xbd4296e3	-0.047507178
10	0x3c9f632c	0.019456469
11	0xbd377c33	-0.04479618
12	0x3d97c653	0.07410874
13	0xba101c3d	-0.0005497372
14	0x3d2f4225	0.04278769
15	0x3d8c323f	0.06845521
16	0xbdd03a61	-0.10167385
17	0x3d8a88d0	0.06764376
18	0xbb038560	-0.0020068511
19	0x3d8a19a6	0.06743173
20	0x3cfe339d	0.03103047
21	0xbd98f95a	-0.07469435
22	0xbd9d697e	-0.07686137
23	0xbdb18481	-0.08667851
24	0xbd933f93	-0.0718986
25	0xbd100fcb	-0.03517131
26	0xbd8741dd	-0.06604359
27	0xbd82978a	-0.0637656
28	0xbd84a1a9	-0.06476147
29	0x3cd4b46c	0.025964938
30	0x3d1e2ed5	0.03861888
31	0xbd8b3e3f	-0.06798982
32	0xbd978e7d	-0.07400224
33	0x3d1ba3de	0.037998073
34	0x3d057eac	0.032591507
35	0xbd98d6c1	-0.07462836
36	0x3c7cd37f	0.015431284
37	0xbd8687b3	-0.06568851
38	0xbce164bf	-0.02751386
39	0xbdb7f2c9	-0.089818545
40	0x3c5cc108	0.013473757
41	0xbdc018e6	-0.09379749
42	0x3a0ca10d	0.00053645746
43	0xbcc73df6	-0.024321537
44	0x3b868974	0.004105741
45	0xbb6eefd6	-0.0036458871
46	0xbd4f17b6	-0.050559722
47	0x3d167257	0.036730137
48	0x3d965be1	0.07341743
49	0x3c83ac42	0.01607335
50	0xbc4e4e05	-0.0125918435
51	0x3d306aaf	0.04307049
52	0xbd61c628	-0.055120617
53	0xbd883ce0	-0.06652236
54	0xbd9d4ffa	-0.0768127
55	0x3c3d5bf0	0.011557564
56	0xbcd98b75	-0.026555756
57	0xbd52be14	-0.051450804
58	0xbd215a46	-0.039392732
59	0x3d9116d7	0.070844345
60	0x3c9f6123	0.019455498
61	0xbd5980cc	-0.053101346
62	0x3d71c76d	0.059028078
63	0xbdc8c74b	-0.09803637
64	0xbd8e5396	-0.069495365
65	0x3c6b16d8	0.014348708
66	0x3cb62666	0.022235107
67	0xbd940dbc	-0.07229182
68	0x3d443cb8	0.04790947
69	0xbd4e113b	-0.0503094
70	0x3b78bf8f	0.0037955975
71	0xbca3ee6d	-0.020011151
72	0xbd650515	-0.05591305
73	0x3c79e8d9	0.015253269
74	0xbd360b63	-0.044444453
75	0x3cedaf50	0.02901426
76	0xbd978c4a	-0.07399805
77	0x3ce927ec	0.028461419
78	0xbdc1cde6	-0.094631
79	0xbd840a88	-0.06447321
80	0x3b2ce765	0.002638304
81	0xbd41842e	-0.047245197
82	0xbc163a98	-0.009169243
83	0x3d2f2920	0.04276383
84	0xbcfdc33a	-0.03097688
85	0x3d31a959	0.043374393
86	0xbd88162a	-0.066448525
87	0xbc7ed2d0	-0.015553191
88	0xbcbe726e	-0.023247924
89	0x3cd8282f	0.026386349
90	0x3d108a0a	0.035287894
91	0xbd82fe8b	-0.063962065
92	0xbd438a4a	-0.047739305
93	0xbd9e6837	-0.07734721
94	0xbd6caa4d	-0.0577796
95	0x3d355534	0.04427071
96	0xbc321bac	-0.010870855
97	0xbdb560c4	-0.08856347
98	0xbd341f38	-0.043975085
99	0x3bf4db29	0.007472415
100	0xbd282863	-0.04105414
101	0xbd3b611a	-0.0457469
102	0xbc9dddc6	-0.019270789
103	0xbd5568c5	-0.05210187
104	0x3d079d3e	0.033108942
105	0xbc1d1747	-0.009588069
106	0xbd038db6	-0.032117568
107	0xbd44f747	-0.048087385
108	0x3c2befbb	0.010494168
109	0xbb898093	-0.0041962354
110	0x3b9cd204	0.004785778
111	0x3c282a94	0.010264058
112	0x3d166404	0.036716476
113	0xbb01b29d	-0.00197903
114	0xbd50da4b	-0.05098943
115	0xbcf7686b	-0.030201158
116	0x3d2fc08f	0.042908248
117	0xbd0cb0fb	-0.03434847
118	0xbbe345c2	-0.006935806
119	0xbdc0b41d	-0.09409354
120	0x3dbfd9b8	0.093676984
121	0xbd439248	-0.047746927
122	0xbdadc0ae	-0.08484016
123	0xbbaa06df	-0.0051888074
124	0x38b85ccb	8.791088e-05
125	0xbcad57b8	-0.021159992
126	0x3b98f250	0.004667558
127	0x3d08a38e	0.033359103
128	0x3ce4a266	0.027909469
129	0xbd113376	-0.035449468
130	0xbb00c320	-0.0019647554
131	0xbd9847cf	-0.074355714
132	0x3c2ebc9a	0.010665083
133	0x3d21866e	0.039434843
134	0xbdae2d43	-0.08504727
135	0x3d3c2148	0.045930177
136	0xbc8ed7aa	-0.017436821
137	0xbdb7a902	-0.089677826
138	0x3d49f1d0	0.049302876
139	0xbd9deb76	-0.07710926
140	0x3cbbedb5	0.022940496
141	0xbd39b728	-0.045340687
142	0xbbc31510	-0.0059534386
143	0xbc8e854e	-0.017397549
144	0xbd86bd1f	-0.06579041
145	0xbda02a56	-0.07820575
146	0xbd167d12	-0.03674037
147	0xbcf2693e	-0.029591199
148	0xbab9b006	-0.0014166839
149	0xbd708eed	-0.058730055
150	0xbd6ca350	-0.057772934
151	0xbd6151d9	-0.055009697
152	0xbd503051	-0.050827328
153	0xbdc0ae0e	-0.09408198
154	0x3b238f5f	0.0024957282
155	0xbd5c747f	-0.053822037
156	0xbd58d7b6	-0.052940093
157	0xbc77d791	-0.015127079
158	0x3d6905b6	0.056890212
159	0xbd61a828	-0.055092007
160	0xbcde6935	-0.027149776
161	0xbd9e98eb	-0.077440105
162	0xbc80a5e1	-0.015704097
163	0xbcbfbf6e	-0.02340671
164	0x3d105cdc	0.035244808
165	0x3d9859db	0.074390136
166	0xbcb14987	-0.021641506
167	0x3ca60428	0.020265654
168	0xbcbfa0a2	-0.023392025
169	0x3cacf2aa	0.021111805
170	0xbbaf983b	-0.0053587235
171	0x3d2ea688	0.042639285
172	0xbbb3019e	-0.0054628393
173	0x3ca7d131	0.020485492
174	0x3d4239e2	0.047418483
175	0xbb7cb419	-0.0038559495
176	0xbdd3cb90	-0.10341561
177	0x3c741d6e	0.014899595
178	0x3d0e314e	0.03471499
179	0xbd9e09ce	-0.07716714
180	0xbcdbeb27	-0.026845528
181	0x3d262a3f	0.040567633
182	0xbcee92c4	-0.029122718
183	0xbdacf6d4	-0.08445516
184	0xbd2fad32	-0.04288978
185	0x3cf213ad	0.029550398
186	0xbd39aacb	-0.045328896
187	0xbd2c5623	-0.042074334
188	0xbce74cfa	-0.028234947
189	0xbd0e221c	-0.034700498
190	0x3cf0060c	0.029299758
191	0x3be541b0	0.006996356
192	0xbd84282d	-0.064529754
193	0x3d314544	0.043278947
194	0xbd788af1	-0.06067938
195	0x3ccd7d9c	0.02508431
196	0x3c117f58	0.008880459
197	0xbd7bd45b	-0.061481815
198	0x3c651070	0.01398097
199	0xbca2999d	-0.01984864
200	0x3d7957aa	0.06087462
201	0xbd4c1e08	-0.049833328
202	0xbcf541ce	-0.029938605
203	0x3ac74ecc	0.0015205978
204	0xbc1ce2a3	-0.009575519
205	0x3cfdeb26	0.030995917
206	0xbd2dffa7	-0.042480137
207	0xbcb3f15a	-0.021965671
208	0xbd27fb32	-0.041011043
209	0xbd889e77	-0.0667085
210	0xbd459057	-0.048233356
211	0xbd6ebdf1	-0.05828661
212	0xbbdcb9ff	-0.0067360396
213	0xbd153632	-0.036428638
214	0xbe2812c4	-0.16413409
215	0xbd1aada6	-0.03776326
216	0xbd560005	-0.052246112
217	0xbd3c48cb	-0.04596786
218	0x3db961cc	0.090518564
219	0xbd6bbc58	-0.057552665
220	0xbd1a04c4	-0.0376022
221	0x3d8daf0e	0.06918155
222	0x3cdf8488	0.027284876
223	0xbc1d5010	-0.009601608
224	0x3d3afce4	0.04565133
225	0x3c81d45c	0.015848331
226	0x3a1ab824	0.0005902073
227	0x3d18abcd	0.037273217
228	0x3d4a2cc0	0.049359083
229	0xbd6482ed	-0.055788923
230	0xbdacec19	-0.084434696
231	0x3ca3feca	0.020018954
232	0x3daa38fe	0.08311652
233	0x3c39a72e	0.011331363
234	0xbd912743	-0.07087567
235	0xbd361f49	-0.04446343
236	0x3c40760a	0.011746893
237	0xbc8e9758	-0.01740615
238	0xbc904e28	-0.017615393
239	0xbd4f5786	-0.05062058
240	0xbd2bb440	-0.041919947
241	0xbd93e755	-0.072218575
242	0xbd3b7071	-0.04576153
243	0xbd5feee0	-0.05467117
244	0x3d841909	0.064500876
245	0xbe03c7a6	-0.12869129
246	0x3d1a323f	0.037645575
247	0xbd3e2f0a	-0.04643158
248	0xbc59d818	-0.01329615
249	0x3d3c65fa	0.04599569
250	0xbcf6179a	-0.030040551
251	0x3c386b7c	0.011256095
252	0xbbd13d8f	-0.006385512
253	0xbd9b907e	-0.07595919
254	0x3d26b783	0.040702354
255	0xbd90982d	-0.07060275

encoder.MLP.L2.bias f4 [90]
0	0xbbe5e074	-0.0070152823
1	0xbd3427e7	-0.043983366
2	0xbc1234e4	-0.008923743
3	0x3bad51a4	0.0052892733
4	0xbcc62aaa	-0.024190266
5	0xbd86f6e9	-0.06590063
6	0xba3c9a9e	-0.00071946706
7	0xbcbc0c00	-0.02295494
8	0xbc11736f	-0.008877619
9	0xbdcbd902	-0.099535
10	0xbdfd6f61	-0.123747595
11	0xbd15a105	-0.036530513
12	0xbda2e55d	-0.07953904
13	0xbceb135c	-0.028695755
14	0xbc727c04	-0.014800075
15	0xbd17d3cf	-0.03706723
16	0xbd9c818c	-0.076418966
17	0xbdeb3dc4	-0.1148639
18	0xbc347103	-0.011013272
19	0xbd3efcfd	-0.046627987
20	0xbde39fe6	-0.111144826
21	0xbd8eb5f4	-0.069682986
22	0x3c9c1608	0.019053474
23	0xbdcca915	-0.09993187
24	0xbd21f03b	-0.039535742
25	0xbdc99320	-0.09842515
26	0x3ce972c5	0.02849711
27	0xbd0cf87a	-0.034416653
28	0xbdcc5c46	-0.09978537
29	0xbdc47547	-0.095926814
30	0xbd0e26f1	-0.034705106
31	0xbd9e21df	-0.07721304
32	0x3cda024f	0.026612429
33	0xbd5697e3	-0.052390944
34	0x3d1296bc	0.035788283
35	0xbd23ad18	-0.039959997
36	0x3aeb173d	0.0017936003
37	0xbdc42a32	-0.095783606
38	0xbc5b470e	-0.01338364
39	0x3c83cfb5	0.016090253
40	0x3c52513a	0.012836749
41	0x3c7bca80	0.015368104
42	0xbdc22eb9	-0.09481568
43	0x3ced1414	0.028940238
44	0x3cf86367	0.030320836
45	0xbd89f7b3	-0.06736698
46	0xbd00a5f4	-0.031408265
47	0x3caf6053	0.021408236
48	0xbda07cc3	-0.078362964
49	0xbdb1d540	-0.08683252
50	0xbdc0f962	-0.09422566
51	0xbd250b40	-0.040293932
52	0xbd37cd49	-0.04487351
53	0xbda0d747	-0.07853561
54	0xbc11f42e	-0.008908315
55	0xbceacc87	-0.02866198
56	0xbd8b6da8	-0.06808025
57	0xbcf619da	-0.030041624
58	0xbce68429	-0.02813919
59	0xbd3004e9	-0.042973433
60	0xbd07af57	-0.0331262
61	0xbd44ff2d	-0.048094917
62	0xbd890290	-0.06689942
63	0xbd429711	-0.04750735
64	0xbd3713db	-0.04469667
65	0xbd6f7ba3	-0.05846752
66	0xbca83dd7	-0.0205373
67	0xbd2b9dd1	-0.041898552
68	0xbc29d7da	-0.010366404
69	0x3c9be6af	0.019030897
70	0xbd429863	-0.04750861
71	0xbcc45ad0	-0.023969084
72	0xbb381d28	-0.002809355
73	0x3acc21a2	0.0015573988
74	0xbbd9ebdb	-0.0066504306
75	0xbd238987	-0.03992608
76	0x3ac3d747	0.0014941477
77	0xbc872245	-0.016495833
78	0x3d2cf477	0.042225327
79	0xbc92d094	-0.017921723
80	0x3ab36777	0.0013687451
81	0xbaae096f	-0.0013277958
82	0xbc521ae9	-0.012823799
83	0xbdaf9bfd	-0.08574674
84	0xbd96f890	-0.07371628
85	0xbd798c24	-0.060924664
86	0xbdfe76ee	-0.12425028
87	0x3cf1a7c3	0.02949894
88	0xbd9faaad	-0.07796226
89	0x3d729d70	0.059232175

encoder.linear_means.weight f4 [14, 90]
0	0x3c4e5556	0.012593588
1	0xbd581ffe	-0.052764885
2	0x3dcd5fdb	0.100280486
3	0x3d09a1cb	0.033601563
4	0xbdace43e	-0.08441971
5	0xbd6066d2	-0.054785557
6	0x3d9f9e9b	0.077939235
7	0xbdbb90c5	-0.09158472
8	0xbb747970	-0.0037303828
9	0xbcf4eadf	-0.029897152
10	0xbc1f89dc	-0.009737458
11	0x3dda37d9	0.10655183
12	0x3df6ce2a	0.120510414
13	0xbd64536e	-0.055743627
14	0x3dc4040c	0.095710844
15	0x3c842ca1	0.016134562
16	0x3d70b9c4	0.05877091
17	0xbcf35c1a	-0.029707003
18	0x3cc7286d	0.024311269
19	0xbc99150c	-0.018686794
20	0xbaa71381	-0.0012746901
21	0x3d929119	0.071565814
22	0xbd2c165c	-0.04201351
23	0x3cb154a0	0.021646798
24	0x3c906a4f	0.017628817
25	0x3d922821	0.0713656
26	0x3d8c0b64	0.0683811
27	0x3c9734a7	0.018457724
28	0x3de97397	0.11399
29	0xbcdcece8	-0.026968434
30	0xbd20fb4b	-0.03930215
31	0x3c82e962	0.015980426
32	0xbbecda18	-0.0072281472
33	0x3db1e623	0.08686473
34	0x3d8e2c8f	0.069420926
35	0xbc6ad876	-0.014333835
36	0xbcc6b663	-0.02425689
37	0x3b9e652d	0.0048338384
38	0x3dbfd72c	0.09367213
39	0xbb8183f7	-0.003952499
40	0xbd7abe47	-0.06121662
41	0xbda38d9e	-0.07985996
42	0xbe0520f0	-0.13000846
43	0x3dc29f42	0.09503032
44	0xbcbcf9e1	-0.02306837
45	0x3d494686	0.049139522
46	0xbcd08a52	-0.025456581
47	0xbb5d213c	-0.0033741733
48	0xbd0a03e8	-0.03369513
49	0xbbc0af06	-0.0058802394
50	0x3dcf7ae5	0.10130862
51	0x3da5033f	0.0805726
52	0xbd1659cd	-0.036706734
53	0x3dbfeb13	0.09371009
54	0xbcceeed5	-0.025260368
55	0xbdb10657	-0.08643787
56	0x3b80d130	0.003931187
57	0xbd427813	-0.047477793
58	0xbcefa54e	-0.029253628
59	0xbdf8d9a5	-0.121508874
60	0xbd272a22	-0.040811665
61	0xbc967954	-0.0183684
62	0xbca91a1d	-0.020642335
63	0x3cc80651	0.024417074
64	0x3d0a52c4	0.033770338
65	0x3d8fc111	0.07019246
66	0xbdbc08e7	-0.091813855
67	0x3dbfdd0b	0.093683325
68	0xbcbf3624	-0.023341246
69	0x3db5fd47	0.088861994
70	0xbdfc9ed2	-0.1233498
71	0xbd39540b	-0.045246165
72	0xbd72d351	-0.05928356
73	0x3c6bf2b5	0.014401128
74	0xbdd18e71	-0.10232247
75	0xbcbef8e9	-0.023312049
76	0xbd64a8d0	-0.055825055
77	0xbdc037cb	-0.09385642
78	0x3c87198d	0.016491676
79	0xbd6e7528	-0.058217198
80	0xbd8f239f	-0.06989216
81	0xbd4a7a4c	-0.049433038
82	0xbd87936a	-0.06619914
83	0x3e0515e0	0.12996626
84	0xbc88895d	-0.016667062
85	0xbd4e002d	-0.050293136
86	0xbc2c85b0	-0.01052992
87	0xbc5a9a66	-0.0133424755
88	0xbd99b810	-0.0750581
89	0xbd639d27	-0.055569794
90	0x3c03cadc	0.008043971
91	0x3dab4843	0.08363392
92	0xbde43970	-0.11143768
93	0x3d5389b5	0.051645
94	0xbd428c79	-0.047497246
95	0x3ce8efca	0.028434653
96	0xbcb0013d	-0.021484965
97	0xbd66fd7d	-0.05639409
98	0x3c921cca	0.017835993
99	0xbd54a521	-0.05191529
100	0x3c9650d0	0.018349081
101	0x3dd9c883	0.10633948
102	0xbdd4fb98	-0.1039955
103	0x3c6b74d8	0.014371119
104	0xbc6e730a	-0.014553795
105	0x3d9bd693	0.07609286
106	0xbd8f7b69	-0.070059605
107	0xbc38b780	-0.011274219
108	0x3d9c6591	0.0763656
109	0xbd9914f2	-0.07474698
110	0xbd2bb864	-0.041923895
111	0xbbb8d9c3	-0.0056411936
112	0xbdeacdbb	-0.11465021
113	0x3d8f4128	0.069948494
114	0xbd2df76a	-0.04247228
115	0xba976a3c	-0.0011552046
116	0x3d801140	0.0625329
117	0x3dc54fce	0.09634362
118	0x3d6f8372	0.058474965
119	0x3d347870	0.04406017
120	0x3c41c3c0	0.011826456
121	0xbbf79d54	-0.007556597
122	0x3beecd23	0.007287638
123	0x3c1441eb	0.009048919
124	0x3c1dcc9b	0.009631301
125	0xbdc7de0d	-0.0975915
126	0x3bf3f5df	0.0074450816
127	0x3d39cd42	0.045361765
128	0x3cc5a65c	0.024127178
129	0x3d2f0600	0.04273033
130	0xbc793513	-0.015210408
131	0x3dd0537d	0.10172174
132	0xbd92b08b	-0.07162579
133	0x3c6ac47f	0.014329075
134	0x3db30436	0.087410375
135	0xbd77dae1	-0.060511474
136	0xbdd8531a	-0.10562725
137	0x3cc1ae14	0.023642577
138	0xbcc9a61d	-0.024615342
139	0xbc4421a3	-0.01197091
140	0x3cbf14c5	0.023325333
141	0x3d62f928	0.055413395
142	0x3c21969b	0.009862567
143	0x3b697f53	0.003562887
144	0x3d97d4fc	0.074136704
145	0xbd26a05e	-0.04068028
146	0xbd8486bd	-0.06471012
147	0x3d4f14a8	0.05055681
148	0x3cf0c0b9	0.029388772
149	0xbe02485a	-0.12722912
150	0xbd5c2e04	-0.05375482
151	0x3c993c1b	0.018705418
152	0xbd506ac8	-0.050883085
153	0x3cd2c819	0.02573018
154	0x3d019dcd	0.03164463
155	0x3da52e65	0.0806549
156	0xbd8c9efc	-0.06866261
157	0xbc82db37	-0.01597367
158	0x3ceb1017	0.028694196
159	0x3e029873	0.12753467
160	0xbcaf9bc1	-0.021436574
161	0x3d729039	0.059219573
162	0x3d10c1b9	0.035341
163	0x3d402aa4	0.046915665
164	0xbccc4b5e	-0.024938282
165	0x3c89b20f	0.016808538
166	0x3d87692b	0.06611856
167	0x3e4c0c40	0.19926548
168	0xbcc09e22	-0.023512904
169	0x3d130137	0.03588983
170	0xbde48182	-0.11157514
171	0x3dab5fc8	0.08367878
172	0x3cc638c8	0.024196997
173	0xbd8071b5	-0.06271688
174	0x3db6d038	0.08926433
175	0xbd599f32	-0.053130336
176	0xbcfc3ebd	-0.030791635
177	0x3de0aa1c	0.10969946
178	0xbd9574bb	-0.07297655
179	0x3cbe4e7c	0.023230784
180	0xbd9d1567	-0.07670098
181	0xbc9c5615	-0.019084016
182	0xbda5ec13	-0.08101668
183	0xbd4a0779	-0.049323533
184	0xbcfa3109	-0.03054096
185	0x3d4dfc7a	0.05028961
186	0xbabebec0	-0.0014552698
187	0x3d1510c6	0.03639295
188	0x3c5abaa1	0.01335016
189	0xbd0df2e4	-0.034655467
190	0x3ba7c728	0.005120177
191	0xbc8737a1	-0.016506018
192	0x3da52e32	0.08065452
193	0xbd56c71c	-0.05243598
194	0xbd22ab62	-0.039714225
195	0xbc8a1184	-0.016854055
196	0xbd8262b2	-0.06366481
197	0x3d1cb19d	0.038255323
198	0x3cde07de	0.02710336
199	0x3d9890d2	0.07449497
200	0x3dcb2e1c	0.09920904
201	0xbd46bddf	-0.04852092
202	0xbcb99ac2	-0.022656802
203	0xbd22b917	-0.039727297
204	0xbbb599ce	-0.0055420166
205	0xbc9523c4	-0.018205531
206	0xbc62e2c0	-0.013848007
207	0x3b8b3e72	0.0042493874
208	0x3dd8d779	0.10587973
209	0x3d17dde1	0.037076835
210	0x3d08dac5	0.03341176
211	0x3cc3ab1d	0.023885304
212	0x3d0c4acf	0.03425103
213	0x3d1b1605	0.037862796
214	0xbd534d05	-0.051587123
215	0x3d10c556	0.035344444
216	0x3cd46760	0.0259282
217	0x3c9c0deb	0.019049605
218	0x3c22ecd2	0.009944158
219	0x3c623cdc	0.013808455
220	0xbccf9f7a	-0.025344599
221	0x399ff200	0.00030507147
222	0x3dd33bd8	0.10314149
223	0xbd8e8dd2	-0.06960644
224	0xbce252c8	-0.027627364
225	0xbd937da1	-0.07201696
226	0xbde6ffeb	-0.11279281
227	0x3c337e94	0.010955472
228	0xbc3fd4fc	-0.011708494
229	0xbd25c4a6	-0.04047074
230	0x3d4e2751	0.050330464
231	0xbd810f3d	-0.063017346
232	0xbe1236d0	-0.14278722
233	0x3870c11c	5.7400306e-05
234	0x3c9e970f	0.01935914
235	0x3d09c745	0.033637304
236	0x3c545af6	0.01296114
237	0xbcba7949	-0.022762911
238	0xbd919a66	-0.07109527
239	0x3c969bf2	0.018384907
240	0xbd744935	-0.05964013
241	0xbc733c2d	-0.01484589
242	0x3dd2e7cb	0.10298117
243	0xbd156c30	-0.03648013
244	0x3d001ffc	0.031280503
245	0x3d641f4b	0.055693906
246	0xbc18c458	-0.009324156
247	0x3d9f085d	0.07765267
248	0xbdf822bd	-0.12116001
249	0x3ce47b83	0.027890926
250	0x3d8ea257	0.069645576
251	0xbccb6874	-0.02483008
252	0xbcdcb9d8	-0.026944086
253	0xbd5492d2	-0.05189783
254	0x3c945443	0.018106585
255	0xbd0ebd8e	-0.034848742

encoder.linear_means.bias f4 [14]
0	0xb92a78b0	-0.00016257423
1	0x3a07fdd4	0.00051876646
2	0x3c563822	0.013074907
3	0x3cace989	0.021107452
4	0x3c623654	0.013806898
5	0xbbb788af	-0.0056010108
6	0x3aa727bf	0.0012752934
7	0x3c1d5da6	0.009604847
8	0xbc0baea0	-0.008525521
9	0x3bc71deb	0.0060765645
10	0x3c8114b3	0.01575694
11	0xbb15c4ad	-0.0022852824
12	0xbbd069e1	-0.006360278
13	0xbc1af774	-0.0094584115

encoder.linear_log_var.weight f4 [14, 90]
0	0x3cdfe743	0.027331954
1	0x3d526a9e	0.05137121
2	0xbda23e80	-0.07922077
3	0xbdb0554a	-0.086100176
4	0x3d38bb02	0.04510022
5	0xbc59b3fb	-0.01328754
6	0x3d490aa6	0.04908242
7	0xbde02c66	-0.10945968
8	0xbd21a755	-0.03946622
9	0xbd82a360	-0.063788176
10	0x3d9c3667	0.07627564
11	0xbd01bbc8	-0.031673223
12	0xbbdefae0	-0.006804809
13	0x3d5b32cf	0.05351525
14	0x3a3dff16	0.00072477886
15	0xbcc06706	-0.023486625
16	0xbcc7b003	-0.024375921
17	0x3cc2c5ab	0.023775896
18	0x3d9603c2	0.073249355
19	0x3d05ed3c	0.032696947
20	0xbd172c99	-0.036907766
21	0x3cc88aea	0.024480302
22	0x3df6988a	0.12040813
23	0xbc04f4a7	-0.00811497
24	0xbd3057e7	-0.04305258
25	0x3d3b9fa9	0.04580656
26	0xbd351c33	-0.044216346
27	0xbcf8914e	-0.030342724
28	0x3c5058b3	0.01271646
29	0x3d65adf5	0.0560741
30	0xbde495c9	-0.11161382
31	0xbcf19e7f	-0.029494522
32	0xbd9ad56c	-0.07560238
33	0xbc2fc8a9	-0.010728993
34	0xbe04665e	-0.12929675
35	0x3cd28a42	0.025700692
36	0x3c2c234a	0.01050646
37	0xbccdf6d6	-0.025142115
38	0xbdb6e877	-0.08931058
39	0xbc3445c5	-0.0110029625
40	0x3c9529f0	0.018208474
41	0xbd85c4f5	-0.06531707
42	0xbd47cf25	-0.048781533
43	0x3b93482e	0.0044946885
44	0xbd9b91de	-0.07596181
45	0x3cfd9ae0	0.03095764
46	0xbd743d74	-0.05962892
47	0x3d9b8524	0.07593754
48	0x3c60a171	0.013710366
49	0x3d6bd96b	0.057580393
50	0x3d0f34f9	0.034962628
51	0x3d7d3130	0.061814487
52	0x3d31df36	0.04342576
53	0xbc902daa	-0.0175999
54	0x3cee7419	0.029108094
55	0x3dda04a4	0.106454164
56	0x3d18ac49	0.03727368
57	0x3d595d5c	0.05306755
58	0x3c992343	0.018693572
59	0x3dd0e59d	0.10200045
60	0xbd96e015	-0.07366959
61	0xbd7fedd7	-0.06248268
62	0x3d90c331	0.0706848
63	0xba911737	-0.0011069541
64	0xbda8c697	-0.08241003
65	0x3d3c98aa	0.04604403
66	0x3d89b1ac	0.06723341
67	0xbd5fa683	-0.054602157
68	0xbc94da1c	-0.018170409
69	0x3b574f51	0.0032853673
70	0x3d00ba0f	0.03142744
71	0x3e0be869	0.13662876
72	0xbcd00814	-0.025394477
73	0x3b8b9c4f	0.004260577
74	0xbd6ae77e	-0.057349674
75	0xbd876500	-0.06611061
76	0xbcf2d9ad	-0.029644812
77	0xbdd5ef37	-0.10446017
78	0xbde98305	-0.11401943
79	0x3c9873a6	0.018609833
80	0x3d8674d1	0.0656525
81	0x3d8ace2d	0.06777606
82	0x3dcab682	0.09898092
83	0x3d1350b8	0.03596565
84	0x3bcde343	0.006283195
85	0x3c1e2634	0.009652663
86	0x3b0d3764	0.0021547908
87	0xbdca57ef	-0.09880053
88	0xbe01db38	-0.12681282
89	0xbd2a3bad	-0.041560818
90	0x3dcbc551	0.099497445
91	0xbd9577c0	-0.07298231
92	0x3a027964	0.0004977195
93	0xbb413dd0	-0.0029486306
94	0xbcf4f035	-0.029899696
95	0xbb9d2a8c	-0.0047963317
96	0x3ca84bd4	0.02054397
97	0x3d85111b	0.06497403
98	0x3ce896f4	0.028392293
99	0x3d496eab	0.049177807
100	0xbc5265ae	-0.012841625
101	0x3cd4ff8c	0.02600076
102	0x3c8b3372	0.016992304
103	0xbd850d7d	-0.06496713
104	0x3c918322	0.017762724
105	0xbbcbc71d	-0.0062188045
106	0x3d333f96	0.043761812
107	0xbd9cccd8	-0.07656258
108	0x3d665db6	0.056241713
109	0x3d133f37	0.03594896
110	0xbd69bedc	-0.057066783
111	0x3d91c6b1	0.071179755
112	0x3d760fea	0.06007377
113	0xba6ba059	-0.0008988432
114	0x3d7ec85a	0.06220279
115	0x3d934d29	0.071924515
116	0x3d72810e	0.059205107
117	0x3c886eee	0.016654458
118	0x3bcc7175	0.006239111
119	0xbc29beb7	-0.010360411
120	0x3e02944a	0.1275188
121	0x3d852230	0.065006614
122	0xbd986f1f	-0.0744307
123	0x3c83620b	0.016037961
124	0xbcdfa0c8	-0.027298346
125	0x3d74a284	0.0597253
126	0x3d008850	0.031379998
127	0x3bbb5b00	0.005717635
128	0x3dd05dc6	0.10174136
129	0xbdb0494a	-0.08607729
130	0x3d47b718	0.048758596
131	0xbc381b60	-0.011236995
132	0xbce90f28	-0.02844961
133	0xbd80b300	-0.062841415
134	0x3d24aae9	0.040202055
135	0x3e056d71	0.1303003
136	0x3d312ae5	0.043253798
137	0xbdca489e	-0.09877132
138	0x3dc5341a	0.09629078
139	0x3ddc2924	0.107500345
140	0xbce176ae	-0.027522411
141	0x3ccd4cea	0.02506109
142	0x3ddbaf35	0.107267775
143	0xbc5165ea	-0.012780646
144	0xbd2d1666	-0.04225769
145	0xbca38461	-0.019960584
146	0xbbf933a7	-0.0076050344
147	0xbd66d8ef	-0.056359228
148	0xbdfcc915	-0.12343041
149	0x3def6956	0.11690013
150	0xbbea526c	-0.0071509387
151	0xbd59bbe6	-0.05315771
152	0x3dcbd0ff	0.09951972
153	0x3d4b4a4d	0.049631406
154	0x3ddfc56a	0.109263256
155	0x3d31e8e9	0.04343501
156	0x3ce09af2	0.027417634
157	0x3d06f2bf	0.032946344
158	0xbbb61379	-0.0055565205
159	0x3e00275b	0.12515013
160	0xbd216b9f	-0.039409276
161	0x3d9ac667	0.075573735
162	0xbd40dc3b	-0.04708503
163	0xbd8e778b	-0.06956395
164	0xbd8382a3	-0.06421401
165	0x3d90f1f1	0.07077397
166	0xbcd09b60	-0.025464714
167	0x3d5f2aa6	0.054484032
168	0xbd8dc8b3	-0.06923046
169	0x3c1bc148	0.009506531
170	0xbccd07f5	-0.025028208
171	0x3d89c8cc	0.06727752
172	0xbd0450ef	-0.032303747
173	0x3d873af1	0.06603039
174	0x3d9264ea	0.07148154
175	0x3ced4e54	0.028968014
176	0xbd802f62	-0.062590376
177	0xbd878c1a	-0.06618519
178	0xbd8aff33	-0.06786957
179	0xbdca671a	-0.09882946
180	0xbcb16445	-0.021654258
181	0xbd85c92e	-0.065325126
182	0xbd3d84db	-0.04626928
183	0x3d96896e	0.073504314
184	0xbd034316	-0.0320464
185	0xbbdf2c71	-0.0068107178
186	0xbd7470e5	-0.059677977
187	0xbdac829b	-0.084233485
188	0x3d8dd38c	0.06925115
189	0x3dddc3a8	0.10828334
190	0x3dc334f0	0.095315814
191	0xbcdeb04d	-0.027183676
192	0x3d40ade0	0.04704082
193	0x3dc6f2df	0.09714293
194	0x3d2737fb	0.04082487
195	0x3d29c06c	0.041443273
196	0xbd823e66	-0.06359558
197	0x3d8871e6	0.066623494
198	0x3c637a36	0.013884118
199	0xbb653091	-0.0034971575
200	0xbc7eae52	-0.015544491
201	0xbd30f7d9	-0.043205116
202	0xbca56882	-0.020191435
203	0xbd174ecf	-0.036940392
204	0x3bcc9e35	0.0062444457
205	0x3e04688d	0.12930508
206	0xbddcb879	-0.10777373
207	0x3df2f587	0.11863237
208	0xbcdc3011	-0.026878389
209	0x3c4a2f1b	0.012340332
210	0x3dcf7d5b	0.101313315
211	0x3dcd2873	0.10017481
212	0xbdcc94ae	-0.09989296
213	0xbd97ccd1	-0.074121125
214	0xba889132	-0.0010419248
215	0x3c34a07e	0.011024592
216	0x3cabd284	0.020974405
217	0x3e02f832	0.12789991
218	0xbe0ffd60	-0.14061499
219	0x3d886ea1	0.06661726
220	0xbd7743c9	-0.06036738
221	0x3db4694d	0.08809147
222	0xbd6a02a5	-0.05713143
223	0xbd93e0db	-0.07220622
224	0xbd916d7f	-0.07100963
225	0xbd57b709	-0.05266479
226	0xbd044472	-0.032291837
227	0x3d915e11	0.0709802
228	0x3cf3e55a	0.02977245
229	0xbd516870	-0.05112499
230	0x3ca85013	0.020545995
231	0x3e0463ee	0.12928745
232	0x3dd02211	0.10162748
233	0x3dafc394	0.085822254
234	0xbce2b5f1	-0.027674647
235	0x3d64402b	0.055725258
236	0xbcc1606a	-0.023605544
237	0x3cad4f43	0.021155959
238	0x3d803e74	0.06261912
239	0x3dba4bdf	0.090965025
240	0x3d3120e9	0.043244276
241	0xbc5010f0	-0.012699351
242	0xbce8e79a	-0.028430749
243	0x3ccf500d	0.025306726
244	0xbd3a3bd3	-0.04546721
245	0xbd35bd62	-0.044370063
246	0xbd16da4d	-0.03682928
247	0x3cd0fe3c	0.025511853
248	0xbd438197	-0.04773101
249	0xbc23f9c8	-0.010008283
250	0xbbc30d07	-0.0059524807
251	0x3e17c73a	0.14822093
252	0xbc04ea39	-0.008112484
253	0x3dbce8ac	0.09224066
254	0x3ccc9d67	0.024977399
255	0x3c60669f	0.013696342

encoder.linear_log_var.bias f4 [14]
0	0xbbd6cd8c	-0.006555265
1	0xbb8171e1	-0.003950343
2	0xbb710529	-0.0036776757
3	0xbca43bf8	-0.020048127
4	0xbbb61e88	-0.005557839
5	0xbbf3fc29	-0.0074458313
6	0xbc224085	-0.009903078
7	0xbbd322c4	-0.0064433534
8	0x3bacdc5f	0.0052752937
9	0xbbced46b	-0.0063119433
10	0xbc1472f5	-0.009060611
11	0xbb9684da	-0.004593474
12	0x3b428109	0.0029678962
13	0x3b4f3155	0.0031615098
