model/CVAE_8000_0.005_32_[12, 256, 140, 70]_14_[70, 140, 256, 6].pth (torch, 409154 bytes, 18 tensors)

encoder.MLP.L0.weight f4 [256, 12]
0	0xbcee0757	-0.029056234
1	0x3e3a0b6d	0.18168421
2	0xbe8773a9	-0.2645543
3	0xbe74fd26	-0.23924693
4	0xbe0d4917	-0.13797413
5	0x3d50e8a7	0.051003125
6	0xbd02c87d	-0.03192948
7	0x3e4e6bc0	0.20158291
8	0xbd5a173a	-0.053244807
9	0x3d46d17b	0.04853962
10	0xbdec049b	-0.11524316
11	0xbdc25db8	-0.09490532
12	0xbe957e61	-0.29197982
13	0xbe2afce4	-0.16698033
14	0xbe0c4145	-0.13696773
15	0xbc6b5726	-0.0143640395
16	0x3db5f949	0.08885438
17	0x3e1a80d0	0.150882
18	0xbe53c1bd	-0.20679374
19	0xbe0c2c96	-0.13688883
20	0x3dbfefab	0.09371885
21	0x3e69e468	0.22841036
22	0xbd916bfd	-0.07100675
23	0x3e510223	0.20410971
24	0xbd3e95d8	-0.04652962
25	0x3cfa3b60	0.03054589
26	0x3e85d4b6	0.26138848
27	0xbe891c79	-0.26779535
28	0xbe3a17f0	-0.18173194
29	0xbd95ac48	-0.07308251
30	0xbde673cc	-0.11252555
31	0x3e7f66c8	0.24941552
32	0xbe3f9aa4	-0.18711334
33	0xbe081370	-0.13288665
34	0xbe4e853c	-0.20168012
35	0xbe8a6cdf	-0.27036187
36	0xbe6882bb	-0.2270612
37	0x3e9a61a9	0.30152634
38	0x3d8e9f52	0.06963982
39	0x3da921e7	0.082584195
40	0xbd2d0efe	-0.042250626
41	0xbe540aec	-0.20707291
42	0xbc584b43	-0.013201538
43	0xbea9666b	-0.3308595
44	0xbe85d1c6	-0.26136607
45	0xbe4ad765	-0.19808729
46	0x3e0a9d93	0.13536672
47	0x3dea17af	0.114302985
48	0xbe573917	-0.21017872
49	0x3d209820	0.039207578
50	0x3e0dad56	0.13835654
51	0x3e6f84f3	0.2339056
52	0x3d73e36b	0.059543055
53	0xbcd96492	-0.026537213
54	0x3df39bb5	0.11894933
55	0xbe77cea0	-0.24199915
56	0xbbe25ab0	-0.0069077834
57	0xbe8fb572	-0.2806812
58	0xbe778cc1	-0.24174787
59	0xbe6ea6fa	-0.23305884
60	0x3d93a507	0.07209211
61	0x3e34f5f6	0.17671952
62	0xbe6aa39f	-0.22913979
63	0x3d0b8958	0.034066528
64	0x3dd7946c	0.10526356
65	0xbdbc157d	-0.09183786
66	0xbd5135a5	-0.05107655
67	0x3b383218	0.002810603
68	0x3de9ac8c	0.11409864
69	0x3e595553	0.21223955
70	0xbe932d6b	-0.2874559
71	0xbe2e2344	-0.1700564
72	0x3d99e42d	0.07514224
73	0x3e88b4ac	0.26700342
74	0x3e5aa1c1	0.21350767
75	0x3e554bde	0.20829722
76	0x3c39449c	0.011307862
77	0xbe95e5b6	-0.29276818
78	0x3b119b8d	0.002221796
79	0xbe4f1202	-0.20221713
80	0xbe8ff322	-0.28115183
81	0x3e7d9ba2	0.247664
82	0x3e5e1145	0.21686275
83	0xbea2ab13	-0.31771144
84	0x3cf485be	0.02984893
85	0xbced4e65	-0.028968045
86	0xbd96d332	-0.07364501
87	0xbe1fabfd	-0.15592952
88	0x3db37c18	0.087639034
89	0xbe45a894	-0.19302589
90	0x3da5a519	0.080881305
91	0x3deaf341	0.11472178
92	0x3e303feb	0.17211883
93	0x3d9413fa	0.07230373
94	0xbea50845	-0.32232872
95	0xbe6541c0	-0.22388363
96	0x3dfb50ec	0.12271294
97	0x3d4a7810	0.049430907
98	0xbe5f4d56	-0.21806845
99	0xbe2fc841	-0.17166235
100	0x3e880b33	0.26571044
101	0x3e407c1e	0.18797347
102	0xbe0ee6e9	-0.13955273
103	0xbda96f42	-0.08273174
104	0xbe897fb8	-0.26855254
105	0x3c0b9ccf	0.008521273
106	0xbe2dfcb7	-0.16990934
107	0xbe86575c	-0.26238525
108	0xbc824d10	-0.015905887
109	0x3d318898	0.043343157
110	0xbdf21df6	-0.11822121
111	0x3e2f6786	0.17129335
112	0xbe33e2dd	-0.1756701
113	0x3e861c5e	0.26193517
114	0x3e4a93b2	0.19782904
115	0xbe7946fa	-0.24343482
116	0xbd93245e	-0.07184671
117	0x3c556a20	0.01302579
118	0x3d2c83f0	0.042118013
119	0x3d8c3810	0.068466306
120	0x3de80198	0.11328429
121	0x3c8da750	0.017291695
122	0xbe103bbe	-0.1408529
123	0x3e0be052	0.1365979
124	0xbe8dc751	-0.2769113
125	0xbe2f34c1	-0.17109968
126	0xbd93ff26	-0.072264
127	0xbe0ffe09	-0.1406175
128	0xbdced2e6	-0.100988194
129	0xbe72486c	-0.23660439
130	0xbd7b8468	-0.06140557
131	0x3d7cbf98	0.061706156
132	0xbe415ccc	-0.18883055
133	0x3c496d70	0.012294158
134	0x3e3ca02c	0.18420476
135	0xbd4a7c76	-0.0494351
136	0xbc2125eb	-0.0098357005
137	0xbd06163a	-0.03273604
138	0x3d5e330c	0.0542479
139	0x3e30df0e	0.17272589
140	0x3e849df0	0.25901747
141	0x3e2c6d49	0.16838564
142	0x3e8423e3	0.2580863
143	0xbd0b9f4f	-0.034087475
144	0xbe84c5ff	-0.2593231
145	0xbe0c2389	-0.1368543
146	0x3e494722	0.19656041
147	0xbaf54700	-0.0018713176
148	0xbe12edb6	-0.14348492
149	0xbe62863a	-0.22121516
150	0xbe8a520c	-0.27015722
151	0xbe797ddc	-0.24364418
152	0xbd6fd63c	-0.05855392
153	0x3e221c54	0.15831119
154	0x3e1fd0b8	0.15606964
155	0xbe8e8b6d	-0.27840748
156	0x3e38645e	0.18007037
157	0xbe674ffa	-0.22589102
158	0xbd79f970	-0.061028898
159	0xbdefb7d8	-0.11704987
160	0xbd63c038	-0.055603236
161	0xbd682880	-0.05667925
162	0xbe84a13c	-0.25904262
163	0xbe7f3c31	-0.24925305
164	0xbd390600	-0.045171738
165	0x3b74a880	0.003733188
166	0xbe064901	-0.13113786
167	0x3ddeb504	0.1087437
168	0xbe9afd4d	-0.30271378
169	0x3cacbc8f	0.021086005
170	0x3e55fb9d	0.20896764
171	0xbe2f5fb8	-0.17126358
172	0x3e5442f1	0.20728661
173	0x3d5a0d05	0.053235073
174	0xbe9673f5	-0.29385343
175	0x3e1c75f0	0.15279365
176	0xbd75cf47	-0.06001213
177	0xbe1ec7b7	-0.15505873
178	0x3e521d4e	0.20518991
179	0xbe8559db	-0.26045117
180	0xbd35e6fa	-0.04440973
181	0x39b05e6e	0.00033639692
182	0x3e10ce45	0.14141186
183	0x3c0877a0	0.008329302
184	0x3d87808f	0.066163175
185	0x3cef595b	0.029217413
186	0xbe05b825	-0.13058527
187	0xbdf494d7	-0.119424514
188	0xbe95703e	-0.29187196
189	0x3dd1d728	0.10246116
190	0x3e34191e	0.17587706
191	0x3e0a9f79	0.13537396
192	0xbe50831e	-0.20362517
193	0x3c52f120	0.0128748715
194	0xbe506181	-0.20349695
195	0xbe22b997	-0.1589111
196	0xbe2c3fec	-0.1682126
197	0x3dca0abc	0.09865329
198	0xbe302768	-0.17202532
199	0xbbce6040	-0.006298095
200	0x3c46f7c0	0.012144029
201	0x3e3e8d80	0.18608665
202	0xbe5f73d6	-0.21821532
203	0xbe4aef70	-0.198179
204	0xbe5ed116	-0.21759447
205	0x3e661763	0.22469859
206	0xbe0339f0	-0.1281507
207	0x3e532360	0.20618963
208	0x3d87337f	0.06601619
209	0xbbba0b62	-0.0056776265
210	0xbd1900fb	-0.03735445
211	0xbdb47fd3	-0.08813443
212	0x3ca92d76	0.02065156
213	0xbd9df042	-0.07711841
214	0xbc2481e2	-0.010040732
215	0xbc8e94cc	-0.017404936
216	0xbe6738f2	-0.22580317
217	0xbe1aef5c	-0.15130371
218	0x3e6eb294	0.2331031
219	0xbe6fe55a	-0.23427334
220	0xbca9cf20	-0.020728648
221	0x3e92360c	0.2855686
222	0x3dd590d4	0.104280144
223	0x3c05e920	0.008173257
224	0xbe80161e	-0.25016874
225	0x3e126f74	0.14300328
226	0xbe528d75	-0.20561774
227	0xbda7d28c	-0.081944555
228	0xbe1091fc	-0.14118189
229	0xbc788115	-0.015167494
230	0xbcc2f2b6	-0.023797374
231	0x3e4d9452	0.20076111
232	0xbb13654d	-0.00224908
233	0x3e5fb35d	0.21845765
234	0x3e13d1e1	0.14435531
235	0xbe56715a	-0.20941678
236	0x3deed26e	0.1166123
237	0xbe5a5e47	-0.21325026
238	0xbdf6c9c6	-0.12050204
239	0x3d5d3ef5	0.05401512
240	0x3d8946ec	0.067029804
241	0x3e7afea7	0.24511205
242	0xbddf25e1	-0.10895897
243	0xbcaafc96	-0.020872395
244	0x3e01287f	0.12613104
245	0xbe9a5d96	-0.30149525
246	0x3e38a90d	0.18033238
247	0xbe888371	-0.26662782
248	0xbcf1a376	-0.02949689
249	0xbda599e3	-0.08085992
250	0xbe1964b9	-0.14979829
251	0xba36ab7b	-0.00069683016
252	0x3e7470a0	0.23871088
253	0xbdacd23e	-0.08438538
254	0xbe2f7f7a	-0.17138472
255	0xbddaa6b4	-0.10676327

encoder.MLP.L0.bias f4 [256]
0	0x3e78e4a6	0.24305972
1	0x3e4998ef	0.19687246
2	0xbe8153f7	-0.25259373
3	0xbe306e17	-0.17229496
4	0x3db46120	0.088075876
5	0xbe61a190	-0.22034287
6	0x3c7a518b	0.01527823
7	0xbe152cba	-0.14567843
8	0x3d547cc0	0.051876783
9	0x3e103ca2	0.1408563
10	0x3db9d2c0	0.090734005
11	0x3e4df182	0.20111659
12	0xbd0e4930	-0.034737766
13	0x3e20797a	0.1567134
14	0x3d2d2590	0.04227215
15	0xbe2764e2	-0.16347077
16	0xbe50c650	-0.2038815
17	0x3e6346db	0.22194998
18	0xbdb044ec	-0.08606896
19	0x3e35ccc4	0.17753893
20	0x3e24721d	0.16059156
21	0xbc3e7480	-0.011624455
22	0xbe66f194	-0.22553092
23	0x3d0f3197	0.034959402
24	0xbe324a08	-0.17411053
25	0x3cf85ca1	0.030317606
26	0xbe2e69a5	-0.17032488
27	0x3e1c1b9e	0.1524491
28	0xbea04875	-0.3130528
29	0xbdcf3a3c	-0.10118529
30	0xbd3e06c0	-0.046393156
31	0x3c5ae84a	0.013361046
32	0x3e636bcf	0.22209094
33	0xbdc58615	-0.09644715
34	0xbe5fc871	-0.21853806
35	0x3e1927e5	0.14956625
36	0x3da5336c	0.080664486
37	0x3e32c03d	0.17456146
38	0xbe2ef458	-0.17085397
39	0xbe69fd23	-0.2285047
40	0xbdff0d71	-0.124537356
41	0xbbb6ca09	-0.0055782837
42	0x3d3f75ac	0.04674308
43	0xbe10e643	-0.14150338
44	0xbd79284d	-0.06082945
45	0xbd4c5c58	-0.049892753
46	0x3e807b76	0.25094193
47	0xbdefa255	-0.11700884
48	0x3e8f966f	0.2804446
49	0xbe55d517	-0.20882069
50	0xbe1435ac	-0.14473599
51	0xbe83e6af	-0.25761935
52	0x3e4cb6ce	0.1999161
53	0xbe56d6cd	-0.20980377
54	0x3d85a0e9	0.06524832
55	0xbde98f11	-0.11404241
56	0x3e7a6332	0.24451903
57	0x3cdfb3ed	0.027307475
58	0xbe8ea2c1	-0.27858546
59	0x3c5de54c	0.013543438
60	0x3c029c12	0.00797178
61	0xbe8fa6f3	-0.2805706
62	0x3c978f8a	0.018501062
63	0x3e9204a9	0.2851918
64	0x3d8474cf	0.06467592
65	0xbac93800	-0.0015351772
66	0xbd751dec	-0.05984299
67	0x3d279d2e	0.040921383
68	0xbe3e400e	-0.18579122
69	0x3e8982e5	0.26857677
70	0x3e8c9758	0.27459216
71	0x3e1a7260	0.15082693
72	0xbdfcfed0	-0.12353289
73	0xbe442b17	-0.19157062
74	0xbe5e0e4c	-0.21685141
75	0x3e46a3dd	0.19398446
76	0xbe88083d	-0.26568785
77	0xbea5fcde	-0.32419485
78	0xbd51f636	-0.051260196
79	0x3d71c111	0.059022013
80	0xbea155f9	-0.31510904
81	0xbeac748a	-0.33682662
82	0xbc0a836d	-0.008454186
83	0xbdc64f94	-0.09683147
84	0x3e2d189a	0.16903916
85	0x3d29f877	0.04149672
86	0xbe8a38ec	-0.26996553
87	0xbe9496ba	-0.29021245
88	0x3e5f0b01	0.21781541
89	0xbde1f02e	-0.11032139
90	0xbe43cebc	-0.19121832
91	0x3d8907d3	0.066909455
92	0xbd6862c0	-0.0567348
93	0x3e0d5f1c	0.13805813
94	0x3c07e5be	0.008294521
95	0xbdfffa16	-0.12498872
96	0xbe6cec47	-0.23137008
97	0x3dfde03d	0.12396286
98	0xbe319a06	-0.17343912
99	0xbd622a4d	-0.055216122
100	0x3d21ab58	0.039470047
101	0xbe3b4c81	-0.18290903
102	0x3e3ce13c	0.18445295
103	0xbe4fec79	-0.20305051
104	0x3d588149	0.05285767
105	0xbad93e60	-0.0016574375
106	0x3d3e0eba	0.046400763
107	0xbeab3e00	-0.3344574
108	0xbb57102f	-0.0032816043
109	0x3e0c3f49	0.13696016
110	0xbe3d4014	-0.18481475
111	0x3dc336f0	0.09531963
112	0xbd06ef5d	-0.03294312
113	0x3e6f8ba5	0.23393114
114	0xbd7a9e5b	-0.061186176
115	0xbd19c3f6	-0.0375404
116	0xbe2ba2af	-0.16761278
117	0xbdc7309e	-0.0972607
118	0x3d1a6eb6	0.03770324
119	0xbe9f629f	-0.3112993
120	0x3e603f34	0.2189911
121	0x3e381c93	0.1797965
122	0x3deed242	0.11661197
123	0x3e39c285	0.1814061
124	0xbda7868c	-0.0817996
125	0x3c15e2c8	0.009148307
126	0x3c709ea0	0.014686257
127	0xbe62f171	-0.22162415
128	0xbe05ee57	-0.130792
129	0xbe224186	-0.15845308
130	0xbd922d88	-0.07137591
131	0xbe9340f4	-0.28760493
132	0xbe6db722	-0.23214391
133	0xbce09200	-0.027413368
134	0xbd33df54	-0.043914154
135	0xbe97a413	-0.29617366
136	0x3d4e96ec	0.0504369
137	0x3de609fe	0.112323746
138	0x3e80f3e4	0.25186074
139	0x3e5bf620	0.21480608
140	0xbe6b0483	-0.2295094
141	0xbdcfb461	-0.101418264
142	0xbe36346b	-0.17793433
143	0x3d8eba6d	0.06969152
144	0x3da2f2d7	0.07956474
145	0x3d838910	0.06422627
146	0x3e3f92fe	0.18708417
147	0x3d8e99d6	0.069629356
148	0xbe59e261	-0.21277763
149	0x3e15b667	0.14620362
150	0x3e47679e	0.1947312
151	0xbc022a82	-0.007944705
152	0xbe80974c	-0.2511543
153	0xbe4d4027	-0.20044003
154	0x3d20005d	0.039062846
155	0x3e0d82a0	0.1381936
156	0x3e89d152	0.2691751
157	0x3df91b46	0.12163405
158	0x3d248cbc	0.040173277
159	0xbc9c794e	-0.019100811
160	0x3e0b4c4f	0.13603328
161	0xbdd07f8d	-0.101805784
162	0x3d951009	0.07278449
163	0xbe5801e2	-0.21094468
164	0xbbb1b594	-0.005423257
165	0x3dfa79ce	0.12230264
166	0x3dd2f58a	0.10300739
167	0xbd9fd53e	-0.078043446
168	0xbb6f8d00	-0.0036552548
169	0xbe38736a	-0.18012777
170	0x3d5a4f8d	0.05329852
171	0x3e489f78	0.19592083
172	0x3d9b652e	0.07587658
173	0xbe9b3338	-0.30312514
174	0xbe6d78e4	-0.23190647
175	0x3e263a02	0.16233066
176	0xbd294d9c	-0.04133378
177	0x3df7da4a	0.12102182
178	0x3e5e0710	0.21682382
179	0xbdc4e6b3	-0.09614315
180	0xbe0edbf5	-0.13951094
181	0xbe89d104	-0.2691728
182	0x3db07ad0	0.086171746
183	0x3e08fd34	0.1337784
184	0xbd69d65b	-0.05708919
185	0xbe9c91df	-0.3058004
186	0xbe6832f3	-0.22675686
187	0xbd74a6fe	-0.05972957
188	0x3de041a2	0.109500185
189	0xbe1ea64b	-0.15493123
190	0xbe5b4a24	-0.21415001
191	0xbe6ce459	-0.23133983
192	0x3e88cea9	0.2672017
193	0x3d97f7ca	0.07420309
194	0xbe858b83	-0.26083001
195	0xbe386e07	-0.18010722
196	0xbe99e360	-0.30056286
197	0x3cfb45b2	0.030672882
198	0xbe3a4898	-0.18191755
199	0xba801600	-0.0009772182
200	0xbdb6e280	-0.0892992
201	0xbe816082	-0.25268942
202	0xbe90d7c2	-0.2828961
203	0xbe90348e	-0.28165096
204	0xbe184239	-0.14869012
205	0x3c43d3e1	0.011952371
206	0xbe4f0564	-0.202169
207	0x3c14dd61	0.009085984
208	0xbd848ddd	-0.06472371
209	0x3e358354	0.17725879
210	0xbe06c1b5	-0.13159831
211	0x3e8add5a	0.27122003
212	0xbe7516a5	-0.2393442
213	0xbe76a1d6	-0.24085173
214	0x3db1365b	0.086529456
215	0xbe58ff47	-0.2119113
216	0x3d8d1885	0.06889442
217	0xbe238ab0	-0.15970874
218	0x3e4454cd	0.19172974
219	0x3e81ea92	0.25374275
220	0x3c9bc474	0.019014575
221	0x3cf5250f	0.029924897
222	0x3e7be5ea	0.24599424
223	0x3e2aa8cf	0.16665958
224	0xbe76347a	-0.24043456
225	0xbd582629	-0.052770767
226	0xbe856ad0	-0.26058054
227	0x3e61ceb4	0.22051507
228	0xbd2fefb3	-0.042953204
229	0xbd06be4b	-0.03289632
230	0xbe5938b3	-0.21213035
231	0xbe590a5f	-0.21195363
232	0x3c326d7d	0.010890362
233	0x3e90243e	0.2815265
234	0xbe1495fb	-0.14510338
235	0xbaa571f9	-0.0012622467
236	0x3e63db41	0.22251607
237	0x3e4bcd50	0.19902539
238	0xbd95ac1f	-0.0730822
239	0x3e8a8760	0.27056408
240	0x3db697f2	0.089157
241	0x3e5cb75b	0.2155432
242	0x3c0c53c0	0.008564889
243	0xbe7a85b6	-0.24465069
244	0xbdb34c18	-0.08754748
245	0x3d9bfee8	0.07616979
246	0x3db6cf79	0.08926291
247	0xbeba2929	-0.36359528
248	0x3e4dccb3	0.20097618
249	0xbe94aeb1	-0.2903953
250	0x3df8c063	0.1214607
251	0x3e8203d7	0.25393555
252	0x3d6e3639	0.05815718
253	0xbd5f2890	-0.054482043
254	0x3e128e01	0.14311983
255	0xbdf19157	-0.117952995

encoder.MLP.L1.weight f4 [140, 256]
0	0xbd3da0a8	-0.046295792
1	0xbd35ae18	-0.044355482
2	0x3cf0bbb0	0.029386371
3	0x3d43836c	0.047732756
4	0x3b25dbc0	0.0025307983
5	0xbd78370c	-0.06059937
6	0xbd7b8c32	-0.061412998
7	0xbc673a10	-0.014112964
8	0x3d0a3198	0.033738703
9	0xbd2a98e0	-0.0416497
10	0x3c8a0140	0.0168463
11	0xbd0bec04	-0.03416063
12	0x3d50490c	0.050850913
13	0xbc8628f0	-0.016376942
14	0xbc556698	-0.013024949
15	0xbd608858	-0.054817528
16	0xbd654c0c	-0.055980727
17	0x3b8a69e0	0.004224047
18	0x3c259260	0.010105699
19	0x3d0a4ef6	0.03376671
20	0xbd5fda96	-0.05465182
21	0x3c336d08	0.010951288
22	0xbc13ed30	-0.009028718
23	0x3d162b24	0.036662236
24	0xbce8cde8	-0.028418496
25	0x3c9889e0	0.018620431
26	0x3cce5208	0.0251856
27	0x3d009934	0.031396106
28	0xbcaf9c48	-0.021436825
29	0x3ca4c464	0.020113178
30	0xbc48af98	-0.012248896
31	0x3c89defc	0.01682996
32	0xbd1d6a4a	-0.038431443
33	0xbd4b6b84	-0.04966308
34	0xbd51678e	-0.051124148
35	0xbd20edb6	-0.0392892
36	0xbcd8b14c	-0.02645173
37	0x3c186ca8	0.009303249
38	0xbc5ffca8	-0.013671078
39	0xbd11bc10	-0.03557974
40	0x3a09a280	0.00052503496
41	0xbca1b01c	-0.019737296
42	0x3d1dce62	0.0385269
43	0xbd52d7ce	-0.05147534
44	0xbcbcfbd0	-0.023069292
45	0xbd248398	-0.04016456
46	0x3bfcb460	0.007711932
47	0x3b5f75e0	0.0034097359
48	0xbb6ba060	-0.0035953745
49	0x3d7e0092	0.062012263
50	0xbcc351d8	-0.023842737
51	0xbc132dc0	-0.008983076
52	0x3c844768	0.01614733
53	0x3d55a920	0.052163243
54	0x3d420abe	0.047373526
55	0x3be9f5e0	0.0071399063
56	0xbcc1b408	-0.023645416
57	0x3ca83394	0.020532407
58	0x3d21124c	0.03932409
59	0xbaaed400	-0.0013338327
60	0x3d0c8d78	0.034314603
61	0x3d51840c	0.05115132
62	0xbd092820	-0.03348553
63	0xbc6261d0	-0.013817266
64	0xbd667b12	-0.056269713
65	0x3c6b1008	0.014347084
66	0x3d3672de	0.04454314
67	0xbc46da08	-0.012136944
68	0x3c236608	0.009973057
69	0x3ca399f4	0.019970872
70	0xbaaebac0	-0.0013330802
71	0x3d47065c	0.04859005
72	0x3c153800	0.00910759
73	0xbd7ba254	-0.061434105
74	0xbd5366b8	-0.051611632
75	0xbd7da2cc	-0.061922833
76	0x3b28d280	0.0025760233
77	0x3d0a62a8	0.033785492
78	0xbc0718c8	-0.008245654
79	0x3d662c44	0.05619456
80	0xbc383878	-0.011243932
81	0x3c515b70	0.012778148
82	0x3d66d87a	0.056358792
83	0x3d018f3c	0.03163074
84	0xbb02aca0	-0.0019939318
85	0x3d7695c8	0.060201436
86	0xbd18f36e	-0.037341528
87	0x3cbeb520	0.023279727
88	0x3d21ac68	0.03947106
89	0xbd1e8358	-0.038699478
90	0xbd7078d2	-0.058708973
91	0x3ca3c4f8	0.019991383
92	0xbcc23f40	-0.0237118
93	0xbd013032	-0.031540103
94	0x3c4badd8	0.012431584
95	0xbd39b5aa	-0.045339264
96	0x3d663f54	0.05621274
97	0xbbb7d730	-0.005610369
98	0xbca3f820	-0.020015776
99	0x3d5602de	0.052248828
100	0x3c8e8fe4	0.017402597
101	0x3c431848	0.011907645
102	0xbcf4cd94	-0.029883184
103	0x3d73fcb4	0.05956717
104	0xbc9bf06c	-0.01903554
105	0x3d54ec44	0.051983133
106	0xbb968ba0	-0.0045942813
107	0x3d006b52	0.03135235
108	0x3d33ffda	0.04394517
109	0xbd3e97b6	-0.0465314
110	0xbd2a9ff4	-0.04165645
111	0xbd7d258c	-0.061803386
112	0x3d38a4aa	0.04507891
113	0x3d5c2806	0.053749107
114	0xbcbb1ed4	-0.022841848
115	0xbcfac458	-0.030611202
116	0x3c2b6858	0.010461889
117	0x3d09d33a	0.033648707
118	0x3c7cc270	0.015427217
119	0xbc556968	-0.013025619
120	0xbd22d5cc	-0.039754674
121	0x3d5af2d6	0.053454243
122	0xbd25ca02	-0.040475853
123	0xbd775f60	-0.06039369
124	0xbccc6d74	-0.024954535
125	0x3c4c31a0	0.012463003
126	0x3cbe4e44	0.02323068
127	0x3cc5f940	0.024166703
128	0xbd144cec	-0.03620617
129	0xbcc4801c	-0.023986869
130	0xbce3ad10	-0.027792484
131	0xbcf7f0dc	-0.030266218
132	0xbd579f3a	-0.052642085
133	0x3c519cc8	0.012793727
134	0xbc94e604	-0.018176086
135	0xbd7666cc	-0.06015663
136	0xbd157b9a	-0.03649483
137	0xbd19bd62	-0.037534125
138	0xbcdcdb94	-0.026960172
139	0xbd1e2ef8	-0.03861901
140	0xbc3194d0	-0.010838702
141	0x3cb77b54	0.022397675
142	0xbd4f2f32	-0.05058212
143	0xbbaf70f0	-0.0053540394
144	0xbc93592c	-0.017986856
145	0xbd02e1d2	-0.03195364
146	0xbc6360a0	-0.013878018
147	0xbcd90068	-0.026489452
148	0x3b03ad60	0.0020092353
149	0xbd38cb2a	-0.045115627
150	0x3c4230b0	0.011852428
151	0x3d6b0ab8	0.05738327
152	0x3d541fdc	0.051788196
153	0xbce58f54	-0.028022446
154	0x3c9dd018	0.019264266
155	0xbd71f8e6	-0.05907526
156	0x3d57899a	0.05262146
157	0xbd7f1ede	-0.062285297
158	0xbd64c4b0	-0.05585164
159	0xbd65cb06	-0.05610182
160	0xbd6dbc44	-0.058040872
161	0x3c0aae20	0.008464366
162	0xbc8763b8	-0.016527042
163	0x3c751780	0.014959216
164	0xbb7d6fc0	-0.0038671345
165	0xbaaff940	-0.0013425723
166	0xbcb8f9e0	-0.022580087
167	0xbd17e22a	-0.03708092
168	0xbd565662	-0.052328475
169	0x3d012c66	0.031536482
170	0xbd03fe52	-0.03222496
171	0xbc504288	-0.012711175
172	0x3cf8acfc	0.030355923
173	0xbc7d9b10	-0.015478864
174	0xbc8117cc	-0.015758418
175	0xbd2aa948	-0.041665345
176	0xbd5b08a4	-0.053475037
177	0x3cf5be38	0.02999793
178	0xbc670870	-0.014101133
179	0x3d20f95c	0.039300308
180	0x3b86cad0	0.0041135326
181	0xb8a67c00	-7.9385936e-05
182	0xbd671df8	-0.056425065
183	0x3ab4dd00	0.0013798773
184	0xbc676bb0	-0.014124796
185	0xbd121518	-0.035664648
186	0xbc6cfe08	-0.014464863
187	0x3b562240	0.0032674223
188	0xbd40e438	-0.047092646
189	0x3c2a4640	0.0103927255
190	0x3d3220ee	0.043488435
191	0x3c4a49d0	0.0123467
192	0x3d745d92	0.059659548
193	0x3ceeebb8	0.029165134
194	0xbd49e4e6	-0.04929056
195	0xbcc987d0	-0.024600893
196	0xbc766b18	-0.015040182
197	0x3c992938	0.018696412
198	0xbae9a600	-0.0017825961
199	0x3d4e009a	0.050293542
200	0x3bede890	0.0072603896
201	0xbd2220a4	-0.03958191
202	0xbcbbb510	-0.022913486
203	0xbd54fb68	-0.051997572
204	0xbc8d2c6c	-0.017233096
205	0x3cfbba74	0.030728556
206	0x3a1e3680	0.0006035343
207	0xbd741f6a	-0.05960027
208	0xbd5d8428	-0.054081112
209	0x3cb99fa4	0.02265913
210	0xbd60b11e	-0.054856412
211	0xbd4c30d0	-0.04985124
212	0xbd18a18a	-0.03726343
213	0x3d73ff90	0.059569895
214	0xbc9195c4	-0.01777161
215	0xbcd31928	-0.025768831
216	0xbd2cdac0	-0.042200804
217	0x3d23c3d8	0.039981693
218	0xbc255810	-0.0100917965
219	0x3c457680	0.012052178
220	0x3c749f90	0.014930621
221	0x3c9065cc	0.017626666
222	0x3d23dcd8	0.040005535
223	0x3b548e40	0.003243342
224	0x3bd3d710	0.0064648464
225	0xbb84ff50	-0.004058756
226	0xbd46ede2	-0.048566706
227	0xbc6a5738	-0.014303021
228	0x3d73a62a	0.05948464
229	0xbd356ed4	-0.044295147
230	0xbd21905e	-0.03944432
231	0xbd7e0848	-0.062019616
232	0x3b785f40	0.003789857
233	0xbd6f714a	-0.05845765
234	0xbd031f28	-0.032012135
235	0x3d6be390	0.057590067
236	0x3cd40d6c	0.025885306
237	0x3d0863b8	0.033298224
238	0x3c2f5738	0.010701947
239	0xbd598b2a	-0.053111233
240	0xbcee3e64	-0.029082485
241	0xbd4f3f3a	-0.050597407
242	0xbd1e4cc4	-0.03864743
243	0x3cae5bd0	0.021284014
244	0xbc8e015c	-0.017334633
245	0x3d7a2dec	0.06107895
246	0xbd3a9cee	-0.045559816
247	0xbd5a7914	-0.053338125
248	0x3d7cc668	0.061712652
249	0xbd5d25aa	-0.053990997
250	0x3d59d6a2	0.053183205
251	0x3c89dec8	0.016829863
252	0xbd6954e0	-0.05696571
253	0x3d5ef880	0.054436207
254	0xbc8b6398	-0.017015263
255	0xbcd31de4	-0.025771089

encoder.MLP.L1.bias f4 [140]
0	0x3d7ad0a4	0.06123413
1	0x3c93a4f4	0.018022992
2	0xbd8f4cbd	-0.069970585
3	0xbcd3725f	-0.025811372
4	0xbc37399c	-0.011183169
5	0x3c4e91a8	0.012607969
6	0x3c685c50	0.014182165
7	0xbd5fc99f	-0.05463564
8	0xbc81dd53	-0.015852606
9	0x3d4aae68	0.049482733
10	0xbb2b4ef2	-0.0026139584
11	0xbb117ad7	-0.0022198462
12	0xbd97c8bd	-0.07411335
13	0x3cfb3c12	0.030668292
14	0xbd87580f	-0.06608593
15	0xbcb7c2fc	-0.022431843
16	0xbd9c0da1	-0.07619787
17	0xbc855601	-0.016276361
18	0xbd8ced8b	-0.06881245
19	0xbb21fc95	-0.00247172
20	0xbd5dcec2	-0.054152258
21	0x3beefb93	0.0072931736
22	0x3c728e60	0.014804453
23	0x3b29adf1	0.002589103
24	0x3cb66154	0.022263207
25	0xbd242158	-0.04007086
26	0xbdb2a253	-0.08722367
27	0xbb04716a	-0.0020209202
28	0xbc6ee115	-0.014580031
29	0xbd84997c	-0.06474587
30	0x3d5211a3	0.05128635
31	0xbb4d0a2a	-0.0031286576
32	0xbdb01cb9	-0.085992284
33	0xbd095b20	-0.03353417
34	0xbdc5b1f1	-0.0965308
35	0x3cd64885	0.026157627
36	0x3c88feb3	0.016723013
37	0x3c9a39b4	0.018826343
38	0xbc2e3c35	-0.010634472
39	0xbd8a302d	-0.0674747
40	0x3b2b4a6d	0.002613689
41	0x3d331248	0.043718606
42	0xbc36b7f4	-0.011152256
43	0x3bed585a	0.0072431983
44	0x3ba27eb8	0.0049589537
45	0xbd4f4f4c	-0.050612733
46	0xbd6abee6	-0.05731096
47	0x3d3998c5	0.045311708
48	0xbd94f495	-0.07273213
49	0xbc70b48c	-0.014691483
50	0xbd59e5e6	-0.053197764
51	0xbd7a9c01	-0.061183933
52	0xbd29bd05	-0.04144003
53	0x3ca511fc	0.020150177
54	0xbd54ac7e	-0.051922314
55	0x3d039344	0.032122865
56	0xbcf69f22	-0.030105177
57	0x3d34aa84	0.04410793
58	0xbd27c10f	-0.0409556
59	0x3d4dc666	0.050238036
60	0xbd1d5b96	-0.03841742
61	0xbd4a879f	-0.049445745
62	0xbd8c22b7	-0.06842559
63	0x3cf53dfc	0.029936783
64	0x3b4f0555	0.0031588871
65	0x3cd68229	0.026185112
66	0xbd53fc27	-0.051754143
67	0xbd649e4d	-0.05581503
68	0xbd47c726	-0.048773907
69	0x3d33a55a	0.043858863
70	0x3c3b85bf	0.011445462
71	0xbda78a53	-0.0818068
72	0x3cd4b968	0.025967315
73	0xbc9e67db	-0.019336632
74	0xbc5ee509	-0.013604411
75	0xbac55828	-0.001505618
76	0xbda6a1b3	-0.081363104
77	0x3cc5f05c	0.024162464
78	0xbd815525	-0.06315068
79	0xbd66f1fe	-0.056383125
80	0xbd086182	-0.033296116
81	0xbd2703c8	-0.04077509
82	0xbd0feaaa	-0.035135902
83	0xbd25afe6	-0.040450953
84	0x3bceb8f0	0.0063086674
85	0x3d1859dd	0.037195075
86	0xbd4ea07f	-0.05044603
87	0xbda293eb	-0.07938369
88	0x3d2e858d	0.042607833
89	0xbd97fd34	-0.074213415
90	0x3cab15c6	0.020884406
91	0x3d70d5ce	0.05879765
92	0xbcc851e4	-0.024453111
93	0xbd53566c	-0.05159609
94	0x3b799675	0.0038084064
95	0xbc16c428	-0.009202041
96	0x3ce6e618	0.02818589
97	0x3c83394e	0.016018536
98	0x3d351167	0.04420605
99	0xbc16996b	-0.009191851
100	0x3c422e78	0.011851899
101	0x3b2ebd1c	0.002666301
102	0xbd85f9fa	-0.0654182
103	0x3cb5f131	0.022209736
104	0xbd98a6f7	-0.07453721
105	0xbd859ab9	-0.06523652
106	0xbd35651b	-0.044285875
107	0xbcf451d7	-0.02982418
108	0x3a5c9500	0.0008414537
109	0x3c828b3e	0.015935536
110	0xbd818f16	-0.063261196
111	0xbd5c2c3a	-0.053753115
112	0xbcdd4680	-0.027011156
113	0x3c9f7cd2	0.019468699
114	0x3cffb946	0.031216275
115	0x3c1e6bf3	0.009669292
116	0xbc66ead8	-0.014094077
117	0xbd5b2e03	-0.053510677
118	0x3cd5c624	0.026095457
119	0xbbf3fa0e	-0.0074455803
120	0x3ae6c014	0.0017604851
121	0x3d21b05f	0.03947484
122	0x3c763f67	0.015029765
123	0xbc8f2c20	-0.017477095
124	0xbd1445c1	-0.036199335
125	0x3db91d7c	0.09038827
126	0x3d3847aa	0.04499022
127	0xbd76f41e	-0.060291402
128	0x3c6bfae6	0.014403081
129	0xbd3b653a	-0.045750834
130	0xb9f84600	-0.000473544
131	0xbd80118c	-0.06253347
132	0xbc1c6e89	-0.009547838
133	0x3c2e689e	0.01064506
134	0xbda46c16	-0.08028428
135	0x3c27adaf	0.0102342805
136	0xbd8e8155	-0.06958262
137	0xbc3d2eca	-0.0115468
138	0xbd1b5786	-0.037925266
139	0x3c4a2a99	0.012339258

encoder.MLP.L2.weight f4 [70, 140]
0	0x3d3c8ef8	0.046034783
1	0x3c4bd8e8	0.012441851
2	0x3cd75ac4	0.026288398
3	0xbcae96c0	-0.021312118
4	0x3cc70cd0	0.024298102
5	0x3d5ea0e4	0.054352656
6	0x3c6cdd40	0.014457047
7	0x3c89a40b	0.016801855
8	0xbcaf4c88	-0.021398798
9	0x3d5ae927	0.053445008
10	0x3d5059ac	0.050866768
11	0x3d102897	0.03519496
12	0x3c7ec6e7	0.015550352
13	0xbd253dbd	-0.04034208
14	0x3d3e1a68	0.0464119
15	0x3bc34453	0.0059590726
16	0x3d84402c	0.06457552
17	0xbcffc1d8	-0.031220362
18	0xbc799400	-0.01523304
19	0x3d3e3343	0.046435606
20	0xbd77950e	-0.060444884
21	0xbd1ef07e	-0.03880357
22	0xbd725211	-0.059160296
23	0xbd24c56b	-0.040227335
24	0x3d1c796e	0.038201742
25	0xbd7c701b	-0.06163035
26	0xbd0fb74e	-0.035086922
27	0xbcf91e35	-0.030409912
28	0xbd12eabd	-0.035868395
29	0xbbb08450	-0.0053868666
30	0xbced60f4	-0.028976895
31	0x3d3b7bdc	0.04577242
32	0xbda454d2	-0.08023991
33	0x3d6d4608	0.057928115
34	0x3db71b9b	0.08940812
35	0xbbc61b52	-0.0060457373
36	0xbd46b833	-0.04851551
37	0xbbf7b030	-0.007558845
38	0x3db806dc	0.08985683
39	0xbd622a97	-0.055216398
40	0xbd632ef0	-0.055464685
41	0xbda2a869	-0.07942278
42	0x3d5ed6f1	0.054404203
43	0xbd74ec14	-0.059795454
44	0xbdac66e6	-0.08418064
45	0xbb394bab	-0.0028273861
46	0xbbc5bb03	-0.0060342564
47	0xbb4e4263	-0.0031472675
48	0x3c674b12	0.014117019
49	0xba977670	-0.0011555683
50	0xbd9dcada	-0.077047065
51	0xbc7e2fe7	-0.0155143505
52	0xbc4b1512	-0.01239516
53	0x3da7cf4a	0.08193834
54	0xbdabcfd8	-0.083892524
55	0x3d721324	0.059100285
56	0xbdc55cd0	-0.09636843
57	0xbd8c3de6	-0.06847744
58	0x3d7e8ebc	0.06214784
59	0xbd3a8775	-0.04553934
60	0xbd42a07e	-0.04751634
61	0x3d4115f6	0.047140084
62	0xbd91729e	-0.071019396
63	0x3da98c7c	0.082787484
64	0xbd875728	-0.066084206
65	0xbcabefdc	-0.020988397
66	0xbd15a484	-0.036533847
67	0xbd6539fa	-0.055963494
68	0x3c99854f	0.018740324
69	0x3d9c6be2	0.076377645
70	0xbd3026ec	-0.04300587
71	0x3c5d7f1a	0.013519073
72	0x3d512db8	0.05106899
73	0xbdb00354	-0.08594385
74	0x3cf85378	0.030313239
75	0x3ce8d0f6	0.028419953
76	0x3c0722a0	0.008248001
77	0x3c08a82a	0.008340875
78	0xbd606ba6	-0.05479016
79	0xbc84ce34	-0.016211607
80	0xbd4d5ce8	-0.05013743
81	0xbdb4551d	-0.088052966
82	0x3cbe1049	0.023201125
83	0x3c53d2e8	0.012928702
84	0x3d8d5102	0.06900217
85	0xbd68e9d8	-0.056863636
86	0xbd71c7d8	-0.059028476
87	0x3d8ded10	0.06929982
88	0xbda0f456	-0.078591034
89	0x3d9ffc9a	0.07811852
90	0xbc2af0bf	-0.010433375
91	0x3d95563a	0.07291837
92	0xbd89d0ac	-0.06729254
93	0x3cb50823	0.022098606
94	0x3d61fc59	0.055172298
95	0xbcdf4744	-0.027255662
96	0xbce7c0a4	-0.0282901
97	0xbd1fca6f	-0.039011415
98	0x3c6f8f58	0.014621578
99	0xbc0a2118	-0.008430742
100	0xbc5ef374	-0.013607848
101	0x3c41af78	0.01182162
102	0x3b766340	0.0037595779
103	0x3d8c78a8	0.06858951
104	0xbda63b77	-0.08116811
105	0xbd5f430b	-0.054507297
106	0xbd5409b6	-0.051767074
107	0x3d624bc7	0.05524805
108	0x3d0d65d6	0.034520946
109	0x3d483ac4	0.04888417
110	0xbd48ff0d	-0.04907136
111	0xbce94a6c	-0.02847787
112	0xbd7f2e03	-0.06229974
113	0xbd9440f6	-0.07238953
114	0xbb9e1a40	-0.0048249066
115	0xbd2940a9	-0.04132143
116	0x3da6ac64	0.0813835
117	0x3d11f2d4	0.03563197
118	0xbd4e8ec1	-0.05042911
119	0xbca7a84f	-0.020465998
120	0xbc1a4c5c	-0.00941762
121	0xbd9b633a	-0.07587285
122	0x3d25520a	0.04036144
123	0x3d57cb64	0.052684203
124	0x3d838756	0.06422298
125	0xbdc708ad	-0.09718452
126	0x3da5fbc8	0.08104664
127	0xbd672c37	-0.05643865
128	0x3de5eb63	0.11226537
129	0xbd32346e	-0.043507032
130	0xbd443db0	-0.047910392
131	0xbad95389	-0.0016580682
132	0xbd6b7648	-0.05748585
133	0x3d5ac9bc	0.053415045
134	0x3d43bcb9	0.0477874
135	0x3d3e9868	0.046532065
136	0xbd790bf8	-0.06080243
137	0x3da8699c	0.082232684
138	0xbcea2c67	-0.028585626
139	0xbd6f1cca	-0.058377065
140	0x3b48da00	0.0030647516
141	0xbd7dafbe	-0.06193518
142	0xbbf3b37a	-0.0074371668
143	0x3c67bb2a	0.0141437445
144	0xbb25b6a3	-0.0025285862
145	0x3d38a4cc	0.045079038
146	0x3ca351d4	0.01993648
147	0x3d9a73ef	0.07541644
148	0xbc9cd53c	-0.019144647
149	0xbc819644	-0.015818723
150	0xbdc7e67f	-0.097607605
151	0x3d742fa8	0.05961576
152	0xbc8b0156	-0.01696841
153	0xbcd33590	-0.025782377
154	0x3d52dc20	0.05147946
155	0xbc8af7ce	-0.016963866
156	0xbda0a93f	-0.07844781
157	0xbd5a0b12	-0.053233214
158	0xbd39486c	-0.045235083
159	0x3c5057fe	0.0127162915
160	0xbb8a78ad	-0.0042258115
161	0xbda960e0	-0.082704306
162	0xbd9cc100	-0.07653999
163	0xbdcc392e	-0.09971844
164	0xbcd271c1	-0.025689008
165	0x3ca32bc0	0.019918323
166	0xbdd3fdde	-0.10351156
167	0x3ce5ba8c	0.028043054
168	0xbbc01ee0	-0.0058630556
169	0xbd6efe3c	-0.058347926
170	0x3d0bcae9	0.034129057
171	0xbdabfa90	-0.083974004
172	0x3dd34853	0.10316529
173	0xbd81a7b2	-0.063308135
174	0x3d1d5b3d	0.03841709
175	0xbddc0e8b	-0.10744961
176	0xbd552684	-0.052038684
177	0xbd1e05bd	-0.03857969
178	0xbd68ed7a	-0.0568671
179	0x3d1c8764	0.038215056
180	0xbd58532d	-0.052813698
181	0xbdbfcd63	-0.09365346
182	0x3cb2a93c	0.021809213
183	0x3dc7a256	0.0974776
184	0xbd160181	-0.036622528
185	0xbdd56fdb	-0.10421725
186	0xbd58bebb	-0.05291627
187	0xbc3d773a	-0.01156407
188	0xbd9b1d7b	-0.07573982
189	0xbd7b0c4d	-0.061291028
190	0xbd9314d4	-0.07181707
191	0xbdc46ea3	-0.09591415
192	0xbdb50b23	-0.08840015
193	0x3d098c58	0.033581108
194	0x3c42de1f	0.011893778
195	0xbbd5ba2c	-0.0065224376
196	0xbdabe689	-0.083935805
197	0xbccb66e8	-0.024829343
198	0xbae9548d	-0.0017801687
199	0xbd10f655	-0.03539117
200	0x3d0cf51c	0.034413442
201	0xbc9c04d2	-0.019045267
202	0xbdd7c859	-0.1053626
203	0xbd0b1729	-0.033957634
204	0x3d984982	0.074358955
205	0xbbcb00a6	-0.0061951457
206	0xbd36ffd8	-0.044677585
207	0xbcd6dc04	-0.026227959
208	0xbdf78e1c	-0.12087652
209	0x3d4fc274	0.050722554
210	0x39acf40e	0.0003298823
211	0xbce3fd81	-0.027830841
212	0xbd0019a2	-0.031274445
213	0xbdbaef65	-0.09127692
214	0xbc13c3e0	-0.009018868
215	0x3c1817e8	0.009283043
216	0x3b9cde15	0.0047872164
217	0x3d8500c8	0.0649429
218	0xbca85d0f	-0.020552186
219	0x3da28af2	0.07936658
220	0x3cad7d51	0.02117792
221	0xbde93210	-0.11386502
222	0xbd25d1dc	-0.04048334
223	0x3d85562c	0.065105766
224	0x3d467b10	0.048457205
225	0x3d2ce8f8	0.042214364
226	0x3d53b83d	0.051689375
227	0xbcf95f9e	-0.030441102
228	0x3be37ff2	0.0069427425
229	0x3c8ff18f	0.017571239
230	0xbccf4ece	-0.025306132
231	0x3d6a652c	0.05722539
232	0x3d437f67	0.047728922
233	0xbd979dfd	-0.07403181
234	0x3d0d0ca7	0.034435894
235	0xbcb800d8	-0.02246134
236	0x3d13bc2f	0.036068138
237	0xbb216d78	-0.00246319
238	0xbd2a7ea9	-0.0416247
239	0xbd44c2ee	-0.048037462
240	0xbd740713	-0.05957706
241	0x3c71f2c9	0.014767357
242	0xbd94ee23	-0.072719835
243	0x3ba7b690	0.0051181987
244	0xbcbf9d63	-0.023390478
245	0xbc42139f	-0.011845498
246	0x3d151202	0.036394127
247	0xbd0fdf23	-0.03512491
248	0x3cb46c34	0.022024252
249	0xbde692f5	-0.112584986
250	0xbdb5d0cf	-0.08877718
251	0xbb850b10	-0.0040601566
252	0xbc6e335b	-0.014538611
253	0x3d80c76e	0.06288038
254	0x3c643e4f	0.013930871
255	0x3c72cb88	0.014819033

encoder.MLP.L2.bias f4 [70]
0	0xbdc74629	-0.09730179
1	0xbbadf23e	-0.0053084185
2	0x3d08a2ff	0.03335857
3	0xbd61bc6d	-0.055111337
4	0xbd059e86	-0.032621883
5	0xbdbd7f5a	-0.09252806
6	0x3d29900e	0.041397147
7	0x3c4f749a	0.012662077
8	0xbcd95304	-0.026528843
9	0xbda78222	-0.08179118
10	0x3d2546e2	0.040350802
11	0xbc70af03	-0.014690164
12	0xbd9c915f	-0.07644915
13	0xbdb1d694	-0.08683506
14	0xbd839952	-0.06425728
15	0x3c0a1c18	0.00842955
16	0xbdcb5720	-0.09928727
17	0x3c98e385	0.018663177
18	0x3c809761	0.015697183
19	0xbd870d47	-0.06594329
20	0xbd41e68e	-0.047339015
21	0xbdc455f9	-0.095867105
22	0x3d4f00f0	0.050538003
23	0xbddb076c	-0.10694775
24	0xbdbbe938	-0.09175342
25	0xbd19d557	-0.037556972
26	0x3d01c00b	0.031677287
27	0xbdcbc4f4	-0.09949675
28	0x3d08fcdc	0.03344427
29	0xbdd75aff	-0.10515403
30	0xbdc9e5eb	-0.098583065
31	0xbd6772ce	-0.05650597
32	0xbdd2c041	-0.10290576
33	0xbdce6fab	-0.10079893
34	0xbdbea530	-0.09308851
35	0x3d1430f8	0.036179513
36	0xbd8eb744	-0.06968549
37	0x3cd337e5	0.025783489
38	0x3d108494	0.035282686
39	0xbd3a55e7	-0.04549208
40	0x3c82af88	0.01595284
41	0xbceaaa63	-0.0286457
42	0xbac31963	-0.0014884885
43	0x3d199c6e	0.0375027
44	0xbd4d70ff	-0.05015659
45	0x3d400383	0.04687835
46	0x3b6e6a20	0.0036379173
47	0xbd4c7878	-0.049919575
48	0xbd3508f9	-0.04419801
49	0xbcd82f52	-0.026389752
50	0x3d476765	0.04868259
51	0xbd6c906e	-0.057754926
52	0xbdd12d3c	-0.10213706
53	0xbba00686	-0.00488359
54	0x3b9d87df	0.004807457
55	0x3d271971	0.040795747
56	0x3d005b61	0.031337146
57	0x3cd84b5d	0.026403124
58	0xbdde0a85	-0.1084185
59	0xbcd8e58b	-0.026476642
60	0xbd1a4ad2	-0.03766901
61	0xbcb590f5	-0.022163847
62	0xbd7a7574	-0.06114717
63	0x3c8b5d95	0.017012397
64	0xbd3f318b	-0.046678107
65	0xbc4b124b	-0.012394498
66	0xbba092f6	-0.0049003316
67	0xbdc367d7	-0.0954129
68	0xbc662293	-0.014046329
69	0xbd18322c	-0.037157223

encoder.linear_means.weight f4 [14, 70]
0	0x3da8233e	0.08209847
1	0x3cc94d96	0.024573129
2	0x3d102ba3	0.035197865
3	0x3d823ef0	0.063596606
4	0x3d4c6b36	0.04990693
5	0xbcc4f56e	-0.024042811
6	0x3d05cb10	0.03266436
7	0x3e114c42	0.14189246
8	0x3dcab432	0.09897651
9	0x3c9788f4	0.018497922
10	0x3d31fdf5	0.043455083
11	0xbd679cb8	-0.056545943
12	0x3dbfc3c9	0.09363515
13	0xbd38f5c5	-0.04515626
14	0x3d328d9a	0.043592073
15	0xbdab1a11	-0.08354581
16	0x3c2d0156	0.010559401
17	0xbc958fe9	-0.018257098
18	0x3d4bbb61	0.049739245
19	0x3def78ef	0.11692988
20	0xbd1b57ac	-0.037925407
21	0x3d985db9	0.07439751
22	0xbcc19dc2	-0.023634795
23	0x3d1b16a8	0.037863404
24	0xbcbb700b	-0.022880575
25	0xbdab6944	-0.08369687
26	0x3de0f1ab	0.109835945
27	0x3dd0a90b	0.101884924
28	0x3d1875fc	0.037221894
29	0x3c08137f	0.0083054295
30	0x3df7249c	0.120675296
31	0xbdece49c	-0.11567041
32	0xbc14587f	-0.009054302
33	0xbd3a9732	-0.045554347
34	0xbd1182ac	-0.03552501
35	0xbcce0bde	-0.025152143
36	0x3dc2bb2c	0.095083565
37	0x3de7a6ab	0.11311086
38	0x3e185054	0.14874393
39	0x3d570915	0.052498896
40	0xbd74f33d	-0.059802283
41	0x3d72aee5	0.059248824
42	0x3e0ec658	0.1394285
43	0xbd847cf8	-0.064691484
44	0xbbba035e	-0.005676671
45	0xbcefe17e	-0.029282328
46	0xbd18a248	-0.03726414
47	0x3d091fa2	0.033477433
48	0xbda79659	-0.081829734
49	0xbd40fe2d	-0.0471174
50	0xbdae3aee	-0.08507334
51	0x3c2bd9ed	0.010488969
52	0xbdb3fd4b	-0.08788546
53	0x3d9d62b3	0.07684841
54	0x3d5292f6	0.051409684
55	0x3c7408ef	0.014894708
56	0xbc06423c	-0.008194502
57	0x3e03d643	0.12874703
58	0x3c29c0c0	0.010360897
59	0xbd1a9ac9	-0.03774527
60	0x3b5cbc96	0.0033681742
61	0xbdb91cd6	-0.09038703
62	0xbdb2f1b6	-0.08737509
63	0xbd9273c2	-0.07150985
64	0xbe32396b	-0.17404716
65	0xbdb552c8	-0.0885368
66	0xbc6feb71	-0.014643536
67	0x3e0193dc	0.1265406
68	0xbd117f77	-0.03552195
69	0x3d48128a	0.048845805
70	0x3c47f6ad	0.012204808
71	0xbd730406	-0.05933001
72	0xbbc80e45	-0.0061052167
73	0x3d200eec	0.03907673
74	0xbe07367f	-0.13204382
75	0xbd7b1ed3	-0.061308693
76	0x3b4a33f2	0.0030853716
77	0xbcfae7a8	-0.03062804
78	0x3d3fd591	0.046834532
79	0xbdcad3a4	-0.099036485
80	0xbd88fe88	-0.06689173
81	0x3db26b46	0.08711867
82	0xbdf2e55c	-0.11860153
83	0x3da0eed9	0.078580566
84	0x3e1a6179	0.15076245
85	0x3d7b5782	0.06136275
86	0x3d874ed5	0.06606833
87	0xbc2f69a0	-0.010706335
88	0x3c5c9d71	0.013465271
89	0x3dbd7dd7	0.09252518
90	0x3b668196	0.0035172454
91	0xbd348fbe	-0.044082396
92	0xbd6627ed	-0.05619042
93	0xbcd502bb	-0.026002279
94	0xbe01d15b	-0.12677519
95	0xbdb2a46f	-0.087227695
96	0x3e0bfe0b	0.13671128
97	0xbcc6589c	-0.024212174
98	0xbdc92912	-0.09822287
99	0xbdbed333	-0.09317627
100	0xbdaf07d2	-0.085464135
101	0xbdc5a01a	-0.096496776
102	0x3da9cc4d	0.082909204
103	0xbd924c0f	-0.07143413
104	0x3d97a9fd	0.074054696
105	0xbd1a7fef	-0.037719663
106	0x3da1ff12	0.07909979
107	0x3e1cd1e3	0.1531444
108	0xbdb3f6e1	-0.08787323
109	0x3cf8830f	0.030335931
110	0x3de9df51	0.11419547
111	0xbdb487f9	-0.08814997
112	0xbd2741a2	-0.040834077
113	0x3db1f5c5	0.08689455
114	0x3ccdca46	0.025120866
115	0x3c345202	0.01100588
116	0x3dad292b	0.08455118
117	0x3d93528a	0.071934775
118	0xbdf3d2fd	-0.11905477
119	0x3dd2407b	0.10266205
120	0x3ce5e0c2	0.028061274
121	0xbda82718	-0.082105815
122	0x3b9965ed	0.00468134
123	0xbdadd392	-0.084876195
124	0x3dc3b13e	0.09555291
125	0x3d38e959	0.045144413
126	0x3dc5fc80	0.09667301
127	0x3d496fde	0.04917895
128	0xbe1085c3	-0.14113526
129	0xbd918d54	-0.07107034
130	0xbe027ade	-0.12742183
131	0xbcf46968	-0.029835418
132	0x3de33d10	0.11095631
133	0x3da207af	0.07911622
134	0xbb51bc41	-0.0032003077
135	0xbc1b03ae	-0.0094613265
136	0x3d7b811d	0.06140243
137	0xbd8918a7	-0.06694155
138	0x3d068fdb	0.032852035
139	0xbd05c6a6	-0.03266015
140	0x3deca06d	0.11554036
141	0x3ddbcc1a	0.10732289
142	0x3df309ce	0.118671045
143	0x3e047524	0.1293531
144	0x3d97cb37	0.07411807
145	0x38b88b92	8.799801e-05
146	0x3dcb31aa	0.09921582
147	0x3c0f79e6	0.00875709
148	0xbce87c16	-0.028379481
149	0x3dad802b	0.08471712
150	0xbce6a155	-0.028153101
151	0x3d9a0b34	0.07521668
152	0xbcd3bd26	-0.025847029
153	0x3da9d65c	0.08292839
154	0xbdbb4b75	-0.09145252
155	0xbd81ed6e	-0.06344114
156	0x3dc2672f	0.09492337
157	0xbd195ce0	-0.037442088
158	0x3d27797d	0.040887345
159	0xbd87990a	-0.06620987
160	0x3d8401eb	0.06445678
161	0x3c81ffc1	0.015869023
162	0x3d3cd5ce	0.046102338
163	0xbc9cbba4	-0.019132443
164	0xbd590e1f	-0.052991983
165	0x3c6aa64c	0.014321875
166	0xbc48524c	-0.012226652
167	0x3d8a470f	0.067518346
168	0xbd8db829	-0.069198914
169	0x3d50dc6f	0.05099147
170	0x3d7d76ca	0.061880864
171	0xbda2bb60	-0.07945895
172	0x3d6fb817	0.05852517
173	0x3da8f5ac	0.08249983
174	0xbc4c145e	-0.012456028
175	0x3c61e405	0.013787274
176	0xbdcc1136	-0.0996422
177	0x3c81969d	0.015818888
178	0x3e0f5825	0.13998468
179	0xbcf3b966	-0.02975149
180	0xbdbd7024	-0.09249905
181	0x3b6e23bd	0.003633722
182	0xbd6155ce	-0.05501347
183	0x3d16bf80	0.036803722
184	0x3d99e3c3	0.07514145
185	0xbbed1995	-0.0072357156
186	0x3dd3647d	0.10321901
187	0x3c601630	0.013677165
188	0x3c45f1ee	0.012081606
189	0xbd9ac15c	-0.075564116
190	0xbc5586ee	-0.013032658
191	0xbd099657	-0.03359064
192	0xbcdf0839	-0.0272256
193	0x3d3513c2	0.044208296
194	0xbd0c6dbb	-0.034284335
195	0xbd4352e1	-0.04768646
196	0x3d8feeef	0.07027995
197	0x3dacade7	0.08431607
198	0x3c3c4abe	0.011492429
199	0x3d4fd711	0.050742213
200	0xbdaa4e51	-0.08315719
201	0xbdf1e5ea	-0.11811431
202	0x3c10ae1f	0.008830576
203	0xbe159985	-0.14609344
204	0xbd2fc006	-0.042907737
205	0xbbbca67e	-0.005757152
206	0xbcac2a0b	-0.021016141
207	0xbd9ed5fb	-0.07755657
208	0xbca29e10	-0.01985076
209	0x3d9b5095	0.07583729
210	0x3d303046	0.043014787
211	0x3defcff6	0.11709587
212	0xbda84a3c	-0.08217284
213	0xbcfe2ee2	-0.031028215
214	0x3db671a5	0.08908395
215	0x3d52eb87	0.051494148
216	0x3d586901	0.052834515
217	0x3d2a1b91	0.041530196
218	0xbd96536a	-0.07340129
219	0xbd9aed23	-0.075647615
220	0xbd8fb677	-0.07017224
221	0x3db4716e	0.088106975
222	0x3d71ad08	0.059002906
223	0x3d9fcd61	0.07802845
224	0xbd56187b	-0.05226944
225	0x3d60970e	0.054831557
226	0x3d5eae14	0.054365233
227	0x3d8f5495	0.069985546
228	0xbd7de83f	-0.061989065
229	0x3c21f81d	0.009885815
230	0xbdaa7f90	-0.08325112
231	0x3d559a80	0.052149296
232	0x3d28f1a2	0.041246064
233	0xbd4c73d8	-0.049915165
234	0x3d6721a0	0.05642855
235	0xbe04b8c9	-0.12961115
236	0xbe140377	-0.14454447
237	0x3b7ff343	0.0039054907
238	0xbd98a7a9	-0.07453854
239	0x3d3073d0	0.043079197
240	0xbdedf837	-0.11619609
241	0x3dd77ec1	0.10522223
242	0xbd0caba4	-0.034343377
243	0xbcd49b46	-0.025952946
244	0xbdd91c9f	-0.10601162
245	0x3c3639d4	0.011122186
246	0xbd646327	-0.05575862
247	0xbcb5647b	-0.02214264
248	0x3ca706f2	0.020389054
249	0x3dba4f53	0.09097161
250	0xbdac9040	-0.08425951
251	0xbd90cb90	-0.070700765
252	0x3c1cdadb	0.009573664
253	0x3d8a20b0	0.06744516
254	0x3dba5b8f	0.09099495
255	0x3dd72d60	0.105067015

encoder.linear_means.bias f4 [14]
0	0x398e4256	0.00027133775
1	0x3bb4b866	0.005515146
2	0x3ae3111a	0.0017323822
3	0x3b2c0329	0.0026247
4	0x3b1946e7	0.0023388208
5	0x3aa1b134	0.0012336136
6	0xbb0e9475	-0.0021755968
7	0xb9b68789	-0.00034814727
8	0xb9a45194	-0.00031341298
9	0xbb9691cd	-0.0045950175
10	0xbb5658d6	-0.003270676
11	0xb89305b3	-7.010568e-05
12	0xba5dadd0	-0.0008456381
13	0x3b29453c	0.002582862

encoder.linear_log_var.weight f4 [14, 70]
0	0x3da0b802	0.07847597
1	0xbc6c4630	-0.014421031
2	0x3d5c927f	0.053850647
3	0xbd29b960	-0.041436553
4	0x3dbedb76	0.093192026
5	0x3d916330	0.07098997
6	0xbd0ff1c0	-0.03514266
7	0x3dc79cce	0.09746705
8	0x3d814b88	0.063132346
9	0xbc87e8be	-0.016590472
10	0x3bff5aed	0.0077928216
11	0xbde24cce	-0.110498056
12	0x3d47233d	0.04861759
13	0xbbb740bc	-0.0055924337
14	0x3d6605cd	0.056157876
15	0x3d9de3a5	0.077094354
16	0x3e0e6628	0.13906157
17	0x3d969e9b	0.0735447
18	0x3ce11681	0.027476551
19	0xbc498d9a	-0.012301827
20	0x3d1e23ed	0.03860848
21	0xbd2db770	-0.042411268
22	0xbe12e08c	-0.1434347
23	0x3c1c4ca7	0.00953976
24	0xbd96e631	-0.07368124
25	0xbcd88f0a	-0.026435394
26	0xbd5e32b7	-0.054247584
27	0x3d781a36	0.06057187
28	0xbe0a14d8	-0.13484514
29	0xbc982288	-0.018571153
30	0x3e075d84	0.13219267
31	0x3ca90004	0.02062989
32	0xbacb0800	-0.0015490055
33	0xbda41238	-0.080112875
34	0xbc70a4a4	-0.014687691
35	0xbda006db	-0.078138076
36	0x3b4e9ab9	0.0031525327
37	0x3da6a7c3	0.08137467
38	0x3da50b68	0.08058816
39	0x3c992ac8	0.018697158
40	0x3c905dd4	0.017622866
41	0xbdad0c8c	-0.08449659
42	0xbd7e6f9b	-0.062118154
43	0x3cbd34c6	0.023096453
44	0xbdb3bb5c	-0.0877597
45	0xbd24281e	-0.04007732
46	0x3dc12af1	0.094320185
47	0x3d3aaf29	0.045577202
48	0x3d613ea7	0.05499139
49	0x3db2b4ab	0.08725866
50	0xbd85bd19	-0.06530208
51	0x3d889eae	0.06670891
52	0xbc92507f	-0.01786065
53	0xbd812d2a	-0.063074425
54	0xbd98b9b6	-0.074572966
55	0x3e0d49fd	0.13797756
56	0xbd093788	-0.033500224
57	0xbdd5d5af	-0.104411475
58	0x3cbdb4d0	0.023157507
59	0xbe1539ca	-0.14572826
60	0xbe14d17d	-0.14533038
61	0xbc6859d2	-0.014181571
62	0x3e115914	0.14194137
63	0xbd1af8a6	-0.037834786
64	0x3d5d4749	0.05402306
65	0xbc19166a	-0.009343723
66	0x3d883b91	0.066519864
67	0x3dc1645f	0.094429724
68	0xbd07a15b	-0.033112865
69	0x3d20d005	0.039260883
70	0xbbc0411b	-0.005867136
71	0x3d14d127	0.036332276
72	0xbbe80326	-0.0070804534
73	0xbd99f586	-0.07517533
74	0xbcc9c29a	-0.024628926
75	0x3b68d492	0.0035527092
76	0xbaf0371e	-0.0018326973
77	0x3d123bb8	0.035701483
78	0xbcd90c55	-0.026495138
79	0x3d477f54	0.048705414
80	0xbd7474d6	-0.059681736
81	0xbd908d23	-0.0705817
82	0x3db206d1	0.086927064
83	0x3d48105c	0.048843727
84	0x3d3c78ca	0.04601363
85	0x39bf7a00	0.00036521256
86	0x3d66e5f1	0.056371633
87	0xbc12867a	-0.0089431945
88	0xbe0594ba	-0.13045016
89	0xbdf72d80	-0.12069225
90	0x3db675b3	0.08909168
91	0xbddcbfe5	-0.107787885
92	0x3cdd17af	0.026988832
93	0x3d5bbcdd	0.05364691
94	0xbc13e313	-0.009026307
95	0x3d4c5a15	0.049890596
96	0x3ba6b664	0.0050876606
97	0xbc2d9861	-0.010595412
98	0x3d3f084e	0.04663878
99	0xbc994e7f	-0.018714188
100	0xbc031056	-0.0079995
101	0xbd871f24	-0.065977365
102	0xbd859d24	-0.06524113
103	0x3d77f30d	0.060534526
104	0xbd1c9ef7	-0.03823754
105	0x3d5bfb53	0.05370648
106	0x3c4023d2	0.01172729
107	0x3cf6a1b3	0.030106401
108	0xbd287b1e	-0.04113304
109	0x3dcfb5b2	0.101420775
110	0x3cf49004	0.029853828
111	0xbce24843	-0.027622348
112	0x3d0678e1	0.032830123
113	0xbdb56e2f	-0.088589065
114	0x3cb61e3b	0.022231212
115	0xbe090a83	-0.13382916
116	0x3cc847fc	0.024448387
117	0xbd21410b	-0.03936867
118	0x3cd487f9	0.025943743
119	0x3c01b5e6	0.007916903
120	0xbcd50bad	-0.026006544
121	0xbd8993d1	-0.06717647
122	0xbd20c655	-0.039251644
123	0xbcecb00c	-0.02889254
124	0xbca47e91	-0.020079883
125	0xbd0d2d84	-0.034467235
126	0xbda20d39	-0.07912678
127	0x3e0ed6aa	0.13949075
128	0x3d0aaf0c	0.033858344
129	0xbc9c9c29	-0.019117432
130	0x3de797fb	0.11308285
131	0xbc03d847	-0.00804717
132	0x3d787bd1	0.060664956
133	0xbc06e886	-0.008234149
134	0x3d6b7623	0.05748571
135	0x3d29ae42	0.04142595
136	0x3d9f3871	0.07774437
137	0x3d4ea4b3	0.05045004
138	0x3cbea605	0.023272524
139	0x3d971039	0.07376141
140	0xbd9cc619	-0.07654972
141	0x3d054357	0.032534923
142	0xbd8cbfe6	-0.06872539
143	0xbd941d34	-0.072321326
144	0xbc3fa7c5	-0.011697714
145	0xbd52b0d1	-0.051438157
146	0x3d4a3f23	0.049376618
147	0x3ca464c7	0.020067586
148	0x3d8140bf	0.063111775
149	0xbd65a8ea	-0.056069292
150	0xbccd3e2b	-0.025054058
151	0xbcdb637e	-0.02678084
152	0xbcb04c26	-0.021520685
153	0xbd92f776	-0.07176106
154	0x3c25c19a	0.010116959
155	0x3ced582c	0.028972708
156	0xbc925da7	-0.017866923
157	0x3dd765b7	0.105174474
158	0x3cbed654	0.023295559
159	0xbc6ce168	-0.014458038
160	0x3c2bd4d3	0.010487753
161	0x3d6a4cf8	0.05720231
162	0xbd93f474	-0.0722436
163	0x3dddf4b0	0.10837686
164	0x3d422bce	0.047405057
165	0xbc9aa64d	-0.018878127
166	0xbc181bfb	-0.009284015
167	0x3e03574d	0.12826271
168	0x3e131489	0.14363302
169	0xbda1edb5	-0.07906667
170	0xbaa55182	-0.0012612792
171	0x3db75d23	0.08953311
172	0xbd2e65f0	-0.042577684
173	0xbda2ba23	-0.07945659
174	0xbc33c791	-0.010972873
175	0x3cb3c956	0.02194659
176	0x3ccb703f	0.024833797
177	0x3d89f83a	0.067367986
178	0x3bcdb309	0.006277446
179	0xbdac8c31	-0.08425177
180	0x3d649d86	0.05581429
181	0x3dc434ac	0.09580359
182	0x3dab167a	0.083538964
183	0x3cce23a5	0.025163481
184	0x3d05026d	0.032473017
185	0xbc72416d	-0.0147861065
186	0x3d92c313	0.07166114
187	0xbd3cd019	-0.046096895
188	0xbda44cc1	-0.08022452
189	0x3d003eb4	0.0313098
190	0x3c13994f	0.00900872
191	0x3ddecb6a	0.10878642
192	0xbd58853f	-0.05286145
193	0xbbbf5e1f	-0.0058400775
194	0xbd78dad6	-0.060755573
195	0x3cc15ab2	0.023602817
196	0xbce211b9	-0.027596341
197	0xbcaf2af8	-0.021382794
198	0xbd8c31a4	-0.06845406
199	0x3bbd4de6	0.0057771085
200	0x3e043d98	0.12914121
201	0xbda8f5e0	-0.08250022
202	0x3bf0ccab	0.007348617
203	0xbd73c302	-0.059512146
204	0x3da4c466	0.080452725
205	0x3dc4f66c	0.09617314
206	0xbd18c677	-0.037298646
207	0x3c6e02c5	0.0145270275
208	0xbd5391cf	-0.051652726
209	0x3db65bd4	0.089042336
210	0x3d0803bd	0.03320669
211	0x3dfc9d49	0.12334687
212	0xbda129fb	-0.07869335
213	0x3cbc3a94	0.022977151
214	0xbd92c96e	-0.07167326
215	0xbcb89dbf	-0.022536157
216	0x3d25fe18	0.040525526
217	0x3d7f9554	0.06239827
218	0x3d5ddb60	0.05416429
219	0x3a9371f7	0.0011249174
220	0xbc0ff050	-0.008785322
221	0xbd4e34f9	-0.050343487
222	0x3e15e49d	0.1463799
223	0x3d850a62	0.06496121
224	0x3e1e5f58	0.15466058
225	0xbdbd25af	-0.09235703
226	0x3d8f7f78	0.070067346
227	0xbd0463f7	-0.032321896
228	0xbdd8bc11	-0.10582746
229	0x3d44c120	0.04803574
230	0xbd219fc0	-0.03945899
231	0x3db428e4	0.08796862
232	0x3dca8a35	0.09889642
233	0x3d51337d	0.051074494
234	0x3dcea209	0.100894995
235	0xbe046e05	-0.12932594
236	0x3d2e6376	0.042575322
237	0x3da14426	0.078743264
238	0x3d22246b	0.039585512
239	0xbd7fb005	-0.062423725
240	0x3d947440	0.072487354
241	0xbd8689f4	-0.06569281
242	0x3d061bb2	0.032741256
243	0xbc30d435	-0.010792782
244	0x3d599a8c	0.053125903
245	0xbd07626b	-0.033052843
246	0x3cbfb2e4	0.023400731
247	0xbdebe444	-0.115181476
248	0xbe017423	-0.12641959
249	0x3d35f516	0.044423185
250	0xbd3efe30	-0.04662913
251	0xbbff66a6	-0.007794219
252	0x3d8d94ed	0.06913171
253	0x3a8bf3c7	0.001067751
254	0x3cb43087	0.021995796
255	0xbcdd0594	-0.026980199

encoder.linear_log_var.bias f4 [14]
0	0x39eb3988	0.00044865557
1	0xb98bd3b5	-0.0002666988
2	0x37fb71a2	2.9974446e-05
3	0xbab0d125	-0.0013490064
4	0xbbffab4c	-0.0078024026
5	0xbb508473	-0.0031817227
6	0xb982fb39	-0.00024982708
7	0x3a0a7e59	0.00052831095
8	0xb96293f9	-0.00021608164
9	0xbb080bd1	-0.0020758996
10	0x3b3db9ca	0.002894985
11	0x3bbfee2c	0.0058572497
12	0x3a2fa136	0.00066997425
13	0xbad225df	-0.0016033015
