model/CVAE_8000_0.005_32_[12, 256, 160, 64]_12_[64, 160, 256, 6].pth (torch, 450754 bytes, 18 tensors)

encoder.MLP.L0.weight f4 [256, 12]
0	0xbd49ad2c	-0.049237415
1	0x3e4d307b	0.20038025
2	0xbe91a051	-0.28442624
3	0xbe84be75	-0.25926557
4	0xbe21cc6f	-0.15800641
5	0x3cf99d43	0.030470496
6	0xbd58d673	-0.05293889
7	0x3e3ace2f	0.18242715
8	0xbd92da07	-0.07170492
9	0x3cfba4de	0.030718263
10	0xbe078e5a	-0.13237897
11	0xbdd03028	-0.10165435
12	0xbea7df0f	-0.32787368
13	0xbe0d39de	-0.13791606
14	0xbe3015d4	-0.17195827
15	0xbd2fae4b	-0.042890828
16	0x3d782482	0.06058169
17	0x3df6b678	0.12046522
18	0xbe7ce91e	-0.24698302
19	0xbe35f473	-0.17769031
20	0x3d593e3e	0.053037874
21	0x3e40a748	0.18813813
22	0xbde27bd3	-0.11058774
23	0x3e28da5e	0.1648955
24	0xbd3e95d8	-0.04652962
25	0x3cfa3b60	0.03054589
26	0x3e85d4b6	0.26138848
27	0xbe891c79	-0.26779535
28	0xbe3a17f0	-0.18173194
29	0xbd95ac48	-0.07308251
30	0xbde673cc	-0.11252555
31	0x3e7f66c8	0.24941552
32	0xbe3f9aa4	-0.18711334
33	0xbe081370	-0.13288665
34	0xbe4e853c	-0.20168012
35	0xbe8a6cdf	-0.27036187
36	0xbe5011b7	-0.20319258
37	0x3e1e3e66	0.1545349
38	0x3e6af6ce	0.22945711
39	0x3e253f47	0.1613742
40	0x3d02e75c	0.031958923
41	0xbe1e0e73	-0.154352
42	0x3dd08da4	0.10183266
43	0xbe43fd54	-0.19139606
44	0xbd24f42f	-0.040271934
45	0x3cf107bf	0.029422639
46	0x3eced97c	0.40400302
47	0x3e305d5e	0.17223117
48	0xbe74e907	-0.23917018
49	0x3c22c391	0.009934322
50	0x3e3a99f1	0.18222786
51	0x3e61b355	0.22041066
52	0x3d2dc572	0.042424627
53	0xbd594015	-0.05303963
54	0x3e175e4a	0.14782062
55	0xbe3c43da	-0.18385258
56	0x3e01a058	0.12658823
57	0xbe07855a	-0.13234463
58	0xbd6a7d41	-0.057248358
59	0xbe3067b5	-0.17227061
60	0x3e0405a9	0.12892784
61	0x3e349f59	0.17638911
62	0xbe6b38ef	-0.22970937
63	0x3d967739	0.07346959
64	0x3e17e711	0.14834239
65	0xbcc1d492	-0.023660932
66	0xbc8b450a	-0.017000694
67	0x3cdb3d90	0.026762754
68	0x3e04df43	0.12975793
69	0x3e69906c	0.22808999
70	0xbe8b9367	-0.27260897
71	0xbe183f62	-0.14867929
72	0x3cf3faa1	0.029782595
73	0x3e4c0078	0.19922054
74	0x3e9ff522	0.3124171
75	0x3e81271b	0.25225148
76	0x3d46d539	0.04854319
77	0xbe95cf7b	-0.29259858
78	0x3a0a58fd	0.00052775425
79	0xbe3f56d6	-0.18685469
80	0xbe5e04c1	-0.21681501
81	0x3ea1e4cb	0.31619868
82	0x3e9cea4c	0.30647504
83	0xbea7e264	-0.3278991
84	0x3c9bb413	0.019006765
85	0xbc49792c	-0.012296956
86	0xbdc1880b	-0.09449776
87	0xbe337f56	-0.17529044
88	0x3d8c2528	0.068430245
89	0xbe54dbae	-0.20786926
90	0x3d8a4887	0.06752115
91	0x3dd70fce	0.105010614
92	0x3e28a5cb	0.16469495
93	0x3d8812f6	0.066442415
94	0xbea76e78	-0.32701468
95	0xbe69d578	-0.22835338
96	0x3dbedc77	0.09319394
97	0x3dc227de	0.0948026
98	0xbe8e8758	-0.27837634
99	0xbe5df2d6	-0.21674666
100	0x3e626736	0.22109684
101	0x3e10f020	0.141541
102	0xbe31fd44	-0.1738177
103	0xbdf634aa	-0.120217636
104	0xbea34570	-0.31888914
105	0xbd2d0bb4	-0.04224749
106	0xbe8cbbe6	-0.27487105
107	0xbe8ad4fa	-0.27115613
108	0xbc824d10	-0.015905887
109	0x3d318898	0.043343157
110	0xbdf21df6	-0.11822121
111	0x3e2f6786	0.17129335
112	0xbe33e2dd	-0.1756701
113	0x3e861c5e	0.26193517
114	0x3e4a93b2	0.19782904
115	0xbe7946fa	-0.24343482
116	0xbd93245e	-0.07184671
117	0x3c556a20	0.01302579
118	0x3d2c83f0	0.042118013
119	0x3d8c3810	0.068466306
120	0x3de80198	0.11328429
121	0x3c8da750	0.017291695
122	0xbe103bbe	-0.1408529
123	0x3e0be052	0.1365979
124	0xbe8dc751	-0.2769113
125	0xbe2f34c1	-0.17109968
126	0xbd93ff26	-0.072264
127	0xbe0ffe09	-0.1406175
128	0xbdced2e6	-0.100988194
129	0xbe72486c	-0.23660439
130	0xbd7b8468	-0.06140557
131	0x3d7cbf98	0.061706156
132	0xbe435324	-0.19074684
133	0xbc769e46	-0.015052384
134	0x3e3afb35	0.1825989
135	0xbd5ef9f0	-0.054437578
136	0xbc7bee86	-0.015376693
137	0xbd48c088	-0.049011737
138	0x3d43ec25	0.047832627
139	0x3e3338ee	0.17502186
140	0x3e87fbf4	0.26559412
141	0x3e348813	0.17630033
142	0x3e88ff46	0.26757258
143	0xbcbde55a	-0.023180652
144	0xbe84c5ff	-0.2593231
145	0xbe0c2389	-0.1368543
146	0x3e494722	0.19656041
147	0xbaf54700	-0.0018713176
148	0xbe12edb6	-0.14348492
149	0xbe62863a	-0.22121516
150	0xbe8a520c	-0.27015722
151	0xbe797ddc	-0.24364418
152	0xbd6fd63c	-0.05855392
153	0x3e221c54	0.15831119
154	0x3e1fd0b8	0.15606964
155	0xbe8e8b6d	-0.27840748
156	0x3e38645e	0.18007037
157	0xbe674ffa	-0.22589102
158	0xbd79f970	-0.061028898
159	0xbdefb7d8	-0.11704987
160	0xbd63c038	-0.055603236
161	0xbd682880	-0.05667925
162	0xbe84a13c	-0.25904262
163	0xbe7f3c31	-0.24925305
164	0xbd390600	-0.045171738
165	0x3b74a880	0.003733188
166	0xbe064901	-0.13113786
167	0x3ddeb504	0.1087437
168	0xbe9964bc	-0.29959667
169	0x3c0a55e6	0.008443331
170	0x3e6b82c9	0.2299911
171	0xbe454c0a	-0.19267288
172	0x3e3cf723	0.1845365
173	0x3c976d7b	0.018484822
174	0xbe8c8a3d	-0.27449217
175	0x3e39c1fc	0.18140405
176	0xbcc10de6	-0.023566198
177	0xbdf56fc6	-0.1198421
178	0x3e762233	0.24036483
179	0xbe6a7068	-0.22894442
180	0xbd21ed13	-0.039532732
181	0xbd173cb0	-0.03692311
182	0x3e3e2dbb	0.18572132
183	0x3c369bad	0.011145514
184	0x3d879304	0.06619838
185	0x3cc7009b	0.02429228
186	0xbdcb63b0	-0.09931123
187	0xbdbf35f3	-0.09336462
188	0xbe89b055	-0.26892343
189	0x3dfa5788	0.122237265
190	0x3e45ab98	0.19303739
191	0x3e17f749	0.14840426
192	0xbe50831e	-0.20362517
193	0x3c52f120	0.0128748715
194	0xbe506181	-0.20349695
195	0xbe22b997	-0.1589111
196	0xbe2c3fec	-0.1682126
197	0x3dca0abc	0.09865329
198	0xbe302768	-0.17202532
199	0xbbce6040	-0.006298095
200	0x3c46f7c0	0.012144029
201	0x3e3e8d80	0.18608665
202	0xbe5f73d6	-0.21821532
203	0xbe4aef70	-0.198179
204	0xbe855d06	-0.26047534
205	0x3e2cf6fd	0.16891094
206	0xbd7029a0	-0.058633447
207	0x3e635d73	0.22203617
208	0x3d9ed92c	0.07756266
209	0xbc418016	-0.011810323
210	0xbcbb942b	-0.0228978
211	0xbd76406f	-0.060120042
212	0x3dd7f96e	0.10545622
213	0x3c2c3b91	0.010512249
214	0x3ddde113	0.10833945
215	0xbd3ea08a	-0.04653982
216	0xbe6738f2	-0.22580317
217	0xbe1aef5c	-0.15130371
218	0x3e6eb294	0.2331031
219	0xbe6fe55a	-0.23427334
220	0xbca9cf20	-0.020728648
221	0x3e92360c	0.2855686
222	0x3dd590d4	0.104280144
223	0x3c05e920	0.008173257
224	0xbe80161e	-0.25016874
225	0x3e126f74	0.14300328
226	0xbe528d75	-0.20561774
227	0xbda7d28c	-0.081944555
228	0xbe2e749d	-0.17036672
229	0xbc05d616	-0.008168718
230	0xbc46d8dd	-0.012136665
231	0x3e467961	0.1938224
232	0xbc368f1e	-0.01114252
233	0x3e59861a	0.21242562
234	0x3e1123be	0.14173791
235	0xbe53507f	-0.20636176
236	0x3e09f18b	0.13471048
237	0xbe4600d5	-0.19336255
238	0xbdbfac88	-0.093590796
239	0x3d062d58	0.032758087
240	0x3d59822a	0.05310265
241	0x3e823ba7	0.25436136
242	0xbe0da049	-0.13830675
243	0xbd253a02	-0.040338524
244	0x3ddccca8	0.107812226
245	0xbea4c0c7	-0.32178327
246	0x3e2ccfb1	0.16876103
247	0xbe8e8563	-0.2783614
248	0xbd0d0b11	-0.034434382
249	0xbdb32817	-0.08747881
250	0xbe3fb3cb	-0.1872093
251	0x3a5811b3	0.00082423835
252	0x3e7470a0	0.23871088
253	0xbdacd23e	-0.08438538
254	0xbe2f7f7a	-0.17138472
255	0xbddaa6b4	-0.10676327

encoder.MLP.L0.bias f4 [256]
0	0x3e63f4c4	0.2226134
1	0x3e2a4bea	0.16630521
2	0xbe8153f7	-0.25259373
3	0xbdf63815	-0.120224155
4	0x3d7adfbf	0.061248537
5	0xbe1b5717	-0.15169941
6	0x3c73c403	0.014878276
7	0xbe2463f9	-0.16053762
8	0x3b7e1045	0.0038767022
9	0x3e103ca2	0.1408563
10	0x3db9d2c0	0.090734005
11	0x3e3d6e6f	0.18499158
12	0xbd0e4930	-0.034737766
13	0x3e20797a	0.1567134
14	0x3bde5044	0.0067844708
15	0xbe2d5d78	-0.16930187
16	0xbe50c650	-0.2038815
17	0x3e5cb278	0.21552455
18	0xbdb044ec	-0.08606896
19	0x3e2fe538	0.17177284
20	0x3e0f5763	0.13998179
21	0xbc3e7480	-0.011624455
22	0xbe6842fa	-0.226818
23	0xbd019280	-0.031633854
24	0xbe3f95e6	-0.18709525
25	0x3d8812ab	0.06644186
26	0xbe2ce8f7	-0.16885744
27	0x3e2daa3d	0.16959472
28	0xbe999a15	-0.30000368
29	0xbdc4741b	-0.09592458
30	0x3d4dedcf	0.05027562
31	0xbcfb616e	-0.030686107
32	0x3e86efa9	0.2635472
33	0xbde20f60	-0.11038089
34	0xbe8c80fb	-0.27442154
35	0x3e22d6c0	0.15902233
36	0x3da5336c	0.080664486
37	0x3e2def7c	0.16985887
38	0xbe2ef458	-0.17085397
39	0xbe78ee15	-0.24309571
40	0xbe198ef0	-0.14995933
41	0xbc6dad4f	-0.014506652
42	0x3d8e3b45	0.069448985
43	0xbe565862	-0.20932153
44	0xbddc21ef	-0.1074866
45	0xbd4c5c58	-0.049892753
46	0x3eab8926	0.33503073
47	0xbd976be1	-0.07393623
48	0x3e3af1b9	0.18256272
49	0xbe6172e0	-0.22016478
50	0xbe188c4a	-0.14897266
51	0xbe86f9af	-0.26362368
52	0x3e3e0456	0.18556342
53	0xbe6a7046	-0.22894391
54	0x3d9d62c8	0.07684857
55	0xbdf6d2d2	-0.120519295
56	0x3e424651	0.18972136
57	0x397c1199	0.00024039148
58	0xbe9d0ad3	-0.3067232
59	0x3d6880dc	0.056763515
60	0x3ba620ee	0.0050698435
61	0xbea49282	-0.32143027
62	0x3ca0c2fe	0.01962423
63	0x3e88857a	0.26664335
64	0x3d5947d8	0.05304703
65	0xbac93800	-0.0015351772
66	0xbd751dec	-0.05984299
67	0x3d508e89	0.050917182
68	0xbe16d142	-0.14728263
69	0x3e8b5630	0.27214193
70	0x3e7135a7	0.23555623
71	0x3dbc419a	0.091922
72	0x3d1c0e39	0.0380995
73	0xbe9b1f2f	-0.3029723
74	0xbe23996c	-0.15976495
75	0x3e5a4887	0.2131673
76	0xbe9c16fb	-0.30486283
77	0xbe9422d6	-0.28932828
78	0xbd8ca314	-0.06867042
79	0x3dc42122	0.09576632
80	0xbea27acd	-0.31734315
81	0xbeabb887	-0.3353922
82	0xbc137b14	-0.009001512
83	0xbdc64f94	-0.09683147
84	0x3dd9a78c	0.1062766
85	0x3d5014fd	0.050801266
86	0xbe843074	-0.25818217
87	0xbe92556d	-0.285808
88	0x3e220b52	0.15824631
89	0xbdd98726	-0.10621481
90	0xbe4da196	-0.20081171
91	0x3d418993	0.04725034
92	0xbd6862c0	-0.0567348
93	0x3e0d5f1c	0.13805813
94	0x3d2f2d4d	0.04276781
95	0xbdfffa16	-0.12498872
96	0xbe6cec47	-0.23137008
97	0x3de6437e	0.11243342
98	0xbe319a06	-0.17343912
99	0xbdd113c0	-0.10208845
100	0x3d21ab58	0.039470047
101	0xbe265e94	-0.16247016
102	0x3e0b6bee	0.1361539
103	0xbe4fec79	-0.20305051
104	0x3c591c5f	0.013251393
105	0xbb2fc10a	-0.002681794
106	0x3d559ec4	0.052153364
107	0xbe934f41	-0.28771403
108	0xbd400a3b	-0.046884757
109	0x3ddf0d3f	0.10891198
110	0xbe3d4014	-0.18481475
111	0x3e223c84	0.15843397
112	0xbd2e053b	-0.042485457
113	0x3e72f3f3	0.23725872
114	0xbd209051	-0.03920013
115	0xbd276a3a	-0.04087279
116	0xbd39d7ba	-0.04537175
117	0xbdf6afa0	-0.120452166
118	0x3d338be3	0.04383458
119	0xbeab9793	-0.3351408
120	0x3e603f34	0.2189911
121	0x3e393431	0.18086316
122	0x3dc9b412	0.09848799
123	0x3da411e2	0.080112234
124	0xbdbae254	-0.091252
125	0x3cd012de	0.025399622
126	0x3c709ea0	0.014686257
127	0xbe4643b1	-0.1936176
128	0xbe596a55	-0.21231969
129	0xbdbe5124	-0.0929282
130	0xbd922d88	-0.07137591
131	0xbe6e3018	-0.23260534
132	0xbe688741	-0.22707845
133	0xbce09200	-0.027413368
134	0xbd33df54	-0.043914154
135	0xbea50694	-0.3223158
136	0x3e209af0	0.15684104
137	0x3e8c9654	0.2745844
138	0x3e626ddd	0.22112222
139	0x3e4d22e8	0.20032847
140	0xbe6d4e34	-0.23174363
141	0xbe120584	-0.14259917
142	0xbe32fd37	-0.17479406
143	0x3c7c103b	0.015384729
144	0x3c5e8c0e	0.013583196
145	0x3d838910	0.06422627
146	0x3e84814e	0.25879902
147	0x3df6d805	0.12052921
148	0xbe7d74de	-0.24751613
149	0x3dc9a353	0.09845605
150	0x3e47679e	0.1947312
151	0xbca2f57a	-0.019892443
152	0xbe80974c	-0.2511543
153	0xbe677d24	-0.22606331
154	0x3ccba0a6	0.024856877
155	0x3d18bc30	0.037288845
156	0x3e89d152	0.2691751
157	0x3dc6b330	0.09702146
158	0x3cfcb3e7	0.030847503
159	0xbd63252e	-0.05545538
160	0x3e03736e	0.12837002
161	0xbe3a580a	-0.18197647
162	0x3d37c866	0.04486885
163	0xbe190062	-0.14941552
164	0x3b069211	0.002053384
165	0x3dd11ea5	0.10210923
166	0x3dd0c4d7	0.10193794
167	0xbd98cdf5	-0.07461158
168	0xbb6f8d00	-0.0036552548
169	0xbe5083b5	-0.20362742
170	0x3cc48356	0.023988407
171	0x3e4115f9	0.18856038
172	0x3ddf682e	0.109085426
173	0xbea494df	-0.3214483
174	0xbe725b3a	-0.23667613
175	0x3e22f36c	0.1591317
176	0xbd294d9c	-0.04133378
177	0x3dd779d8	0.10521287
178	0x3e42703f	0.18988131
179	0xbe0d66b5	-0.13808711
180	0xbe47fb30	-0.19529414
181	0xbe970c35	-0.295015
182	0x3d7f6327	0.06235042
183	0x3e0b8e8d	0.13628598
184	0xbdf12a70	-0.117756724
185	0xbe8eeba6	-0.2791416
186	0xbe6ce67a	-0.23134795
187	0xbd41fb79	-0.047358964
188	0x3e01f421	0.12690784
189	0xbe4f04d3	-0.20216684
190	0xbe51916d	-0.20465632
191	0xbe77446d	-0.24147196
192	0x3e510992	0.20413807
193	0x3d808264	0.0627487
194	0xbe8d1571	-0.2755542
195	0xbe64ca6d	-0.22342844
196	0xbea7d059	-0.32776144
197	0x3c98ef96	0.018668931
198	0xbe493961	-0.19650795
199	0xba801600	-0.0009772182
200	0xbda07c00	-0.07836151
201	0xbe816082	-0.25268942
202	0xbe90f72e	-0.28313583
203	0xbe868aae	-0.2627768
204	0xbe1a8c6e	-0.15092632
205	0xbc96cf7b	-0.018409481
206	0xbe61f156	-0.22064719
207	0xbd6184bf	-0.055058237
208	0xbdc78413	-0.09741988
209	0x3ead35af	0.3383002
210	0xbe06c1b5	-0.13159831
211	0x3e8add5a	0.27122003
212	0xbe88b77c	-0.26702487
213	0xbe76a1d6	-0.24085173
214	0x3d6b0713	0.057379793
215	0xbe4a7318	-0.19770467
216	0x3db3310f	0.087495916
217	0xbe238ab0	-0.15970874
218	0x3df13dc4	0.11779359
219	0x3e976a97	0.2957351
220	0xbd428956	-0.047494255
221	0xbb9f98d5	-0.004870514
222	0x3eaade94	0.3337294
223	0x3e0c056c	0.13673943
224	0xbe93acc5	-0.2884275
225	0xbc80b1fd	-0.015709871
226	0xbe856ad0	-0.26058054
227	0x3e61ceb4	0.22051507
228	0xbe290967	-0.16507493
229	0xbcf0c1ce	-0.029389288
230	0xbe78505c	-0.24249405
231	0xbe4a9633	-0.19783859
232	0xbc0e90f9	-0.008701556
233	0x3e802a3f	0.2503223
234	0xbe1495fb	-0.14510338
235	0x3c9e9e8c	0.01936271
236	0x3e65b619	0.22432746
237	0x3e5a7326	0.21332988
238	0xbdab4e98	-0.083646
239	0x3e8a8760	0.27056408
240	0x3c1d0456	0.009583553
241	0x3e6ae93d	0.22940536
242	0x3c0c53c0	0.008564889
243	0xbe7a85b6	-0.24465069
244	0xbe029f93	-0.12756185
245	0x3daaac08	0.083335936
246	0x3d9c1c0c	0.07622537
247	0xbe9d45f8	-0.30717444
248	0x3e4837c1	0.19552518
249	0xbe907ada	-0.28218728
250	0x3dc1a94a	0.094561175
251	0x3e62ea6a	0.22159734
252	0x3c8bb8af	0.017055837
253	0xbd5f2890	-0.054482043
254	0x3daad0f2	0.083406344
255	0xbdae564c	-0.085125536

encoder.MLP.L1.weight f4 [160, 256]
0	0xbd3da0a8	-0.046295792
1	0xbd35ae18	-0.044355482
2	0x3cf0bbb0	0.029386371
3	0x3d43836c	0.047732756
4	0x3b25dbc0	0.0025307983
5	0xbd78370c	-0.06059937
6	0xbd7b8c32	-0.061412998
7	0xbc673a10	-0.014112964
8	0x3d0a3198	0.033738703
9	0xbd2a98e0	-0.0416497
10	0x3c8a0140	0.0168463
11	0xbd0bec04	-0.03416063
12	0x3d50490c	0.050850913
13	0xbc8628f0	-0.016376942
14	0xbc556698	-0.013024949
15	0xbd608858	-0.054817528
16	0xbd654c0c	-0.055980727
17	0x3b8a69e0	0.004224047
18	0x3c259260	0.010105699
19	0x3d0a4ef6	0.03376671
20	0xbd5fda96	-0.05465182
21	0x3c336d08	0.010951288
22	0xbc13ed30	-0.009028718
23	0x3d162b24	0.036662236
24	0xbce8cde8	-0.028418496
25	0x3c9889e0	0.018620431
26	0x3cce5208	0.0251856
27	0x3d009934	0.031396106
28	0xbcaf9c48	-0.021436825
29	0x3ca4c464	0.020113178
30	0xbc48af98	-0.012248896
31	0x3c89defc	0.01682996
32	0xbd1d6a4a	-0.038431443
33	0xbd4b6b84	-0.04966308
34	0xbd51678e	-0.051124148
35	0xbd20edb6	-0.0392892
36	0xbcd8b14c	-0.02645173
37	0x3c186ca8	0.009303249
38	0xbc5ffca8	-0.013671078
39	0xbd11bc10	-0.03557974
40	0x3a09a280	0.00052503496
41	0xbca1b01c	-0.019737296
42	0x3d1dce62	0.0385269
43	0xbd52d7ce	-0.05147534
44	0xbcbcfbd0	-0.023069292
45	0xbd248398	-0.04016456
46	0x3bfcb460	0.007711932
47	0x3b5f75e0	0.0034097359
48	0xbb6ba060	-0.0035953745
49	0x3d7e0092	0.062012263
50	0xbcc351d8	-0.023842737
51	0xbc132dc0	-0.008983076
52	0x3c844768	0.01614733
53	0x3d55a920	0.052163243
54	0x3d420abe	0.047373526
55	0x3be9f5e0	0.0071399063
56	0xbcc1b408	-0.023645416
57	0x3ca83394	0.020532407
58	0x3d21124c	0.03932409
59	0xbaaed400	-0.0013338327
60	0x3d0c8d78	0.034314603
61	0x3d51840c	0.05115132
62	0xbd092820	-0.03348553
63	0xbc6261d0	-0.013817266
64	0xbd667b12	-0.056269713
65	0x3c6b1008	0.014347084
66	0x3d3672de	0.04454314
67	0xbc46da08	-0.012136944
68	0x3c236608	0.009973057
69	0x3ca399f4	0.019970872
70	0xbaaebac0	-0.0013330802
71	0x3d47065c	0.04859005
72	0x3c153800	0.00910759
73	0xbd7ba254	-0.061434105
74	0xbd5366b8	-0.051611632
75	0xbd7da2cc	-0.061922833
76	0x3b28d280	0.0025760233
77	0x3d0a62a8	0.033785492
78	0xbc0718c8	-0.008245654
79	0x3d662c44	0.05619456
80	0xbc383878	-0.011243932
81	0x3c515b70	0.012778148
82	0x3d66d87a	0.056358792
83	0x3d018f3c	0.03163074
84	0xbb02aca0	-0.0019939318
85	0x3d7695c8	0.060201436
86	0xbd18f36e	-0.037341528
87	0x3cbeb520	0.023279727
88	0x3d21ac68	0.03947106
89	0xbd1e8358	-0.038699478
90	0xbd7078d2	-0.058708973
91	0x3ca3c4f8	0.019991383
92	0xbcc23f40	-0.0237118
93	0xbd013032	-0.031540103
94	0x3c4badd8	0.012431584
95	0xbd39b5aa	-0.045339264
96	0x3d663f54	0.05621274
97	0xbbb7d730	-0.005610369
98	0xbca3f820	-0.020015776
99	0x3d5602de	0.052248828
100	0x3c8e8fe4	0.017402597
101	0x3c431848	0.011907645
102	0xbcf4cd94	-0.029883184
103	0x3d73fcb4	0.05956717
104	0xbc9bf06c	-0.01903554
105	0x3d54ec44	0.051983133
106	0xbb968ba0	-0.0045942813
107	0x3d006b52	0.03135235
108	0x3d33ffda	0.04394517
109	0xbd3e97b6	-0.0465314
110	0xbd2a9ff4	-0.04165645
111	0xbd7d258c	-0.061803386
112	0x3d38a4aa	0.04507891
113	0x3d5c2806	0.053749107
114	0xbcbb1ed4	-0.022841848
115	0xbcfac458	-0.030611202
116	0x3c2b6858	0.010461889
117	0x3d09d33a	0.033648707
118	0x3c7cc270	0.015427217
119	0xbc556968	-0.013025619
120	0xbd22d5cc	-0.039754674
121	0x3d5af2d6	0.053454243
122	0xbd25ca02	-0.040475853
123	0xbd775f60	-0.06039369
124	0xbccc6d74	-0.024954535
125	0x3c4c31a0	0.012463003
126	0x3cbe4e44	0.02323068
127	0x3cc5f940	0.024166703
128	0xbd144cec	-0.03620617
129	0xbcc4801c	-0.023986869
130	0xbce3ad10	-0.027792484
131	0xbcf7f0dc	-0.030266218
132	0xbd579f3a	-0.052642085
133	0x3c519cc8	0.012793727
134	0xbc94e604	-0.018176086
135	0xbd7666cc	-0.06015663
136	0xbd157b9a	-0.03649483
137	0xbd19bd62	-0.037534125
138	0xbcdcdb94	-0.026960172
139	0xbd1e2ef8	-0.03861901
140	0xbc3194d0	-0.010838702
141	0x3cb77b54	0.022397675
142	0xbd4f2f32	-0.05058212
143	0xbbaf70f0	-0.0053540394
144	0xbc93592c	-0.017986856
145	0xbd02e1d2	-0.03195364
146	0xbc6360a0	-0.013878018
147	0xbcd90068	-0.026489452
148	0x3b03ad60	0.0020092353
149	0xbd38cb2a	-0.045115627
150	0x3c4230b0	0.011852428
151	0x3d6b0ab8	0.05738327
152	0x3d541fdc	0.051788196
153	0xbce58f54	-0.028022446
154	0x3c9dd018	0.019264266
155	0xbd71f8e6	-0.05907526
156	0x3d57899a	0.05262146
157	0xbd7f1ede	-0.062285297
158	0xbd64c4b0	-0.05585164
159	0xbd65cb06	-0.05610182
160	0xbd6dbc44	-0.058040872
161	0x3c0aae20	0.008464366
162	0xbc8763b8	-0.016527042
163	0x3c751780	0.014959216
164	0xbb7d6fc0	-0.0038671345
165	0xbaaff940	-0.0013425723
166	0xbcb8f9e0	-0.022580087
167	0xbd17e22a	-0.03708092
168	0xbd565662	-0.052328475
169	0x3d012c66	0.031536482
170	0xbd03fe52	-0.03222496
171	0xbc504288	-0.012711175
172	0x3cf8acfc	0.030355923
173	0xbc7d9b10	-0.015478864
174	0xbc8117cc	-0.015758418
175	0xbd2aa948	-0.041665345
176	0xbd5b08a4	-0.053475037
177	0x3cf5be38	0.02999793
178	0xbc670870	-0.014101133
179	0x3d20f95c	0.039300308
180	0x3b86cad0	0.0041135326
181	0xb8a67c00	-7.9385936e-05
182	0xbd671df8	-0.056425065
183	0x3ab4dd00	0.0013798773
184	0xbc676bb0	-0.014124796
185	0xbd121518	-0.035664648
186	0xbc6cfe08	-0.014464863
187	0x3b562240	0.0032674223
188	0xbd40e438	-0.047092646
189	0x3c2a4640	0.0103927255
190	0x3d3220ee	0.043488435
191	0x3c4a49d0	0.0123467
192	0x3d745d92	0.059659548
193	0x3ceeebb8	0.029165134
194	0xbd49e4e6	-0.04929056
195	0xbcc987d0	-0.024600893
196	0xbc766b18	-0.015040182
197	0x3c992938	0.018696412
198	0xbae9a600	-0.0017825961
199	0x3d4e009a	0.050293542
200	0x3bede890	0.0072603896
201	0xbd2220a4	-0.03958191
202	0xbcbbb510	-0.022913486
203	0xbd54fb68	-0.051997572
204	0xbc8d2c6c	-0.017233096
205	0x3cfbba74	0.030728556
206	0x3a1e3680	0.0006035343
207	0xbd741f6a	-0.05960027
208	0xbd5d8428	-0.054081112
209	0x3cb99fa4	0.02265913
210	0xbd60b11e	-0.054856412
211	0xbd4c30d0	-0.04985124
212	0xbd18a18a	-0.03726343
213	0x3d73ff90	0.059569895
214	0xbc9195c4	-0.01777161
215	0xbcd31928	-0.025768831
216	0xbd2cdac0	-0.042200804
217	0x3d23c3d8	0.039981693
218	0xbc255810	-0.0100917965
219	0x3c457680	0.012052178
220	0x3c749f90	0.014930621
221	0x3c9065cc	0.017626666
222	0x3d23dcd8	0.040005535
223	0x3b548e40	0.003243342
224	0x3bd3d710	0.0064648464
225	0xbb84ff50	-0.004058756
226	0xbd46ede2	-0.048566706
227	0xbc6a5738	-0.014303021
228	0x3d73a62a	0.05948464
229	0xbd356ed4	-0.044295147
230	0xbd21905e	-0.03944432
231	0xbd7e0848	-0.062019616
232	0x3b785f40	0.003789857
233	0xbd6f714a	-0.05845765
234	0xbd031f28	-0.032012135
235	0x3d6be390	0.057590067
236	0x3cd40d6c	0.025885306
237	0x3d0863b8	0.033298224
238	0x3c2f5738	0.010701947
239	0xbd598b2a	-0.053111233
240	0xbcee3e64	-0.029082485
241	0xbd4f3f3a	-0.050597407
242	0xbd1e4cc4	-0.03864743
243	0x3cae5bd0	0.021284014
244	0xbc8e015c	-0.017334633
245	0x3d7a2dec	0.06107895
246	0xbd3a9cee	-0.045559816
247	0xbd5a7914	-0.053338125
248	0x3d7cc668	0.061712652
249	0xbd5d25aa	-0.053990997
250	0x3d59d6a2	0.053183205
251	0x3c89dec8	0.016829863
252	0xbd6954e0	-0.05696571
253	0x3d5ef880	0.054436207
254	0xbc8b6398	-0.017015263
255	0xbcd31de4	-0.025771089

encoder.MLP.L1.bias f4 [160]
0	0x3c1a5f58	0.009422146
1	0x3c2a71d4	0.010403115
2	0x3c39c434	0.011338282
3	0xbbab53a3	-0.005228476
4	0x3cd65b13	0.026166474
5	0x3d217525	0.03941836
6	0xbcc58860	-0.02411288
7	0x3c1956b8	0.009359054
8	0xbd19d3e9	-0.03755561
9	0x3d199c37	0.037502494
10	0xbd34e45e	-0.0441631
11	0xbd674981	-0.056466583
12	0xbd3422ef	-0.043978628
13	0xbd0a36d9	-0.033743713
14	0x3cbf9d27	0.023390366
15	0xbd798f98	-0.060927957
16	0xbd2158d3	-0.03939135
17	0xbcdf6cae	-0.027273502
18	0xbdb88945	-0.09010557
19	0xbc1b859c	-0.009492304
20	0xbdb52e6c	-0.08846745
21	0x3cf71f89	0.030166404
22	0x3d5a24cb	0.053257745
23	0xbd84038f	-0.06445991
24	0xbcd404f0	-0.02588126
25	0xbd0160ce	-0.03158646
26	0xbd9d690c	-0.07686052
27	0x3c61e3d8	0.013787232
28	0x3dc5a5d0	0.09650767
29	0xbd4d7339	-0.050158713
30	0xbcec25bc	-0.028826587
31	0xbd583aa0	-0.052790284
32	0xbd54dfc5	-0.051971216
33	0x3c153f33	0.009109306
34	0x3d08b6f6	0.03337761
35	0xbc0bb299	-0.008526468
36	0xbd72ebcf	-0.059306916
37	0x3cc52a54	0.024068035
38	0x3c46d009	0.01213456
39	0xbd13d479	-0.0360913
40	0xbcc78a7c	-0.024358027
41	0x3c87e8dc	0.016590528
42	0xbd914e47	-0.07095008
43	0xbd98354f	-0.07432043
44	0x3d5e3c1a	0.054256536
45	0xbce42cf2	-0.027853463
46	0xbd72feb3	-0.05932493
47	0xbd94d9cb	-0.07268103
48	0x3c8c4456	0.017122429
49	0xbd67797c	-0.05651234
50	0xbd997dde	-0.074947104
51	0xbd2e471a	-0.042548276
52	0xbc8dadac	-0.017294727
53	0xbdc27aa1	-0.09496046
54	0x3d591297	0.052996244
55	0xbc18aac0	-0.009318054
56	0xbd2c4e4c	-0.042066857
57	0x3d68f186	0.05687096
58	0xbb912a67	-0.0044301036
59	0x3c4b8f53	0.012424308
60	0xbdbc0d41	-0.091822155
61	0x3ccf6a7a	0.025319327
62	0x3cdc2345	0.026872287
63	0xbd02041a	-0.031742193
64	0x3d73d6a0	0.059530854
65	0xbd1dba52	-0.038507767
66	0xbd827ce1	-0.06371475
67	0x3c989832	0.01862726
68	0x3d01e042	0.03170801
69	0xbc5247e7	-0.012834526
70	0xbbb88f46	-0.005632314
71	0x3c5fada3	0.013652238
72	0xbccd6f2c	-0.025077425
73	0xbcce4c10	-0.025182754
74	0xbb94ca66	-0.0045407293
75	0xbd67f5d7	-0.056630936
76	0xbd267d0f	-0.04064661
77	0xbdab4ad8	-0.08363885
78	0x3c36d0ce	0.011158181
79	0xbab2daa3	-0.0013645481
80	0xbc9e7765	-0.019344041
81	0xbd800683	-0.06251242
82	0xbc72d70b	-0.014821778
83	0xbcb7b023	-0.022422856
84	0xbd598f7c	-0.053115353
85	0xbd86ce46	-0.06582312
86	0xbd3f99f7	-0.04677769
87	0xbdb3e7b4	-0.08784428
88	0xbd7759a4	-0.060388222
89	0x3c9cf87a	0.019161452
90	0xbd4f3719	-0.050589655
91	0xbd01ce4a	-0.031690873
92	0xbdb57bac	-0.08861479
93	0xbc6cf503	-0.014462712
94	0x3d631f48	0.055449754
95	0xbd7089e9	-0.05872527
96	0xbdafe71a	-0.08589001
97	0xbda6206a	-0.08111651
98	0xbd09a949	-0.03360871
99	0xbd65ad17	-0.056073274
100	0xbca5335f	-0.020166097
101	0xbd25d0d7	-0.04048237
102	0xbd1ecd15	-0.0387698
103	0xbd3b5bdc	-0.0457419
104	0xbdae0f5b	-0.084990226
105	0xbd8cf37b	-0.06882378
106	0x3c95f2d5	0.018304268
107	0xbccd69a3	-0.025074786
108	0xbd115e98	-0.035490602
109	0xbd8e65dd	-0.06953023
110	0xbdb8a7cf	-0.09016382
111	0x3ca0fdb8	0.019652233
112	0x3cd6e5f2	0.026232693
113	0xbdbb2dbb	-0.09139582
114	0xbdbb7d24	-0.09154728
115	0x3c705d9c	0.014670756
116	0x3d4c7c24	0.049923077
117	0xba05238f	-0.0005078846
118	0xbd6a52f6	-0.057208024
119	0xbdc8c2f4	-0.09802809
120	0x3d9223ab	0.071357094
121	0xbba7e235	-0.0051234015
122	0xbd18056e	-0.037114553
123	0xbcbbaa18	-0.022908255
124	0xbd9b323e	-0.07577942
125	0xbbe8cfd2	-0.0071048522
126	0x3cea9818	0.028636977
127	0xbd94c834	-0.07264748
128	0xbd0339a0	-0.032037377
129	0xbcea131c	-0.028573565
130	0x3d4a8840	0.049446344
131	0xbc74f8e8	-0.014951922
132	0xbc4619cd	-0.012091112
133	0xbc8d72a9	-0.017266588
134	0xbd4055f3	-0.046956968
135	0x3cf4e20b	0.029892942
136	0xbdaae5cf	-0.08344614
137	0xbbdf636c	-0.006817272
138	0xbddd6c84	-0.10811713
139	0xbd90efb9	-0.070769735
140	0xbcd3dcac	-0.02586206
141	0xbc226a65	-0.009913062
142	0x3cce6e9d	0.025199229
143	0xbd7ebf27	-0.062194016
144	0x3ca707f0	0.020389527
145	0x3c66904c	0.014072489
146	0xbc14bc34	-0.009078074
147	0xbc9fdabc	-0.01951348
148	0xbd0ed8f5	-0.034874875
149	0xbd496668	-0.049169928
150	0xbc14dc48	-0.009085722
151	0xbcfaafa6	-0.030601334
152	0x3cc21b14	0.023694552
153	0xbd2ee32b	-0.042697113
154	0x3bc7aca1	0.006093577
155	0x3c8165d9	0.015795635
156	0xbd9fc552	-0.07801308
157	0xbbe77365	-0.0070633166
158	0xbd2b84fe	-0.041874878
159	0xbcbff507	-0.023432268

encoder.MLP.L2.weight f4 [64, 160]
0	0xbd2ab79b	-0.041679006
1	0x3d6d91c2	0.058000334
2	0xbcdbf439	-0.026849853
3	0x3dbf4333	0.09338989
4	0x3d46d61a	0.048544027
5	0xbca35e90	-0.019942552
6	0x3c21d5d8	0.0098776445
7	0xbd27b22b	-0.0409414
8	0xbcfc5760	-0.030803382
9	0x3d2e74a4	0.042591706
10	0xbdb19560	-0.08671069
11	0xbddb3332	-0.10703124
12	0x3d4072a9	0.04698435
13	0x3d7f6aa5	0.062357564
14	0xbd67ff20	-0.05663979
15	0x3c66eaaf	0.014094039
16	0x3c4e115f	0.012577384
17	0xbbfa798b	-0.0076438836
18	0x3dc92b46	0.09822707
19	0x3c1cd351	0.009571866
20	0xbcf49bf9	-0.02985953
21	0xbc3e5b0e	-0.011618389
22	0xbbbaa5b0	-0.005696021
23	0x3a087bf2	0.00052064576
24	0xbd2c20a6	-0.042023323
25	0xbd27ecbc	-0.040997252
26	0xbd258e4f	-0.04041892
27	0xbbd867d0	-0.0066041723
28	0xbcbc757e	-0.023005243
29	0xbd95a715	-0.07307259
30	0x3ca216f7	0.019786341
31	0xbcc100a2	-0.023559872
32	0xbd9f1c5b	-0.0776908
33	0xbd3cf700	-0.046133995
34	0x3cf9db68	0.030500129
35	0xbd5b9d55	-0.05361684
36	0xbcf0f306	-0.029412758
37	0xbd24f2d8	-0.040270656
38	0xbd8ef07f	-0.06979465
39	0xbd9dce6e	-0.07705389
40	0xbd484262	-0.048891433
41	0x3cacb902	0.021084312
42	0x3dbff010	0.0937196
43	0x3cd67850	0.026180416
44	0xbd29ff9c	-0.041503534
45	0x3b8e9eb8	0.004352417
46	0xbcf0d1ce	-0.029396918
47	0x3d866b18	0.06563395
48	0xbac9696e	-0.0015366504
49	0x3cab9b1d	0.020947987
50	0xbc0a87a3	-0.00845519
51	0x3cae67ff	0.021289824
52	0x3dcf377e	0.10118006
53	0xb7fd2000	-3.0174851e-05
54	0xbbad4cfe	-0.005288719
55	0x3d4485f1	0.0479793
56	0xbd014016	-0.031555258
57	0x3d6adf56	0.057341896
58	0xbca9d2c5	-0.020730386
59	0xb9766200	-0.00023496896
60	0xbc3c72b0	-0.011501953
61	0x3c82c7ee	0.015964475
62	0xbd447243	-0.04796053
63	0xbcf89fb2	-0.030349586
64	0x3d970555	0.07374064
65	0x3c85312b	0.016258797
66	0x3d0267a3	0.031837117
67	0xbd461e27	-0.0483686
68	0xbd990c9e	-0.0747311
69	0xbd1d935e	-0.03847062
70	0xbc84de46	-0.01621927
71	0xbcc7b59c	-0.02437859
72	0x3d12d29a	0.035845377
73	0x3b7f86ae	0.0038990187
74	0xbcbc2770	-0.022968024
75	0xbd9b6d7d	-0.075892426
76	0xbd1f1810	-0.038841307
77	0x3d45685a	0.04819522
78	0x3d4ff72d	0.050772835
79	0xbcf112d6	-0.029427927
80	0x3d023486	0.03178837
81	0xbd20972f	-0.03920668
82	0xbc92f319	-0.017938184
83	0x3d98bbaf	0.07457673
84	0xbd7b5010	-0.06135565
85	0x3d9d78c3	0.07689049
86	0x3cff736d	0.031182969
87	0x3d9ae608	0.07563406
88	0x3b027831	0.0019908065
89	0x3c94d6e0	0.018168867
90	0xbd7d7a4f	-0.06188422
91	0x3da0cfb1	0.07852114
92	0x3c0ea788	0.008706935
93	0xbcbfe41c	-0.0234242
94	0xbdcd4055	-0.10022036
95	0xbd058ae0	-0.032603145
96	0x3d47aa55	0.048746426
97	0x3d7c1454	0.061542824
98	0xbb965397	-0.0045876014
99	0x3d55c8b5	0.052193362
100	0x3d5d5b5f	0.054042216
101	0xbc936de8	-0.017996743
102	0x3d51daeb	0.051234167
103	0x3d5ae388	0.053439647
104	0x3d208637	0.039190497
105	0x3bf929e5	0.007603871
106	0x3daadd52	0.08342995
107	0xbd3061b6	-0.043061934
108	0x3c9cc774	0.019138075
109	0xbd473764	-0.04863681
110	0x3d7e53a3	0.06209148
111	0xbce10408	-0.027467743
112	0x3ddef2c4	0.108861476
113	0x3acc6c00	0.0015596151
114	0xbd215d0f	-0.03939539
115	0xbd5c5ab9	-0.053797457
116	0x3d9d0657	0.07667225
117	0xbb78a92e	-0.0037942636
118	0x3ceded68	0.029043868
119	0xbd122ae6	-0.035685442
120	0xbc6461c3	-0.013939324
121	0x3d44230d	0.04788499
122	0x3c4df778	0.012571208
123	0x3d90cb27	0.07069998
124	0x3c21b4ea	0.009869793
125	0x3ce1b709	0.027553098
126	0x3d9a3995	0.07530514
127	0x3d32cd3f	0.04365277
128	0xbb87a457	-0.004139464
129	0xb9c96386	-0.00038411858
130	0x3cb60a64	0.022221752
131	0x3ca7a8d8	0.020466253
132	0x3caaf741	0.020869853
133	0x3dc0cce4	0.0941408
134	0xbd0601bd	-0.0327165
135	0xbd4a9c10	-0.04946524
136	0xbd9871a2	-0.07443549
137	0xbd8e9112	-0.06961264
138	0xbc92f505	-0.0179391
139	0x3dae7f54	0.0852038
140	0xbc646e6f	-0.013942345
141	0x3dcfe9d6	0.101520225
142	0x3c72e6e8	0.01482556
143	0x3d1452ae	0.036211662
144	0xbbfdef20	-0.007749453
145	0x3dcd13ee	0.10013567
146	0x3bcaf280	0.006193459
147	0x3c56ea11	0.013117329
148	0xbd3e76e5	-0.046500105
149	0x3cde3041	0.027122619
150	0x3d362b92	0.044475146
151	0xbd931f03	-0.071836494
152	0xbd20e2b4	-0.0392787
153	0x3d9260cf	0.07147371
154	0xbdd43153	-0.1036097
155	0x3d1f7643	0.038931143
156	0x3d02ea27	0.031961586
157	0x3d97b25c	0.07407066
158	0xbd60c0fd	-0.054871548
159	0x3c0b1c6b	0.008490662
160	0x3d9f91a5	0.07791451
161	0x3c5ae5e8	0.013360478
162	0x3bc7e160	0.006099865
163	0xbd90521b	-0.070469104
164	0x3c3d7be8	0.011565186
165	0x3caf0a80	0.021367311
166	0x3ce1bcd8	0.027555868
167	0x3d0f0c0e	0.034923606
168	0xbd1641b0	-0.03668374
169	0xbd46e7ba	-0.048560835
170	0xbc2974b8	-0.010342769
171	0xbc89c236	-0.01681624
172	0xbd29bc1b	-0.041439157
173	0xbd8523d9	-0.06500978
174	0xbd67fa98	-0.05663547
175	0xbc152b98	-0.009104632
176	0x39a0a100	0.00030637532
177	0x3d01d068	0.031692892
178	0x3d81455f	0.063120596
179	0xba379000	-0.00070023537
180	0x3c8528c4	0.01625479
181	0xbd8eb859	-0.06968755
182	0xbd5e08c6	-0.054207586
183	0x3d84b28d	0.06479368
184	0x3c480d18	0.012210153
185	0x3cc414c0	0.023935676
186	0x3c8a79e8	0.016903833
187	0xbd32e5ce	-0.04367619
188	0xbc8151ec	-0.015786134
189	0x3d8d2f19	0.06893749
190	0xbd058a77	-0.032602753
191	0x3d2544e4	0.040348902
192	0xbcf02cae	-0.02931818
193	0xbd1fd268	-0.03901902
194	0xbcc5dbe6	-0.024152707
195	0xbd4a2b7a	-0.04935787
196	0xbcaf869a	-0.021426488
197	0xbced95b0	-0.02900204
198	0xbd1ebce3	-0.038754355
199	0xbd80094f	-0.062517755
200	0xbcc3e4ba	-0.023912776
201	0xbd199362	-0.03749407
202	0xbcf3ed14	-0.029776134
203	0xbd4b194f	-0.049584683
204	0xbc6bf248	-0.014401026
205	0xbcde87a4	-0.027164288
206	0xbcadb1da	-0.02120297
207	0xbb9ffbb0	-0.0048822984
208	0xbd7bcfbe	-0.061477415
209	0x3d1987ae	0.03748291
210	0xbc187f38	-0.009307675
211	0xbd20a3a9	-0.03921858
212	0x3d04170a	0.032248534
213	0x3d87a105	0.06622509
214	0x3c41ffd8	0.011840783
215	0x3b40f280	0.0029441416
216	0xbcb8c796	-0.022556107
217	0x3c8e6314	0.017381229
218	0x3d2b5d38	0.041836947
219	0x3d1d21ba	0.038362242
220	0xbb56a460	-0.0032751784
221	0xbd543f32	-0.05181808
222	0xbd94c6c1	-0.07264472
223	0x3d27486c	0.04084055
224	0x3d36a2f0	0.044588983
225	0x3d9f0ec5	0.07766489
226	0x3d075afe	0.03304576
227	0xbd8e6c92	-0.06954302
228	0xbbc979b0	-0.0061485395
229	0x3d9a5cc3	0.07537224
230	0x3b4d67e0	0.0031342432
231	0x3d7586ca	0.059942998
232	0xbd997028	-0.07492095
233	0xbd0b0fa8	-0.033950478
234	0x3d2a4828	0.04157272
235	0xbd3917f7	-0.04518887
236	0x3cc339d4	0.023831286
237	0xbda1249b	-0.0786831
238	0x3d474182	0.048646457
239	0x3bdb6d80	0.006696403
240	0x3cb68ae8	0.022283033
241	0x3d2a689c	0.04160367
242	0xba5c1100	-0.0008394867
243	0xbd95c96c	-0.07313809
244	0x3d93a5b7	0.07209342
245	0x3d3f819a	0.046754457
246	0xbcb2758c	-0.021784566
247	0xbc1610f8	-0.009159319
248	0x3c3b3060	0.011425108
249	0xbd1e3278	-0.03862235
250	0xbc1244e0	-0.008927554
251	0xbd9a5fc7	-0.07537799
252	0xbc8eb7c0	-0.017421603
253	0xbc53c0c8	-0.012924381
254	0x3ae5a4c0	0.0017520413
255	0x3d1c412a	0.038148083

encoder.MLP.L2.bias f4 [64]
0	0x3d3462cc	0.044039533
1	0xbb885290	-0.004160233
2	0xbcdf1d73	-0.027235722
3	0xbaa4ec91	-0.0012582709
4	0xbd6a3883	-0.0571828
5	0xbd5f99d3	-0.054590058
6	0xbd80f350	-0.06296408
7	0x3d7609b2	0.06006784
8	0x3d8f1975	0.069872774
9	0xbdd24524	-0.10267094
10	0xbd817132	-0.063204184
11	0xbde4267f	-0.11140155
12	0xbc4b6ce0	-0.012416095
13	0xbc4d56d2	-0.012532907
14	0x3cbfd065	0.0234148
15	0xbd2cf682	-0.042227276
16	0xbd986e28	-0.07442886
17	0xbceb341c	-0.028711371
18	0xbdccc434	-0.0999836
19	0xbd10c8de	-0.035347812
20	0x3c70462b	0.014665167
21	0x3c3800f5	0.011230697
22	0x3cb49b98	0.02204685
23	0xbd0a5575	-0.033772904
24	0xbd439dc5	-0.047757883
25	0x3d4314e5	0.04762735
26	0xbc335118	-0.010944627
27	0xbd1c3937	-0.0381405
28	0x38cbfc58	9.726797e-05
29	0xbd04ef17	-0.032454576
30	0xbce0bdcb	-0.02743425
31	0xbddae43a	-0.10688062
32	0xbdfdc2cc	-0.1239067
33	0xbdbbbf36	-0.0916733
34	0x3ca0c8fd	0.019627089
35	0xbbe96981	-0.0071231727
36	0xbd3be650	-0.04587394
37	0x3c09e81b	0.008417155
38	0xbdd5ae83	-0.10433676
39	0xbdc16f8b	-0.09445103
40	0x3c62e349	0.013848134
41	0xbd94d9fd	-0.072681405
42	0xbb7c20f1	-0.0038471783
43	0xbce2c1b3	-0.027680254
44	0xbc9411da	-0.018074919
45	0xbdc774f2	-0.097391024
46	0xbd90f044	-0.07077077
47	0x3cfd151e	0.030893859
48	0x3c57d484	0.013173226
49	0xbd8d4135	-0.06897203
50	0xbd106321	-0.035250787
51	0xbd8eef47	-0.06979232
52	0xbda33648	-0.07969338
53	0xbd29433e	-0.041323893
54	0x3ca43199	0.020043181
55	0xba666608	-0.00087890076
56	0xbc86af72	-0.01644108
57	0xbe003cee	-0.12523243
58	0xbd140c45	-0.036144514
59	0xbd572485	-0.052525062
60	0xbcb21ae3	-0.021741336
61	0xbdbec103	-0.09314158
62	0x3d0e9a46	0.034815095
63	0x3c9a7cd2	0.018858347

encoder.linear_means.weight f4 [12, 64]
0	0xbc7793d5	-0.0151109295
1	0xbdf8635e	-0.12128328
2	0xbd44bcce	-0.04803162
3	0xbd9210d6	-0.071321175
4	0xbd9717c1	-0.073775776
5	0xbd34b186	-0.044114612
6	0xbdb55f6a	-0.088560894
7	0x3ca6d330	0.020364374
8	0xbd84085c	-0.06446907
9	0xbd9ab725	-0.07554463
10	0xbd453cee	-0.04815381
11	0x3c80dda2	0.015730683
12	0xbd588e98	-0.052870363
13	0x3d562094	0.052277163
14	0x3d30fbf0	0.043209016
15	0x3de61978	0.112353265
16	0x3bcbcf08	0.0062197484
17	0xbd8065cc	-0.06269416
18	0xbdbdae46	-0.09261756
19	0xbd87d812	-0.06633009
20	0xbe336690	-0.17519593
21	0xbd44f33b	-0.048083525
22	0x3dc3c90d	0.09559832
23	0xbc62d624	-0.013845
24	0x3cac6335	0.0210434
25	0x3c3500fb	0.011047597
26	0x3dad2392	0.0845405
27	0x3c74d0b3	0.014942336
28	0xbc4e0b47	-0.012575931
29	0xbba2d68c	-0.0049694236
30	0x3dfff6f4	0.124982744
31	0x3db9e6b3	0.090772055
32	0x3e1d0e56	0.153375
33	0xbd7e11c0	-0.062028646
34	0xbd7ac47a	-0.06122253
35	0x3d558420	0.052127957
36	0x3e1b832a	0.15186754
37	0x3be1606f	0.006877951
38	0xbdb57f71	-0.08862198
39	0xbc856f05	-0.01628829
40	0xbdd39a48	-0.10332161
41	0x3dc4a1e5	0.096011914
42	0x3b12635d	0.0022337057
43	0xbc6a9bc1	-0.014319361
44	0xbdbf4903	-0.09340098
45	0x3dd84e03	0.105617546
46	0x3d09e628	0.03366676
47	0x3d5fe8e6	0.05466547
48	0x3d81a91b	0.063310824
49	0xbd4ed54d	-0.05049639
50	0xbd99a855	-0.0750281
51	0xbcd48481	-0.025942089
52	0xbd122d85	-0.035687942
53	0x3dfca20b	0.12335595
54	0xbcea7b88	-0.028623357
55	0x3d087794	0.033317164
56	0xbcce333b	-0.025170913
57	0x3d1b0bfe	0.037853234
58	0xbc645cab	-0.013938109
59	0x3df8bb29	0.12145073
60	0xbc31fcd2	-0.0108635
61	0x3c885e7d	0.016646618
62	0x3d9229d7	0.071368866
63	0xbdb552e1	-0.088536985
64	0xbc35c7b4	-0.011094976
65	0xbdfe4362	-0.12415196
66	0xbda0ec76	-0.07857601
67	0x3cc1c871	0.023655148
68	0xbda0bb30	-0.07848203
69	0xbc408af9	-0.011751884
70	0xbc5df9ac	-0.013548296
71	0xbde93628	-0.113872826
72	0xbc70d370	-0.014698848
73	0x3c145ec8	0.009055801
74	0xba834ca5	-0.0010017349
75	0xbcf66b4a	-0.030080456
76	0x3cb93e88	0.022612825
77	0xbdc5e66c	-0.0966309
78	0x3dc2eba0	0.09517598
79	0xbda15900	-0.078783035
80	0x3ceb70b5	0.028740266
81	0x3d9972be	0.074925885
82	0xbd85a2c6	-0.06525187
83	0xbd95c2ae	-0.07312523
84	0x3d818ca2	0.06325652
85	0xbda310fe	-0.079622254
86	0x3dbdfefd	0.09277151
87	0x3cb3ba75	0.021939496
88	0x3d5f2600	0.0544796
89	0x3c4a85aa	0.01236097
90	0xbdca0356	-0.098639175
91	0x3dd79684	0.105267555
92	0x3e0cf5d0	0.13765645
93	0xbdd44b80	-0.10365963
94	0xbcdab20f	-0.026696233
95	0x3c276232	0.010216283
96	0xbe1c03f1	-0.15235879
97	0xbc9611b6	-0.018318992
98	0xbca90674	-0.02063296
99	0x3d93957b	0.072062455
100	0xbdc5f966	-0.096667096
101	0x3d7109bd	0.058847178
102	0xbd700ea4	-0.058607712
103	0xbdf34569	-0.11878473
104	0xbddec758	-0.108778656
105	0xbcd120f5	-0.02552841
106	0x3e0684af	0.13136552
107	0x3c6e39e4	0.014540169
108	0x3d278d31	0.040906135
109	0x3c940006	0.018066417
110	0xbdccba70	-0.09996498
111	0x3da76eee	0.08175455
112	0x3d6a89f1	0.057260457
113	0x3ce2fa00	0.0277071
114	0xbdd82ccf	-0.105554216
115	0xbd744a1f	-0.059641
116	0x3d3e6ecc	0.046492383
117	0xbce40e12	-0.02783874
118	0x3d851937	0.0649895
119	0x3ac2ccbd	0.0014862042
120	0xbdb59b4b	-0.088675104
121	0xbd0749ff	-0.033029553
122	0xbdc60a59	-0.096699424
123	0x3d84b6da	0.06480189
124	0xbdd5151d	-0.10404418
125	0x3d85168b	0.0649844
126	0x3ce584bd	0.028017396
127	0xbdbba0d9	-0.09161539
128	0x3dba8678	0.09107679
129	0x3dc64204	0.0968056
130	0xbe02121d	-0.12702222
131	0x3d61becc	0.0551136
132	0xbd965827	-0.073410325
133	0x3e0cf862	0.13766626
134	0xbdb00bb3	-0.085959814
135	0xbded6a62	-0.115925565
136	0x3dd29eac	0.102841705
137	0xbc84dd7f	-0.016218899
138	0x3d927742	0.07151653
139	0xbd2d60ab	-0.042328518
140	0xbd08fbbc	-0.033443198
141	0xbda4ac95	-0.0804073
142	0x3dcf5806	0.10124211
143	0xbdb8e92f	-0.09028851
144	0x3d4550ad	0.04817264
145	0x3d9f039e	0.07764362
146	0xbd096ad2	-0.033549137
147	0x3d01c7ac	0.031684563
148	0x3cdf0b6f	0.027227132
149	0xbdbd8960	-0.09254718
150	0x3cf663ec	0.030076943
151	0x3c04f4c3	0.008114996
152	0x3d955e7d	0.07293413
153	0x3cf02359	0.02931373
154	0xbdeff190	-0.11715996
155	0xbe0c40e1	-0.13696624
156	0xbc3b9be1	-0.011450739
157	0xbd5b48c6	-0.0535362
158	0x3d1c7ace	0.038203053
159	0xbdd132b7	-0.10214751
160	0xbd79f78a	-0.061027087
161	0x3ddf503d	0.10903976
162	0xbdda1c99	-0.10649986
163	0xbb3debc4	-0.0028979639
164	0xbcb43f51	-0.022002848
165	0x3c7e12bc	0.015507396
166	0xbd5df6b1	-0.05419034
167	0xbce89114	-0.028389491
168	0xbdb4b0e4	-0.08822802
169	0xbd04fba3	-0.032466542
170	0x3d4e076f	0.050300058
171	0xbd2800c2	-0.041016348
172	0x3ddeb3ea	0.1087416
173	0x3e1ccf52	0.15313461
174	0x3d93f5d6	0.07224624
175	0xbd01defb	-0.03170679
176	0x3cc9b214	0.024621047
177	0x3d9f7c0e	0.077873334
178	0xbda9e13f	-0.082949154
179	0x3e09fbad	0.13474913
180	0x3cc2be91	0.02377251
181	0xba98e9ff	-0.0011666416
182	0xbdbf20e0	-0.09332442
183	0x3d2683c4	0.040653005
184	0xbd88713f	-0.06662225
185	0x3d844eb5	0.06460325
186	0xbdafd93a	-0.085863546
187	0x3dd9667f	0.10615253
188	0xbd95b397	-0.07309645
189	0xbd3b3066	-0.045700453
190	0xbc2bb42e	-0.01047997
191	0x3e1268ce	0.14297792
192	0xbdc8a574	-0.09797183
193	0x3d86f37a	0.06589408
194	0x3c97d4d9	0.01853411
195	0xbe1f5c6e	-0.15562603
196	0x3d06cb88	0.032908946
197	0x3aa2bb23	0.001241539
198	0xbd1b812b	-0.03796498
199	0x3dbd6a24	0.0924876
200	0x3d08a7e8	0.033363253
201	0x3dd97c3e	0.106194004
202	0xbe1712f0	-0.14753318
203	0xbc4cf7b0	-0.012510225
204	0xbc9f5b30	-0.019452661
205	0xbd702606	-0.058630012
206	0x3c357fc0	0.011077821
207	0x3beb6049	0.007183109
208	0x3d56bbb1	0.05242509
209	0xbdbce52f	-0.09223401
210	0x3ddba947	0.107256465
211	0x3c31da4e	0.010855271
212	0xbddd31da	-0.10800524
213	0x3dcb49be	0.099261746
214	0x3c91107d	0.017708058
215	0x3ceb9882	0.028759245
216	0x3d58ade4	0.05290021
217	0x3e0ae25c	0.13562912
218	0x3dbfc860	0.093643904
219	0xbd6a0d6b	-0.057141703
220	0x3d1fe0ae	0.03903263
221	0x3d95bb7b	0.0731115
222	0x3d1cdecb	0.03829841
223	0xbdb823ab	-0.08991178
224	0x3e0735cb	0.13204114
225	0x3b870b53	0.004121223
226	0xbd16c387	-0.036807563
227	0xbd8a5236	-0.06753962
228	0x3c0d55c0	0.008626401
229	0x3db14025	0.08654813
230	0xbd682ca7	-0.05668321
231	0x3dd7365a	0.105084136
232	0xbc930579	-0.017946946
233	0xbd12a85c	-0.03580509
234	0x3d2b4223	0.04181112
235	0x3bed6e23	0.0072457953
236	0x3e14a0fd	0.14514537
237	0x3db489eb	0.08815368
238	0x3dc816eb	0.09769996
239	0x3b88fedb	0.0041807718
240	0xbb052261	-0.002031468
241	0xbdd04449	-0.10169274
242	0xbc8051c4	-0.015663989
243	0x3dcd795f	0.10032915
244	0x3bd8dd7a	0.006618199
245	0x3c793ee2	0.015212746
246	0xbe015ba6	-0.12632617
247	0xbe154a94	-0.1457923
248	0xbcb2bea2	-0.021819416
249	0x3e017ec9	0.12646021
250	0x3d78e0aa	0.06076113
251	0xbcd87c76	-0.026426535
252	0x3d92d8d1	0.07170261
253	0xbda714e2	-0.0815828
254	0x3c26c82e	0.0101795625
255	0xbc8fa0df	-0.017532764

encoder.linear_means.bias f4 [12]
0	0x3b7d4d91	0.003865097
1	0x3adbe9c4	0.0016778042
2	0xb96190d4	-0.00021511625
3	0x3a00d8be	0.00049151096
4	0x3aa79912	0.0012786707
5	0x3b757d75	0.0037458811
6	0xbbb2db23	-0.005458252
7	0xb9926e25	-0.00027929354
8	0xbb0482e2	-0.0020219614
9	0xbb261d48	-0.0025347043
10	0x3ba7e168	0.005123306
11	0x3a5b4edf	0.000836594

encoder.linear_log_var.weight f4 [12, 64]
0	0x3c74fa75	0.014952292
1	0x3db96128	0.09051734
2	0xbd22276e	-0.039588384
3	0x3d80ff62	0.062987104
4	0xbdc8cd89	-0.09804828
5	0x3da80397	0.0820381
6	0x3ab4e7f2	0.0013802035
7	0x3d338254	0.043825462
8	0x3d9922a8	0.07477313
9	0xbe04de18	-0.12975347
10	0xbd4f71ef	-0.050645765
11	0x3d9d9e02	0.07696153
12	0xbd98f764	-0.07469061
13	0x3d774161	0.060365085
14	0x3de46541	0.11152125
15	0x3d64e83f	0.05588555
16	0xbd811296	-0.06302373
17	0x3c951b10	0.018201381
18	0xbce1f9e6	-0.027584981
19	0x3d040786	0.032233737
20	0x39c38e62	0.00037299382
21	0xbdcf8c0d	-0.101341344
22	0x3dc10f90	0.094267964
23	0xbdc32adb	-0.095296584
24	0x3dd9354c	0.10605869
25	0xbe0d7125	-0.13812692
26	0xbd4b1fe0	-0.049590945
27	0xbdac498a	-0.08412464
28	0xbd4ae337	-0.049533095
29	0x3d3fd28e	0.04683166
30	0xbc9649eb	-0.018345794
31	0x3df12a28	0.11775619
32	0x3d9e5d66	0.07732658
33	0xbd4be62f	-0.049780067
34	0xbd889ba9	-0.06670315
35	0x3cfe6b9a	0.031057168
36	0xbccc0abb	-0.02490746
37	0xbe03a0a6	-0.12854251
38	0x3c0ebbde	0.008711783
39	0x3d70ebea	0.058818735
40	0x3d274109	0.040833507
41	0xbd8fb93d	-0.07017753
42	0x3dc2dc73	0.095147036
43	0xbbf24358	-0.007393282
44	0xbe179d9c	-0.14806217
45	0xbcb3ac08	-0.021932617
46	0x3e168b8c	0.1470167
47	0xbdc01667	-0.09379273
48	0x3d88fba0	0.06688619
49	0xbd1e011d	-0.03857528
50	0xbe038f5e	-0.12847659
51	0x3d46a992	0.04850156
52	0x3db83bd4	0.08995786
53	0x3d6aa9e7	0.057290938
54	0x3d239c9d	0.03994428
55	0xbd8b6aa7	-0.06807452
56	0xbddcf952	-0.107897416
57	0x3c0791e5	0.00827453
58	0xbd3a4750	-0.045478165
59	0x3da23a24	0.07921246
60	0xbd69500c	-0.056961104
61	0xbdb75b98	-0.08953017
62	0x3d9115ab	0.07084211
63	0xbce4e8ce	-0.027943041
64	0xbd8a88f6	-0.067644045
65	0x3d87cdda	0.0663106
66	0xbdcb1ee5	-0.09918002
67	0x3d05f863	0.032707583
68	0xbcb2446a	-0.021761138
69	0x3d7fc089	0.062439475
70	0xbd9199bc	-0.07109401
71	0xbd867b7a	-0.0656652
72	0xbb1c0d80	-0.0023811758
73	0x3e0ebb23	0.13938574
74	0x3daba5be	0.08381222
75	0xbd25985c	-0.040428504
76	0xbd425c78	-0.047451466
77	0xbc01e95b	-0.007929171
78	0x3d34b7ba	0.044120528
79	0xbcce27ba	-0.025165427
80	0x3cd8a4fb	0.026445856
81	0xbda8c99f	-0.08241581
82	0x3db2c0e6	0.08728199
83	0xbb3dbe82	-0.0028952663
84	0xbcfea088	-0.031082407
85	0x3d82fbf2	0.06395711
86	0xbd8fb836	-0.07017557
87	0xbd5664bb	-0.052342158
88	0xbe0355b6	-0.12825665
89	0x3d2b262d	0.041784454
90	0x3dde9f08	0.108701766
91	0x3d067eee	0.032835893
92	0x3dab62a2	0.08368422
93	0x3d9815f7	0.074260645
94	0xbd91fde2	-0.071285024
95	0xbde84c61	-0.11342693
96	0x3da60ee5	0.0810831
97	0x3dbceebf	0.09225225
98	0x3db7b317	0.089697056
99	0xbd6697ae	-0.056296997
100	0x3cbea4a7	0.023271872
101	0x3d992184	0.07477096
102	0x3a594cbe	0.00082893285
103	0xbca2addd	-0.019858295
104	0x3c62134f	0.013798549
105	0xbd92cb5f	-0.07167696
106	0xbd2cb81d	-0.04216777
107	0x3c38e9f3	0.011286247
108	0xbd683656	-0.056692444
109	0x3e10d9e2	0.14145616
110	0x3d0db8c3	0.03460003
111	0x3da5e7d7	0.081008606
112	0xbe0362a3	-0.12830596
113	0xbd5bcba3	-0.053661
114	0x3c894fd0	0.01676169
115	0xbd15a343	-0.03653265
116	0xbc0da8f4	-0.008646239
117	0xbde52fc4	-0.11190751
118	0x3c1ecf91	0.009693042
119	0xbdbf74f9	-0.09348483
120	0xbd61408c	-0.054993197
121	0xbcc2e72e	-0.023791876
122	0x3d9fec67	0.07808762
123	0x3e054194	0.13013297
124	0xbd8e16ad	-0.06937919
125	0xbdf3e6c1	-0.11909247
126	0xbdc27b79	-0.09496207
127	0xbafb5ea6	-0.0019177988
128	0xbcc21cad	-0.023695314
129	0xbceda380	-0.029008627
130	0x3d4d4730	0.050116718
131	0x3d826a02	0.06367876
132	0x3ceb149e	0.028696354
133	0xbcd21995	-0.025646964
134	0x3df79153	0.12088265
135	0x3c3f2e50	0.011668757
136	0xbdaa1a44	-0.08305791
137	0xbd8547c8	-0.06507832
138	0xbde0fb42	-0.109854236
139	0xbd8b62d7	-0.068059616
140	0x3cda8bf8	0.02667807
141	0x3a23e09c	0.0006251426
142	0x3dc2c7b8	0.095107496
143	0x3d6773d7	0.056506958
144	0x3a45d899	0.0007547229
145	0x3db529ce	0.08845864
146	0xbd2fece4	-0.042950526
147	0x3d0f10e2	0.03492821
148	0xbcd11237	-0.02552138
149	0x3e0934bc	0.13399023
150	0xbdbe4299	-0.09290046
151	0x3ddfea65	0.10933379
152	0xbe089b15	-0.13340409
153	0xbd93b5df	-0.072124235
154	0x3d4b7aa4	0.049677506
155	0xbb370dfe	-0.0027931924
156	0xbcadd4d8	-0.021219656
157	0x3c2bc9b2	0.0104851
158	0xbd4bc173	-0.049745034
159	0x3d8b6b4b	0.06807574
160	0x3d3f9a28	0.046777874
161	0x3db0f7c7	0.0864101
162	0xbd3b44b6	-0.045719825
163	0xbcd06f09	-0.02544357
164	0x3c8b4498	0.017000481
165	0xbd07f61a	-0.033193685
166	0xbdc2044b	-0.09473475
167	0xbd852aec	-0.06502327
168	0x3b3d15fe	0.002885222
169	0x3ddf1f20	0.108946085
170	0xbd94daee	-0.0726832
171	0xbd87214e	-0.06598149
172	0xbd60329e	-0.054735772
173	0x3cfada07	0.030621542
174	0xbcc1e722	-0.023669783
175	0xbcc20b31	-0.023686977
176	0xbdd2d09d	-0.10293696
177	0x3c8ebabc	0.017423026
178	0xbcd757d4	-0.026286997
179	0xbb024926	-0.0019880026
180	0xbda0596d	-0.078295566
181	0x3d0e33a0	0.034717202
182	0x3d437346	0.047717355
183	0x3d908d99	0.070582576
184	0x3d67f2f7	0.056628194
185	0x3dc64044	0.096802264
186	0x3cc1bfa0	0.023650944
187	0xbd2f38f5	-0.042778928
188	0x3cffd3c1	0.031228902
189	0xbc07d17b	-0.00828969
190	0xbbaf4246	-0.0053484766
191	0x3e1233a0	0.14277506
192	0xbe10637c	-0.1410045
193	0x3d62a110	0.055329382
194	0x3cdc49bb	0.026890626
195	0xbc0109e5	-0.007875894
196	0xbdbe9934	-0.09306565
197	0x3dfed565	0.124430455
198	0x3d3cee92	0.046125956
199	0xbd8c6ca8	-0.06856662
200	0x3df7b3bc	0.120948285
201	0xbdeb16df	-0.11478972
202	0xbda465d2	-0.08027233
203	0xbcb6393f	-0.022244094
204	0x3d74b0b0	0.059738815
205	0x3dba7de0	0.0910604
206	0x3dda2484	0.10651496
207	0xbc9a6713	-0.018847978
208	0x3daaa355	0.08331934
209	0xbcf9798a	-0.030453462
210	0xbdefe751	-0.11714042
211	0xbc8ac4f7	-0.016939623
212	0xbdd1ac5b	-0.10237952
213	0xbd161543	-0.03664137
214	0x3c9c734e	0.01909795
215	0xbb4e4c21	-0.0031478482
216	0x3dd9681d	0.10615561
217	0xbda9380a	-0.08262642
218	0xbdacb8e2	-0.08433701
219	0x3dbbe508	0.091745436
220	0xbd781eb4	-0.060576156
221	0xbe03e34e	-0.12879679
222	0x3e1db49b	0.15400927
223	0x3d65f54f	0.056142148
224	0xbcbd7a24	-0.02312953
225	0xbc259158	-0.010105453
226	0x3def4fc3	0.11685135
227	0xbd07c28d	-0.033144522
228	0xbdbdb302	-0.09262659
229	0xbc32428f	-0.010880127
230	0xbd6fc626	-0.05853858
231	0x3e1eb9ec	0.15500611
232	0xbdebf1a1	-0.115206964
233	0x3dca062f	0.09864461
234	0xbc592f28	-0.013255872
235	0xbd96201f	-0.07330345
236	0xbded4ca8	-0.11586887
237	0xbdeb665c	-0.11494133
238	0x3a58f6dc	0.0008276531
239	0x3d8f0f61	0.06985355
240	0xbd10fc1f	-0.03539669
241	0xbd6156e5	-0.05501451
242	0xbd7b53cf	-0.061359223
243	0x3d91fd8b	0.071284376
244	0x3dd7c4cc	0.10535583
245	0x3d8d37d9	0.06895418
246	0xbda128e9	-0.07869131
247	0xbccd4b5f	-0.025060354
248	0xbd65fbab	-0.056148212
249	0xbd375151	-0.044755284
250	0x3c127344	0.008938614
251	0x3d6658e8	0.05623713
252	0xbd939bd6	-0.07207458
253	0x3b79e352	0.0038129878
254	0xbdf8b1e6	-0.121433064
255	0x3d7b5d59	0.06136832

encoder.linear_log_var.bias f4 [12]
0	0x3b055750	0.0020346232
1	0xbb1b470f	-0.0023693477
2	0x3799f8ac	1.8354818e-05
3	0xbaa9537d	-0.0012918558
4	0x3a2cd212	0.0006592582
5	0x3b009df0	0.0019625388
6	0xbb8f1b1b	-0.004367245
7	0xbb2d5657	-0.0026449168
8	0x3b69d7d9	0.0035681634
9	0xba217d61	-0.00061603455
10	0xb8dae1c5	-0.00010437103
11	0xba828c86	-0.0009960092
