model/CVAE.pth (torch, 85494 bytes, 14 tensors)

encoder.MLP.L0.weight f4 [128, 12]
0.0051774085 0.15254843 -0.24191257 -0.21733467 -0.116274014 0.06862828 -0.03727972 0.20922647
-0.028484965 0.07970279 -0.079996474 -0.028641816 -0.28200945 -0.20222996 -0.13037153 -0.0004672608
0.10338876 0.16342875 -0.18805477 -0.10692607 0.087345555 0.23634203 -0.060595658 0.20752409
0.0020792654 0.0804877 0.3078606 -0.2238839 -0.14004396 -0.041642617 -0.067220695 0.2501888
-0.13688032 -0.10128716 -0.1762153 -0.23164645 -0.18970548 0.23967072 0.121935196 0.13505599
0.013051867 -0.1506581 0.027623378 -0.2400452 -0.21716286 -0.15709074 0.17185357 0.15339498
-0.14354877 -0.038740166 0.15508048 0.25633478 0.08379382 0.006904037 0.19277589 -0.12116461
0.020774739 -0.25801393 -0.23335688 -0.12745127 0.13069353 0.112272725 -0.1749574 0.08402557
0.15579438 -0.040036846 -0.011331935 0.043259602 0.16571714 0.258271 -0.24132425 -0.12291133
0.1061572 0.23187284 0.24459918 0.24844816 0.051000416 -0.25579396 0.012127215 -0.17842975
-0.26347947 0.26974124 0.23190065 -0.2801377 0.085125595 -0.005870386 -0.006655342 -0.092098735
0.14921245 -0.12872203 0.14754304 0.117649734 0.23027116 0.10951188 -0.28016707 -0.14928511
0.14839824 0.069679216 -0.21223569 -0.15219331 0.28621334 0.20561744 -0.111900225 -0.068578966
-0.2553915 0.009398048 -0.21147357 -0.23815884 -0.02379039 0.029607827 -0.13227996 0.15600787
-0.19270125 0.2475024 0.1854943 -0.22274557 -0.079340495 0.0071843755 0.038593758 0.07600272
0.14448045 0.032368165 -0.1288736 0.14378421 -0.27000338 -0.17103294 -0.06974169 -0.10305051
-0.050873786 -0.20549908 -0.025764734 0.059494138 -0.16751409 -0.04154321 0.17735778 -0.06025571
-0.0241572 -0.055951033 0.08110288 0.16898058 0.24945891 0.16041835 0.25102764 -0.023269633
-0.24501479 -0.1263157 0.20558377 0.006641851 -0.13528606 -0.21438514 -0.25711992 -0.24393335
-0.01991373 0.14653403 0.14266475 -0.27128714 0.17615952 -0.22896977 -0.06201629 -0.11394116
-0.051397767 -0.052846506 -0.26222312 -0.23456217 -0.049662877 0.005928918 -0.123148635 0.085873574
-0.2517736 -0.027827442 0.24331842 -0.12610808 0.2560738 0.096457124 -0.25783718 0.19906247
-0.08923632 -0.16552263 0.19561227 -0.22502269 0.025294872 -0.072825074 0.19389409 0.0672115
0.124086656 0.0882043 -0.092404716 -0.07373036 -0.23731934 0.1695284 0.24313815 0.17573623
-0.18229353 0.02632162 -0.19329134 -0.14996369 -0.15960099 0.10802308 -0.1474354 -0.020304536
0.0064645144 0.16925213 -0.23439921 -0.16867864 -0.18023892 0.17060696 -0.13654728 0.21021864
0.07118654 0.00044679982 -0.03915787 -0.03873711 0.006882829 -0.109466515 -0.05016362 -0.005782591
-0.14948075 -0.120900676 0.25552684 -0.21575643 -0.0052060755 0.29796082 0.13788915 -0.024404634
-0.22531864 0.122920536 -0.22184433 -0.09371633 -0.097193204 -0.06081981 -0.015971623 0.21753012
0.014437238 0.2342991 0.15530114 -0.16151258 0.12379068 -0.20890638 -0.13820644 0.068585366
0.09204658 0.20855904 -0.10088777 -0.011287502 0.13310137 -0.2935919 0.19977097 -0.23086707
0.011283864 -0.040812805 -0.1368312 0.059278626 0.27193272 -0.057452958 -0.15191397 -0.090225
00000000: 40a7 a93b a835 1c3e eeb7 77be fb8c 5ebe
00000010: 1221 eebd fc8c 8c3d 9fb2 18bd 773f 563e
00000020: 4d59 e9bc 373b a33d 31d5 a3bd 3ea2 eabc
00000030: 8b63 90be 5f15 4fbe 1d80 05be affa f4b9
00000040: 7cbd d33d de59 273e 6e91 40be 0efc dabd
00000050: 3ae2 b23d a503 723e 2733 78bd 3281 543e
00000060: 4944 083b bcd6 a43d e89f 9d3e d241 65be
00000070: af67 0fbe 7391 2abd 01ab 89bd bf18 803e
00000080: 5b2a 0cbe a46f cfbd c971 34be ba34 6dbe
00000090: 2742 42be 3e6c 753e 29b9 f93d 1e4c 0a3e
000000a0: 7fd7 553c 1e46 1abe 6c4a e23c 69ce 75be
000000b0: f15f 5ebe 65dc 20be 62fa 2f3e 9313 1d3e
000000c0: 73fe 12be 02ae 1ebd 6bcd 1e3e 503e 833e
000000d0: 189c ab3d 433b e23b 0b67 453e 2725 f8bd
000000e0: c92f aa3c 671a 84be 1bf5 6ebe 9682 02be
000000f0: 86d4 053e 3eef e53d 0828 33be 9915 ac3d
00000100: 9088 1f3e adfd 23bd 95a9 39bc fb30 313d
00000110: c1b1 293e 193c 843e b41d 77be efb8 fbbd
00000120: f268 d93d 1370 6d3e 3578 7a3e 3269 7e3e
00000130: d0e5 503d 6df7 82be 3ab1 463c 4ab6 36be
00000140: c8e6 86be 861b 8a3e 5d77 6d3e 356e 8fbe
00000150: 5456 ae3d 5e5c c0bb 0e15 dabb 439e bcbd
00000160: 26cb 183e b5cf 03be 8615 173e 58f2 f03d
00000170: 34cc 6b3e c447 e03d 0f72 8fbe 32de 18be
00000180: b5f5 173e fab3 8e3d 5054 59be 90d8 1bbe
00000190: 8e8a 923e 618d 523e f22b e5bd 2173 8cbd
000001a0: adc2 82be 45fa 193c 878c 58be e9df 73be
000001b0: 10e4 c2bc 1d8c f23c 6674 07be 87c0 1f3e
000001c0: 7a53 45be 4571 7d3e 38f2 3d3e 6a17 64be
000001d0: 457d a2bd e96a eb3b 7d14 1e3d 50a7 9b3d
000001e0: aff2 133e 7b94 043d 71f7 03be 2b3c 133e
000001f0: e23d 8abe 4223 2fbe bbd4 8ebd 250c d3bd
00000200: 0861 50bd 5a6e 52be 9010 d3bc 20b0 733d
00000210: d088 2bbe 3729 2abd 479d 353e b1ce 76bd
00000220: 52e5 c5bc e92c 65bd 4419 a63d 3f09 2d3e
00000230: 2872 7f3e b544 243e b286 803e f59f bebc
00000240: 28e5 7abe e758 01be 8d84 523e e2a3 d93b
00000250: 6e88 0abe c787 5bbe 39a5 83be aac9 79be
00000260: 1e22 a3bc 040d 163e b516 123e 26e6 8abe
00000270: 2963 343e 0d77 6abe cb04 7ebd fc59 e9bd
00000280: 7786 52bd 9475 58bd 1c42 86be 1131 70be
00000290: 4d6b 4bbd 5e47 c23b 5a35 fcbd 7cde af3d
000002a0: 78e8 80be 60f6 e3bc 7728 793e 7a22 01be
000002b0: 1b1c 833e 508b c53d 3c03 84be 08d7 4b3e
000002c0: 88c1 b6bd c47e 29be 954e 483e 596c 66be
000002d0: 3137 cf3c 5025 95bd 2c8c 463e 2fa6 893d
000002e0: 2521 fe3d 75a4 b43d af3e bdbd f1ff 96bd
000002f0: d703 73be da98 2d3e 35f9 783e 33f4 333e
00000300: 28ab 3abe 70a0 d73c 2aee 45be 1590 19be
00000310: 716e 23be 343b dd3d 4ef9 16be b355 a6bc
00000320: 47d4 d33b 6e50 2d3e 5906 70be 18ba 2cbe
00000330: 8d90 38be 97b3 2e3e 0dd3 0bbe 8e43 573e
00000340: 40ca 913d 7540 ea39 0164 20bd ceaa 1ebd
00000350: 5b89 e13b fb2f e0bd 5e78 4dbd e47b bdbb
00000360: 7b11 19be c69a f7bd 6ad4 823e 41ef 5cbe
00000370: ba97 aabb 528e 983e d032 0d3e 3aec c7bc
00000380: eeb9 66be c3bd fb3d 292b 63be 59ee bfbd
00000390: 3b0d c7bd 311e 79bd ecd6 82bc 37c0 5e3e
000003a0: 2a8a 6c3c 1aec 6f3e 4307 1f3e 8e63 25be
000003b0: f885 fd3d 8eeb 55be fd85 0dbe 7c76 8c3d
000003c0: eb82 bc3d 8090 553e 3f9e cebd 37ef 38bc
000003d0: ba4b 083e ad51 96be c390 4c3e 6b68 6cbe
000003e0: f5df 383c 542b 27bd 7a1d 0cbe 25ce 723d
000003f0: c43a 8b3e cb53 6bbd 568f 1bbe e3c7 b8bd

encoder.MLP.L0.bias f4 [128]
-0.08612096 0.08491184 0.12012452 -0.034519285 0.24010666 -0.2066488 0.11001314 0.28750342
-0.042861 0.20010047 0.020864565 -0.24676399 -0.16174406 0.08671447 -0.18405542 0.10913063
0.28605634 0.0961202 -0.034461163 0.06465685 -0.16312823 -0.24668202 -0.23899272 -0.23317736
0.048239052 0.06192891 -0.16288012 -0.29788056 0.11811598 -0.16695699 -0.091457725 -0.26823974
-0.17756496 0.08964828 -0.3137759 -0.14570484 0.16695964 -0.17681077 -0.11105327 -0.12418195
0.1618996 -0.21491887 0.020738011 0.12592947 -0.04347477 0.05800814 -0.2254519 0.098881096
0.089182466 -0.020297289 -0.23034902 0.09194101 0.19871043 -0.05844756 0.13722193 0.12304151
-0.154056 -0.037293106 0.32924908 0.0021861724 -0.23591436 -0.028194835 0.10131807 -0.074512765
-0.19022119 0.24660091 0.1490166 -0.021930574 -0.0049924515 -0.03384514 0.04256967 0.0038766481
-0.1582606 0.034462735 0.02087201 0.0019958515 -0.09930767 0.06800443 -0.24165148 0.089092724
0.18972588 -0.07601699 -0.229448 -0.025303697 -0.020907516 -0.25909096 -0.2094417 0.23444308
0.18682648 0.15820605 0.18593158 0.10243539 0.16388057 0.1956046 -0.112105556 -0.012416958
0.19122404 -0.00064723263 -0.20341238 -0.2248546 0.21037903 0.24543793 0.20091204 0.046128213
0.221156 -0.28271437 -0.22625245 -0.26095915 0.19679786 -0.009590809 -0.1611715 0.05906404
-0.10355321 -0.19507113 0.12630484 0.021608556 -0.22645395 -0.19666968 0.13013946 0.21661966
0.04182019 -0.14558952 0.12503944 0.007854184 -0.2556635 -0.21328263 0.06884664 0.18982114
00000000: 3060 b0bd 42e6 ad3d d803 f63d 1864 0dbd
00000010: 85de 753e be9b 53be 924e e13d a633 933e
00000020: 048f 2fbd 23e7 4c3e 2aec aa3c b3af 7cbe
00000030: 3ca0 25be 5b97 b13d 0679 3cbe e17f df3d
00000040: fa75 923e abda c43d 2627 0dbd d06a 843d
00000050: 160b 27be 369a 7cbe 82ba 74be 0cc6 6ebe
00000060: 5096 453d 2ba9 7d3d 0cca 26be cd83 98be
00000070: cae6 f13d c6f6 2abe 304e bbbd b856 89be
00000080: 97d3 35be 8499 b73d 3ca7 a0be a633 15be
00000090: 78f7 2a3e e20d 35be e66f e3bd 1b53 febd
000000a0: 02c9 253e b113 5cbe c3e2 a93c a8f3 003e
000000b0: 9a12 32bd f299 6d3d dddc 66be 2c82 ca3d
000000c0: 4ca5 b63d 8046 a6bc 9de0 6bbe 914b bc3d
000000d0: bf7a 4b3e b566 6fbd e883 0c3e 30fd fb3d
000000e0: dbc0 1dbe a8c0 18bd 5693 a83e e345 0f3b
000000f0: 8993 71be dbf8 e6bc d97f cf3d 269a 98bd
00000100: 58c9 42be f384 7c3e cf97 183e bfa7 b3bc
00000110: b897 a3bb 34a1 0abd 895d 2e3d 5d0f 7e3b
00000120: 110f 22be cc28 0d3d c7fb aa3c d5cc 023b
00000130: d261 cbbd e845 8b3d 7c73 77be 3f76 b63d
00000140: 8047 423e ccae 9bbd 6bf4 6abe b349 cfbc
00000150: 3d46 abbc 92a7 84be e377 56be d911 703e
00000160: 714f 3f3e c400 223e d964 3e3e a5c9 d13d
00000170: 4fd0 273e 924c 483e 9997 e5bd 7f70 4bbc
00000180: 3cd0 433e 0cab 29ba 564b 50be 4940 66be
00000190: 9a6d 573e 1554 7b3e e3bb 4d3e f0f0 3c3d
000001a0: b876 623e f0bf 90be b9ae 67be 709c 85be
000001b0: 6185 493e c522 1dbc 240a 25be 23ed 713d
000001c0: b513 d4bd bac0 47be 0e56 013e 6d04 b13c
000001d0: 8be3 67be c763 49be 4743 053e 8bd1 5d3e
000001e0: a64b 2b3d 6b15 15be 570a 003e d6ae 003c
000001f0: 54e6 82be c366 5abe 78ff 8c3d 7960 423e

encoder.MLP.L1.weight f4 [64, 128]
-0.023268119 0.0403881 -0.048187893 0.0650989 0.045318402 0.0046231006 0.022212228 0.011658274
-0.039901152 -0.020683236 0.017977789 -0.027070148 0.07004894 -0.034896128 -0.08040202 -0.059200034
-0.0501791 0.05892334 -0.046740774 -0.08076657 -0.032575104 -0.06231041 -0.03952938 0.06351925
-0.06992773 0.040048968 0.042483483 -0.02023074 0.016044533 -0.061658647 0.054432984 0.06859076
-0.0042900015 0.061441615 -0.08940336 -0.027584592 -0.0014973619 -0.08996827 0.058352735 -0.04648697
-0.050550953 -0.079080895 0.024661819 -0.077114426 -0.008302607 0.061562266 0.050652325 0.0025841699
-0.012729646 -0.05864637 0.018390749 -0.0006096223 0.05479027 0.01817564 0.065313704 -0.08228154
0.057168856 -0.05122736 -0.03705287 -0.00870155 -0.030239923 0.018062873 0.055307977 -0.04028508
0.028296985 -0.09384384 -0.007805913 0.049989194 0.045882378 0.08227766 0.029830659 0.015932497
0.010391117 -0.046585802 0.059483793 0.023453306 -0.09923522 0.056332704 0.005664301 -0.018010091
-0.03284133 -0.038370125 7.179627e-05 -0.023665905 -0.096843235 -0.052886486 0.007639838 0.04571021
0.046067033 -0.07509899 -0.026884085 -0.029734211 -0.022188839 -0.011401287 -0.024080833 0.07521284
-0.04404658 0.010544484 -0.064222634 -0.039886422 0.06032381 -0.027115837 -0.019358644 0.07092968
0.005110102 -0.053035796 -0.07055314 -0.03965857 -0.04042633 0.032573033 -0.021935677 0.055909783
-0.054168895 -0.03382178 0.032947954 0.049291894 0.055069283 0.0010316684 0.0027405624 -0.044714656
0.046903964 -0.038222086 -0.03428539 -0.08395328 -0.0966974 0.07519704 -0.012696578 0.044904944
0.03989267 0.049555484 0.010026979 -0.030464515 0.028875956 0.027686475 0.014575744 -0.027198823
-0.01147712 -0.010737539 -0.07166627 0.017421577 -0.07372212 0.040349986 -0.072613485 -0.03458295
-0.049240205 0.058429588 -0.12131128 0.03191066 0.06367509 0.057155844 0.0020974388 0.031702135
0.048699886 -0.0384395 0.025962308 -0.07060236 -0.03289013 0.0062339026 -0.009899306 -0.02180299
-0.09173524 -0.024856985 0.02730094 0.07565147 -0.027462283 0.04789618 -0.09196719 -0.10320029
-0.084223546 -0.058038633 0.012105791 -0.08914615 0.08483915 0.024570107 0.02887539 0.060379475
-0.050734382 -0.03427717 -0.026949368 -0.009228955 -0.07956902 -0.07425518 0.036582585 0.005074784
0.07557426 -0.05469147 0.024035191 -0.043114167 0.039392874 -0.015854618 0.06306246 0.06875702
0.049011823 0.053383566 -0.019391803 0.07128661 -0.06979276 0.0639464 0.07876372 0.07258551
-0.027746348 -0.05988878 -0.0045460467 0.020559562 0.03907877 0.026368413 0.07212295 -0.060343243
-0.034413494 0.010459574 0.018345965 -0.062900655 0.00703087 -0.071663536 -0.032968305 -0.04520682
0.05983482 -0.088278614 -0.058843367 -0.0905963 0.009299762 -0.08131109 -0.0039337697 -0.09426104
-0.0829736 -0.065321594 0.0075441673 0.06542992 0.04653259 -0.020061806 -0.099857785 -0.009103388
-0.0381493 -0.021626633 -0.0039657876 0.046774846 0.017369697 -0.008436933 -0.033068523 -0.011012683
0.008550334 -0.056980357 -0.009746084 -0.013509252 -0.074346304 0.052984018 -0.0164685 -0.07869671
0.06530616 -0.039481077 0.013944116 0.074483156 0.002692477 0.019938057 0.028551426 0.04915437
00000000: c89c bebc fe6d 253d ab60 45bd 9252 853d
00000010: ca9f 393d 617d 973b 6bf6 b53c 5802 3f3c
00000020: 646f 23bd e46f a9bc 2846 933c 37c2 ddbc
00000030: d275 8f3d 3eef 0ebd d0a9 a4bd bc7b 72bd
00000040: 9a88 4dbd 9a59 713d 4173 3fbd f268 a5bd
00000050: 796d 05bd 3339 7fbd 8fe9 21bd 6116 823d
00000060: 4536 8fbd 630a 243d 2903 2e3d f0ba a5bc
00000070: d36f 833c c78d 7cbd 1ff5 5e3d 5079 8c3d
00000080: 2493 8cbb 34aa 7b3d 1c19 b7bd 15f9 e1bc
00000090: 2143 c4ba 4941 b8bd 4703 6f3d 1f69 3ebd
000000a0: 840e 4fbd 2af5 a1bd 9507 ca3c 2bee 9dbd
000000b0: a807 08bc b728 7c3d d078 4f3d 2d5b 293b
000000c0: 0190 50bc 2d37 70bd 32a8 963c 0fcf 1fba
000000d0: c36b 603d 14e5 943c 31c3 853d 3983 a8bd
000000e0: e429 6a3d c8d3 51bd c0c4 17bd f290 0ebc
000000f0: b7b9 f7bc 97f8 933c 9e8a 623d f801 25bd
00000100: 14cf e73c 3331 c0bd bfc8 ffbb 78c1 4c3d
00000110: 29ef 3b3d 3181 a83d 6d5f f43c de84 823c
00000120: 813f 2a3c c1d0 3ebd 47a5 733d 2621 c03c
00000130: d63b cbbd 1fbd 663d 9a9b b93b e689 93bc
00000140: a184 06bd fe29 1dbd 5491 9638 00df c1bc
00000150: bf55 c6bd 809f 58bd 9b57 fa3b a13a 3b3d
00000160: c9b0 3c3d 80cd 99bd 033c dcbc 2995 f3bc
00000170: 5ec5 b5bc 77cc 3abc 2b45 c5bc 3109 9a3d
00000180: 306a 34bd c5c2 2c3c 2887 83bd f25f 23bd
00000190: 1916 773d 0822 debc 0596 9ebc 9443 913d
000001a0: a472 a73b 103c 59bd 2a7e 90bd 0671 22bd
000001b0: 1496 25bd 4d6b 053d 73b2 b3bc a801 653d
000001c0: 34e0 5dbd b588 0abd 6ff4 063d 4ce6 493d
000001d0: 5490 613d 0c39 873a 029b 333b b726 37bd
000001e0: 5f1e 403d c38e 1cbd d66e 0cbd b2ef abbd
000001f0: 4909 c6bd e800 9a3d 4f05 50bc 3fee 373d
00000200: 7f66 233d b1fa 4a3d 3348 243c b890 f9bc
00000210: 458d ec3c bfce e23c 1acf 6e3c 11d0 debc
00000220: 880a 3cbc 81ec 2fbc c4c5 92bd b2b7 8e3c
00000230: 9ffb 96bd 0746 253d 61b6 94bd daa6 0dbd
00000240: 19b0 49bd dd53 6f3d 0c72 f8bd c1b4 023d
00000250: 1668 823d 3f1c 6a3d 2f75 093b 19da 013d
00000260: 8879 473d bd72 1dbd e8ae d43c f897 90bd
00000270: cdb7 06bd c445 cc3b b330 22bc 2f9c b2bc
00000280: afdf bbbd e0a0 cbbc 39a6 df3c 28ef 9a3d
00000290: 95f8 e0bc c92e 443d 4b59 bcbd ac5a d3bd
000002a0: 657d acbd ebb9 6dbd 5e57 463c 4292 b6bd
000002b0: 26c0 ad3d 4047 c93c 158c ec3c 7850 773d
000002c0: dbce 4fbd 3866 0cbd ecc4 dcbc 0b35 17bc
000002d0: 15f5 a2bd 1a13 98bd 9fd7 153d 604a a63b
000002e0: adc6 9a3d 2a04 60bd 73e5 c43c 7b98 30bd
000002f0: 6c5a 213d 8be1 81bc e426 813d 7bd0 8c3d
00000300: 9fc0 483d baa8 5a3d 8fdb 9ebc b7fe 913d
00000310: 82ef 8ebd 55f6 823d e04e a13d b6a7 943d
00000320: 4f4c e3bc f04d 75bd 01f7 94bb 876c a83c
00000330: 0f11 203d 9202 d83c 32b5 933d 7a2a 77bd
00000340: 2af5 0cbd a25e 2b3c 474a 963c 0fd2 80bd
00000350: 3663 e63b 55c4 92bd c609 07bd c92a 39bd
00000360: 5b15 753d 6bcb b4bd be05 71bd 8e8a b9bd
00000370: 075e 183c 6e86 a6bd dae6 80bb ef0b c1bd
00000380: 10ee a9bd 54c7 85bd 1035 f73b 1f00 863d
00000390: f598 3e3d a858 a4bc 3d82 ccbd 6026 15bc
000003a0: 7142 1cbd 562a b1bc 70f3 81bb fb96 3f3d
000003b0: e54a 8e3c 103b 0abc dc72 07bd 8a6e 34bc
000003c0: b316 0c3c 3c64 69bd 0aae 1fbc e955 5dbc
000003d0: e042 98bd c505 593d f3e8 86bc be2b a1bd
000003e0: 3cbf 853d e9b6 21bd dd75 643c a08a 983d
000003f0: 4574 303b 2355 a33c aee4 e93c 1856 493d

encoder.MLP.L1.bias f4 [64]
-0.04139814 -0.047908306 -0.10420477 0.01595382 -0.045047004 -0.07632788 0.005262324 -0.029025089
0.005183909 -0.015420402 0.016683508 0.05848393 -0.08481673 -0.048872888 0.08666114 -0.010035909
-0.02652002 0.04015639 0.063039616 0.017767405 -0.085507594 0.078897536 -0.08001677 -0.093753055
0.0024603673 0.0059168297 -0.08759813 0.055232726 -0.012843213 -0.062009025 0.06678812 0.073631845
-0.030224966 0.057986036 0.036876597 0.015997212 -0.037814107 -0.077945895 -0.02078119 -0.04304611
-0.08329192 -0.09262838 -0.040122747 -0.027778165 -0.050603826 -0.082640715 -0.025636667 -0.04898658
-0.05388185 0.02872675 0.03188098 0.040782508 0.07227151 -0.011994563 -0.065815635 -0.026720518
0.00048052473 -0.00034605342 0.054491907 0.032631982 -0.076131284 -0.00019573684 0.025292484 0.012500602
00000000: 1991 29bd 803b 44bd 4f69 d5bd 96b1 823c
00000010: 3583 38bd cb51 9cbd 936f ac3b 06c6 edbc
00000020: c8dd a93b dba5 7cbc daab 883c d88c 6f3d
00000030: 65b4 adbd f02e 48bd 657b b13d a76d 24bc
00000040: 8340 d9bc 077b 243d ea1a 813d f38c 913c
00000050: 9b1e afbd 0895 a13d d5df a3bd 9a01 c0bd
00000060: 1d3e 213b f7e1 c13b a666 b3bd b63b 623d
00000070: 576c 52bc 2dfd 7dbd 36c8 883d 4bcc 963d
00000080: 599a f7bc c482 6d3d ea0b 173d 960c 833c
00000090: f7e2 1abd 19a2 9fbd 503d aabc 1e51 30bd
000000a0: f494 aabd f3b3 bdbd c057 24bd 098f e3bc
000000b0: f545 4fbd 893f a9bd fd03 d2bc 27a6 48bd
000000c0: 37b3 5cbd 5c54 eb3c a195 023d 8f0b 273d
000000d0: 1603 943d d884 44bc 59ca 86bd fde4 dabc
000000e0: f0ee fb39 816e b5b9 e832 5f3d 1da9 053d
000000f0: b8ea 9bbd b53e 4db9 2f32 cf3c 53cf 4c3c

encoder.linear_means.weight f4 [4, 64]
-0.072305255 0.09854735 -0.038511384 0.052965358 -0.055719454 0.036299665 -0.037319288 -0.06774913
-0.113088764 0.045643684 0.030638745 0.036027867 -0.051555946 0.019989152 -0.051119357 0.041191474
0.099520534 -0.07903496 0.056973867 -0.07973861 0.005107915 -0.033181407 0.05102256 -0.09929572
0.0618593 0.00798226 -0.09024413 -0.09724304 0.05262782 -0.08340403 0.010714845 -0.033467244
-0.1083914 0.040056024 -0.041258465 -0.057016037 0.020691087 0.048510116 0.07128078 0.11274537
0.017497394 -0.029747652 0.043196503 0.08604139 -0.08364192 0.06264396 0.061670687 0.054619852
0.0465925 -0.08655381 0.043726217 -0.0031564825 -0.005932516 -0.049572226 0.08764147 -0.03869177
0.002595624 -0.066434 0.08398942 -0.104193814 0.05550092 0.037740424 0.017999155 -0.10678635
-0.0263869 0.002999139 -0.07635854 -0.02919609 -0.020402431 -0.034971282 0.09296875 0.09582927
-0.045640048 0.058146372 0.013633377 0.08394388 -0.089499846 -0.07330554 -0.025041178 0.1299245
0.08333817 -0.0093270205 -0.06475301 -0.04532244 0.02364355 0.039669447 -0.06323776 0.041225955
-0.0017421003 0.067889884 -0.027871331 -0.057565004 0.021711757 0.0138852205 0.07398681 0.119563825
-0.03895465 0.094626956 0.05770981 0.060230944 0.038757168 -0.0093656285 0.019850899 0.01037486
-0.06515682 -0.0318744 0.08561504 0.0302713 0.045496754 0.026244678 0.035949685 -0.076337464
-0.013865463 -0.003360736 -0.020262372 -0.056094307 -0.00011368955 0.007787969 -0.027190363 -0.018113773
-0.02000577 0.005476245 -0.0810909 0.11827362 -0.062148225 0.061687753 -0.057500463 -0.0051774443
-0.0041764886 -0.09439072 0.0192719 -0.08337988 0.053697165 0.057359274 -0.010237064 0.02467989
-0.052562527 0.040063243 -0.11026743 0.11405264 0.0046799923 0.02966902 0.10590249 -0.09007638
-0.060086627 0.029284693 -0.11216989 0.03757179 -0.004785723 -0.0974901 -0.031107843 -0.08547382
0.021164494 0.07521837 0.10879832 -0.10580633 0.052881643 -0.089371294 0.059060313 0.040878184
-0.106777035 -0.06593278 -0.09311313 0.0040620854 0.055798925 -0.08302785 0.00072811724 -0.03548863
0.09652142 -0.10556326 -0.03273912 -3.832029e-06 -0.08921791 0.07912 -0.10563365 -0.030999824
-0.04086158 0.005670202 -0.050190993 0.08717891 -0.09877094 -0.057771787 -0.046066187 -0.106518984
-0.11447966 0.048151016 0.11857939 -0.008573586 -0.038567916 0.05241595 0.061147112 -0.102273926
-0.03575117 0.112575546 0.0296142 -0.10457345 0.0100287795 -0.09028481 -0.08495948 -0.028596956
0.10125373 -0.057681754 0.08702488 -0.07594407 0.007998995 0.11677201 -0.028067201 -0.030676857
-0.05281956 -0.051436845 0.04733792 -0.06863255 -0.070552416 0.08413683 0.09301475 -0.0593552
0.022909772 0.02180653 0.08943131 -0.098858446 -0.08860131 0.06738661 0.019430017 -0.005173883
0.06680821 0.040762883 -0.06902039 0.020451665 0.039058883 -0.008454022 -0.082591824 0.06098021
0.052060828 -0.116924606 -0.06406444 0.002368214 -0.10118048 -0.044041216 0.108398795 0.032052316
0.058138482 0.038557976 0.13524413 0.0581377 0.046151854 0.08844194 -0.032205794 0.09040473
0.026378259 0.07664098 -0.05506829 -0.0706364 0.097668864 -0.048998356 0.049388275 0.10708282
00000000: c714 94bd 31d3 c93d 1dbe 1dbd 34f2 583d
00000010: 153a 64bd f5ae 143d 1cdc 18bd 0ec0 8abd
00000020: 159b e7bd dff4 3a3d 1bfe fa3c f591 133d
00000030: 542c 53bd 4ac0 a33c 8862 51bd 64b8 283d
00000040: 6cd1 cb3d 15dd a1bd 6e5d 693d ff4d a3bd
00000050: 4c60 a73b 3ae9 07bd 08fd 503d 8e5b cbbd
00000060: 2d60 7d3d 06c8 023c ead1 b8bd 5c27 c7bd
00000070: 4590 573d bbcf aabd 518d 2f3c f314 09bd
00000080: 4ffc ddbd c911 243d a3fe 28bd a689 69bd
00000090: 5b80 a93c 8bb2 463d a8fb 913d 0be7 e63d
000000a0: b256 8f3c 59b1 f3bc d1ee 303d 7836 b03d
000000b0: 744c abbd 7a4b 803d 679a 7c3d 11b9 5f3d
000000c0: c7d7 3e3d 2043 b1bd 431a 333d fddc 4ebb
000000d0: 8d65 c2bb 3f0c 4bbd 5f7d b33d 437b 1ebd
000000e0: 581b 2a3b 8d0e 88bd a502 ac3d 9163 d5bd
000000f0: ef54 633d b495 1a3d f772 933c cdb2 dabd
00000100: 5729 d8bc 348d 443b de61 9cbd a32c efbc
00000110: 0023 a7bc 0c3e 0fbd 6666 be3d 2342 c43d
00000120: 0ff1 3abd e42a 6e3d 875e 5f3c c5ea ab3d
00000130: b24b b7bd 3721 96bd 2823 cdbc ee0a 053e
00000140: 34ad aa3d 5cd0 18bc 3a9d 84bd 06a4 39bd
00000150: 1eb0 c13c 6e7c 223d cc82 81bd 8cdc 283d
00000160: 3057 e4ba da09 8b3d 6b52 e4bc 48c9 6bbd
00000170: dbdc b13c d67e 633c 6686 973d e1dd f43d
00000180: e98e 1fbd c7cb c13d 1f61 6c3d b9b4 763d
00000190: d6bf 1e3d 4b72 19bc 5a9e a23c 51fb 293c
000001a0: f070 85bd bb8e 02bd f056 af3d 84fb f73c
000001b0: ce5a 3a3d 14ff d63c fa3f 133d d156 9cbd
000001c0: f82b 63bc cb3f 5cbb 46fd a5bc 25c3 65bd
000001d0: 9d6c eeb8 3832 ff3b 53be debc 5663 94bc
000001e0: 24e3 a3bc 1372 b33b fc12 a6bd 7139 f23d
000001f0: 238f 7ebd 4cac 7c3d 9b85 6bbd 8da7 a9bb
00000200: edda 88bb ec4f c1bd 1be0 9d3c 12c3 aabd
00000210: 8ff1 5b3d 8ff1 6a3d 5cb9 27bc 7b2d ca3c
00000220: ce4b 57bd 5b19 243d e4d3 e1bd 6e94 e93d
00000230: 9f5a 993b 720c f33c 68e3 d83d f779 b8bd
00000240: 651d 76bd 74e6 ef3c 54b9 e5bd e1e4 193d
00000250: 8ed1 9cbb e4a8 c7bd e0d5 febc e60c afbd
00000260: 2961 ad3c 170c 9a3d a7d1 de3d fdb0 d8bd
00000270: 6c9a 583d 4c08 b7bd 3ae9 713d e26f 273d
00000280: ebad dabd c407 87bd 19b2 bebd 3e1b 853b
00000290: 6a8d 643d 810a aabd 1fdf 3e3a 875c 11bd
000002a0: 06ad c53d 8d31 d8bd 7519 06bd e194 80b6
000002b0: e1b7 b6bd ab09 a23d 7556 d8bd 58f3 fdbc
000002c0: 795e 27bd 1acd b93b 1295 4dbd db8a b23d
000002d0: 6b48 cabd 1ca2 6cbd e6af 3cbd a026 dabd
000002e0: 5074 eabd 003a 453d c0d9 f23d 3a78 0cbc
000002f0: 64f9 1dbd 1bb2 563d 6575 7a3d fe74 d1bd
00000300: d26f 12bd 028e e63d 7b99 f23c 9b2a d6bd
00000310: c04f 243c 3ee7 b8bd 3cff adbd 2a44 eabc
00000320: 1e5e cf3d b443 6cbd 1a3a b23d 9188 9bbd
00000330: 370e 033c 2a26 ef3d 30ed e5bc 084e fbbc
00000340: 5359 58bd 71af 52bd 68e5 413d 398f 8cbd
00000350: c97d 90bd ee4f ac3d 847e be3d 701e 73bd
00000360: 46ad bb3c 9ca3 b23c c327 b73d 4c76 cabd
00000370: 9b74 b5bd fe01 8a3d b32b 9f3c ad89 a9bb
00000380: bed2 883d fbf6 263d 905a 8dbd 408a a73c
00000390: 35fc 1f3d bd82 0abc e725 a9bd 62c6 793d
000003a0: bc3d 553d 2b76 efbd 3834 83bd 0a34 1b3b
000003b0: b637 cfbd 9064 34bd 3000 de3d 4a49 033d
000003c0: 9e22 6e3d f8ee 1d3d 707d 0a3e cc21 6e3d
000003d0: ba09 3d3d 0c21 b53d 39ea 03bd 1d26 b93d
000003e0: 3817 d83c f2f5 9c3d 4a8f 61bd d1a9 90bd
000003f0: 9d06 c83d 80b2 48bd 5c4b 4a3d 3d4e db3d

encoder.linear_means.bias f4 [4]
0.011274883 -0.04702885 -0.053410932 -0.031237692
00000000: 49ba 383c 53a1 40bd 6cc5 5abd 30e6 ffbc

encoder.linear_log_var.weight f4 [4, 64]
-0.090263285 0.066817336 -0.012957149 -0.022684697 0.014246659 0.05307429 0.009498645 0.053818353
-0.019523181 0.041689247 0.029639293 0.0264579 0.083223134 0.1358401 0.10060254 -0.04295979
-0.04426215 0.08399618 -0.075519435 0.021021843 -0.017875751 -0.0634205 -0.0466844 0.08403364
-0.0006785664 -0.052709073 0.041537695 0.0044709295 0.046131592 -0.08097807 -0.06018479 0.051381618
0.02989162 -0.078647345 -0.09428097 0.034884762 -0.06916214 -0.054356027 -0.080629446 -0.11328755
-0.03887196 0.0781983 -0.04118204 0.06194606 -0.08338799 -0.039023917 -0.04922108 0.0709637
-0.087187245 -0.057677332 -0.124849334 -0.011762456 0.03860385 0.08777762 0.09685224 -0.058970675
-0.051231302 -0.007337874 0.07286926 0.079443805 0.087194555 -0.017714204 -0.09312153 -0.065749906
0.07260789 -0.07871031 -0.099780284 -0.072899796 -0.039838362 0.053327132 0.09697419 0.060937293
0.06921181 0.034555178 -0.027987337 -0.028311372 -0.038829185 0.0237749 0.10822089 -0.030889932
-0.035411038 0.011250367 -0.056451604 -0.0464997 0.06590835 -0.05378091 -0.007556379 -0.024156481
0.057967797 0.0041325414 -0.04966883 -0.029379865 -0.006764488 0.06004487 0.018385725 0.0056980057
0.07385872 0.025873262 0.061206732 -0.013337648 -0.030604592 -0.11134675 -0.06096138 0.058782335
0.03341952 0.03917337 -0.0051673003 -0.07666817 -0.025692254 0.019881329 -0.1012612 -0.108430766
-0.07964624 0.049381316 0.002815785 -0.025293643 0.069513686 -0.079068355 -0.06287586 -0.020461148
0.07745356 -0.0049589863 -0.08950975 0.07911952 -0.060033225 0.05247469 0.01885206 0.05878683
0.1001774 0.03360306 -0.15704022 0.04144328 0.103651404 -0.027133955 0.084414385 0.044027843
-0.017247932 0.004896153 -0.0052488176 0.07785343 -0.011016063 0.05739364 -0.11184931 -0.05303109
-0.096669 0.020042723 -0.04177873 0.040099543 0.06926584 -0.06433842 0.01471518 -0.09814186
0.00037469898 0.03872813 0.07610807 0.041117523 0.03164834 0.055820905 0.052345943 0.015839042
0.07335051 -0.07547681 -0.007272699 0.03367702 0.02932586 -0.12569834 0.03809673 -0.11337998
0.01887696 -0.042963438 -0.005926482 -0.0561795 -0.08958206 -0.071637414 -0.028616322 0.09777601
-0.06235437 -0.06720059 -0.021253584 -0.07692976 0.012553127 0.07345172 -0.12173198 0.045551028
0.08407774 0.071371526 -0.07019039 0.006278463 0.058960322 -0.091668665 0.049446736 -0.028139424
-0.09390027 -0.03365421 -0.01840344 -0.044340264 -0.040008236 -0.017804643 0.051687595 0.036877397
-0.13548727 -0.0169811 0.022672527 0.08107917 0.040490303 0.06323512 0.037077725 -0.011782862
-0.07192199 -0.052680533 0.044815008 -0.0126095805 0.09923591 -0.08890807 0.08499563 0.07404702
0.03637305 -0.021615554 -0.074153736 0.063581064 -0.11904336 -0.08044103 -0.035525344 0.050905485
-0.03473807 -0.088798 -0.11710144 -0.0067647668 -0.03578406 0.017030623 -0.037835866 0.029652981
-0.024342986 -0.02742741 0.014617725 -0.07777813 -0.0687782 0.025567556 -0.027657581 0.001871859
-0.06215821 0.06163154 0.10796891 0.08545975 0.020381056 -0.07153637 -0.046544936 -0.05806946
-0.023677353 -0.068430625 0.059648585 -0.09474329 0.010626613 0.06762964 -0.087229 -0.03103319
00000000: f5db b8bd 87d7 883d 394a 54bc 42d5 b9bc
00000010: d26a 693c 6d64 593d 34a0 1b3c a270 5c3d
00000020: 14ef 9fbc 58c2 2a3d 1ace f23c 3dbe d83c
00000030: e470 aa3d ab19 0b3e b408 ce3d 9bf6 2fbd
00000040: 3a4c 35bd 3006 ac3d efa9 9abd 0036 ac3c
00000050: 2b70 92bc 9be2 81bd 2438 3fbd d419 ac3d
00000060: d2e1 31ba 78e5 57bd 6e23 2a3d e080 923b
00000070: 7bf4 3c3d d5d7 a5bd 5484 76bd 8875 523d
00000080: 45df f43c dc11 a1bd 6216 c1bd 53e3 0e3d
00000090: e1a4 8dbd 6da4 5ebd 0d21 a5bd 4e03 e8bd
000000a0: 3438 1fbd 6e26 a03d 80ae 28bd 27bb 7d3d
000000b0: 53c7 aabd 8bd7 1fbd 0b9c 49bd 6b55 913d
000000c0: 3a8f b2bd 113f 6cbd 02b1 ffbd 51b7 40bc
000000d0: 121f 1e3d c1c4 b33d 785a c63d 3c8b 71bd
000000e0: ead7 51bd 8c72 f0bb 7b3c 953d 6fb3 a23d
000000f0: 0f93 b23d 611d 91bc 80b6 bebd e3a7 86bd
00000100: 72b3 943d df32 a1bd 9b59 ccbd 7d4c 95bd
00000110: 8d2d 23bd 8d6d 5a3d 679a c63d 6299 793d
00000120: ecbe 8d3d bb89 0d3d b345 e5bc 40ed e7bc
00000130: 5a0b 1fbd 94c3 c23c eaa2 dd3d e20c fdbc
00000140: 2a0b 11bd 7653 383c cc39 67bd 7876 3ebd
00000150: f5fa 863d 5f49 5cbd 809b f7bb d0e3 c5bc
00000160: a46f 6d3d 456a 873b 8b71 4bbd 0bae f0bc
00000170: a3a8 ddbb 9cf1 753d a99d 963c 56b6 ba3b
00000180: 3e43 973d 2af4 d33c e9b3 7a3d 2686 5abc
00000190: 7bb6 fabc c409 e4bd a4b2 79bd bfc5 703d
000001a0: e8e2 083d 4174 203d 7552 a9bb 3404 9dbd
000001b0: 9078 d2bc 2bde a23c 0862 cfbd f310 debd
000001c0: 911d a3bd 1044 4a3d 0889 383b 9d34 cfbc
000001d0: 315d 8e3d 97ee a1bd 0fc5 80bd 239e a7bc
000001e0: f99f 9e3d fe7e a2bb e350 b7bd 6a09 a23d
000001f0: 66e5 75bd b3ef 563d a36f 9a3c 76ca 703d
00000200: cf29 cd3d 5da3 093d 27cf 20be 6ec0 293d
00000210: 3047 d43d 0748 debc 73e1 ac3d 8a56 343d
00000220: 894b 8dbc e96f a03b 46fe abbb 9e71 9f3d
00000230: b87c 34bc 9815 6b3d 4011 e5bd 2137 59bd
00000240: 66fa c5bd a330 a43c 2c20 2bbd 6b3f 243d
00000250: 40db 8d3d ddc3 83bd f017 713c 99fe c8bd
00000260: 3f73 c439 63a1 1e3d 8cde 9b3d d96a 283d
00000270: b1a1 013d 76a4 643d b368 563d e1c0 813c
00000280: cb38 963d 9693 9abd d24f eebb eaf0 093d
00000290: c93c f03c 11b7 00be 510b 1c3d c333 e8bd
000002a0: dba3 9a3c 6efa 2fbd ef32 c2bb 7a1c 66bd
000002b0: cd76 b7bd a3b6 92bd c76c eabc ca3e c83d
000002c0: 4c67 7fbd 77a0 89bd ff1b aebc 5a8d 9dbd
000002d0: a1ab 4d3c db6d 963d 9e4e f9bd b793 3a3d
000002e0: f330 ac3d 3c2b 923d fbbf 8fbd 91bb cd3b
000002f0: 6180 713d c8bc bbbd a988 4a3d a684 e6bc
00000300: c94e c0bd ffd8 09bd d0c2 96bc 239e 35bd
00000310: addf 23bd 0bdb 91bc 5fb6 533d c10c 173d
00000320: 2dbd 0abe f31b 8bbc bcbb b93c d60c a63d
00000330: 29d9 253d 6a81 813d d0de 173d e80c 41bc
00000340: d64b 93bd 8bc7 57bd f18f 373d 6a98 4ebc
00000350: 323c cb3d 6f15 b6bd 3012 ae3d f7a5 973d
00000360: e8fb 143d 1a13 b1bc eadd 97bd ca36 823d
00000370: 01cd f3bd 44be a4bd 0683 11bd 4582 503d
00000380: 8249 0ebd badb b5bd e1d2 efbd faaa ddbb
00000390: 4e92 12bd ce83 8b3c c8f9 1abd cfea f23c
000003a0: f16a c7bc 73af e0bc 2f7f 6f3c 244a 9fbd
000003b0: 96db 8cbd 0d73 d13c 2792 e2bc 2a59 f53a
000003c0: 9b99 7ebd 5b71 7c3d ce1e dd3d 8505 af3d
000003d0: 2cf6 a63c a981 92bd e7a5 3ebd 3eda 6dbd
000003e0: 02f7 c1bc 5b25 8cbd 1352 743d c508 c2bd
000003f0: 3f1b 2e3c 6981 8a3d 1ea5 b2bd 5139 febc

encoder.linear_log_var.bias f4 [4]
0.037590243 -0.0100238165 -0.05087762 0.03725157
00000000: 3af8 193d ef3a 24bc 0d65 50bd 1a95 183d

decoder.MLP.L0.weight f4 [64, 10]
-0.13412727 0.23874974 0.16946428 0.02501193 0.15267134 -0.18874142 0.20649599 -0.4262231
-0.10324371 0.22883202 0.027883524 0.14871353 0.14181419 0.22531348 0.027086934 -0.24063368
-0.3609926 0.250076 0.23920225 0.26803973 -0.059771407 0.08139778 -0.057986505 -0.0015696588
0.43221736 -0.16746974 -0.37865168 0.25618172 -0.41393435 0.07465785 0.087517716 0.12198023
-0.010112314 -0.10193613 0.1328206 -0.07880538 -0.4477964 0.101984434 -0.29702538 0.24166675
-0.13867584 -0.0932831 -0.16001375 0.22246237 0.20144118 0.19602516 0.2546894 -0.14113115
0.37416568 -0.07614514 0.17404146 0.033963796 0.10645699 -0.014125751 0.1549566 -0.020009276
-0.37429866 0.2872969 -0.31168777 -0.14317854 0.19373451 -0.2314688 0.09818866 0.20250702
-0.001765587 -0.34188366 -0.3643057 -0.00199255 -0.099567674 0.17706047 0.15876038 -0.08339306
-0.0707826 -0.12801355 0.02010949 0.21676701 -0.01517169 0.010165133 -0.06612967 -0.25409552
0.20386349 0.03635255 0.088909954 -0.14838357 -0.050719503 -0.095193096 0.38250542 -0.4062435
-0.29894444 0.17308101 0.19654778 0.27533904 0.16773985 0.19126126 -0.29263392 0.020630287
-0.12153831 0.0119353905 0.056716666 0.014328942 -0.14665614 -0.061394565 -0.10581654 -0.04283564
-0.17048176 -0.21680638 -0.33739686 -0.16218556 -0.02818522 -0.17398614 -0.10273642 0.13671516
-0.13208027 0.03870023 0.055148873 -0.072571404 0.364089 -0.50266176 0.067284405 0.15398934
0.19313073 -0.21800359 -0.007720898 0.0019238244 -0.29740864 0.15969868 -0.013627315 0.26875073
-0.16474263 -0.10062101 0.1489465 0.035828993 0.1326677 0.096434884 0.29151163 -0.22730112
0.163711 0.24377362 -0.123216115 -0.14800286 0.18334594 -0.16497818 -0.21106493 -0.16790959
0.11002093 -0.01577036 -0.24338998 0.24715106 0.11545617 0.063963994 -0.26196924 -0.18394053
-0.16926219 -0.07294791 -0.38828367 0.109012835 -0.0723671 -0.055807278 0.33028403 0.08706931
0.0363229 -0.07416307 -0.07231515 -0.21357583 -0.2642515 0.24555612 -0.2594031 0.23844738
0.26279357 0.23003918 0.19338022 0.1400474 0.14190651 -0.0058969725 -0.04008433 -0.3169231
0.3516449 -0.01085027 0.10994912 -0.022295285 0.22689888 0.007915532 0.16387545 0.16124912
0.13326038 -0.04837085 0.2583142 -0.19713624 0.26255685 0.23281819 0.051159732 -0.041859567
0.05990089 0.20235825 0.21529888 -0.19718975 -0.1831758 -0.32645056 -0.07764374 -0.23919623
-0.0033903779 0.0004749528 0.19700614 -0.048528254 0.067551196 -0.05573108 -0.15410444 0.008346748
-0.12373979 -0.105993025 -0.01852172 0.025571689 0.0016134722 0.070219465 -0.10542842 0.07998969
-0.31091017 0.2963359 0.30586225 0.04394287 -0.1505191 -0.019854087 -0.16672926 -0.25491327
0.26040614 0.0390463 0.32974488 0.2667804 0.019398434 0.104559764 -0.07281011 -0.23137231
-0.022622488 -0.20393848 0.32826692 -0.23586836 0.40031737 -0.09181576 0.05649893 0.17735851
-0.09781943 -0.010104468 0.061994553 -0.04958798 0.026216054 0.14262782 -0.06640375 0.28066728
-0.18717809 0.061502654 -0.061139733 -0.07689176 0.04143034 0.13367848 -0.19487718 0.20686086
00000000: a958 09be d07a 743e 0b88 2d3e d2e5 cc3c
00000010: e055 1c3e 6e45 41be af73 533e ea39 dabe
00000020: 7071 d3bd f152 6a3e fd6b e43c 5c48 183e
00000030: bd37 113e 94b8 663e 6be5 dd3c ad68 76be
00000040: 06d4 b8be f609 803e 6ff1 743e 813c 893e
00000050: ddd2 74bd e1b3 a63d 4283 6dbd 02bd cdba
00000060: 984b dd3e 307d 2bbe a2de c1be 402a 833e
00000070: 34ef d3be 37e6 983d 7d3c b33d c5d0 f93d
00000080: 1eae 25bc e4c3 d0bd 2002 083e b764 a1bd
00000090: 9245 e5be 37dd d03d b613 98be 7d77 773e
000000a0: 0a01 0ebe 360b bfbd a5da 23be 2dcd 633e
000000b0: 9946 4e3e d2ba 483e a666 823e af84 10be
000000c0: a592 bf3e fcf1 9bbd ed37 323e 9f1d 0b3d
000000d0: 1f06 da3d b26f 67bc f1ac 1e3e 7eea a3bc
000000e0: 13a4 bfbe 9418 933e 8a95 9fbe 659d 12be
000000f0: 5762 463e 2806 6dbe 2317 c93d 005e 4f3e
00000100: 456b e7ba 600b afbe 4786 babe 7195 02bb
00000110: 23ea cbbd 574f 353e 1592 223e fbc9 aabd
00000120: 78f6 90bd fc15 03be a8bc a43c 2cf8 5d3e
00000130: ae92 78bc a88b 263c fe6e 87bd cf18 82be
00000140: 97c1 503e 69e6 143d 6c16 b63d ddf1 17be
00000150: 41bf 4fbd 99f4 c2bd c0d7 c33e 26ff cfbe
00000160: 3f0f 99be 263c 313e d243 493e 3df9 8c3e
00000170: ffc3 2b3e fed9 433e 1dd4 95be d900 a93c
00000180: 14e9 f8bd a88c 433c bc4f 683d f0c3 6a3c
00000190: 072d 16be de78 7bbd 58b6 d8bd 6d74 2fbd
000001a0: c592 2ebe 7e02 5ebe 48bf acbe f913 26be
000001b0: b1e4 e6bc 6c29 32be 7967 d2bd 0fff 0b3e
000001c0: 0d40 07be 2284 1e3d c9e3 613d 51a0 94bd
000001d0: e069 ba3e 71ae 00bf 68cc 893d 62af 1d3e
000001e0: 10c4 453e 553c 5fbe 96ff fcbb d628 fc3a
000001f0: f245 98be 0d88 233e 1a45 5fbc b299 893e
00000200: 4bb2 28be 6312 cebd 6e85 183e 6cc1 123d
00000210: 0bda 073e a77f c53d 0341 953e a0c1 68be
00000220: dba3 273e cb9f 793e bb58 fcbd 108e 17be
00000230: 0abf 3b3e 0af0 28be 6821 58be 7ef0 2bbe
00000240: a752 e13d d830 81bc 393b 79be 2b15 7d3e
00000250: 4974 ec3d 8eff 823d d520 86be e85a 3cbe
00000260: 1153 2dbe b765 95bd 1ecd c6be 1f42 df3d
00000270: 3435 94bd 2c96 64bd fd1a a93e 6551 b23d
00000280: 52c7 143d cfe2 97bd f719 94bd 9fb3 5abe
00000290: f94b 87be 1073 7b3e 7cd0 84be 8d2b 743e
000002a0: e18c 863e 648f 6b3e 7705 463e 9668 0f3e
000002b0: f14f 113e 643b c1bb 772f 24bd bf43 a2be
000002c0: cd0a b43e 55c5 31bc 012d e13d 9aa4 b6bc
000002d0: 2e58 683e 26b0 013c f7ce 273e 7d1e 253e
000002e0: 6975 083e 8320 46bd c241 843e 15de 49be
000002f0: da6d 863e e467 6e3e de8c 513d f074 2bbd
00000300: a35a 753d 0037 4f3e 4f77 5c3e 1cec 49be
00000310: 7092 3bbe 8724 a7be ae03 9fbd dbef 74be
00000320: 1a31 5ebb 1603 f939 fabb 493e 90c5 46bd
00000330: 4858 8a3d 4646 64bd 8ecd 1dbe ccc0 083c
00000340: 496b fdbd df12 d9bd ddba 97bc b87b d13c
00000350: 257b d33a 39cf 8f3d dbea d7bd a2d1 a33d
00000360: 9e2f 9fbe 57b9 973e fa99 9c3e 70fd 333d
00000370: ae21 1abe 0aa5 a2bc 13bb 2abe fe83 82be
00000380: f453 853e 03ef 1f3d 52d4 a83e 7197 883e
00000390: 77e9 9e3c 6e23 d63d 781d 95bd ddec 6cbe
000003a0: cc52 b9bc 40d5 50be 9a12 a83e 7a87 71be
000003b0: 66f6 cc3e e709 bcbd 6c6b 673d 789d 353e
000003c0: 8e55 c8bd 368d 25bc 00ee 7d3d c41c 4bbd
000003d0: 0dc3 d63c 070d 123e b0fe 87bd 9fb3 8f3e
000003e0: 9dab 3fbe 35ea 7b3d a86d 7abd 6d79 9dbd
000003f0: dcb2 293d 03e3 083e e28d 47be 55d3 533e

decoder.MLP.L0.bias f4 [64]
-0.15277155 0.23477055 0.3807708 -0.13962062 -0.06223343 0.10709624 0.012382215 0.39374155
0.4478413 -0.080972016 0.18421656 0.3452823 0.09358827 0.15988994 0.37158784 0.041995954
-0.20878968 -0.37114933 0.23773567 -0.14640321 0.44966757 0.29725614 -0.320417 0.29032758
0.38545856 -0.03426765 0.053384207 -0.17586476 -0.17710452 0.23209846 -0.07775464 -0.05511715
0.04027151 0.2593823 0.09386599 0.086861126 -0.17150348 -0.26233804 0.16984472 0.3040922
0.17323485 -0.04040066 0.1127655 -0.12128065 -0.24655464 0.3933127 0.21253577 0.017131092
0.31752646 -0.13523792 0.10653179 -0.17704357 -0.16816768 -0.024511632 0.12807758 0.24784835
0.10047559 -0.082352355 0.2972814 0.11478586 -0.11360275 -0.16964534 0.24094985 -0.18131068
00000000: 2570 1cbe b167 703e 64f4 c23e b5f8 0ebe
00000010: 7be8 7ebd 4655 db3d c6de 4a3c 7e98 c93e
00000020: 744b e53e a8d4 a5bd 44a3 3c3e d7c8 b03e
00000030: 35ab bf3d 30ba 233e c340 be3e f303 2c3d
00000040: f6cc 55be 4907 bebe fb70 733e b9ea 15be
00000050: d43a e63e f531 983e b20d a4be d1a5 943e
00000060: d35a c53e 3c5c 0cbd 66a9 5a3d e415 34be
00000070: e35a 35be 38ab 6d3e d33d 9fbd 85c2 61bd
00000080: bdf3 243d c2cd 843e d03c c03d 3fe4 b13d
00000090: 9c9e 2fbe 2c51 86be c6eb 2d3e f9b1 9b3e
000000a0: 7a64 313e 2a7b 25bd 99f1 e63d fd61 f8bd
000000b0: d278 7cbe 4860 c93e faa2 593e 8156 8c3c
000000c0: d492 a23e cf7b 0abe 572d da3d e94a 35be
000000d0: 2634 2cbe 9ecc c8bc c526 033e f5cb 7d3e
000000e0: 25c6 cd3d 5aa8 a8bd 4535 983e d914 eb3d
000000f0: 8fa8 e8bd 82b7 2dbe 8fbb 763e 82a9 39be

decoder.MLP.L1.weight f4 [128, 64]
-0.09999907 0.052759368 -0.034172006 -0.06764346 0.04842987 -0.104891814 -0.056949157 0.0864711
0.03801671 -0.07701847 -0.0059038685 0.094226345 -0.08529333 0.045342125 0.04369007 -0.09592485
0.04021486 0.07624495 0.10721732 -0.021155883 -0.032892264 -0.043175496 -0.037920397 0.13906094
-0.047995865 -0.037299737 -0.14862368 0.008236063 -0.08760505 -0.025254333 0.0115972115 -0.009675882
0.039426465 -0.21751827 -0.016845578 0.05145965 -0.017529892 0.030499795 0.13255642 0.026361315
-0.027156655 -0.02094791 -0.090068646 -0.10283184 -0.14751744 -0.021923779 -0.0137668345 0.064159945
-0.026278054 0.110170275 -0.029838592 -0.112999015 -0.00785051 0.05798586 -0.13494362 0.018264307
0.1617964 0.09580102 0.13931291 0.010690259 -0.062005483 0.034257036 0.11714646 0.1120275
0.08736072 -0.052099474 -0.03584252 -0.026808359 0.01822766 -0.1768341 0.021294508 0.015425474
0.1445334 0.023482973 -0.08798378 0.059755072 -0.15485947 0.116397 -0.003951192 -0.08440363
0.038313393 0.097307324 0.0043530026 0.04365977 -0.03704641 -0.13848928 0.09227393 0.039379686
-0.102483004 -0.048486527 -0.13324995 0.059453763 0.09222375 -0.16547066 0.079590835 -0.071263194
0.078354485 -0.08732134 0.04769285 0.1107722 -0.07830336 0.11038943 -0.061481744 -0.051724486
0.054862544 0.03217876 -0.030733002 0.059454173 0.030891938 -0.10238694 -0.017403308 -0.016128039
0.053301945 0.13642791 0.0760082 0.08121987 0.09966473 -0.057264403 -0.052092947 0.07672811
0.06897244 0.06351691 -0.026912259 0.07606859 -0.06361804 -0.09537102 0.027697897 0.07007561
-0.00438288 -0.108218394 0.18996058 -0.13094985 0.03823273 0.033287525 -0.038563114 -0.06788485
0.12509806 0.09628838 -0.08034261 -0.07571922 -0.030312153 -0.049426332 -0.0069111674 0.101083644
-0.025190363 0.14530429 -0.09531198 -0.010720378 0.06374767 -0.034958553 -0.051695652 -0.02942475
0.15515266 0.0017960087 0.021112455 0.10399275 -0.034526482 0.10736244 0.10235725 -0.12616211
0.001069229 -0.0022758683 0.07507231 -0.007358119 -0.016976029 0.038069416 -0.027563741 0.108438864
-0.06378039 -0.13260993 -0.013475765 0.11451414 0.09502365 -0.03447684 0.15098843 -0.061065182
0.12161556 -0.012914543 -0.08713178 0.023805229 0.07279815 0.0397814 -0.051000375 0.038238324
0.08752763 -0.025825173 -0.009155861 0.10059447 -0.0207099 0.049236733 -0.08918055 -0.08642031
-0.006440503 -0.037473064 -0.017830402 -0.02842692 -0.026504453 0.08091125 0.07220716 -0.09282827
0.020762317 0.07600442 0.06691029 -0.07254921 -0.057305463 0.0015294055 0.07193882 0.07177787
-0.10269347 0.09138366 0.12740907 -0.024777504 0.025501948 0.05244302 -0.07499723 -0.11559949
0.17191048 0.10790614 0.035561237 -0.09224758 0.034826614 -0.03750079 0.018227663 0.07103352
0.06802134 0.13715856 0.07364481 0.17818953 -0.017855246 0.0030549096 -0.10769232 0.086766675
0.087010674 -0.024668362 0.11518414 0.13201277 -0.13056998 -0.009495777 -0.066265814 0.06086826
0.020858588 -0.10093276 0.09470276 -0.054494012 0.019675244 0.078600295 0.10026363 0.057313874
-0.062828176 0.02750386 -0.047299758 -0.08607754 -0.022042682 0.06940039 0.07799071 -0.118121624
00000000: 50cc ccbd 351a 583d f2f7 0bbd a888 8abd
00000010: 665e 463d 85d1 d6bd 8543 69bd c317 b13d
00000020: 69b7 1b3d dcbb 9dbd 3d75 c1bb bef9 c03d
00000030: 45ae aebd aab8 393d 5cf4 323d 3f74 c4bd
00000040: 56b8 243d 5026 9c3d c194 db3d 1a4f adbc
00000050: 0aba 06bd cad8 30bd 6b52 1bbd fe65 0e3e
00000060: 5097 44bd 9cc7 18bd ce30 18be 8df0 063c
00000070: 476a b3bd 2de2 cebc 3b02 3e3c 9787 1ebc
00000080: a57d 213d 1cbd 5ebe bdff 89bc 5bc7 523d
00000090: d99a 8fbc b5da f93c dfbc 073e aff3 d73c
000000a0: a277 debc f49a abbc e975 b8bd 8099 d2bd
000000b0: d00e 17be 7f99 b3bc 4a8e 61bc 4a66 833d
000000c0: 1345 d7bc f4a0 e13d 1070 f4bc 076c e7bd
000000d0: 6d9f 00bc 9582 6d3d a92e 0abe 079f 953c
000000e0: f5ad 253e 5333 c43d 0ba8 0e3e 3226 2f3c
000000f0: 76f9 7dbd 1b51 0c3d 7cea ef3d ad6e e53d
00000100: 2dea b23d 4266 55bd 9bcf 12bd 349d dbbc
00000110: 2c52 953c 0014 35be d271 ae3c 21bb 7c3c
00000120: 9000 143e 5d5f c03c d730 b4bd bcc1 743d
00000130: 7b93 1ebe 8d61 ee3d 0079 81bb cfdb acbd
00000140: 81ee 1c3d 1049 c73d a2a3 8e3b 96d4 323d
00000150: fabd 17bd 22d0 0dbe 1dfa bc3d 984c 213d
00000160: 9ce2 d1bd cf99 46bd ad72 08be ca85 733d
00000170: cedf bc3d 2471 29be 8500 a33d 70f2 91bd
00000180: 5178 a03d 88d5 b2bd 9459 433d 89dc e23d
00000190: 835d a0bd da13 e23d 48d4 7bbd 0edd 53bd
000001a0: 8cb7 603d e0cd 033d c7c3 fbbc 3886 733d
000001b0: 1711 fd3c 3eb0 d1bd 6291 8ebc f31e 84bc
000001c0: 2453 5a3d c2b3 0b3e 30aa 9b3d 9a56 a63d
000001d0: 061d cc3d 148e 6abd 6a5f 55bd a123 9d3d
000001e0: 6c41 8d3d 2715 823d 1977 dcbc d9c9 9b3d
000001f0: 2d4a 82bd e251 c3bd b3e6 e23c cd83 8f3d
00000200: 439e 8fbb 9ba1 ddbd 0785 423e b817 06be
00000210: ec99 1c3d 8058 083d 5bf4 1dbd 3607 8bbd
00000220: b519 003e d832 c53d ab8a a4bd ae12 9bbd
00000230: 3151 f8bc 4473 4abd 1377 e2bb f104 cf3d
00000240: 055c cebc a6ca 143e ed32 c3bd 86a4 2fbc
00000250: 238e 823d b330 0fbd d2be 53bd 2c0c f1bc
00000260: 57e0 1e3e 0d68 eb3a 07f4 ac3c 27fa d43d
00000270: a46b 0dbd d7e0 db3d aea0 d13d a430 01be
00000280: 5f25 8c3a bc26 15bb 83bf 993d 601c f1bb
00000290: 5011 8bbc adee 1b3d 5bcd e1bc 3215 de3d
000002a0: 4b9f 82bd e6ca 07be 74c9 5cbc 6486 ea3d
000002b0: c29b c23d 9637 0dbd b69c 1a3e 7c1f 7abd
000002c0: 9411 f93d 8597 53bc 2672 b2bd 2f03 c33c
000002d0: 3217 953d d2f1 223d c5e5 50bd ca9f 1c3d
000002e0: b041 b33d 508f d3bc 7702 16bc 7904 ce3d
000002f0: cfa7 a9bc 75ac 493d 4ba4 b6bd 22fd b0bd
00000300: db0a d3bb 5b7d 19bd 1011 92bc 92df e8bc
00000310: de1f d9bc ccb4 a53d 59e1 933d bf1c bebd
00000320: bc15 aa3c 35a8 9b3d 4308 893d ae94 94bd
00000330: 22b9 6abd 5576 c83a a954 933d 4700 933d
00000340: f450 d2bd 5b27 bb3d 8677 023e 31fa cabc
00000350: 76e9 d03c 7ece 563d 2698 99bd 6dbf ecbd
00000360: 4d09 303e e5fd dc3d a9a8 113d 4dec bcbd
00000370: 5aa6 0e3d 6e9a 19bd 2e52 953c 067a 913d
00000380: c64e 8b3d 4b73 0c3e 17d3 963d 5177 363e
00000390: 2a45 92bc e134 483b cb8d dcbd bab2 b13d
000003a0: a732 b23d 4e15 cabc aae5 eb3d 5b2e 073e
000003b0: 23b4 05be 2d94 1bbc 5fb6 87bd ff50 793d
000003c0: a1df aa3c d6b5 cebd 85f3 c13d 1d35 5fbd
000003d0: fa2d a13c 31f9 a03d 0557 cd3d f4c1 6a3d
000003e0: 0fac 80bd c64f e13c 64bd 41bd 6c49 b0bd
000003f0: db92 b4bc cb21 8e3d 98b9 9f3d c0e9 f1bd

decoder.MLP.L1.bias f4 [128]
-0.10886552 0.11491883 0.15698706 0.17076935 0.116584085 0.023091296 -0.07365899 0.010280247
0.05588836 -0.1409454 0.058372386 0.23855916 -0.06339547 0.09414373 0.12397882 -0.13224022
0.044834334 0.058390774 -0.0049590813 -0.028643312 0.18201363 0.20438963 0.1356808 0.090811335
0.041390616 0.118975654 -0.04126191 -0.1418201 -0.18330601 -0.03264524 -0.029796744 0.14040574
-0.031328186 -0.041996032 0.15435594 -0.19822942 0.055616226 0.14259905 0.024997931 -0.14992493
0.0020241572 -0.08221036 -0.13286483 0.041431535 0.02195062 -0.11636081 0.14689401 0.08142954
0.13405943 0.14336084 -0.0071029877 0.012608318 0.043810893 0.20406471 -0.081364736 0.15812267
0.1884078 0.07092288 -0.0664205 -0.017433466 0.08079332 -0.19235277 0.12131999 0.046385854
-0.03236869 -0.06910964 0.12685798 0.074410394 -0.19201785 -0.024326596 0.053612057 0.12768613
0.1658264 0.030691221 0.038597755 0.013883183 0.03025637 -0.009899288 0.07057636 0.07520356
-0.08504141 0.065907046 0.016370455 0.068142824 -0.026452238 0.16683763 -0.08479546 -0.0240367
0.064026825 -0.027175646 0.046452776 -0.1554251 -0.0037983307 0.05293839 -0.02686524 0.0034916366
0.081446014 0.102071784 0.22554135 -0.05415448 -0.02672068 -0.02669164 -0.010195594 -0.0409646
0.032474574 -0.091472626 0.016382292 0.108800955 -0.012063855 -0.23665659 0.21017598 0.0299536
-0.0803379 0.09834587 -0.27317694 -0.038454764 0.02729227 0.13827144 -0.03004474 0.16792189
0.03281069 -0.06273079 0.040122878 0.005189202 0.054890346 -0.05029257 0.225852 -0.15028514
00000000: e3f4 debd 905a eb3d 37c1 203e 29de 2e3e
00000010: a3c3 ee3d f529 bd3c 86da 96bd 7b6e 283c
00000020: 31eb 643d fe53 10be e217 6f3d da48 743e
00000030: 7cd5 81bd 6ece c03d 9ce8 fd3d fb69 07be
00000040: 35a4 373d 2a2b 6f3d ca7f a2bb 61a5 eabc
00000050: c861 3a3e 844b 513e e8ef 0a3e 4bfb b93d
00000060: 3589 293d 82a9 f33d 4002 29bd 4a39 11be
00000070: 92b4 3bbe 04b7 05bd 4d18 f4bc 86c6 0f3e
00000080: fc51 00bd 0804 2cbd 7c0f 1e3e a7fc 4abe
00000090: d7cd 633d 7c05 123e 76c8 cc3c ec85 19be
000000a0: b9a7 043b e85d a8bd b80d 08be 1db4 293d
000000b0: c9d1 b33c 944e eebd 626b 163e 88c4 a63d
000000c0: e046 093e 2fcd 123e 2ec0 e8bb 1e93 4e3c
000000d0: 0d73 333d 57f6 503e 8ea2 a6bd e9ea 213e
000000e0: f9ed 403e 0440 913d 7907 88bd a1d0 8ebc
000000f0: f876 a53d 20f8 44be 9d76 f83d 18ff 3d3d
00000100: 0895 04bd 5b89 8dbd 0fe7 013e 7a64 983d
00000110: 54a0 44be 9248 c7bc 5198 5b3d 27c0 023e
00000120: 65ce 293e 286c fb3c ae18 1e3d 4a76 633c
00000130: 35dc f73c a030 22bc 578a 903d 5304 9a3d
00000140: 312a aebd 46fa 863d 551b 863c 778e 8b3d
00000150: 5db2 d8bc 7cd7 2a3e 3ea9 adbd 9de8 c4bc
00000160: 7f20 833d 769f debc 4445 3e3d c227 1fbe
00000170: 6aed 78bb edd5 583d 7e14 dcbc f1d3 643b
00000180: 2bcd a63d 030b d13d 50f4 663e 17d1 5dbd
00000190: 54e5 dabc 6da8 dabc 6c0b 27bc 7fca 27bd
000001a0: 0f04 053d 0056 bbbd 2834 863c 09d3 de3d
000001b0: 7aa7 45bc 1b56 72be 5f38 573e 4161 f53c
000001c0: 3288 a4bd 8f69 c93d d9dd 8bbe be82 1dbd
000001d0: 0a94 df3c 0797 0d3e 6320 f6bc b7f3 2b3e
000001e0: 8164 063d 0079 80bd e357 243d 2e0a aa3b
000001f0: b3d4 603d 95ff 4dbd bf45 673e 59e4 19be
