model/CVAE_5000_0.001_64_[12, 256, 128]_6_[128, 256, 6].pth (torch, 302368 bytes, 14 tensors)

encoder.MLP.L0.weight f4 [256, 12]
000000 be 02 8f bc ae 68 45 3e d8 4b 77 be e5 82 5f be
       -0.017457362 0.19278213 -0.24150026 -0.21827276
000010 3b eb f0 bd 64 e9 90 3d 47 66 5e bc de 39 5a 3e
       -0.11763617 0.07075766 -0.0135741895 0.21311137
000020 a0 4c 3b bd e7 11 56 3d f2 68 ea bd 29 33 b4 bd
       -0.045727372 0.052263167 -0.11445798 -0.087988205
000030 d5 e2 9b be c4 cc 14 be d3 03 27 be dd 4f 21 bd
       -0.30446497 -0.14531237 -0.16310053 -0.039382804
000040 2d 83 84 3d bc 92 04 3e 13 7c 65 be a9 4c 25 be
       0.06470332 0.129466 -0.22410612 -0.16142525
000050 7c c4 8a 3d 26 39 4f 3e 49 cb c8 bd 0d fa 37 3e
       0.06775758 0.20236644 -0.098043986 0.1796648
000060 d8 95 3e bd 60 3b fa 3c b6 d4 85 3e 79 1c 89 be
       -0.04652962 0.03054589 0.26138848 -0.26779535
000070 f0 17 3a be 48 ac 95 bd cc 73 e6 bd c8 66 7f 3e
       -0.18173194 -0.07308251 -0.11252555 0.24941552
000080 a4 9a 3f be 70 13 08 be 3c 85 4e be df 6c 8a be
       -0.18711334 -0.13288665 -0.20168012 -0.27036187
000090 eb 00 54 be e8 97 81 3e 33 ec fc 3d 0a ef eb 3d
       -0.20703475 0.25311208 0.12349739 0.115202025
0000a0 55 8e 2d bc 15 c8 44 be 1b e3 b4 3b ff 04 9f be
       -0.010593017 -0.1921695 0.005520237 -0.310585
0000b0 0c 9b 5e be 1b 32 08 be 7e 03 8e 3d 36 eb 52 3d
       -0.21738833 -0.13300364 0.0693426 0.051493846
0000c0 03 ae 77 be eb b9 be bc d3 59 e7 3d aa 40 3e 3e
       -0.24187474 -0.023282012 0.112964295 0.18579355
0000d0 89 3f 27 3c 73 fc ad bd 55 46 e0 3d e1 97 75 be
       0.010208019 -0.084954165 0.10950915 -0.23983718
0000e0 27 d7 cd 3c 82 e6 75 be 4d 28 41 be 92 86 60 be
       0.025127007 -0.24013713 -0.1886303 -0.21926335
0000f0 52 be c1 3d 3c af 08 3e 12 8d 45 be a8 13 7f 3d
       0.09460129 0.13348097 -0.19292095 0.062274605
000100 fd f0 08 3e 98 e1 9d bd 7b ae b8 bc ea e5 e0 3c
       0.1337318 -0.07709044 -0.022544136 0.027453382
000110 51 fc 0d 3e ad c2 70 3e 35 f6 86 be f7 5c 1c be
       0.13865782 0.23511763 -0.26359716 -0.15269838
000120 fc 74 d7 3c 0b a7 93 3e 89 d1 65 3e f5 15 4c 3e
       0.0263009 0.2883838 0.22443213 0.19930251
000130 ed 8e ac ba b6 4f ac be 31 63 d5 bc a2 a2 5b be
       -0.0013165154 -0.33654565 -0.026048275 -0.21448758
000140 69 02 81 be dd ef 91 3e 24 6d 84 3e 1c 2d 9e be
       -0.2519715 0.28503314 0.25864518 -0.3089379
000150 36 84 14 3d e6 61 4f 3b 5e 2d 6b bd 19 78 0f be
       0.0362589 0.0031644045 -0.057416312 -0.14010657
000160 be cb d2 3d 4f 1d 39 be 13 45 a6 3d 85 d4 ee 3d
       0.10292767 -0.18077587 0.081186436 0.11661629
000170 21 41 34 3e 79 05 9d 3d 11 7b a2 be 9c 51 67 be
       0.1760297 0.076670595 -0.31734517 -0.22589725
000180 47 ae f8 3d 3e b4 de 3d c3 c0 88 be 5a 67 4a be
       0.12142616 0.10874222 -0.26709566 -0.19765988
000190 59 7d 75 3e ea 0e 43 3e 6b 6a c5 bd 75 0b 30 bd
       0.23973598 0.19048658 -0.09639438 -0.042979676
0001a0 7c 43 83 be 58 9e ef bc c8 35 cd bd d4 76 fe bd
       -0.25637424 -0.029250309 -0.100200236 -0.124250084
0001b0 10 4d 82 bc 98 88 31 3d f6 1d f2 bd 86 67 2f 3e
       -0.015905887 0.043343157 -0.11822121 0.17129335
0001c0 dd e2 33 be 5e 1c 86 3e b2 93 4a 3e fa 46 79 be
       -0.1756701 0.26193517 0.19782904 -0.24343482
0001d0 5e 24 93 bd 20 6a 55 3c f0 83 2c 3d 10 38 8c 3d
       -0.07184671 0.01302579 0.042118013 0.068466306
0001e0 98 01 e8 3d 50 a7 8d 3c be 3b 10 be 52 e0 0b 3e
       0.11328429 0.017291695 -0.1408529 0.1365979
0001f0 51 c7 8d be c1 34 2f be 26 ff 93 bd 09 fe 0f be
       -0.2769113 -0.17109968 -0.072264 -0.1406175
000200 e6 d2 ce bd 6c 48 72 be 68 84 7b bd 98 bf 7c 3d
       -0.100988194 -0.23660439 -0.06140557 0.061706156
000210 d3 bf 82 be dd c0 29 3c 58 4b 1e 3e b9 0e ac bd
       -0.25536975 0.010360924 0.15458429 -0.084012456
000220 1b 02 46 bd ad a7 cd bd 19 54 29 bc 88 6a f5 3d
       -0.04834185 -0.10041747 -0.010334992 0.1198321
000230 3d dd 5c 3e 8c 7f 00 3e a0 e6 5c 3e 6e 76 9c bd
       0.2156877 0.12548655 0.21572351 -0.07639776
000240 ff c5 84 be 89 23 0c be 22 47 49 3e 00 47 f5 ba
       -0.2593231 -0.1368543 0.19656041 -0.0018713176
000250 b6 ed 12 be 3a 86 62 be 0c 52 8a be dc 7d 79 be
       -0.14348492 -0.22121516 -0.27015722 -0.24364418
000260 3c d6 6f bd 54 1c 22 3e b8 d0 1f 3e 6d 8b 8e be
       -0.05855392 0.15831119 0.15606964 -0.27840748
000270 5e 64 38 3e fa 4f 67 be 70 f9 79 bd d8 b7 ef bd
       0.18007037 -0.22589102 -0.061028898 -0.11704987
000280 38 c0 63 bd 80 28 68 bd 3c a1 84 be 31 3c 7f be
       -0.055603236 -0.05667925 -0.25904262 -0.24925305
000290 00 06 39 bd 80 a8 74 3b 01 49 06 be 04 b5 de 3d
       -0.045171738 0.003733188 -0.13113786 0.1087437
0002a0 12 d1 8f be 9e 98 6e bc a6 c5 71 3e cb 0b 17 be
       -0.28089195 -0.014562754 0.23610553 -0.14750592
0002b0 21 53 6d 3e 85 8f 82 3d 5f 33 90 be 68 e7 25 3e
       0.23176242 0.063750304 -0.28164193 0.16201556
0002c0 f8 84 50 bd 4d 6d 15 be 9b 87 5c 3e fc 2d 80 be
       -0.05090806 -0.14592476 0.21536104 -0.25035083
0002d0 83 bf 9d 39 ee 5b 92 bc 7e d1 23 3e 87 16 ec 3c
       0.0003008806 -0.017866101 0.15997884 0.028819336
0002e0 01 f9 af 3d 83 e3 73 3d 7b e7 c4 bd f4 fa a1 bd
       0.085924156 0.059543144 -0.09614464 -0.07909194
0002f0 eb 8e 80 be 75 ba 15 3e 74 03 63 3e 0e 67 39 3e
       -0.25109038 0.14621909 0.22169286 0.18105718
000300 1e 83 50 be 20 f1 52 3c 81 61 50 be 97 b9 22 be
       -0.20362517 0.0128748715 -0.20349695 -0.1589111
000310 ec 3f 2c be bc 0a ca 3d 68 27 30 be 40 60 ce bb
       -0.1682126 0.09865329 -0.17202532 -0.006298095
000320 c0 f7 46 3c 80 8d 3e 3e d6 73 5f be 70 ef 4a be
       0.012144029 0.18608665 -0.21821532 -0.198179
000330 ba 55 81 be 7d 36 92 3e 4c dc 20 be b6 0d 3d 3e
       -0.25260717 0.28557196 -0.15709037 0.18462262
000340 cb 1f 31 3d af a3 01 bc 76 67 4b bd 50 1e bd bd
       0.04324321 -0.00791256 -0.049659215 -0.09234297
000350 ec b8 d4 3c fb 30 95 bd f8 47 aa 3c b2 0e 73 3d
       0.025967084 -0.07284733 0.02078627 0.059340186
000360 f2 38 67 be 5c ef 1a be 94 b2 6e 3e 5a e5 6f be
       -0.22580317 -0.15130371 0.2331031 -0.23427334
000370 20 cf a9 bc 0c 36 92 3e d4 90 d5 3d 20 e9 05 3c
       -0.020728648 0.2855686 0.104280144 0.008173257
000380 1e 16 80 be 74 6f 12 3e 75 8d 52 be 8c d2 a7 bd
       -0.25016874 0.14300328 -0.20561774 -0.081944555
000390 bb b2 42 be 21 73 9f 3c af 22 57 bd 4a 4e 29 3e
       -0.19013493 0.019464077 -0.05252331 0.16533771
0003a0 61 c5 26 bd 37 20 29 3e b8 36 d0 3d 97 a5 75 be
       -0.04071558 0.16516195 0.10166687 -0.23988949
0003b0 da 72 e7 3d f0 79 58 be bd fe c8 bd 79 89 1c 3d
       0.11301203 -0.21140265 -0.098142125 0.03821704
0003c0 fd 13 26 3e 44 c4 73 3e 80 f9 99 bd cc 8c 88 3c
       0.16218562 0.23805338 -0.075182915 0.0166687
0003d0 76 15 26 3e 9f 33 80 be 56 6d 79 3e 44 58 4d be
       0.16219124 -0.25039384 0.24358115 -0.20053202
0003e0 1f 2c 5c 3d 3b d4 92 3c bb 2e 9a bd 84 82 09 bd
       0.053753015 0.017923465 -0.075284444 -0.033571735
0003f0 a0 70 74 3e 3e d2 ac bd 7a 7f 2f be b4 a6 da bd
       0.23871088 -0.08438538 -0.17138472 -0.10676327

encoder.MLP.L0.bias f4 [256]
000000 66 5c 85 3e cf 72 35 3e f7 53 81 be 90 97 23 be
       0.26047057 0.17719577 -0.25259373 -0.15975785
000010 ba cf f7 3c e2 a7 51 be e1 56 fb bc 1e 19 08 be
       0.030250419 -0.20474198 -0.030681076 -0.13290831
000020 cb 5f 62 3d a2 3c 10 3e c0 d2 b9 3d ef 59 06 3e
       0.055267137 0.1408563 0.090734005 0.13120244
000030 30 49 0e bd 7a 79 20 3e 93 4b 58 3d 1c d2 04 be
       -0.034737766 0.1567134 0.05280645 -0.12970775
000040 50 c6 50 be 80 8e 63 3e ec 44 b0 bd 1c 1c 00 3e
       -0.2038815 0.22222328 -0.08606896 0.12510723
000050 e8 92 5c 3e 80 74 3e bc 13 a7 8f be 71 92 5a 3c
       0.21540415 -0.011624455 -0.28057155 0.013340578
000060 cc 44 55 be b7 17 37 3d d0 dc e5 bd 8b d7 38 3e
       -0.20827025 0.04470035 -0.11223757 0.18050973
000070 06 d4 91 be 0a fc d8 bd db d0 a9 bc 7d 9c c0 bc
       -0.28482074 -0.10594948 -0.020729473 -0.02351212
000080 de c3 84 3e af c4 d4 bd 6a 4c 6f be 46 85 b1 3d
       0.25930685 -0.10389077 -0.23368993 0.08667998
000090 6c 33 a5 3d 6d 91 54 3e 58 f4 2e be 71 09 8e be
       0.080664486 0.207586 -0.17085397 -0.27741578
0000a0 14 b7 b6 bd 4f 56 f3 bc 0f 45 9c 3d b7 4c 4a be
       -0.08921638 -0.029704241 0.076303594 -0.19755827
0000b0 49 96 3b bd 58 5c 4c bd 61 2f 92 3e a4 46 f7 bd
       -0.04579762 -0.049892753 0.28551772 -0.120740205
0000c0 99 5a 55 3e 6b 8b 3b be 32 20 00 be fd 9a 83 be
       0.20835342 -0.18314902 -0.12512282 -0.25704184
0000d0 e3 8b 55 3e fb 68 57 be 0e ea 76 3d b5 57 93 bd
       0.20854144 -0.2103614 0.060281806 -0.07194463
0000e0 7d dc 71 3e cf c5 15 3d 81 53 92 be 69 4b 54 3d
       0.23619266 0.036565598 -0.28579333 0.05182973
0000f0 59 af 9a 3c 5d 52 9a be 80 84 2f 3d 66 37 89 3e
       0.01888244 -0.30140963 0.04285097 0.26800078
000100 2b 0e 98 3d 00 38 c9 ba ec 1d 75 bd f7 ce 90 3d
       0.07424577 -0.0015351772 -0.05984299 0.070707254
000110 2b be 65 be 4e 12 76 3e a4 f0 60 3e 76 3d fa 3d
       -0.22435825 0.2403042 0.21966797 0.12218754
000120 0f d9 74 bd 4e fc 84 be 49 21 2c be f2 f0 67 3e
       -0.059777316 -0.25973743 -0.16809572 0.22650507
000130 85 17 78 be 1c f3 96 be 06 2b 36 bc cc 9a ca 3d
       -0.24227722 -0.29482353 -0.011118656 0.098928064
000140 0a 6e 98 be e5 9e 8c be 1b 57 18 bb 94 4f c6 bd
       -0.29771453 -0.27464977 -0.0023245278 -0.09683147
000150 df 28 28 3e 78 4d cc 3d 5f 0f 82 be e2 44 86 be
       0.16421841 0.099757135 -0.25402352 -0.26224428
000160 e8 95 1a 3e db 30 fa bc 3f 33 01 be c6 33 9d 3d
       0.15096247 -0.030540874 -0.12617205 0.076758906
000170 c0 62 68 bd 1c 5f 0d 3e 5e 54 8b 3c 16 fa ff bd
       -0.0567348 0.13805813 0.017008003 -0.12498872
000180 47 ec 6c be ea fb 2d 3e 06 9a 31 be 68 c1 fe bd
       -0.23137008 0.16990629 -0.17343912 -0.12439233
000190 58 ab 21 3d b1 b8 29 be dd 1b 08 3e 79 ec 4f be
       0.039470047 -0.1657436 0.13291879 -0.20305051
0001a0 85 03 00 3d 37 c9 24 bc 6a 35 a3 3d dd 1b 9a be
       0.031253356 -0.010057739 0.07969172 -0.30099383
0001b0 f5 0a 83 bc 9a 28 cc 3d 14 40 3d be 7d 8a af 3d
       -0.015996436 0.09968682 -0.18481475 0.085713364
0001c0 f1 c9 80 bd 68 19 4f 3e d5 5c 94 bd 86 7e 2b bd
       -0.06288517 0.20224535 -0.07244269 -0.04186871
0001d0 40 ea db bd 76 6f c1 bd 7e 14 49 3d 42 6a b0 be
       -0.10738039 -0.094450876 0.04909181 -0.34456068
0001e0 34 3f 60 3e 85 09 a5 3e e6 c0 9f 3d ce b2 07 3e
       0.2189911 0.32233825 0.07800464 0.13251802
0001f0 0f 8f d0 bd 0e 03 0d 3d a0 9e 70 3c e9 8a 72 be
       -0.10183536 0.03442674 0.014686257 -0.23685803
000200 4f e6 2f be 0c 60 f5 bd 88 2d 92 bd 35 29 7b be
       -0.171777 -0.1198121 -0.07137591 -0.24527438
000210 32 06 62 be 00 92 e0 bc 54 df 33 bd 52 41 a2 be
       -0.22072676 -0.027413368 -0.043914154 -0.3169046
000220 3c e8 b4 3d 99 2c 80 3e 00 47 65 3e 8c 6a 45 3e
       0.08833358 0.25034025 0.22390366 0.19278926
000230 d2 a2 58 be 95 0c 16 be eb a8 12 be f6 90 e9 3b
       -0.21155861 -0.14653237 -0.1432225 0.0071278764
000240 17 f6 8b 3c 10 89 83 3d f3 07 6c 3e d8 d5 a9 3d
       0.017085118 0.06422627 0.23049907 0.082927406
000250 55 92 8e be 9d 2d ef 3d 9e 67 47 3e d1 01 32 bc
       -0.27846017 0.11678622 0.1947312 -0.010864691
000260 4c 97 80 be 86 14 15 be c5 03 03 3d cf 98 cf 3d
       -0.2511543 -0.1455861 0.031986017 0.10136568
000270 52 d1 89 3e d3 c7 ab 3d f0 d1 0b 3c 1d fc 25 bd
       0.2691751 0.08387723 0.00853394 -0.040523637
000280 0c ff 2b 3e 2d 50 2c be 1b 9d a8 3d 80 d3 5c be
       0.16796511 -0.1682746 0.082330905 -0.21565056
000290 aa 25 65 bc 55 b8 ad 3d 83 61 bd 3d ee 41 8b bd
       -0.013986031 0.08482424 0.092471145 -0.067996845
0002a0 00 8d 6f bb 0b 57 5d be 7d a0 9a 3d 46 cb 15 3e
       -0.0036552548 -0.21615236 0.07550142 0.14628324
0002b0 84 11 13 3e 46 be 93 be 60 78 57 be 49 0c 20 3e
       0.1436215 -0.28856105 -0.21042013 0.15629686
0002c0 9c 4d 29 bd 42 ad aa 3d bc 22 12 3e 32 2c 35 be
       -0.04133378 0.083338276 0.14271063 -0.1769264
0002d0 35 52 9e bd 09 75 9d be 46 bb f0 3d 3f 1e 2e 3e
       -0.077305235 -0.30753353 0.117544696 0.17003725
0002e0 aa 0a ba bd 52 af 88 be 8e 59 8a be 5a 23 4e bc
       -0.09084065 -0.2669626 -0.2702145 -0.012581671
0002f0 55 95 e9 3d a9 dd 16 be 81 77 4e be 54 2e 3d be
       0.11405436 -0.14732994 -0.20162775 -0.18474704
000300 b0 5f 56 3e 32 07 2b 3e 27 19 7b be ed 35 5a be
       0.2093494 0.16701964 -0.24521314 -0.21309634
000310 35 f9 8b be ff 0a bd 3c 10 30 38 be 00 16 80 ba
       -0.27338567 0.023076532 -0.17987084 -0.0009772182
000320 2e ac ac bd 82 60 81 be cc c1 8f be fd 2c 83 be
       -0.08431278 -0.25268942 -0.28077543 -0.2562026
000330 62 5d 03 be 70 e7 8b bc c5 39 57 be 23 4a f4 bc
       -0.12828591 -0.017078131 -0.21018131 -0.029820507
000340 07 9d 16 bd 53 49 5e 3e b5 c1 06 be 5a dd 8a 3e
       -0.036770847 0.21707658 -0.13159831 0.27122003
000350 24 3b 88 be d6 a1 76 be 85 d7 db 3c 56 2e 43 be
       -0.2660762 -0.24085173 0.026836166 -0.19060645
000360 f3 d9 cb 3d b0 8a 23 be 1d 9a 0c 3e fc c7 8a 3e
       0.0995368 -0.15970874 0.13730665 0.271057
000370 e6 e9 5f ba 89 37 1b 3c 4b f5 9c 3e 2c 55 5b 3e
       -0.00085416285 0.00947369 0.30655894 0.21419209
000380 b0 72 95 be f6 d7 21 bd d0 6a 85 be b4 ce 61 3e
       -0.29189062 -0.039512597 -0.26058054 0.22051507
000390 14 72 6a bd 80 da 40 bd 5f 4f 45 be 33 b4 5f be
       -0.0572377 -0.047083378 -0.19268559 -0.21846084
0003a0 61 a5 b9 3c c7 71 67 3e fb 95 14 be ae 7e 81 bd
       0.022661867 0.22601996 -0.14510338 -0.0632299
0003b0 65 e1 81 3e 71 c7 64 3e e3 92 bb bd 60 87 8a 3e
       0.25367275 0.22341706 -0.09158876 0.27056408
0003c0 2d fd b5 3d 48 d9 45 3e c0 53 0c 3c b6 85 7a be
       0.0888618 0.19321167 0.008564889 -0.24465069
0003d0 71 ad b1 bd 51 27 b8 3d 91 66 78 3d c0 ab ad be
       -0.086756594 0.08991874 0.06064469 -0.33920097
0003e0 e6 56 10 3e f1 a5 8c be 0b 67 de 3d 8c 97 5e 3e
       0.14095649 -0.27470353 0.10859498 0.21737498
0003f0 29 78 36 3d 90 28 5f bd f6 b7 d3 3d 12 b1 a0 bd
       0.044548187 -0.054482043 0.10337822 -0.078462735

encoder.MLP.L1.weight f4 [128, 256]
000000 a8 a0 3d bd 18 ae 35 bd b0 bb f0 3c 6c 83 43 3d
       -0.046295792 -0.044355482 0.029386371 0.047732756
000010 c0 db 25 3b 0c 37 78 bd 32 8c 7b bd 10 3a 67 bc
       0.0025307983 -0.06059937 -0.061412998 -0.014112964
000020 98 31 0a 3d e0 98 2a bd 40 01 8a 3c 04 ec 0b bd
       0.033738703 -0.0416497 0.0168463 -0.03416063
000030 0c 49 50 3d f0 28 86 bc 98 66 55 bc 58 88 60 bd
       0.050850913 -0.016376942 -0.013024949 -0.054817528
000040 0c 4c 65 bd e0 69 8a 3b 60 92 25 3c f6 4e 0a 3d
       -0.055980727 0.004224047 0.010105699 0.03376671
000050 96 da 5f bd 08 6d 33 3c 30 ed 13 bc 24 2b 16 3d
       -0.05465182 0.010951288 -0.009028718 0.036662236
000060 e8 cd e8 bc e0 89 98 3c 08 52 ce 3c 34 99 00 3d
       -0.028418496 0.018620431 0.0251856 0.031396106
000070 48 9c af bc 64 c4 a4 3c 98 af 48 bc fc de 89 3c
       -0.021436825 0.020113178 -0.012248896 0.01682996
000080 4a 6a 1d bd 84 6b 4b bd 8e 67 51 bd b6 ed 20 bd
       -0.038431443 -0.04966308 -0.051124148 -0.0392892
000090 4c b1 d8 bc a8 6c 18 3c a8 fc 5f bc 10 bc 11 bd
       -0.02645173 0.009303249 -0.013671078 -0.03557974
0000a0 80 a2 09 3a 1c b0 a1 bc 62 ce 1d 3d ce d7 52 bd
       0.00052503496 -0.019737296 0.0385269 -0.05147534
0000b0 d0 fb bc bc 98 83 24 bd 60 b4 fc 3b e0 75 5f 3b
       -0.023069292 -0.04016456 0.007711932 0.0034097359
0000c0 60 a0 6b bb 92 00 7e 3d d8 51 c3 bc c0 2d 13 bc
       -0.0035953745 0.062012263 -0.023842737 -0.008983076
0000d0 68 47 84 3c 20 a9 55 3d be 0a 42 3d e0 f5 e9 3b
       0.01614733 0.052163243 0.047373526 0.0071399063
0000e0 08 b4 c1 bc 94 33 a8 3c 4c 12 21 3d 00 d4 ae ba
       -0.023645416 0.020532407 0.03932409 -0.0013338327
0000f0 78 8d 0c 3d 0c 84 51 3d 20 28 09 bd d0 61 62 bc
       0.034314603 0.05115132 -0.03348553 -0.013817266
000100 12 7b 66 bd 08 10 6b 3c de 72 36 3d 08 da 46 bc
       -0.056269713 0.014347084 0.04454314 -0.012136944
000110 08 66 23 3c f4 99 a3 3c c0 ba ae ba 5c 06 47 3d
       0.009973057 0.019970872 -0.0013330802 0.04859005
000120 00 38 15 3c 54 a2 7b bd b8 66 53 bd cc a2 7d bd
       0.00910759 -0.061434105 -0.051611632 -0.061922833
000130 80 d2 28 3b a8 62 0a 3d c8 18 07 bc 44 2c 66 3d
       0.0025760233 0.033785492 -0.008245654 0.05619456
000140 78 38 38 bc 70 5b 51 3c 7a d8 66 3d 3c 8f 01 3d
       -0.011243932 0.012778148 0.056358792 0.03163074
000150 a0 ac 02 bb c8 95 76 3d 6e f3 18 bd 20 b5 be 3c
       -0.0019939318 0.060201436 -0.037341528 0.023279727
000160 68 ac 21 3d 58 83 1e bd d2 78 70 bd f8 c4 a3 3c
       0.03947106 -0.038699478 -0.058708973 0.019991383
000170 40 3f c2 bc 32 30 01 bd d8 ad 4b 3c aa b5 39 bd
       -0.0237118 -0.031540103 0.012431584 -0.045339264
000180 54 3f 66 3d 30 d7 b7 bb 20 f8 a3 bc de 02 56 3d
       0.05621274 -0.005610369 -0.020015776 0.052248828
000190 e4 8f 8e 3c 48 18 43 3c 94 cd f4 bc b4 fc 73 3d
       0.017402597 0.011907645 -0.029883184 0.05956717
0001a0 6c f0 9b bc 44 ec 54 3d a0 8b 96 bb 52 6b 00 3d
       -0.01903554 0.051983133 -0.0045942813 0.03135235
0001b0 da ff 33 3d b6 97 3e bd f4 9f 2a bd 8c 25 7d bd
       0.04394517 -0.0465314 -0.04165645 -0.061803386
0001c0 aa a4 38 3d 06 28 5c 3d d4 1e bb bc 58 c4 fa bc
       0.04507891 0.053749107 -0.022841848 -0.030611202
0001d0 58 68 2b 3c 3a d3 09 3d 70 c2 7c 3c 68 69 55 bc
       0.010461889 0.033648707 0.015427217 -0.013025619
0001e0 cc d5 22 bd d6 f2 5a 3d 02 ca 25 bd 60 5f 77 bd
       -0.039754674 0.053454243 -0.040475853 -0.06039369
0001f0 74 6d cc bc a0 31 4c 3c 44 4e be 3c 40 f9 c5 3c
       -0.024954535 0.012463003 0.02323068 0.024166703
000200 ec 4c 14 bd 1c 80 c4 bc 10 ad e3 bc dc f0 f7 bc
       -0.03620617 -0.023986869 -0.027792484 -0.030266218
000210 3a 9f 57 bd c8 9c 51 3c 04 e6 94 bc cc 66 76 bd
       -0.052642085 0.012793727 -0.018176086 -0.06015663
000220 9a 7b 15 bd 62 bd 19 bd 94 db dc bc f8 2e 1e bd
       -0.03649483 -0.037534125 -0.026960172 -0.03861901
000230 d0 94 31 bc 54 7b b7 3c 32 2f 4f bd f0 70 af bb
       -0.010838702 0.022397675 -0.05058212 -0.0053540394
000240 2c 59 93 bc d2 e1 02 bd a0 60 63 bc 68 00 d9 bc
       -0.017986856 -0.03195364 -0.013878018 -0.026489452
000250 60 ad 03 3b 2a cb 38 bd b0 30 42 3c b8 0a 6b 3d
       0.0020092353 -0.045115627 0.011852428 0.05738327
000260 dc 1f 54 3d 54 8f e5 bc 18 d0 9d 3c e6 f8 71 bd
       0.051788196 -0.028022446 0.019264266 -0.05907526
000270 9a 89 57 3d de 1e 7f bd b0 c4 64 bd 06 cb 65 bd
       0.05262146 -0.062285297 -0.05585164 -0.05610182
000280 44 bc 6d bd 20 ae 0a 3c b8 63 87 bc 80 17 75 3c
       -0.058040872 0.008464366 -0.016527042 0.014959216
000290 c0 6f 7d bb 40 f9 af ba e0 f9 b8 bc 2a e2 17 bd
       -0.0038671345 -0.0013425723 -0.022580087 -0.03708092
0002a0 62 56 56 bd 66 2c 01 3d 52 fe 03 bd 88 42 50 bc
       -0.052328475 0.031536482 -0.03222496 -0.012711175
0002b0 fc ac f8 3c 10 9b 7d bc cc 17 81 bc 48 a9 2a bd
       0.030355923 -0.015478864 -0.015758418 -0.041665345
0002c0 a4 08 5b bd 38 be f5 3c 70 08 67 bc 5c f9 20 3d
       -0.053475037 0.02999793 -0.014101133 0.039300308
0002d0 d0 ca 86 3b 00 7c a6 b8 f8 1d 67 bd 00 dd b4 3a
       0.0041135326 -7.9385936e-05 -0.056425065 0.0013798773
0002e0 b0 6b 67 bc 18 15 12 bd 08 fe 6c bc 40 22 56 3b
       -0.014124796 -0.035664648 -0.014464863 0.0032674223
0002f0 38 e4 40 bd 40 46 2a 3c ee 20 32 3d d0 49 4a 3c
       -0.047092646 0.0103927255 0.043488435 0.0123467
000300 92 5d 74 3d b8 eb ee 3c e6 e4 49 bd d0 87 c9 bc
       0.059659548 0.029165134 -0.04929056 -0.024600893
000310 18 6b 76 bc 38 29 99 3c 00 a6 e9 ba 9a 00 4e 3d
       -0.015040182 0.018696412 -0.0017825961 0.050293542
000320 90 e8 ed 3b a4 20 22 bd 10 b5 bb bc 68 fb 54 bd
       0.0072603896 -0.03958191 -0.022913486 -0.051997572
000330 6c 2c 8d bc 74 ba fb 3c 80 36 1e 3a 6a 1f 74 bd
       -0.017233096 0.030728556 0.0006035343 -0.05960027
000340 28 84 5d bd a4 9f b9 3c 1e b1 60 bd d0 30 4c bd
       -0.054081112 0.02265913 -0.054856412 -0.04985124
000350 8a a1 18 bd 90 ff 73 3d c4 95 91 bc 28 19 d3 bc
       -0.03726343 0.059569895 -0.01777161 -0.025768831
000360 c0 da 2c bd d8 c3 23 3d 10 58 25 bc 80 76 45 3c
       -0.042200804 0.039981693 -0.0100917965 0.012052178
000370 90 9f 74 3c cc 65 90 3c d8 dc 23 3d 40 8e 54 3b
       0.014930621 0.017626666 0.040005535 0.003243342
000380 10 d7 d3 3b 50 ff 84 bb e2 ed 46 bd 38 57 6a bc
       0.0064648464 -0.004058756 -0.048566706 -0.014303021
000390 2a a6 73 3d d4 6e 35 bd 5e 90 21 bd 48 08 7e bd
       0.05948464 -0.044295147 -0.03944432 -0.062019616
0003a0 40 5f 78 3b 4a 71 6f bd 28 1f 03 bd 90 e3 6b 3d
       0.003789857 -0.05845765 -0.032012135 0.057590067
0003b0 6c 0d d4 3c b8 63 08 3d 38 57 2f 3c 2a 8b 59 bd
       0.025885306 0.033298224 0.010701947 -0.053111233
0003c0 64 3e ee bc 3a 3f 4f bd c4 4c 1e bd d0 5b ae 3c
       -0.029082485 -0.050597407 -0.03864743 0.021284014
0003d0 5c 01 8e bc ec 2d 7a 3d ee 9c 3a bd 14 79 5a bd
       -0.017334633 0.06107895 -0.045559816 -0.053338125
0003e0 68 c6 7c 3d aa 25 5d bd a2 d6 59 3d c8 de 89 3c
       0.061712652 -0.053990997 0.053183205 0.016829863
0003f0 e0 54 69 bd 80 f8 5e 3d 98 63 8b bc e4 1d d3 bc
       -0.05696571 0.054436207 -0.017015263 -0.025771089

encoder.MLP.L1.bias f4 [128]
000000 88 5a 67 3d 49 bf 48 3c 20 28 dd 3c 8e 86 44 bd
       0.05648282 0.012252637 0.026996672 -0.047979884
000010 4f 68 84 3b 59 24 cd 3a 00 34 90 b8 8c 4c 2c 3d
       0.004040755 0.0015651091 -6.876141e-05 0.04206519
000020 e6 6f 9f bd 29 03 ec bc 5e 3c 2f bd 12 47 3d 3d
       -0.07785015 -0.0288101 -0.04278218 0.046210356
000030 84 e0 29 bd 52 a1 13 bd 92 9c e7 bc 03 19 00 3d
       -0.04147388 -0.03604252 -0.0282729 0.031273853
000040 3f aa 46 bb 1f be 09 bd 62 b8 64 bd ab 63 26 bd
       -0.0030313877 -0.03362858 -0.055839904 -0.040622395
000050 1d 76 54 bd 4b 1b f7 bc 2e df 78 bd 17 e1 14 bd
       -0.051870454 -0.030164381 -0.060759716 -0.036347475
000060 09 aa 9c bc 80 f9 b0 3a 72 44 66 3c 2b a3 08 bd
       -0.019124048 0.0013502091 0.014054405 -0.033358734
000070 9b c1 f9 bc a1 3e 3d 3d 86 ff 13 bd bb 6f 2d 3d
       -0.030487826 0.046202306 -0.036132358 0.042342883
000080 f5 4a 97 bd e6 21 38 3c 47 bc 13 bd 87 d0 07 bd
       -0.07387344 0.011238551 -0.036068227 -0.03315785
000090 52 4d 9f b8 e4 95 79 3d be 28 2f bc f4 db 05 3d
       -7.596113e-05 0.060933962 -0.010690866 0.032680467
0000a0 e7 e7 9f bc ef c6 49 3d 11 d7 3c 3c 6b c5 29 bd
       -0.01951976 0.049261983 0.011525885 -0.041448038
0000b0 61 40 bb bc d7 08 1f 3d e4 8f 43 bc 6b cd 12 bc
       -0.022857847 0.03882679 -0.011936162 -0.008960108
0000c0 09 84 91 bb c9 d8 b0 bc 43 d3 9d bc ad 42 80 3d
       -0.0044407886 -0.021587746 -0.019265777 0.062627174
0000d0 29 64 ff bc 58 0c 6e 3c b7 ce 40 bd 4f ee 62 3d
       -0.03117569 0.01452931 -0.04707214 0.05540305
0000e0 cf d4 dd bc 00 a7 c1 bc 3e 8a 8a bd 80 83 5c bb
       -0.027079014 -0.023639202 -0.06764649 -0.0033647716
0000f0 13 b4 97 bc be a4 2a bc 84 7a db 3c b0 65 5d bc
       -0.018518483 -0.010415254 0.026791818 -0.013513014
000100 25 2b 6b 3b b7 bc 2e bd 55 32 7a bb 0a 51 22 bc
       0.003588387 -0.04266044 -0.0038176973 -0.0099070165
000110 b6 68 10 bd 1a 67 77 bd f3 e9 90 3c 9c 33 1f 3d
       -0.03525611 -0.06040106 0.01768968 0.038867578
000120 14 f0 86 bd 86 87 2c bd 83 2f 95 3b 6b 0a 21 bc
       -0.0658876 -0.042121433 0.004552783 -0.009829144
000130 e8 6d 6e bd 7a b1 cd bb ca ad aa bc 94 83 21 3d
       -0.058210284 -0.0062772604 -0.020834822 0.039432123
000140 60 92 63 3c f2 8b 90 3a ef ec 0d 3c b8 07 4e bc
       0.013889879 0.0011028035 0.008662446 -0.0125750825
000150 d1 03 cb bb 4e 82 2c bd df 6b 21 3d 73 ac cf bb
       -0.0061955233 -0.042116456 0.039409515 -0.006337696
000160 25 dd 82 3d f1 ff 87 3b a4 7c 73 39 b0 9c 04 bc
       0.06389836 0.0041503836 0.00023220718 -0.008093998
000170 86 0d 2b bd 61 2a 45 bd 01 5c 71 bd a8 78 30 bd
       -0.041760944 -0.04813612 -0.058925632 -0.043083817
000180 cd 94 2c 3d 06 13 3b bd ee 73 88 bd 7b 2b fc bc
       0.042134095 -0.04567244 -0.06662737 -0.030782452
000190 26 1b b5 3c 60 e9 02 bd 8a 7c 4b bc 53 41 a8 bd
       0.022107672 -0.031960845 -0.012419829 -0.082155846
0001a0 de c7 53 bd dc d5 ec bc bc e9 0d 3b 72 09 99 bb
       -0.05170428 -0.02891057 0.002165421 -0.0046703154
0001b0 c4 e6 ac bc 90 d1 22 bd 0e 8c 57 bd 66 6b c3 bb
       -0.021106131 -0.039750636 -0.0526238 -0.0059637306
0001c0 bb c1 f0 bc 41 03 43 bd 8b fa c2 bc 8b 47 8f 3b
       -0.029389253 -0.047610525 -0.023801109 0.0043725423
0001d0 58 16 f8 bc b7 38 51 bd 24 27 ce 3c d3 19 16 3c
       -0.030284092 -0.051079478 0.025165148 0.00916143
0001e0 fe ad 93 bd ec d2 15 3d 66 8d 7d bd 9e 87 5b bd
       -0.07210921 0.036578104 -0.061902426 -0.05359613
0001f0 e8 ec 3e bc 82 ff 30 bd 5f 06 65 bc 5d 87 06 bd
       -0.011653163 -0.04321242 -0.01397857 -0.032843936

encoder.linear_means.weight f4 [6, 128]
000000 c1 b7 b1 3d 54 e0 29 bd b5 2c af 3d 6d f7 9c bd
       0.086776264 -0.0414737 0.08553449 -0.0766438
000010 5f df cd 3c 7e ce 97 3d 20 29 ee 3c 86 d3 c4 bb
       0.025130926 0.07412432 0.029072344 -0.006006661
000020 3b a1 2e bd a8 23 64 3c a3 ec 11 3d 2d 1b 6c bd
       -0.04263423 0.013924517 0.035626065 -0.057643104
000030 01 59 e4 bc f3 0b c0 bc f0 4f ae bd ce a5 89 bc
       -0.027874472 -0.023443198 -0.085113406 -0.016802695
000040 ec 94 3e bc 6e a1 76 bd 1e 1b 53 bd 16 bd 29 bd
       -0.011632185 -0.060212545 -0.051539533 -0.041440092
000050 ad 7c 04 3d 4c 80 03 bb fe 57 3b bd ef f8 d1 3c
       0.032345463 -0.0020065485 -0.045738213 0.025631396
000060 f7 c6 86 bd fc 27 be 3c ad 82 ea bc 66 c9 cc 3c
       -0.06580918 0.023212425 -0.028626764 0.024998378
000070 d6 56 e2 3c a1 4d 81 bb cd fe 73 bc d3 eb 8a 3d
       0.027629297 -0.0039460217 -0.014892292 0.06783261
000080 89 73 aa 3b 4e 40 99 3c 0b 5b 9a 3c 91 be 25 3b
       0.005201761 0.01870742 0.01884224 0.0025290588
000090 1d 4d db 3a e5 d8 b0 3d 4c 27 85 bd c1 4b 02 3d
       0.0016731356 0.08635119 -0.06501636 0.031810526
0000a0 65 c7 4c bc 27 26 a7 3d 43 bd 48 3d 93 05 7e bd
       -0.012498711 0.08161574 0.04900862 -0.062017035
0000b0 b1 db 6d 3d f7 93 b3 bd 24 5e a9 bd b1 44 80 bb
       0.058070842 -0.087684564 -0.08269909 -0.0039144387
0000c0 09 e0 1d 3c 75 15 4a 3c f4 8b f8 bc 1c 67 f1 bc
       0.009635934 0.012334217 -0.030340172 -0.029468112
0000d0 ea cb 0b 3c 40 f7 03 3b 04 5e 08 3a 65 e1 a8 bd
       0.008532504 0.0020136386 0.00052019977 -0.082461156
0000e0 e1 cb 2f bb a8 53 88 3c dc 17 4f 3d 06 42 26 3d
       -0.0026824402 0.016641453 0.050559863 0.04059031
0000f0 70 41 94 3d 15 c1 37 3d 39 66 60 bd 00 d4 2d 3b
       0.07239044 0.04486187 -0.054784987 0.0026524067
000100 ba 03 17 bd 13 9c 37 3c 03 15 94 3d a2 8a 39 bd
       -0.03686879 0.011206645 0.0723057 -0.045298226
000110 2e e4 bd bc ba 61 5a 3d 05 05 98 3c 7c e1 ab bd
       -0.023180094 0.053315856 0.018557081 -0.08392617
000120 44 c4 0f bc b4 57 e7 bc 7b 7b 6f bd 14 c2 8e b8
       -0.008774821 -0.028240062 -0.05846737 -6.8072375e-05
000130 cb 88 39 bc 3d 6b 72 bd 08 17 bb bd 80 68 36 3c
       -0.011324118 -0.0591843 -0.09135252 0.011133313
000140 a6 7b 16 3c 70 09 60 bd 51 41 23 3d 9a 27 24 3d
       0.0091847535 -0.0546965 0.039857212 0.04007683
000150 c5 dd 26 3c ab b9 49 3d 53 38 5a 3d 4f 7a 8b 3d
       0.01018471 0.049249332 0.05327637 0.06810438
000160 13 35 e7 b9 ac 68 67 3d 6b 6d c2 3c a8 d9 e3 3c
       -0.00044099297 0.056496307 0.023733815 0.027813748
000170 78 b8 6f 3d 41 85 36 3d aa 9f c4 3c 86 8e 0e bd
       0.058525532 0.044560675 0.024001915 -0.03480389
000180 ec 37 a3 3d 1d 79 ca bc 66 a1 a9 bb 5a 4c 6e bc
       0.079696506 -0.024715954 -0.005176711 -0.014544571
000190 1a fd 1c 3b 97 1b b9 bc 07 a4 a4 3b 00 19 ab bc
       0.0023954571 -0.022596164 0.0050244364 -0.020885944
0001a0 d3 a3 38 bc ed 28 8a 3d 54 97 8b bd 93 2e 35 3b
       -0.0112695275 0.06746087 -0.06815973 0.0027646169
0001b0 fa ff 32 3d c4 c4 14 bd 1a 1d 8e bc ff 2a 34 bd
       0.04370115 -0.036320463 -0.017347861 -0.043986317
0001c0 b5 17 5c 3a 1a 93 8c bd 83 a6 0c bd 02 33 17 3d
       0.00083958666 -0.06863995 -0.034338485 0.03691388
0001d0 5e 82 60 bd 8c ac 24 3b b8 bb ff 3c ee 00 8c bc
       -0.054811828 0.002512726 0.031217441 -0.017090287
0001e0 c1 9d 35 bd f3 ed 03 bc a3 ac 66 bb 2b 87 59 bd
       -0.0443399 -0.008052337 -0.0035198114 -0.05310742
0001f0 fb db f2 bc e3 ba e4 3c c0 c2 4f 3d 7a d5 e1 bb
       -0.02964591 0.027921146 0.050722837 -0.0068919035
000200 ad eb 89 3d 4e df 05 bd 5f ba 89 bd 30 42 8b bc
       0.06734405 -0.032683663 -0.067250006 -0.016999334
000210 da ed a2 3d 7f 59 34 bd 60 67 2a 3c ef fb 63 bd
       0.07955523 -0.044030663 0.010400623 -0.055660184
000220 b5 c1 44 bd 4a 03 dc 3c 00 70 e1 3c ec 32 d9 3d
       -0.048036296 0.026857037 0.027519226 0.10605416
000230 a6 40 0d bd 57 32 64 bc 1b 73 8b bd 45 f8 c1 3c
       -0.03448548 -0.013928018 -0.06809064 0.023677954
000240 a1 03 77 3d da 6e 47 3c 52 ee 58 3d 76 82 aa 3d
       0.060306195 0.012172425 0.052961655 0.08325665
000250 74 af 0d bc a5 1e ee bc d9 8d 90 3d 47 fe 2d 3c
       -0.008647788 -0.029067347 0.07058305 0.0106197065
000260 38 69 e8 bc 88 b3 1f bd c8 2d 92 3d cf 09 68 bc
       -0.028370485 -0.038989574 0.07137638 -0.014162495
000270 9c 62 5e bd 37 ea a7 3d 29 b2 38 3c 4e 72 67 bd
       -0.05429326 0.0819897 0.011272945 -0.056505494
000280 2b d8 0a 3d 5e d4 e0 bc 46 1b b7 3c d3 6e 2f bd
       0.03389756 -0.027445015 0.022351872 -0.0428303
000290 24 44 27 3d 6a 2d ac bd 67 27 11 bb 8e 39 2a 3a
       0.04083647 -0.084070995 -0.002214873 0.00064935617
0002a0 4d 52 85 bd d2 16 13 3d f8 54 5d bd 91 23 9b bd
       -0.06509838 0.035910435 -0.05403611 -0.07575143
0002b0 f7 0a 02 3d 16 a9 09 bd 8a 87 7c 3d 4b 13 14 bd
       0.03174874 -0.03360852 0.061652698 -0.03615121
0002c0 73 71 2f 3d b9 33 42 3b 05 f1 23 3d 33 b5 38 bc
       0.042832803 0.002963288 0.040024776 -0.01127367
0002d0 82 9a 62 3d f3 ef a0 3d 68 4c 10 3d b3 b7 23 3d
       0.05532313 0.07858267 0.035229117 0.03997011
0002e0 67 14 61 3c c8 bd af 3c d5 08 65 bd 30 9a 61 3c
       0.013737774 0.0214528 -0.055916626 0.013769671
0002f0 e2 1a 41 bd ab a1 7e 3d bb a5 fe bc 20 a4 22 3c
       -0.047144778 0.062165897 -0.031084886 0.009926826
000300 07 32 72 3d b2 a9 18 3d 29 bb ea 3c 1b a0 a7 3b
       0.05912974 0.03727121 0.028653698 0.0051155216
000310 08 90 95 bd c8 69 86 bc 16 6b 48 bc cd 11 9c bc
       -0.073028624 -0.016407862 -0.0122325625 -0.019051457
000320 5c 49 88 3d 41 d6 58 3c 2b e1 e8 bc cb c1 37 3d
       0.06654617 0.013234676 -0.028427681 0.04486255
000330 78 a7 26 bc 45 68 4b bd b5 60 3f 3d 29 fc 63 bd
       -0.010171764 -0.049659986 0.046723086 -0.0556604
000340 13 e9 23 3c 46 48 25 3d 45 7b 19 3d 74 b9 b5 bc
       0.0100043 0.04035213 0.037471075 -0.022183158
000350 c1 40 5e ba c6 41 8f bd cb b6 74 bd c1 69 6b bd
       -0.0008478277 -0.06994967 -0.059744637 -0.0574739
000360 cb 5b 0c 3d 79 14 f4 bc fe c3 22 3b 94 59 fd 3c
       0.034267228 -0.029794918 0.0024836059 0.030926503
000370 2b ae 90 3d 9f b2 02 bd 86 61 02 3b a6 6b 73 3d
       0.0706447 -0.031908628 0.0019894554 0.059428833
000380 21 4c 95 3d 57 d6 fe 3b f8 6e 1c bd 1d de 51 3d
       0.07289911 0.007777016 -0.038191766 0.051237214
000390 70 b2 da bb a5 ee a2 bd 81 cb fd bc 25 97 bc 3c
       -0.0066741034 -0.07955674 -0.030980827 0.02302129
0003a0 49 ca 8e 3d 4a 25 34 3d b0 46 12 bc c7 4e 3a ba
       0.069721766 0.043980874 -0.008927986 -0.00071070757
0003b0 a0 ff 6f 3c 7c b7 8d bd 40 e7 3d 3c 00 f5 aa bd
       0.014648348 -0.069197625 0.011590779 -0.08347511
0003c0 aa ae 66 3d 07 b7 66 3d 50 f2 3b bd 61 81 98 3c
       0.056318916 0.056326892 -0.045885384 0.01861638
0003d0 d4 e7 cd 3c a8 1c cd 3c b0 78 06 bc 8c b1 08 3c
       0.025134958 0.025038078 -0.008207485 0.008343112
0003e0 61 31 db 3c b5 6c 2b 3d 1f 38 61 bd 95 01 9c 3d
       0.026756944 0.041851718 -0.054985162 0.07617489
0003f0 2c e6 22 bd 20 18 a2 3b be 7c 40 3c b4 f5 89 bb
       -0.03977029 0.0049467236 0.011748491 -0.0042101983

encoder.linear_means.bias f4 [6]
000000 28 27 99 38 1e 76 0d 3a 72 c5 14 ba cc 77 72 ba
       7.302902e-05 0.0005396324 -0.00056751736 -0.00092494185
000010 23 77 c4 3a a7 4c e8 39
       0.0014989119 0.000443076

encoder.linear_log_var.weight f4 [6, 128]
000000 17 cc a0 3d aa 0e 85 3d cf b8 48 3d ce fa 42 bd
       0.07851427 0.064969376 0.049004372 -0.047602467
000010 46 08 7d 3d 61 dc 1c 3c 1c 6e 0b bd e8 d7 43 bd
       0.06177547 0.009574027 -0.034040555 -0.047813326
000020 55 af 0e bc 98 9e 91 3d be 5a fc bc 5b 18 fb bc
       -0.008708795 0.071103275 -0.030804988 -0.030651262
000030 0c 94 56 3d 33 00 f2 3c 0e a8 37 bd 3d 2e 60 3c
       0.052387282 0.02954111 -0.044838004 0.013682899
000040 90 75 8c bd b7 6b 9a bc 7a a2 a5 3d a2 14 8a 3c
       -0.06858361 -0.01885019 0.080876306 0.016855542
000050 b5 5a 61 3d 0d 8c 3b 3d 00 75 98 b9 68 87 17 3d
       0.055018146 0.04578786 -0.0002907887 0.036994368
000060 a4 03 ee 3c 8d c0 ad bd 8b 8c 38 3d 46 3f a2 3d
       0.02905447 -0.08483992 0.045055907 0.07922225
000070 3b 83 d9 bc a7 52 02 3d fa db 36 bc 1b ba a1 3c
       -0.026551833 0.031817105 -0.011160845 0.019742062
000080 0b 70 61 bd 2c 1d 7d bd 74 fe 86 3c 61 85 51 3d
       -0.055038493 -0.0617954 0.016478755 0.05115259
000090 25 f4 90 3c a6 8c 8c bd 2e 1a ae bd 08 0e 35 3d
       0.017694542 -0.06862764 -0.08501087 0.044202834
0000a0 e5 94 aa 3c 7b 59 91 ba 4a 29 0f bd d5 4e e6 3c
       0.020822952 -0.0011089289 -0.034951486 0.028113762
0000b0 d5 be ef 3c ab 58 4e 3d 6b db 35 3c 29 5b 19 bd
       0.0292658 0.05037753 0.011099677 -0.037440453
0000c0 79 0b bf 3b ba e9 91 3d 21 0f 23 bd b5 a1 ad 39
       0.005830225 0.07124658 -0.03980935 0.00033117612
0000d0 13 62 a8 bc b1 a3 8d 3d 0c 24 58 3b a0 d4 82 bd
       -0.020554578 0.06915987 0.003298047 -0.06388211
0000e0 57 5e 46 3b a1 8a 8a 3d bd 1d a2 3b 30 db d1 3c
       0.0030268633 0.067647226 0.0049473927 0.025617212
0000f0 f8 74 a2 3c 1f 11 83 3d 36 83 67 bd 70 ca 27 3c
       0.019831166 0.0639975 -0.056521617 0.010241136
000100 bb 9e 03 bd 0d 64 3d bc 3f 71 97 bd 5e c3 0c bd
       -0.0321338 -0.0115594985 -0.07394647 -0.034366004
000110 4c 98 a9 3d d8 4e 96 3c f0 43 7a 3d d5 f0 9f 3d
       0.082810014 0.018348143 0.061099946 0.07809607
000120 bb a2 ac 3c 7b fa 2b 3d 06 92 61 bc e3 0a 67 bd
       0.02107369 0.041986924 -0.013767725 -0.056406867
000130 77 c0 b5 3c 4a 3a 0c bd 60 d5 c4 3c 70 97 f0 3c
       0.022186501 -0.034235276 0.024027526 0.029369086
000140 18 bc 4e bc 65 55 ef 3c 79 46 4c 3d dc af 8a bc
       -0.012618087 0.029215524 0.049871895 -0.01692956
000150 13 a6 c5 3c ae 95 c2 bb 8d c3 2e 3d 01 68 28 3d
       0.024127042 -0.0059382534 0.04266696 0.04111481
000160 71 36 29 3b bc 96 6d bd 86 46 27 bd 14 55 11 3d
       0.0025819803 -0.05800508 -0.04083874 0.035481527
000170 10 05 88 3d 67 47 f5 bc f5 29 9c bd 53 8c 06 3d
       0.066415906 -0.029941274 -0.0762519 0.032848667
000180 fe 15 bd bc ed 5e 86 bc e8 ff 4f 3c d0 61 77 bb
       -0.023081776 -0.016402686 0.01269529 -0.003774751
000190 ce d8 f9 3c df 5a a8 bd 4e 35 ff 3c af cc 93 bd
       0.030498888 -0.08220457 0.031153347 -0.07216775
0001a0 b0 b9 e0 3c 66 aa 6a 3d 6e 4c d7 bc 3b b8 12 3c
       0.027432293 0.05729141 -0.026281562 0.008955057
0001b0 38 b6 5f bc 78 3c 02 3d 81 89 16 b9 fa c6 81 3d
       -0.013654284 0.03179595 -0.00014356339 0.0633678
0001c0 4d 6b 88 bd 19 d5 80 3d 48 f4 17 bd 82 e0 10 bc
       -0.06661091 0.06290645 -0.0370982 -0.008842589
0001d0 54 38 e6 3c 5a 49 a6 bc 00 b4 3f 3b 33 b6 dc bc
       0.028103031 -0.020298649 0.0029251575 -0.026942348
0001e0 a1 fe 9d 3b 26 a9 90 bb 79 80 ee bb 16 7f 91 bd
       0.004821614 -0.0044146953 -0.0072784987 -0.07104318
0001f0 25 04 c0 bc cd 25 49 3d 43 34 f8 bc 91 e0 83 3d
       -0.023439476 0.049108315 -0.030298358 0.06439317
000200 21 d3 b0 3d 39 72 92 3d ee 55 bd 3d 08 77 25 bd
       0.0863402 0.071506925 0.092449054 -0.04039672
000210 10 71 69 3d 59 93 20 bd b6 fd 06 3d 10 b1 f9 bc
       0.05699259 -0.03920302 0.0329568 -0.030479938
000220 b7 a6 85 bd 4d 70 f8 3c fe 26 10 bd ac 51 bf bc
       -0.06525939 0.030326987 -0.035193436 -0.023354374
000230 03 e2 be bb 8b ef f7 bc fc f2 90 bd 8c f1 2b 3d
       -0.0058252825 -0.03026559 -0.070775956 0.041978404
000240 77 96 e8 3b 89 93 2e bc b2 79 72 bd ac 34 c6 3d
       0.007098015 -0.010655292 -0.05919809 0.09678015
000250 06 f7 80 bc 49 07 17 3d 1b 6c 21 bd 61 7f 33 3c
       -0.01574279 0.036872182 -0.039409738 0.0109556625
000260 cf dd 85 bd 7c 92 ad 3c 05 6d d1 bc aa 7e 5e 3d
       -0.06536447 0.021188013 -0.02556468 0.054320015
000270 b3 5f 58 3d 58 0d 2b bb cc 32 48 bc 9e 6c 9a bd
       0.05282564 -0.0026100483 -0.012219142 -0.07540248
000280 f2 94 d1 3c 6b 8d 54 bd 43 c1 33 3d 8e dc 8f bc
       0.025583718 -0.05189268 0.04388548 -0.017561223
000290 28 be 48 3d c0 b6 52 3c 61 f5 d4 bc 12 24 3b 3d
       0.049009472 0.012860954 -0.025995912 0.045688696
0002a0 f3 ec 1d 3d 6b 5d d2 ba 6b ff a8 3b 7d c8 0c bd
       0.03855605 -0.0016049569 0.0051574013 -0.034370888
0002b0 7a 72 00 bc 65 db 52 bd 73 43 a6 ba 82 e0 74 3c
       -0.007839793 -0.051478762 -0.0012684896 0.014946105
0002c0 a6 98 d1 bc 85 cb 99 3c 9f c5 d6 bc 27 b1 56 bd
       -0.025585484 0.018773803 -0.02621728 -0.05241504
0002d0 8f ab 29 bc 4e dc 84 bd bb 40 31 bc 18 1a 8b bd
       -0.010355844 -0.06487332 -0.010818656 -0.06792086
0002e0 f7 56 51 3b d6 cf 6f bd 79 ab 07 3d ab 01 50 bd
       0.0031942704 -0.058547817 0.033122513 -0.05078284
0002f0 c2 2d b5 3d 74 49 48 bd f9 97 95 3d 70 97 8e 3b
       0.08846618 -0.048898175 0.07304377 0.004351549
000300 99 d5 92 b9 74 90 a9 3d 6e 06 1f bb 00 51 3a 3b
       -0.00028006433 0.08279505 -0.0024265307 0.0028429627
000310 be 1b a4 bd 86 69 40 bd f0 bf 94 3d c9 47 12 bd
       -0.08013104 -0.046975635 0.07263172 -0.03571299
000320 e2 0c ff 3c 40 89 8e bc 7d 63 eb bc cb f1 c9 bc
       0.031134073 -0.01739943 -0.028733963 -0.024651429
000330 9d b9 84 ba a2 6d c2 bc 95 4a 17 3d d5 6a 92 3d
       -0.0010126118 -0.023733918 0.03693636 0.07149283
000340 dc 4a 0d 3c 7a 8d a1 bd 29 1b 44 3d 0b 7d 0c bd
       0.008623805 -0.07888313 0.047877464 -0.034298938
000350 94 d4 60 38 a0 f2 17 3d 0b a8 9e bd 5a cc 69 bd
       5.360374e-05 0.03709662 -0.077468954 -0.05707965
000360 d9 16 87 39 cc 46 9a bc 94 41 e9 bb 59 1c 66 bd
       0.0002576623 -0.018832587 -0.007118413 -0.05617938
000370 52 2b 2b bd e0 04 fd 3c 7d a1 8a bd 00 1c c5 3b
       -0.04178936 0.030886114 -0.06769083 0.0060153008
000380 f2 2e 96 3d e3 be a3 bc 65 7a 58 3c b5 66 ad bb
       0.07333173 -0.019988483 0.013212775 -0.0052917846
000390 54 89 08 3d 61 98 63 3d d8 3f 0d 3d 28 08 45 3c
       0.03333409 0.05556524 0.034484714 0.01202587
0003a0 6c b4 86 3d 8f 52 03 3d 76 14 25 3d cb 8a 3b 3c
       0.065773815 0.032061156 0.040302716 0.011446665
0003b0 20 21 3e 3c 49 65 35 3d 40 b1 33 bd b3 f6 9b 3d
       0.011604577 0.044286046 -0.04387021 0.076154135
0003c0 ca d4 45 3d 9c 39 aa bc 31 79 de 3b 06 ef c6 3c
       0.048298635 -0.020779423 0.0067893495 0.024283897
0003d0 5a 0f 52 3d dd 2d e3 bb a8 af a2 bc b6 fb 8c bc
       0.05128417 -0.0069329576 -0.01985915 -0.017209869
0003e0 58 70 bf 3c 48 7c e7 bb 74 2c 66 3d 75 4b 16 bd
       0.023369 -0.007064376 0.056194738 -0.036693055
0003f0 39 2e 0a bd cd c1 69 3d 51 f6 24 bd e5 cd 68 bd
       -0.033735488 0.05706959 -0.040273968 -0.05683698

encoder.linear_log_var.bias f4 [6]
000000 f1 bf 4b bb 37 68 56 ba f7 1b db ba a0 28 6b bb
       -0.0031089748 -0.00081789814 -0.0016716708 -0.0035882369
000010 f0 2d 04 ba b9 38 93 bb
       -0.00050422456 -0.004492846

decoder.MLP.L0.weight f4 [128, 12]
000000 08 76 ce 3b cd fd ee ba 05 44 5f bc a8 aa da 3b
       0.0063006915 -0.0018233598 -0.013627057 0.006673176
000010 4a ca 7b 3b 4c dc d9 bc bf f6 8e be 66 b6 80 be
       0.0038420134 -0.026594304 -0.27922627 -0.2513916
000020 30 2d ba be 09 08 4a 3c 02 8f 97 be cb 55 09 be
       -0.363626 0.012331017 -0.29601294 -0.13411634
000030 4e 31 bd bb 5c 5f 14 3c 6f 4a ea 39 03 ed 8b bb
       -0.0057737 0.009055939 0.00044687415 -0.0042701974
000040 ae 27 07 bb 7e 01 6e 3b 5d 76 3a 3f 4f 76 57 be
       -0.0020623016 0.0036316807 0.7283686 -0.21041225
000050 4f 03 47 3e f5 fb 0b c0 a7 dc c7 3f d6 41 4c bf
       0.19434856 -2.1872532 1.5614213 -0.7978796
000060 9e 7d eb bc ae ee 83 3c 60 b4 74 bb 88 f9 96 bc
       -0.028746422 0.016105022 -0.0037338957 -0.018429533
000070 e6 d2 ab 3c c0 99 ea 3b 0d d8 7c be d4 9d a7 be
       0.020974588 0.0071594417 -0.24691792 -0.327376
000080 d8 57 6f be ac 16 33 be d3 2b 83 3e f4 ae 1a be
       -0.23373353 -0.17489117 0.25619373 -0.15105802
000090 bd 3f 32 3a 67 15 8b 3b ec 88 21 3b d8 bb 2c b9
       0.0006799659 0.0042444947 0.0024648262 -0.00016473175
0000a0 1d dc e9 bb c9 f3 f0 3a c1 37 2b bf c9 03 33 3f
       -0.0071368353 0.00183832 -0.6688195 0.6992765
0000b0 73 ec 2d bf 84 ab cd 3e 71 33 8d be 57 46 92 be
       -0.6793892 0.4016992 -0.2757831 -0.2856929
0000c0 39 ed 8b 3c 57 c4 22 ba db 4f d0 b9 31 a5 44 3c
       0.01708089 -0.00062090665 -0.00039732349 0.012002275
0000d0 4a 15 d2 bc d4 f2 44 bc d7 78 83 be 45 72 2a 3d
       -0.025644917 -0.012020785 -0.2567813 0.041612882
0000e0 b1 d3 b7 be 24 d7 91 be b2 db dd bb 62 92 15 3e
       -0.35903695 -0.28484452 -0.0067705745 0.14606622
0000f0 11 8e 80 3c 47 0a d4 37 cf 14 aa 3b fd df 94 ba
       0.015692743 2.5277155e-05 0.005190469 -0.0011358258
000100 02 5d e2 ba 78 f7 f4 bb f3 fa 2e bf 25 76 1b 3f
       -0.001727015 -0.0074757896 -0.6835167 0.6072715
000110 25 b1 3a be 2a f6 35 bf ee fa 56 3c 47 cb 13 bf
       -0.18231638 -0.7107874 0.01312135 -0.5773205
000120 38 00 88 bb fd d6 4f bc 5c 87 04 bb 24 ab 29 bb
       -0.0041504167 -0.012685535 -0.0020222282 -0.0025889361
000130 4c 72 dc 3b ab b5 ee 3c 10 ea cc bf 25 81 e5 bf
       0.0067274924 0.02913936 -1.600893 -1.7930037
000140 54 03 a4 c0 b7 8b 15 c1 be 18 52 40 3e ad 1b 40
       -5.1254063 -9.34661 3.2827601 2.4324489
000150 33 13 07 bd 9f fa bb 3a 5f 91 a0 bc a8 a0 aa bc
       -0.032977294 0.0014341659 -0.019600568 -0.02082856
000160 a5 e5 7c bc 83 89 28 bc 9f 5c 1e bf e2 9f d2 be
       -0.015435611 -0.010286692 -0.6186008 -0.41137606
000170 6c 80 10 bf 0e a2 08 be 8f dd 53 bd e5 16 e3 be
       -0.56445956 -0.13343069 -0.051724967 -0.44353405
000180 5e df ea bb 38 40 b0 3c a6 18 6e 3c 9e 04 1d 3d
       -0.0071677407 0.021514997 0.014532244 0.03833448
000190 01 87 5d b7 6b 76 14 3d 83 0b 7c be df 1a 67 be
       -1.32040595e-05 0.036245745 -0.24613766 -0.22568844
0001a0 09 74 38 bb 9d dd 47 3d fe 9c cc bd 70 42 b1 be
       -0.0028145334 0.04879533 -0.099908814 -0.34621
0001b0 18 26 1d ba 64 29 94 3b bf 6d 00 bc bc c0 59 3c
       -0.0005994751 0.0045215357 -0.0078386655 0.01329058
0001c0 51 e3 b3 ba 50 a1 e1 bb 9d ef af be 10 0b 2d 3e
       -0.0013724362 -0.006885685 -0.34362498 0.16898751
0001d0 11 0a 99 be ce c7 98 3e d4 4f a1 bc 3d 8d 5a be
       -0.29890493 0.2983994 -0.019691385 -0.2134294
0001e0 98 a7 a9 3b 30 45 e9 3b 65 bd 01 bc 0b 57 b5 bb
       0.0051774494 0.0071188435 -0.00791869 -0.005534058
0001f0 71 08 0f 3b 8e 7d 02 bc 7f be 4e 39 33 b6 73 3e
       0.00218251 -0.007964505 0.00019716656 0.23799972
000200 b7 43 61 bf 53 a0 65 3f 4c 53 42 bc d9 12 4f be
       -0.8799395 0.8969776 -0.01186068 -0.20222034
000210 04 69 40 bb 03 a0 00 bc 9b 24 42 ba e2 72 1e bc
       -0.002935947 -0.00785065 -0.00074059673 -0.009670945
000220 87 a1 33 3c c1 8d 0a 3b ef 2c c1 be 6c 05 a2 3d
       0.010963804 0.002114162 -0.37729594 0.079111904
000230 10 36 4e bf e3 63 da 3f 84 86 03 bf 49 ef 3e c0
       -0.8055124 1.7061733 -0.5137713 -2.9833548
000240 63 72 99 3c 48 e9 94 3a a1 09 e7 3c 12 f5 36 bb
       0.018731302 0.0011361027 0.028202834 -0.002791707
000250 4b 84 38 bd 7b 95 aa bb 9a ae 69 be 6d 05 ff be
       -0.04504804 -0.0052058077 -0.22820511 -0.49808827
000260 ef 77 ea bd 48 e8 10 bd f9 c4 91 be a0 7e 52 be
       -0.11448657 -0.03537777 -0.2847059 -0.20556116
000270 d6 db 0a 3c 73 03 59 bc 91 19 22 bd fe f3 fb 3b
       0.008475265 -0.013245451 -0.039575163 0.0076889982
000280 f3 9d 6e bd 93 d0 ef 39 68 59 64 be 1e 7d 6c be
       -0.0582561 0.00045741032 -0.22299731 -0.23094603
000290 19 ef 67 bc 8e 46 f2 3c 6a 2b 02 bf 60 e1 82 be
       -0.014156126 0.029574659 -0.50847495 -0.25562572
0002a0 a2 c6 e1 3a ec a4 96 bb fa 11 59 bc 37 cb d6 3a
       0.0017225335 -0.004597297 -0.013248915 0.0016387467
0002b0 75 7d 95 bc 21 32 fa 3c d5 04 1f be f4 06 a3 bd
       -0.0182483 0.030541481 -0.15529187 -0.079603106
0002c0 6c 0a c1 bd cc b2 f3 bd 16 38 c8 be 43 69 83 3c
       -0.09425816 -0.11899337 -0.3910529 0.016041404
0002d0 cd 9f cb bb 0e 5e 15 3c f0 8b 89 3b 4f 59 12 3b
       -0.006214118 0.009116663 0.00419759 0.0022331064
0002e0 1b f4 f8 bb 25 f4 24 3c 7a 40 7f be 26 5a 9d 3e
       -0.007597459 0.010067974 -0.2492694 0.3073284
0002f0 dd 41 f5 be 71 16 34 bd 2a 1f 72 3d 26 5d 9b bb
       -0.47901812 -0.043966714 0.05911175 -0.004741329
000300 f7 84 94 39 d5 c9 1a 3a 7b 3f 14 bb 6f 08 cc bb
       0.00028327826 0.0005904709 -0.0022620845 -0.0062265913
000310 d2 51 85 38 fc 6f e1 ba 3c 29 32 bf 8c c4 05 3f
       6.3571744e-05 -0.0017199512 -0.6959417 0.5225303
000320 3d f9 0d bf a8 41 51 3f 86 e7 bb be a7 3b 2f bf
       -0.5545843 0.8174081 -0.36700076 -0.684504
000330 ff 12 a8 bc c7 aa 7c bc 47 64 a5 bc fa 31 85 3c
       -0.02051687 -0.015421576 -0.020189418 0.016259182
000340 5a 17 dd bc 3b 49 15 3c 72 e4 c4 bd ee f7 aa 3d
       -0.026988674 0.009111698 -0.09613885 0.0834807
000350 d5 32 d0 bd 61 15 0d be cc f4 bc bc 2a a0 2d bd
       -0.101659454 -0.13777687 -0.023065947 -0.042389072
000360 c3 75 9c bc d5 24 a7 3c 55 a8 80 3b d4 21 83 bc
       -0.019099122 0.020403305 0.0039263167 -0.016007341
000370 98 82 7e ba f7 7f 7b bc e4 2c 51 be db c5 d2 3c
       -0.0009708791 -0.015350333 -0.2042728 0.02572911
000380 e1 4a 3b bf 38 fd c6 be 2a c0 36 3e 1a bb 04 3f
       -0.7316113 -0.38865066 0.17846742 0.51847994
000390 d1 1a c8 bc 0d 48 a1 3b 07 55 04 bd e6 16 a3 3c
       -0.02442685 0.004921919 -0.03230765 0.01990838
0003a0 4d 62 11 3c c1 17 2c 3d cc 1e c9 be ad d7 b1 bd
       0.008873534 0.04201484 -0.3928131 -0.08683715
0003b0 e5 87 bc 3b ea 98 e0 be 4d 9d a3 be 68 14 9e be
       0.0057535046 -0.43866664 -0.31955948 -0.30874944
0003c0 2e 6b c2 bc 58 88 0b 3d 36 a9 85 bd dd 47 db 3d
       -0.023732748 0.034065574 -0.06526415 0.10707066
0003d0 e2 86 f9 3c e9 e6 3f 3c d0 74 90 be 8a 2d e9 bd
       0.030459825 0.011712768 -0.2821412 -0.11385639
0003e0 c1 2c 8b 3c 80 af c1 bd 3c 96 0b be df b6 a9 be
       0.016989114 -0.09457302 -0.13631529 -0.33147332
0003f0 e6 1e 10 bb 2f 61 b4 ba ce 20 0f 3b 79 27 b0 bb
       -0.0021991073 -0.0013761873 0.0021839621 -0.0053757993

decoder.MLP.L0.bias f4 [128]
000000 05 0e 30 bd 39 e3 7d be ab 98 a7 bc 32 91 c9 bc
       -0.04298212 -0.2479371 -0.02045854 -0.024605367
000010 b0 16 ea bd b1 39 28 3f 99 3d b5 3f 68 77 92 bd
       -0.114301085 0.6571303 1.4159423 -0.07151681
000020 28 9e 15 be 2f ac a7 3f 27 1c db be b9 d8 61 3f
       -0.14611113 1.3099421 -0.42794916 0.8822132
000030 3b c4 01 bd be 9d 24 be 54 88 08 be d2 70 6f be
       -0.03168128 -0.16075799 -0.13333255 -0.23382881
000040 d8 73 84 3f 30 2b 08 bf 4d 7f bb be a1 e0 d7 bd
       1.0347853 -0.531909 -0.3662056 -0.105408914
000050 4f c3 fa be d5 80 b5 bf 2a 8d 7f be c7 ad dd be
       -0.48977134 -1.4179941 -0.24956194 -0.43296644
000060 ca c4 16 be 82 22 90 be eb 26 5c bf 86 a6 0a bf
       -0.14723507 -0.28151327 -0.85996884 -0.54160345
000070 fc 19 59 c0 9a 31 6c bf 82 ed 43 be 92 8a 88 be
       -3.392211 -0.92263186 -0.19133571 -0.2666822
000080 b6 10 31 bf e3 f5 ff 3f 49 d8 61 3f de 6d d8 bd
       -0.69166124 1.9996914 0.8822065 -0.105678305
000090 33 9b 20 bf ac 70 b3 3d 0d b3 31 be b7 2c 9d be
       -0.62736815 0.08761725 -0.17353459 -0.30698177
0000a0 0f 0c 77 3f 2e 4d 3f bf d6 61 86 3e bc 08 f9 be
       0.96502775 -0.7472714 0.26246518 -0.48639476
0000b0 7e c7 08 bf fe 73 94 3e a2 e5 36 3d de a6 a2 be
       -0.534294 0.28994745 0.04465259 -0.31767935
0000c0 67 2c 81 3f 52 70 fe bd d4 c5 21 bf 3b 61 48 be
       1.0091676 -0.12423767 -0.63192487 -0.1956834
0000d0 a2 e8 2d 3d 38 19 8c bd 77 9e ef be 6d 13 d0 3f
       0.042458184 -0.068407476 -0.46800587 1.6255928
0000e0 4b 83 09 bf 10 5b fa be 1a d8 9d be da 0f cb be
       -0.5371596 -0.488976 -0.30828935 -0.3966053
0000f0 d1 1d ae be f6 28 72 3f 27 d4 a6 be 88 04 c6 bd
       -0.34007123 0.9459375 -0.32583734 -0.09668833
000100 1a 43 57 c0 df d8 cb 3e 1f b5 e1 3f ea a7 cb be
       -3.3634706 0.39813897 1.7633399 -0.39776546
000110 68 6b 76 3f 6c 95 5b 3f 4a 81 52 3e 71 23 be be
       0.9625764 0.85774875 0.20557132 -0.37136415
000120 1b b8 93 be 0c 6b ed be 5b 87 8c 3f 4a 39 fd 3d
       -0.288514 -0.46370733 1.0978807 0.12364443
000130 ef 1a f2 be c8 02 23 c0 c6 79 a2 be d6 dc 87 be
       -0.47286174 -2.5470448 -0.3173353 -0.26535672
000140 58 2b 15 bf b1 48 a3 bf 0a 84 1f be 9b 57 3d 3e
       -0.5826926 -1.2756559 -0.15577713 0.1849045
000150 16 08 4c 3c 44 ea c8 be ce b2 5e 3e e9 dd 8d be
       0.0124531 -0.3924123 0.21747896 -0.27708367
000160 e7 29 20 bf 9e 1e fc 3b ff 83 67 be 12 f0 96 3c
       -0.6256394 0.0076940795 -0.22608946 0.018425021
000170 83 9b 34 bf ad ef 08 be 00 7b 2c be d4 45 4d 3d
       -0.7054979 -0.13372679 -0.16843796 0.05011542
000180 03 15 8a 3c f6 32 e0 3b c6 a3 a7 bd 16 01 44 3f
       0.016855722 0.0068420125 -0.08185534 0.76564157
000190 04 42 2a be 1b 33 f5 be 51 88 0a bf cb 94 c4 bc
       -0.16626745 -0.47890553 -0.5411425 -0.023996731
0001a0 b2 27 5c bf cd 44 99 be a0 87 3c bf 95 1b 06 be
       -0.8599807 -0.29935303 -0.7364445 -0.13096459
0001b0 86 35 d3 3f 9f cd e3 3f 49 fe c4 be 20 54 8a bf
       1.6500709 1.7797126 -0.38475254 -1.0806923
0001c0 5c 21 64 c0 6a 20 17 c0 0b 3e 0a 3e 82 cc 09 bf
       -3.564536 -2.3613534 0.1350023 -0.5382768
0001d0 82 c0 80 3d bf d2 cc bd 9d ba 4d be ea 31 d3 be
       0.06286718 -0.10001134 -0.20090719 -0.4124902
0001e0 3b 39 81 be 04 1b 07 be 0e 9f 96 be d3 a9 e8 3f
       -0.25238976 -0.131939 -0.29418224 1.8176826
0001f0 4b 4b 2b c0 4d 89 99 be 26 ce 55 bd 94 c3 d8 be
       -2.6764705 -0.29987565 -0.05219855 -0.42336714
