model/CVAE_10000_0.0008_16_[12, 256, 160, 80]_14_[80, 160, 256, 6].pth (torch, 476014 bytes, 18 tensors)

encoder.MLP.L0.weight f4 [256, 12]
0.0003701838 0.06580389 -0.26239097 -0.23296528 -0.13064562 0.062800705 -0.0048485147 0.23095173
-0.023681715 0.07945138 -0.08249585 -0.051604554 -0.28710285 -0.23817256 -0.07966071 0.02293778
0.12459569 0.1632217 -0.18554509 -0.10531975 0.1601017 0.29063565 -0.008779781 0.20319568
-0.04652962 0.03054589 0.26138848 -0.26779535 -0.18173194 -0.07308251 -0.11252555 0.24941552
-0.18711334 -0.13288665 -0.20168012 -0.27036187 -0.20321424 0.27463073 0.10140098 0.11344656
-0.010669573 -0.18434192 -0.0050516613 -0.31885374 -0.22720052 -0.1582852 0.19647147 0.11820549
-0.22309674 0.040409252 0.13868038 0.21705021 0.041133456 -0.056634024 0.11959914 -0.2219792
0.06454668 -0.19642419 -0.13944814 -0.22447269 0.09269873 0.17653401 -0.22904968 0.0470262
0.120805316 -0.04132862 0.0063311807 0.054209214 0.15513265 0.25340888 -0.24641527 -0.10645928
0.05115651 0.2696339 0.24540353 0.21704066 0.01607456 -0.31253928 -0.0038927386 -0.18710817
-0.2099652 0.32786113 0.32160577 -0.29126772 0.046719927 -0.008291745 -0.10761676 -0.1775744
0.06820476 -0.19776261 0.08310333 0.12012964 0.1787593 0.08582391 -0.30524853 -0.20053959
0.2008797 0.040655006 -0.19543119 -0.12975346 0.30941305 0.26595318 -0.03932935 0.0034722444
-0.23731706 0.014641072 -0.22009833 -0.17861405 -0.015905887 0.043343157 -0.11822121 0.17129335
-0.1756701 0.26193517 0.19782904 -0.24343482 -0.07184671 0.01302579 0.042118013 0.068466306
0.11328429 0.017291695 -0.1408529 0.1365979 -0.2769113 -0.17109968 -0.072264 -0.1406175
-0.100988194 -0.23660439 -0.06140557 0.061706156 -0.22973046 -0.004638567 0.21504737 -0.039894346
-0.0018934885 -0.041614745 0.055781975 0.17364578 0.2649819 0.16380525 0.25068837 -0.020946339
-0.2593231 -0.1368543 0.19656041 -0.0018713176 -0.14348492 -0.22121516 -0.27015722 -0.24364418
-0.05855392 0.15831119 0.15606964 -0.27840748 0.18007037 -0.22589102 -0.061028898 -0.11704987
-0.055603236 -0.05667925 -0.25904262 -0.24925305 -0.045171738 0.003733188 -0.13113786 0.1087437
-0.31856313 -0.017348157 0.24942859 -0.1527708 0.22334692 0.044132706 -0.2933308 0.16357838
-0.028723 -0.12903677 0.23059967 -0.26499373 -0.07469269 0.042856704 0.099471755 -0.026922468
0.030699223 -0.020507734 -0.1635883 -0.1436221 -0.29894245 0.10215541 0.17643784 0.1354016
-0.20362517 0.0128748715 -0.20349695 -0.1589111 -0.1682126 0.09865329 -0.17202532 -0.006298095
0.012144029 0.18608665 -0.21821532 -0.198179 -0.24487177 0.24783109 -0.13902092 0.18514687
0.04374807 -0.030256558 -0.020362595 -0.06356002 0.07089669 -0.030115323 0.048637975 0.005556129
-0.22580317 -0.15130371 0.2331031 -0.23427334 -0.020728648 0.2855686 0.104280144 0.008173257
-0.25016874 0.14300328 -0.20561774 -0.081944555 -0.18156509 0.017112246 -0.028045574 0.18546492
-0.019813837 0.19077805 0.12145057 -0.2221659 0.13125959 -0.19358677 -0.08664753 0.041918106
0.09423657 0.23360167 -0.09753112 0.010643894 0.15981673 -0.24171789 0.24039336 -0.21806134
-0.017763242 -0.087030746 -0.1807279 0.076267526 0.23871088 -0.08438538 -0.17138472 -0.10676327
00000000: 3b15 c239 31c4 863d 1c58 86be 738e 6ebe
00000010: f7c7 05be a89d 803d 4ae0 9ebb 9c7e 6c3e
00000020: 2800 c2bc 68b7 a23d 96f3 a8bd 4c5f 53bd
00000030: 25ff 92be 82e3 73be 2825 a3bd 03e8 bb3c
00000040: 062c ff3d 9723 273e 88ff 3dbe e2b1 d7bd
00000050: b3f1 233e 32ce 943e 12d9 0fbc 8712 503e
00000060: d895 3ebd 603b fa3c b6d4 853e 791c 89be
00000070: f017 3abe 48ac 95bd cc73 e6bd c866 7f3e
00000080: a49a 3fbe 7013 08be 3c85 4ebe df6c 8abe
00000090: 6517 50be 669c 8c3e 51ab cf3d ac56 e83d
000000a0: 6fcf 2ebc 21c4 3cbe 6888 a5bb cc40 a3be
000000b0: 41a7 68be 8415 22be d12f 493e b815 f23d
000000c0: 7973 64be 2c84 253d 3b02 0e3e 6942 5e3e
000000d0: 8e7b 283d 14f9 67bd 65f0 f43d 844e 63be
000000e0: 0d31 843d 6c23 49be 7ecb 0ebe 2bdc 65be
000000f0: d5d8 bd3d 55c5 343e 008c 6abe 8b9e 403d
00000100: c768 f73d 3348 29bd cb75 cf3b 7b0a 5e3d
00000110: 18db 1e3e cfbe 813e 4954 7cbe 5307 dabd
00000120: 7d89 513d 740d 8a3e 104b 7b3e e83f 5e3e
00000130: ccae 833c 2605 a0be 511d 7fbb 4999 3fbe
00000140: 1e01 57be 6add a73e 83a9 a43e 0b21 95be
00000150: 655d 3f3d 19da 07bc 2d66 dcbd 10d6 35be
00000160: f0ae 8b3d 4882 4abe 1432 aa3d 8706 f63d
00000170: ae0c 373e 72c4 af3d 8949 9cbe 405a 4dbe
00000180: 68b3 4d3e dd85 263d 1d1f 48be 17de 04be
00000190: 636b 9e3e 042b 883e d017 21bd 988e 633b
000001a0: 3e03 73be 1be1 6f3c 7561 61be 9ae6 36be
000001b0: 104d 82bc 9888 313d f61d f2bd 8667 2f3e
000001c0: dde2 33be 5e1c 863e b293 4a3e fa46 79be
000001d0: 5e24 93bd 206a 553c f083 2c3d 1038 8c3d
000001e0: 9801 e83d 50a7 8d3c be3b 10be 52e0 0b3e
000001f0: 51c7 8dbe c134 2fbe 26ff 93bd 09fe 0fbe
00000200: e6d2 cebd 6c48 72be 6884 7bbd 98bf 7c3d
00000210: 763e 6bbe 1fff 97bb 6135 5c3e 4168 23bd
00000220: ee2e f8ba 3974 2abd a47b 643d 33d0 313e
00000230: b5ab 873e 90bc 273e 3a5a 803e a897 abbc
00000240: ffc5 84be 8923 0cbe 2247 493e 0047 f5ba
00000250: b6ed 12be 3a86 62be 0c52 8abe dc7d 79be
00000260: 3cd6 6fbd 541c 223e b8d0 1f3e 6d8b 8ebe
00000270: 5e64 383e fa4f 67be 70f9 79bd d8b7 efbd
00000280: 38c0 63bd 8028 68bd 3ca1 84be 313c 7fbe
00000290: 0006 39bd 80a8 743b 0149 06be 04b5 de3d
000002a0: b51a a3be b91d 8ebc 356a 7f3e f36f 1cbe
000002b0: 0eb5 643e 7fc4 343d 742f 96be 1781 273e
000002c0: 7f4c ebbc 3722 04be 5222 6c3e 42ad 87be
000002d0: 7bf8 98bd 838a 2f3d d9b7 cb3d 828c dcbc
000002e0: f07c fb3c d6ff a7bc b183 27be ac11 13be
000002f0: fc0e 99be db36 d13d 1fac 343e b8a6 0a3e
00000300: 1e83 50be 20f1 523c 8161 50be 97b9 22be
00000310: ec3f 2cbe bc0a ca3d 6827 30be 4060 cebb
00000320: c0f7 463c 808d 3e3e d673 5fbe 70ef 4abe
00000330: aabf 7abe 6fc7 7d3e 805b 0ebe 2497 3d3e
00000340: 2d31 333d 9adc f7bc 75cf a6bc c12b 82bd
00000350: 4932 913d 69b4 f6bc 9d38 473d 3010 b63b
00000360: f238 67be 5cef 1abe 94b2 6e3e 5ae5 6fbe
00000370: 20cf a9bc 0c36 923e d490 d53d 20e9 053c
00000380: 1e16 80be 746f 123e 758d 52be 8cd2 a7bd
00000390: 33ec 39be fb2e 8c3c d5bf e5bc 84ea 3d3e
000003a0: a150 a2bc 525b 433e 14bb f83d 757f 63be
000003b0: ea68 063e 9c3b 46be 4374 b1bd 52b2 2b3d
000003c0: 1aff c03d 4735 6f3e 65be c7bd ba63 2e3c
000003d0: ffa6 233e e584 77be ad29 763e 794b 5fbe
000003e0: 3884 91bc 2d3d b2bd bc10 39be 2632 9c3d
000003f0: a070 743e 3ed2 acbd 7a7f 2fbe b4a6 dabd

encoder.MLP.L0.bias f4 [256]
0.25613028 0.20776418 -0.25259373 -0.14921278 0.059143197 -0.1701659 -0.004540657 -0.15057865
0.12962289 0.1408563 0.090734005 0.18940061 -0.034737766 0.1567134 0.03201132 -0.21373014
-0.2038815 0.1977443 -0.08606896 0.14974204 0.21972255 -0.011624455 -0.3157009 0.029994614
-0.17666255 0.11724991 -0.16448985 0.15531728 -0.23312715 -0.045766853 -0.024156071 0.07685784
0.2515951 -0.109830655 -0.25797132 0.14339079 0.080664486 0.18357806 -0.17085397 -0.2942717
-0.07583231 0.04163321 0.08571491 -0.20729631 -0.08428854 -0.049892753 0.28833607 -0.076869756
0.19127208 -0.1726616 -0.11508258 -0.32750592 0.2135149 -0.15280995 0.05649059 -0.11214278
0.2008637 0.121361345 -0.27573308 0.048035223 0.018287953 -0.29857236 0.051985715 0.26972973
0.073143594 -0.0015351772 -0.05984299 0.076395884 -0.24249087 0.24531679 0.20394385 0.13558832
-0.03029359 -0.28562668 -0.17560063 0.17495333 -0.26425776 -0.31269094 -0.039204262 0.074531965
-0.30266765 -0.2690539 -0.0032347704 -0.09683147 0.16041099 0.073022395 -0.25667614 -0.2697293
0.21975775 -0.10114599 -0.20290561 0.095944695 -0.0567348 0.13805813 0.0047293208 -0.12498872
-0.23137008 0.21864794 -0.17343912 -0.13063385 0.039470047 -0.12718631 0.16026036 -0.20305051
-0.034007486 0.007791729 0.07597776 -0.27223155 -0.025740508 0.12767148 -0.18481475 0.11992654
-0.02862613 0.20006703 -0.04622585 -0.054301172 -0.07865454 -0.11221648 0.08364919 -0.3093352
0.2189911 0.19491775 0.049571242 0.11435591 -0.15573227 0.054152787 0.014686257 -0.23967996
-0.16539343 -0.14915954 -0.07137591 -0.2332797 -0.19289365 -0.027413368 -0.043914154 -0.32457244
0.119293846 0.2187502 0.22238414 0.24660143 -0.20135778 -0.1561502 -0.15478967 -0.007421446
-0.031002982 0.06422627 0.21383974 0.06296836 -0.22789122 0.1306587 0.1947312 -0.087780975
-0.2511543 -0.14631158 0.014172482 0.042232692 0.2691751 0.13395922 -0.008804405 0.00051320926
0.1334662 -0.16908202 0.018616535 -0.2085629 0.003097216 0.092450984 0.09420957 -0.07634691
-0.0036552548 -0.20354927 0.05735543 0.15542333 0.092906564 -0.28710368 -0.209397 0.13647318
-0.04133378 0.031517625 0.14699987 -0.14516811 -0.17345686 -0.3635578 0.05133118 0.19407864
-0.07876117 -0.27337432 -0.19590619 -0.040057328 0.11201934 -0.21398579 -0.1938942 -0.22847432
0.21190536 0.19616678 -0.24748367 -0.28929284 -0.3015332 -0.0002390748 -0.20112827 -0.0009772182
-0.039381772 -0.25268942 -0.24068649 -0.24895906 -0.15102012 -0.03689835 -0.18183081 -0.011085579
-0.017756263 0.22313078 -0.13159831 0.27122003 -0.22876696 -0.24085173 0.0037012964 -0.19026344
0.09566976 -0.15970874 0.15320358 0.2977412 0.037693415 0.08589187 0.264844 0.22323613
-0.2613938 -0.027490836 -0.26058054 0.22051507 -0.07502978 0.0037382029 -0.19748868 -0.20887709
0.107939966 0.23995832 -0.14510338 -0.047599204 0.27526498 0.21987733 -0.14588358 0.27056408
0.08704233 0.20222607 0.008564889 -0.24465069 -0.106067754 0.12561667 0.03481309 -0.34319082
0.19157472 -0.27530685 0.09927503 0.26552793 0.0373914 -0.054482043 0.1267278 -0.06825224
00000000: 8223 833e 22c0 543e f753 81be 3ccb 18be
00000010: 2340 723d f83f 2ebe cbc9 94bb 4a31 1abe
00000020: ddbb 043e a23c 103e c0d2 b93d 3cf2 413e
00000030: 3049 0ebd 7a79 203e 4d1e 033d 13dc 5abe
00000040: 50c6 50be 7b7d 4a3e ec44 b0bd fa55 193e
00000050: f3fe 603e 8074 3ebc 8ca3 a1be 44b7 f53c
00000060: 07e7 34be b920 f03d 0770 28be 7e0b 1f3e
00000070: e2b8 6ebe 0676 3bbd f4e2 c5bc a567 9d3d
00000080: 13d1 803e e5ee e0bd d114 84be 09d5 123e
00000090: 6c33 a53d e3fb 3b3e 58f4 2ebe c8aa 96be
000000a0: f84d 9bbd 9687 2a3d 4c8b af3d 7c45 54be
000000b0: 789f acbd 585c 4cbd c9a0 933e e46d 9dbd
000000c0: d4dc 433e 34ce 30be 6ab0 ebbd dbae a7be
000000d0: a6a3 5a3e 367a 1cbe ad62 673d 1dab e5bd
000000e0: 37af 4d3e 4c8c f83d e32c 8dbe 95c0 443d
000000f0: 9ed0 953c 7ade 98be f9ee 543d 041a 8a3e
00000100: 4fcc 953d 0038 c9ba ec1d 75bd 7275 9c3d
00000110: 874f 78be 5334 7b3e a8d6 503e aad7 0a3e
00000120: 432a f8bc a93d 92be a7d0 33be f726 333e
00000130: cb4c 87be 0719 a0be a694 20bd 37a4 983d
00000140: 41f7 9abe 6fc1 89be 71fe 53bb 944f c6bd
00000150: c742 243e c48c 953d 0e6b 83be f519 8abe
00000160: 2d08 613e a125 cfbd 7dc6 4fbe a77e c43d
00000170: c062 68bd 1c5f 0d3e 6bf8 9a3b 16fa ffbd
00000180: 47ec 6cbe 3fe5 5f3e 069a 31be e1c4 05be
00000190: 58ab 213d 213d 02be 4b1b 243e 79ec 4fbe
000001a0: 6f4b 0bbd c351 ff3b 3a9a 9b3d ef61 8bbe
000001b0: c2dd d2bc 50bc 023e 1440 3dbe 0c9c f53d
000001c0: 5981 eabc 5fde 4c3e 5157 3dbd e86a 5ebd
000001d0: a215 a1bd c1d1 e5bd 4450 ab3d 2f61 9ebe
000001e0: 343f 603e 8598 473e 370b 4b3d 6e33 ea3d
000001f0: 4878 1fbe 50cf 5d3d a09e 703c aa6e 75be
00000200: e55c 29be 47bd 18be 882d 92bd e0e0 6ebe
00000210: ea85 45be 0092 e0bc 54df 33bd 5c2e a6be
00000220: 5550 f43d 0d00 603e abb8 633e 1685 7c3e
00000230: bc30 4ebe d7e5 1fbe 2f81 1ebe 9a2f f3bb
00000240: f7f9 fdbc 1089 833d cef8 5a3e 8ef5 803d
00000250: 515c 69be 65cb 053e 9e67 473e 83c6 b3bd
00000260: 4c97 80be b4d2 15be b333 683c 30fc 2c3d
00000270: 52d1 893e 9b2c 093e 5a40 10bc e488 063a
00000280: 5dab 083e d623 2dbe b481 983c 8391 55be
00000290: a9fa 4a3b f156 bd3d f2f0 c03d c55b 9cbd
000002a0: 008d 6fbb 386f 50be 87ed 6a3d 4b27 1f3e
000002b0: cc45 be3d 41ff 92be 2b6c 56be a0bf 0b3e
000002c0: 9c4d 29bd a018 013d 2287 163e f3a6 14be
000002d0: ad9e 31be 3f24 babe a540 523d 8dbc 463e
000002e0: 894d a1bd b8f7 8bbe a29b 48be 2713 24bd
000002f0: 656a e53d 171f 5bbe 338c 46be 2cf5 69be
00000300: b8fd 583e f2df 483e 5c6c 7dbe 311e 94be
00000310: 8f62 9abe 27b0 7ab9 92f4 4dbe 0016 80ba
00000320: c84e 21bd 8260 81be 8576 76be 20ef 7ebe
00000330: 05a5 1abe b922 17bd db31 3abe 4aa0 35bc
00000340: 9575 91bc 657c 643e b5c1 06be 5add 8a3e
00000350: e341 6abe d6a1 76be 7391 723b 6bd4 42be
00000360: 82ee c33d b08a 23be 66e1 1c3e 8971 983e
00000370: 6964 1a3d 14e8 af3d a299 873e 0398 643e
00000380: 68d5 85be 7634 e1bc d06a 85be b4ce 613e
00000390: 37a9 99bd a3fc 743b 793a 4abe e0e3 55be
000003a0: a10f dd3d a2b7 753e fb95 14be 62f7 42bd
000003b0: 88ef 8c3e 8627 613e 8162 15be 6087 8a3e
000003c0: 4043 b23d 5a14 4f3e c053 0c3c b685 7abe
000003d0: 0d3a d9bd a8a1 003e 2c98 0e3d b5b6 afbe
000003e0: 2a2c 443e 05f5 8cbe b550 cb3d 47f3 873e
000003f0: ba27 193d 9028 5fbd efc4 013e d5c7 8bbd

encoder.MLP.L1.weight f4 [160, 256]
-0.046295792 -0.044355482 0.029386371 0.047732756 0.0025307983 -0.06059937 -0.061412998 -0.014112964
0.033738703 -0.0416497 0.0168463 -0.03416063 0.050850913 -0.016376942 -0.013024949 -0.054817528
-0.055980727 0.004224047 0.010105699 0.03376671 -0.05465182 0.010951288 -0.009028718 0.036662236
-0.028418496 0.018620431 0.0251856 0.031396106 -0.021436825 0.020113178 -0.012248896 0.01682996
-0.038431443 -0.04966308 -0.051124148 -0.0392892 -0.02645173 0.009303249 -0.013671078 -0.03557974
0.00052503496 -0.019737296 0.0385269 -0.05147534 -0.023069292 -0.04016456 0.007711932 0.0034097359
-0.0035953745 0.062012263 -0.023842737 -0.008983076 0.01614733 0.052163243 0.047373526 0.0071399063
-0.023645416 0.020532407 0.03932409 -0.0013338327 0.034314603 0.05115132 -0.03348553 -0.013817266
-0.056269713 0.014347084 0.04454314 -0.012136944 0.009973057 0.019970872 -0.0013330802 0.04859005
0.00910759 -0.061434105 -0.051611632 -0.061922833 0.0025760233 0.033785492 -0.008245654 0.05619456
-0.011243932 0.012778148 0.056358792 0.03163074 -0.0019939318 0.060201436 -0.037341528 0.023279727
0.03947106 -0.038699478 -0.058708973 0.019991383 -0.0237118 -0.031540103 0.012431584 -0.045339264
0.05621274 -0.005610369 -0.020015776 0.052248828 0.017402597 0.011907645 -0.029883184 0.05956717
-0.01903554 0.051983133 -0.0045942813 0.03135235 0.04394517 -0.0465314 -0.04165645 -0.061803386
0.04507891 0.053749107 -0.022841848 -0.030611202 0.010461889 0.033648707 0.015427217 -0.013025619
-0.039754674 0.053454243 -0.040475853 -0.06039369 -0.024954535 0.012463003 0.02323068 0.024166703
-0.03620617 -0.023986869 -0.027792484 -0.030266218 -0.052642085 0.012793727 -0.018176086 -0.06015663
-0.03649483 -0.037534125 -0.026960172 -0.03861901 -0.010838702 0.022397675 -0.05058212 -0.0053540394
-0.017986856 -0.03195364 -0.013878018 -0.026489452 0.0020092353 -0.045115627 0.011852428 0.05738327
0.051788196 -0.028022446 0.019264266 -0.05907526 0.05262146 -0.062285297 -0.05585164 -0.05610182
-0.058040872 0.008464366 -0.016527042 0.014959216 -0.0038671345 -0.0013425723 -0.022580087 -0.03708092
-0.052328475 0.031536482 -0.03222496 -0.012711175 0.030355923 -0.015478864 -0.015758418 -0.041665345
-0.053475037 0.02999793 -0.014101133 0.039300308 0.0041135326 -7.9385936e-05 -0.056425065 0.0013798773
-0.014124796 -0.035664648 -0.014464863 0.0032674223 -0.047092646 0.0103927255 0.043488435 0.0123467
0.059659548 0.029165134 -0.04929056 -0.024600893 -0.015040182 0.018696412 -0.0017825961 0.050293542
0.0072603896 -0.03958191 -0.022913486 -0.051997572 -0.017233096 0.030728556 0.0006035343 -0.05960027
-0.054081112 0.02265913 -0.054856412 -0.04985124 -0.03726343 0.059569895 -0.01777161 -0.025768831
-0.042200804 0.039981693 -0.0100917965 0.012052178 0.014930621 0.017626666 0.040005535 0.003243342
0.0064648464 -0.004058756 -0.048566706 -0.014303021 0.05948464 -0.044295147 -0.03944432 -0.062019616
0.003789857 -0.05845765 -0.032012135 0.057590067 0.025885306 0.033298224 0.010701947 -0.053111233
-0.029082485 -0.050597407 -0.03864743 0.021284014 -0.017334633 0.06107895 -0.045559816 -0.053338125
0.061712652 -0.053990997 0.053183205 0.016829863 -0.05696571 0.054436207 -0.017015263 -0.025771089
00000000: a8a0 3dbd 18ae 35bd b0bb f03c 6c83 433d
00000010: c0db 253b 0c37 78bd 328c 7bbd 103a 67bc
00000020: 9831 0a3d e098 2abd 4001 8a3c 04ec 0bbd
00000030: 0c49 503d f028 86bc 9866 55bc 5888 60bd
00000040: 0c4c 65bd e069 8a3b 6092 253c f64e 0a3d
00000050: 96da 5fbd 086d 333c 30ed 13bc 242b 163d
00000060: e8cd e8bc e089 983c 0852 ce3c 3499 003d
00000070: 489c afbc 64c4 a43c 98af 48bc fcde 893c
00000080: 4a6a 1dbd 846b 4bbd 8e67 51bd b6ed 20bd
00000090: 4cb1 d8bc a86c 183c a8fc 5fbc 10bc 11bd
000000a0: 80a2 093a 1cb0 a1bc 62ce 1d3d ced7 52bd
000000b0: d0fb bcbc 9883 24bd 60b4 fc3b e075 5f3b
000000c0: 60a0 6bbb 9200 7e3d d851 c3bc c02d 13bc
000000d0: 6847 843c 20a9 553d be0a 423d e0f5 e93b
000000e0: 08b4 c1bc 9433 a83c 4c12 213d 00d4 aeba
000000f0: 788d 0c3d 0c84 513d 2028 09bd d061 62bc
00000100: 127b 66bd 0810 6b3c de72 363d 08da 46bc
00000110: 0866 233c f499 a33c c0ba aeba 5c06 473d
00000120: 0038 153c 54a2 7bbd b866 53bd cca2 7dbd
00000130: 80d2 283b a862 0a3d c818 07bc 442c 663d
00000140: 7838 38bc 705b 513c 7ad8 663d 3c8f 013d
00000150: a0ac 02bb c895 763d 6ef3 18bd 20b5 be3c
00000160: 68ac 213d 5883 1ebd d278 70bd f8c4 a33c
00000170: 403f c2bc 3230 01bd d8ad 4b3c aab5 39bd
00000180: 543f 663d 30d7 b7bb 20f8 a3bc de02 563d
00000190: e48f 8e3c 4818 433c 94cd f4bc b4fc 733d
000001a0: 6cf0 9bbc 44ec 543d a08b 96bb 526b 003d
000001b0: daff 333d b697 3ebd f49f 2abd 8c25 7dbd
000001c0: aaa4 383d 0628 5c3d d41e bbbc 58c4 fabc
000001d0: 5868 2b3c 3ad3 093d 70c2 7c3c 6869 55bc
000001e0: ccd5 22bd d6f2 5a3d 02ca 25bd 605f 77bd
000001f0: 746d ccbc a031 4c3c 444e be3c 40f9 c53c
00000200: ec4c 14bd 1c80 c4bc 10ad e3bc dcf0 f7bc
00000210: 3a9f 57bd c89c 513c 04e6 94bc cc66 76bd
00000220: 9a7b 15bd 62bd 19bd 94db dcbc f82e 1ebd
00000230: d094 31bc 547b b73c 322f 4fbd f070 afbb
00000240: 2c59 93bc d2e1 02bd a060 63bc 6800 d9bc
00000250: 60ad 033b 2acb 38bd b030 423c b80a 6b3d
00000260: dc1f 543d 548f e5bc 18d0 9d3c e6f8 71bd
00000270: 9a89 573d de1e 7fbd b0c4 64bd 06cb 65bd
00000280: 44bc 6dbd 20ae 0a3c b863 87bc 8017 753c
00000290: c06f 7dbb 40f9 afba e0f9 b8bc 2ae2 17bd
000002a0: 6256 56bd 662c 013d 52fe 03bd 8842 50bc
000002b0: fcac f83c 109b 7dbc cc17 81bc 48a9 2abd
000002c0: a408 5bbd 38be f53c 7008 67bc 5cf9 203d
000002d0: d0ca 863b 007c a6b8 f81d 67bd 00dd b43a
000002e0: b06b 67bc 1815 12bd 08fe 6cbc 4022 563b
000002f0: 38e4 40bd 4046 2a3c ee20 323d d049 4a3c
00000300: 925d 743d b8eb ee3c e6e4 49bd d087 c9bc
00000310: 186b 76bc 3829 993c 00a6 e9ba 9a00 4e3d
00000320: 90e8 ed3b a420 22bd 10b5 bbbc 68fb 54bd
00000330: 6c2c 8dbc 74ba fb3c 8036 1e3a 6a1f 74bd
00000340: 2884 5dbd a49f b93c 1eb1 60bd d030 4cbd
00000350: 8aa1 18bd 90ff 733d c495 91bc 2819 d3bc
00000360: c0da 2cbd d8c3 233d 1058 25bc 8076 453c
00000370: 909f 743c cc65 903c d8dc 233d 408e 543b
00000380: 10d7 d33b 50ff 84bb e2ed 46bd 3857 6abc
00000390: 2aa6 733d d46e 35bd 5e90 21bd 4808 7ebd
000003a0: 405f 783b 4a71 6fbd 281f 03bd 90e3 6b3d
000003b0: 6c0d d43c b863 083d 3857 2f3c 2a8b 59bd
000003c0: 643e eebc 3a3f 4fbd c44c 1ebd d05b ae3c
000003d0: 5c01 8ebc ec2d 7a3d ee9c 3abd 1479 5abd
000003e0: 68c6 7c3d aa25 5dbd a2d6 593d c8de 893c
000003f0: e054 69bd 80f8 5e3d 9863 8bbc e41d d3bc

encoder.MLP.L1.bias f4 [160]
0.009422146 0.037383676 -0.009749482 0.0103752455 0.050899968 0.048714552 -0.02411288 0.013762059
-0.014653441 0.028965151 -0.044200324 -0.09675613 -0.037362237 -0.0065694707 -0.011436636 -0.06875155
-0.036733948 -0.025249824 -0.07402962 0.015012091 -0.06170642 0.07650558 -0.021133885 -0.041026887
-0.025647283 0.05426465 -0.050922494 0.009997051 0.019250374 -0.030229926 -0.0150424 -0.049847256
-0.027600681 0.028052526 0.06378918 0.016774595 -0.037790276 0.0021782552 0.025867172 -0.010991295
-0.030373957 0.05761351 -0.04642013 -0.056772627 0.029548846 0.02054138 -0.048741482 -0.028154036
-0.026219873 -0.025303805 -0.064614244 -0.070395425 0.006417086 -0.04413835 0.0442866 0.015872102
-0.04407317 0.05687096 0.021208411 0.02112905 -0.08817299 0.0058206995 0.03682248 -0.05288602
0.039875437 -0.038057532 -0.07368193 -0.0068330937 -0.012243807 0.047351576 0.043401595 0.03872507
0.059661902 0.0011757757 0.0041933297 -0.026945496 -0.016265694 -0.04484079 0.013778473 0.016587002
-0.018030465 -0.065486595 -0.0134784095 0.029465675 -0.067205735 -0.05527793 -0.022110578 -0.061526455
-0.02669441 0.029462656 -0.04705841 -0.031690873 -0.06481779 0.010764991 -0.011693691 -0.02698113
-0.06267565 -0.059707012 -0.020997372 -0.008537585 -0.0005435024 -0.038961135 -0.0239159 -0.047795247
-0.05406701 -0.04623106 0.04337186 0.006203527 -0.035490602 -0.018655019 0.019430563 0.019652233
0.041242745 -0.06617293 -0.08854575 0.031056454 0.049923077 0.015820967 -0.057208024 -0.06873189
0.01390039 -0.013442792 -0.060860254 -0.022908255 -0.046409424 -0.01508325 0.01670141 -0.048997115
-0.01967421 -0.0106869 0.049446344 0.030508257 0.009991538 0.07402289 -0.041304752 0.05327214
-0.082027264 0.016893974 -0.06431209 -0.045983385 0.0022810297 0.014638675 0.041618675 -0.038030133
0.020389527 0.03502464 0.009456837 0.0031036462 0.024126025 -0.020070404 0.005318004 0.03941863
0.047438025 -0.02662337 -0.0049435943 0.037941482 -0.052789982 0.014861667 -0.105080105 -0.05841196
00000000: 585f 1a3c a01f 193d 4bbc 1fbc effc 293c
00000010: 7c7c 503d e988 473d 6088 c5bc 427a 613c
00000020: fc14 70bc 5348 ed3c 660b 35bd 1428 c6bd
00000030: 2509 19bd b744 d7bb ba60 3bbc 9dcd 8cbd
00000040: 5676 16bd b8d8 cebc d79c 97bd 46f5 753c
00000050: dfbf 7cbd f5ae 9c3d f820 adbc cf0b 28bd
00000060: 401a d2bc 9c44 5e3d 1b94 50bd acca 233c
00000070: f6b2 9d3c c0a4 f7bc 6674 76bc a32c 4cbd
00000080: d31a e2bc 69ce e53c e7a3 823d e06a 893c
00000090: fac9 1abd 0fc1 0e3b 64e7 d33c d514 34bc
000000a0: ced2 f8bc 25fc 6b3d 0923 3ebd 6a8a 68bd
000000b0: 6c10 f23c 6546 a83c 26a5 47bd 4ba3 e6bc
000000c0: 0fcb d6bc ed49 cfbc 7954 84bd 7a2b 90bd
000000d0: 6b46 d23b 6aca 34bd de65 353d 3606 823c
000000e0: 1186 34bd 86f1 683d 43bd ad3c d416 ad3c
000000f0: 0a94 b4bd 91bb be3b 2bd3 163d 039f 58bd
00000100: 6d54 233d 37e2 1bbd 8de6 96bd 25e8 dfbb
00000110: 409a 48bc baf3 413d dfc5 313d 2e9e 1e3d
00000120: 0a60 743d 7c1c 9a3a 3368 893b cdbc dcbc
00000130: a23f 85bc faaa 37bd 1bbf 613c 77e1 873c
00000140: a0b4 93bc d61d 86bd 8cd4 5cbc 0062 f13c
00000150: 29a3 89bd 1c6b 62bd 3e21 b5bc 2a03 7cbd
00000160: 3cae dabc ab5b f13c 52c0 40bd 4ace 01bd
00000170: 31bf 84bd a55f 303c e596 3fbc 8807 ddbc
00000180: 175c 80bd 578f 74bd ae02 acbc 3ae1 0bbc
00000190: d479 0eba b695 1fbd 47eb c3bc f3c4 43bd
000001a0: 5e75 5dbd c85c 3dbd b1a6 313d f546 cb3b
000001b0: 985e 11bd 69d2 98bc d82c 9f3c b8fd a03c
000001c0: 27ee 283d ac85 87bd 7957 b5bd 1b6a fe3c
000001d0: 247c 4c3d f99a 813c f652 6abd 4ec3 8cbd
000001e0: 76be 633c 283f 5cbc 9a48 79bd 18aa bbbc
000001f0: cf17 3ebd bc1f 77bc 65d1 883c 33b1 48bd
00000200: cf2b a1bc 1b18 2fbc 4088 4a3d 74ec f93c
00000210: 8cb3 233c 5099 973d 2c2f 29bd e333 5a3d
00000220: e9fd a7bd 3b65 8a3c 0fb6 83bd 1359 3cbd
00000230: 547d 153b 0ed7 6f3c 5878 2a3d 7cc5 1bbd
00000240: f007 a73c ff75 0f3d d9f0 1a3c 8b66 4b3b
00000250: f1a3 c53c b06a a4bc a742 ae3b 6e75 213d
00000260: 604e 423d 4119 dabc e0fd a1bb 8768 1b3d
00000270: 4f3a 58bd 597e 733c 3d34 d7bd 6141 6fbd

encoder.MLP.L2.weight f4 [80, 160]
-0.041679006 0.058000334 -0.020704182 0.05873398 0.04003534 -0.019942552 0.0098776445 -0.013199203
-0.0657382 0.061016917 -0.08251917 -0.13408652 0.022645434 0.01592269 -0.062355664 0.029198177
0.033607136 -0.030187787 0.051022742 -0.025678765 -0.017979017 -0.050904334 -0.005696021 -0.03395369
-0.023936713 -0.040997252 -0.04450692 -0.0066041723 -0.04247336 -0.07307259 0.035020154 -0.023559872
-0.0776908 -0.061273925 0.01395934 -0.06959428 -0.06499442 -0.040270656 -0.051335163 -0.0832582
-0.06887261 -0.0050072297 0.06364708 0.022050396 -0.041503534 -0.10327707 -0.07028401 -0.008007797
0.0020941505 0.011845656 0.010710859 0.035549425 0.06640934 -3.0174851e-05 0.008725591 0.017951936
-0.03564056 0.057341896 -0.062008865 -0.00023496896 -0.018630011 0.0018352127 -0.08328312 -0.030349586
0.07374064 -0.01945757 0.05263084 -0.042423893 -0.08397579 -0.03847062 -0.048673652 -0.020231633
0.035845377 -0.030968975 -0.022968024 -0.059770167 -0.066251844 0.04819522 0.022617526 -0.029427927
0.048127946 -0.042978235 -0.041637637 0.07457673 -0.06135565 0.07689049 -0.007323638 0.04053251
0.0050806087 0.036434576 -0.053704094 0.07852114 0.0034303383 -0.024517514 -0.08294898 -0.050910585
0.013581575 0.02642735 0.012996638 -0.026969414 0.03320413 -0.00040285685 0.015826508 0.07013803
-0.0182891 -0.026836593 0.048611008 -0.03370377 0.019138075 -0.04045435 -0.015812187 -0.027467743
0.052138135 0.0015596151 -0.051210903 -0.041024342 0.07667225 -0.043574348 0.029043868 -0.035802815
0.0023840482 0.04000117 0.012571208 0.07069998 0.0055085183 -0.00040192172 0.07530514 0.05815218
0.011467574 0.0020808536 0.022221752 0.032366917 0.042324167 0.02921345 -0.048492942 -0.021199975
-0.095446125 -0.06916221 0.013578542 0.05003505 0.012790121 0.066569194 0.01482556 0.036211662
-0.007749453 0.066985965 0.006193459 -0.02165479 -0.061077345 0.044685785 0.07633127 -0.09627507
-0.07408164 0.07147371 -0.08410332 0.003970179 0.0019340888 0.039064746 -0.05499633 0.028121946
0.07791451 0.013360478 -0.0074258926 -0.08087799 0.016512835 0.021367311 0.027555868 0.039361004
-0.03161215 -0.048560835 -0.017684583 -0.025108358 -0.036286455 -0.059941035 -0.0976633 -0.002954165
-0.0072197258 0.023968874 0.050599735 0.004104019 0.021379847 -0.08343068 -0.054207586 0.06479368
0.017431976 0.023935676 0.016903833 -0.04367619 -0.022524739 0.06893749 -0.039675128 0.040348902
-0.024382925 -0.034645513 -0.035851922 -0.04397426 -0.021426488 -0.02900204 -0.03353592 -0.057569865
-0.028713344 -0.03749407 -0.02482808 -0.049584683 -0.014401026 -0.06026772 -0.016406946 -0.011300904
-0.06955325 -0.013217812 -0.004209006 -0.046504054 0.037251167 0.06622509 -0.0013438481 0.007748393
-0.017304685 0.017381229 0.028235888 0.038362242 0.0017239999 -0.084105544 -0.07264472 0.04084055
0.044588983 0.08259416 0.038318694 -0.08349173 -0.014405511 0.07537224 -0.034494683 0.059942998
-0.07492095 -0.033950478 0.04157272 -0.064427555 0.028635532 -0.0786831 0.048646457 0.006696403
0.027271558 0.03433458 0.004270987 -0.07313809 0.07209342 0.046754457 -0.029490989 -0.0041997978
0.0033430054 -0.03862235 -0.0038399675 -0.07537799 -0.0122571755 -0.012924381 -0.005741181 0.043206476
00000000: 9bb7 2abd c291 6d3d d19b a9bc 0b93 703d
00000010: 19fc 233d 905e a3bc d8d5 213c 7841 58bc
00000020: c0a1 86bd e0ec 793d d0ff a8bd fa4d 09be
00000030: eb82 b93c 4d70 823c a768 7fbd 0431 ef3c
00000040: a3a7 093d 614c f7bc 39fd 503d 465c d2bc
00000050: bb48 93bc 1081 50bd b0a5 babb 0613 0bbd
00000060: ed16 c4bc bcec 27bd e34c 36bd d067 d8bb
00000070: 8cf8 2dbd 15a7 95bd 4b71 0f3d a200 c1bc
00000080: 5b1c 9fbd 5efa 7abd b7b5 643c 7287 8ebd
00000090: cb1b 85bd d8f2 24bd d244 52bd 4683 aabd
000000a0: 150d 8dbd b013 a4bb 6659 823d 08a3 b43c
000000b0: 9cff 29bd ee82 d3bd 10f1 8fbd 2333 03bc
000000c0: 043e 093b 4814 423c 997c 2f3c 469c 113d
000000d0: 9f01 883d 0020 fdb7 c8f5 0e3c f00f 933c
000000e0: d6fb 11bd 56df 6a3d 02fd 7dbd 0062 76b9
000000f0: f79d 98bc 858b f03a 5790 aabd b29f f8bc
00000100: 5505 973d 7b65 9fbc 7093 573d adc4 2dbd
00000110: 80fb abbd 5e93 1dbd 065e 47bd cfbc a5bc
00000120: 9ad2 123d a6b2 fdbc 7027 bcbc 90d1 74bd
00000130: 0caf 87bd 5a68 453d 6448 b93c d612 f1bc
00000140: cf21 453d f209 30bd 3a8c 2abd afbb 983d
00000150: 1050 7bbd c378 9d3d 21fb efbb 6b05 263d
00000160: 3c7b a63b 6c3c 153d d3f8 5bbd b1cf a03d
00000170: 87cf 603b f4d8 c8bc 28e1 a9bd 9e87 50bd
00000180: 4185 5e3c 2b7e d83c daef 543c f6ee dcbc
00000190: 0e01 083d 8836 d3b9 98a6 813c 87a4 8f3d
000001a0: 06d3 95bc 6ad8 dbbc 561c 473d f70c 0abd
000001b0: 74c7 9c3c 76b3 25bd 8f88 81bc 0804 e1bc
000001c0: cc8e 553d 006c cc3a 86c2 51bd 2409 28bd
000001d0: 5706 9d3d 047b 32bd 68ed ed3c f9a5 12bd
000001e0: b13d 1c3b 44d8 233d 78f7 4d3c 27cb 903d
000001f0: cd80 b43b 05b9 d2b9 9539 9a3d fb30 6e3d
00000200: 7ee2 3b3c ee5e 083b 640a b63c 2c93 043d
00000210: 1b5c 2d3d 0c51 ef3c 89a0 46bd 92ab adbc
00000220: 4279 c3bd eba4 8dbd 8878 5e3c 8df1 4c3d
00000230: a88d 513c 6e55 883d e8e6 723c ae52 143d
00000240: 20ef fdbb f02f 893d 80f2 ca3b 6365 b1bc
00000250: 3d2c 7abd 7108 373d 9253 9c3d dd2b c5bd
00000260: 1db8 97bd cf60 923d 5d3e acbd 4618 823b
00000270: 4081 fd3a 5b02 203d d543 61bd ff5f e63c
00000280: a591 9f3d e8e5 5a3c e754 f3bb 5ca3 a5bd
00000290: ed45 873c 800a af3c d8bc e13c 0139 213d
000002a0: be7b 01bd bae7 46bd 42df 90bc 0bb0 cdbc
000002b0: 1ba1 14bd bb84 75bd b203 c8bd aa9a 41bb
000002c0: 7393 ecbb 5f5a c43c ab41 4f3d 027b 863b
000002d0: ca24 af3c b4dd aabd c608 5ebd 8db2 843d
000002e0: 81cd 8e3c c014 c43c e879 8a3c cee5 32bd
000002f0: cd85 b8bc 192f 8d3d 6382 22bd e444 253d
00000300: b3be c7bc 74e8 0dbd 77d9 12bd 5b1e 34bd
00000310: 9a86 afbc b095 edbc f65c 09bd 61ce 6bbd
00000320: 3f38 ebbc 6293 19bd 4264 cbbc 4f19 4bbd
00000330: 48f2 6bbc 49db 76bd dc67 86bc 6d27 39bc
00000340: ef71 8ebd 868f 58bc b4eb 89bb 097b 3ebd
00000350: ae94 183d 05a1 873d 0f24 b0ba 3be6 fd3b
00000360: 8ec2 8dbc 1463 8e3c f34e e73c ba21 1d3d
00000370: d6f7 e13a 873f acbd c1c6 94bd 6c48 273d
00000380: f0a2 363d 2127 a93d 10f4 1c3d b6fd aabd
00000390: 1805 6cbc c35c 9a3d 4c4a 0dbd ca86 753d
000003a0: 2870 99bd a80f 0bbd 2848 2a3d 98f2 83bd
000003b0: 1095 ea3c 9b24 a1bd 8241 473d 806d db3b
000003c0: 9a68 df3c 6ba2 0c3d a3f3 8b3b 6cc9 95bd
000003d0: b7a5 933d 9a81 3f3d 1697 f1bc 759e 89bb
000003e0: 5316 5b3b 7832 1ebd f7a7 7bbb c75f 9abd
000003f0: 52d2 48bc c8c0 53bc 8420 bcbb 46f9 303d

encoder.MLP.L2.bias f4 [80]
0.0010933115 -0.006904698 -0.017670758 0.04883566 -0.019427279 -0.047517285 -0.050588164 -0.040098276
-0.07413996 -0.038421404 -0.042638376 0.046718672 -0.08341602 -0.02342942 -0.009098238 -0.09911829
0.024091192 -0.07344762 0.061693683 0.040706784 -0.0965258 0.049057383 -0.04970307 0.035656385
0.0015360157 -0.0032009005 -0.07067832 0.020528253 -0.027828488 -0.07076631 -0.07691338 -0.0037862328
0.03888689 -0.04913344 -0.05152074 0.0357562 -0.08593155 0.0012392259 -0.009057005 -0.040677696
-0.005800627 -0.012764632 0.044862505 -0.029983073 -0.03627502 0.023044178 -0.039726596 -0.106006786
-0.008906722 -0.0986826 -0.054172143 -0.002620519 -0.035423398 -0.054102316 0.033247896 -0.016319169
-0.061586734 -0.061314516 0.025180154 0.022583779 0.045736544 -0.09757894 -0.07837056 -0.041665863
-0.01849413 -0.035395768 0.03849824 -0.035847835 -0.052166637 -0.018593129 0.03243507 -0.041518256
-0.10336092 -0.034628287 -0.011886764 -0.060023226 0.021609161 0.0032047473 -0.019840188 -0.077735186
00000000: 724d 8f3a ce40 e2bb 44c2 90bc e707 483d
00000010: f525 9fbc 7ca1 42bd 8935 4fbd 173e 24bd
00000020: b1d6 97bd c35f 1dbd 94a5 2ebd 145c 3f3d
00000030: 05d6 aabd 0eef bfbc c710 15bc 88fe cabd
00000040: e45a c53c b56b 96bd 84b2 7c3d 28bc 263d
00000050: 52af c5bd 65f0 483d 7295 4bbd 6e0c 123d
00000060: 2254 c93a 33c6 51bb ccbf 90bd de2a a83c
00000070: 92f8 e3bc eded 90bd c384 9dbd 7222 78bb
00000080: dc47 1f3d 2540 49bd 6907 53bd 1875 123d
00000090: e1fc afbd 856d a23a d563 14bc a89d 26bd
000000a0: 3013 bebb bf22 51bc bfc1 373d 109f f5bc
000000b0: 1e95 14bd 25c7 bc3c 5bb8 22bd 161a d9bd
000000c0: 80ed 11bc 1a1a cabd 9ce3 5dbd 03bd 2bbb
000000d0: 2018 11bd 649a 5dbd f22e 083d c7af 85bc
000000e0: 5f42 7cbd ee24 7bbd 9c46 ce3c 9e01 b93c
000000f0: 3e56 3b3d 78d7 c7bd bf80 a0bd d3a9 2abd
00000100: 0081 97bc 27fb 10bd 55b0 1d3d 2ed5 12bd
00000110: afac 55bd 9e50 98bc a3da 043d 0c0f 2abd
00000120: e4ae d3bd 64d6 0dbd b4c0 42bc eada 75bd
00000130: b205 b13c bd06 523b e487 a2bc a033 9fbd

encoder.linear_means.weight f4 [14, 80]
0.09747827 -0.025086816 0.067633584 -0.07199873 0.029963076 -0.03323807 -0.027349409 -0.0013844972
-0.06779225 0.04573748 0.016675254 0.06535358 0.0040854383 -0.018621614 0.064068265 0.068428054
0.032714188 -0.008670171 0.067596264 -0.033474643 -0.10199684 -0.02118058 -0.03566941 -0.02089031
0.047605872 0.07602852 0.032062408 0.009393347 -0.026481675 0.021052059 0.05400683 -0.0005838923
-0.026138665 0.045136828 -0.0019119484 -0.01636257 0.02193655 0.07641716 -0.060933664 -0.057459135
-0.011398529 0.09179575 -0.003306108 -0.0428513 -0.06338598 -0.08701887 -9.248647e-05 0.07077173
-0.0023981445 -0.057083793 0.0615775 -0.06663914 -0.04288703 -0.04453476 -0.012112794 -0.027368518
-0.051770423 0.058034148 -0.022239087 0.05355319 -0.045926213 -0.0209838 -0.05312754 0.017775513
0.0777284 -0.027200973 0.03102581 0.0018798007 -0.07333497 -0.00902674 -0.012125836 0.018570133
0.06504787 0.0017128568 -0.01258421 0.0013775418 0.00056687015 0.085297965 -0.017350327 0.04452181
-0.024010105 -0.0049815956 -0.029119633 -0.020162102 0.050349344 -0.043614756 0.06605102 -0.024301646
0.040318973 -0.017159043 -0.018721186 0.1077096 0.030182758 -0.052030936 0.027990768 0.022664923
-0.008667794 -0.11253377 -0.061015975 -0.00326039 -0.04895838 -0.00013245388 -0.013474573 -0.04379211
-0.040515047 -0.07402104 -0.055644557 0.00024959183 0.09155341 0.044108126 0.08143814 0.08756351
-0.1042717 -0.099710464 0.048478574 -0.038481098 -0.061602496 0.052107327 0.10004576 0.019245166
-0.08975105 0.0397538 0.046401653 -0.04447152 0.003305021 -0.08225132 0.043291688 0.06349987
0.014791382 -0.02128731 -0.06853819 0.014629929 -0.08503592 -0.06606791 0.075336754 -0.045954555
-0.09384361 -0.07445854 0.05464185 0.0842224 0.026142728 -0.031083908 -0.03092786 0.026600748
0.049653083 0.040700335 0.01908815 -0.07642999 -0.007941462 0.0016883457 -0.056983035 -0.0039059469
-0.012979502 -0.05367288 0.09540703 0.02837447 0.052740593 0.06218472 -0.049927853 -0.04845055
0.033952337 -0.034429494 -0.0063252444 0.10978857 0.0003359874 0.0789581 -0.016498154 0.0002688958
0.029245194 -0.064957365 0.032411885 -0.070993856 0.028422177 0.053374518 -0.11016859 0.020023486
-0.007663063 -0.04505054 0.02964291 -0.018414536 -0.061271843 0.007819503 -0.11815368 -0.014390053
0.09152502 -0.059793785 -0.08487177 -0.0429288 0.04834891 -0.084090255 -0.056961652 0.010167957
-0.0041666646 0.10542645 0.009916315 0.04981517 0.05023069 0.09802767 -0.0540326 0.007229166
-0.007668825 -0.004451191 -0.012840974 0.07128033 0.024348417 0.08754483 0.007869089 -0.052047208
-0.012777595 0.06056212 0.048743397 0.062172204 -0.07940871 0.037187867 0.013997537 -0.020716444
0.051049154 -0.08333242 0.11415568 -0.104303926 -0.013103765 -0.054661684 0.10193102 0.08317767
0.016156344 -0.027881304 -0.10223808 0.055772223 0.04069657 -0.043218184 0.08346652 -0.029623643
0.090923056 -0.032718297 0.048522018 0.050953746 0.07169735 0.0030372394 -0.094048455 0.04672554
0.06089488 -0.11130673 -0.014027161 -0.0057654926 0.019713596 0.08415768 0.10448913 0.08795597
-0.06539435 -0.10189874 -0.068781994 -0.087040484 0.11543611 -0.06849425 -0.044321794 -0.068522476
00000000: b0a2 c73d de82 cdbc 7a83 8a3d 1274 93bd
00000010: 2075 f53c a424 08bd de0b e0bc 0478 b5ba
00000020: aad6 8abd 3957 3b3d 8b9a 883c 19d8 853d
00000030: 24df 853b 5b8c 98bc 3936 833d 0224 8c3d
00000040: 50ff 053d 550d 0ebc e96f 8a3d b51c 09bd
00000050: b8e3 d0bd e582 adbc 161a 12bd 2822 abbc
00000060: 60fe 423d d7b4 9b3d df53 033d 8ee6 193c
00000070: 19f0 d8bc 5e75 ac3c 4436 5d3d 5910 19ba
00000080: c120 d6bc 65e1 383d 589a faba cc0a 86bc
00000090: 48b4 b33c 9a80 9c3d 9495 79bd 455a 6bbd
000000a0: e5c0 3abc 69ff bb3d 4aab 58bb d884 2fbd
000000b0: 82d0 81bd f336 b2bd 4cf5 c1b8 c5f0 903d
000000c0: 302a 1dbb b2d0 69bd b038 7c3d 1a7a 88bd
000000d0: 4faa 2fbd 156a 36bd be74 46bc f133 e0bc
000000e0: 390d 54bd 37b5 6d3d bf2e b6bc 975a 5b3d
000000f0: 201d 3cbd 38e6 abbc 439c 59bd f49d 913c
00000100: 1130 9f3d 93d4 debc d729 fe3c a563 f63a
00000110: a530 96bd e4e4 13bc 71ab 46bc 6420 983c
00000120: d137 853d f081 e03a 012e 4ebc a28e b43a
00000130: 039a 143a b3b0 ae3d 4622 8ebc 805c 363d
00000140: d7b0 c4bc a73c a3bb 4c8c eebc fe2a a5bc
00000150: 1d3b 4e3d 63a5 32bd c245 873d 3f14 c7bc
00000160: 8225 253d 1f91 8cbc 2c5d 99bc da96 dc3d
00000170: d541 f73c 641e 55bd e54c e53c caab b93c
00000180: 5d03 0ebc 1b78 e6bd e3eb 79bd 44ac 55bb
00000190: 9588 48bd 51e3 0ab9 75c4 5cbc 5b5f 33bd
000001a0: 1bf3 25bd 5898 97bd 8ceb 63bd a6db 8239
000001b0: 5b80 bb3d b9aa 343d 0ac9 a63d 7f54 b33d
000001c0: 678c d5bd 0035 ccbd 7891 463d 5b9e 1dbd
000001d0: e652 7cbd 7e6e 553d cbe4 cc3d 0aa8 9d3c
000001e0: 66cf b7bd e1d4 223d a90f 3e3d c527 36bd
000001f0: 0d99 583b 6173 a8bd a052 313d 380c 823d
00000200: 8d57 723c ba62 aebc c05d 8cbd 5fb2 6f3c
00000210: 5027 aebd 9d4e 87bd 284a 9a3d d83a 3cbd
00000220: 1431 c0bd b87d 98bd 22d0 5f3d cb7c ac3d
00000230: 4629 d63c aea3 febc 6c5c fdbc d0e9 d93c
00000240: 0861 4b3d 65b5 263d c05e 9c3c 5487 9cbd
00000250: e81c 02bc 7b4b dd3a 0b67 69bd eafa 7fbb
00000260: faa7 54bc 18d8 5bbd c364 c33d 9471 e83c
00000270: 8506 583d 68b5 7e3d 2681 4cbd 1574 46bd
00000280: 9b11 0b3d f105 0dbd ff43 cfbb d4d8 e03d
00000290: 7727 b039 c9b4 a13d 2327 87bc 95fa 8c39
000002a0: 9e93 ef3c 5e08 85bd 53c2 043d 3a65 91bd
000002b0: a0d5 e83c 3d9f 5a3d 12a0 e1bd 4b08 a43c
000002c0: 6e1a fbbb ea86 38bd b0d5 f23c 15da 96bc
000002d0: 2ff8 7abd 5f1d 003c 8efa f1bd 42c4 6bbc
000002e0: 7871 bb3d 54ea 74bd 40d1 adbd 1cd6 2fbd
000002f0: 8209 463d 8337 acbd 9f50 69bd 8197 263c
00000300: 8488 88bb d3e9 d73d 0a78 223c fe0a 4c3d
00000310: b2be 4d3d bbc2 c83d 4a51 5dbd a4e2 ec3b
00000320: c44a fbbb 4cdb 91bb f362 52bc 6cfb 913d
00000330: 5576 c73c b44a b33d 5aed 003c 742f 55bd
00000340: 1e59 51bc fc0f 783d 28a7 473d 48a8 7e3d
00000350: 09a1 a2bd 4e52 183d ed55 653c 88b5 a9bc
00000360: eb18 513d 30aa aabd 74ca e93d 4c9d d5bd
00000370: 2db1 56bc eee4 5fbd 36c1 d03d 0e59 aa3d
00000380: 4f5a 843c 5567 e4bc 3362 d1bd 6a71 643d
00000390: 72b1 263d 8d05 31bd 7ff0 aa3d 48ad f2bc
000003a0: de35 ba3d 9f03 06bd 06bf 463d e0b4 503d
000003b0: 0fd6 923d 6c0c 473b 7a9c c0bd 4863 3f3d
000003c0: e96c 793d c8f4 e3bd 2dd2 65bc 75ec bcbb
000003d0: 687e a13c dd5a ac3d 66fe d53d 4222 b43d
000003e0: 79ed 85bd 49b0 d0bd 93dd 8cbd 4842 b2bd
000003f0: c469 ec3d b746 8cbd c58a 35bd 8355 8cbd

encoder.linear_means.bias f4 [14]
-0.00020292056 -0.002409252 -6.298521e-05 -0.001022208 0.00034047675 -0.00060512405 0.0014460224 -0.0014097195
-0.0024509325 0.0016557003 4.378345e-05 -0.00022770268 0.0006060031 -0.00012884909
00000000: 13c7 54b9 8be4 1dbb ed16 84b8 9cfb 85ba
00000010: 0482 b239 30a1 1eba 7688 bd3a 56c6 b8ba
00000020: d39f 20bb 1504 d93a 1fa4 3738 79c3 6eb9
00000030: 2edc 1e3a aa1b 07b9

encoder.linear_log_var.weight f4 [14, 80]
0.07085081 -0.05714968 0.06065455 -0.014396618 -0.0075603235 0.07122635 -0.083262034 -0.043010626
0.04150138 -0.0034784456 -0.06444421 0.061808612 -0.083009236 -0.08320168 -0.034568924 -0.03421383
-0.027776262 0.009415706 0.06346026 -0.07446816 -0.045250386 0.041420758 -0.04655502 0.06046707
0.039803732 -0.040377207 -0.081516095 0.06787237 0.069332056 0.07034315 -0.07865972 -0.04164672
0.058969777 0.10212698 -0.024179999 0.061248053 -0.112252876 -0.021088734 -0.073359355 0.10682866
0.009604011 0.075736955 0.051591255 -0.11927712 0.0025461218 0.03967973 0.09696527 0.053169377
-0.0037350033 0.04272755 -0.045211717 -0.0187526 0.08172565 -0.034994364 -0.00605051 0.087429985
0.10049469 0.097968005 -0.065211035 -0.08342661 -0.022206519 0.10349517 -0.11792237 0.10555673
-0.023152431 0.046699844 -0.06163147 0.030906582 0.014292242 -0.036364116 0.03116002 -0.0033672282
0.029073337 -0.084675506 0.09910563 0.09665413 0.1028905 -0.044612218 0.07845579 -0.032801963
0.077851444 0.068993285 0.062042907 -0.08472847 0.025811149 0.069330744 -0.056047782 -0.021736966
0.061115734 -0.09684399 0.024552597 0.059720438 -0.07006849 -0.0044360766 -0.07922878 -0.0075993207
0.13031879 0.009116214 -0.048142925 -0.03848519 0.01532869 -0.03192092 -0.011761057 -0.05725338
0.06593469 -0.09184839 -0.107293 -0.11266288 0.030378608 -0.07294673 0.02718411 0.06704258
0.013808786 -0.004051332 0.03920902 0.07661292 0.09687163 -0.008454522 -0.0006678887 0.12660794
0.015994813 -0.007921172 -0.06645986 0.012687197 -0.08347601 0.06430547 -0.04508065 0.0042368746
0.05114511 -0.019075016 -0.06788822 -0.01912446 -0.00982573 -0.025392838 -0.016682625 -0.08001196
0.0023318816 -0.04883647 -0.00286133 0.0766205 -0.05631335 0.09433351 0.07476944 -0.061080616
-0.028597072 0.11072363 0.04326617 0.11326954 -0.06597815 -0.07520202 0.054902244 0.107627034
0.012905824 -0.0006727463 -0.09998346 -0.039472748 -0.006231045 0.07038903 -0.032685876 0.11886111
0.10909554 0.067526124 -0.016318895 0.07678269 0.01889033 0.08920556 0.060460243 -0.043999664
0.030963566 0.08122667 -0.088147014 -0.06728584 0.012950805 0.0023923498 -0.027288461 -0.05240645
-0.06736269 0.109635726 0.073467016 -0.00712117 -0.05190283 0.092017725 0.014902287 -0.04335029
0.117032915 -0.019389823 -0.09008067 -0.05806899 0.085771054 -0.004964962 0.06608195 0.041279234
-0.08601338 0.009135885 -0.055827834 0.028902803 0.07360952 -0.071065396 0.11874835 -0.050078828
0.028855324 0.08904775 0.09406068 -0.028654778 -0.058405504 0.102020696 0.089346886 0.092693344
-0.029318495 -0.023578728 -0.00784993 -0.045566604 0.09815779 -0.032022797 0.010237427 0.048722595
0.026751423 0.082394026 0.029974349 -0.030754955 -0.014743313 0.087786 -0.059469894 0.0033386357
-0.12685338 -0.06608237 -0.0038584343 0.03854174 -0.045475427 -0.026459295 -0.0020931077 0.014344926
-0.084901355 -0.010323023 -0.085622065 0.0077783572 -0.02517676 0.06060935 -0.06815896 0.039172422
-0.06764761 0.028646478 0.028424485 0.077206165 0.041959338 -0.030146202 -0.030669102 -0.016599612
0.066351585 -0.04021586 -0.111716874 0.01954115 0.044170253 -0.029003689 -0.0164719 0.08488847
00000000: 3b1a 913d c815 6abd e870 783d cbdf 6bbc
00000010: 97bc f7bb 1fdf 913d 4985 aabd e92b 30bd
00000020: 5afd 293d a2f6 63bb 53fb 83bd 072b 7d3d
00000030: bf00 aabd a465 aabd 2598 0dbd cd23 0cbd
00000040: 0b8b e3bc 5544 1a3c 74f7 813d c382 98bd
00000050: 7858 39bd d0a8 293d 7ab0 3ebd 52ac 773d
00000060: 3d09 233d 9262 25bd e9f1 a6bd ab00 8b3d
00000070: f7fd 8d3d 1210 903d 5918 a1bd c095 2abd
00000080: 4b8a 713d f327 d13d 2215 c6bc 3ddf 7a3d
00000090: d6e4 e5bd 48c2 acbc 6e3d 96bd fcc8 da3d
000000a0: 245a 1d3c fa1b 9b3d 5a51 533d 9047 f4bd
000000b0: d6dc 263b 3687 223d ba95 c63d 22c8 593d
000000c0: f5c6 74bb 1503 2f3d ec2f 39bd 0d9f 99bc
000000d0: c75f a73d 4056 0fbd 5b43 c6bb 7e0e b33d
000000e0: 29d0 cd3d 73a3 c83d 5d8d 85bd 92db aabd
000000f0: 72ea b5bc 47f5 d33d 4981 f1bd 202e d83d
00000100: 2baa bdbc 5648 3f3d 4871 7cbd cd2f fd3c
00000110: 022a 6a3c 8af2 14bd 4c43 ff3c b7ac 5cbb
00000120: 352b ee3c 5a6a adbd e4f7 ca3d 9af2 c53d
00000130: 41b8 d23d 4dbb 36bd 6ead a03d 5a5b 06bd
00000140: 9470 9f3d 5a4c 8d3d b420 7e3d 1f86 adbd
00000150: e771 d33c 47fd 8d3d 5c92 65bd b911 b2bc
00000160: 7e54 7a3d 2456 c6bd 8722 c93c 6b9d 743d
00000170: 1280 8fbd 825c 91bb b342 a2bd b903 f9bb
00000180: 4a72 053e 2c5c 153c 8431 45bd a6a2 1dbd
00000190: 3025 7b3c 83bf 02bd 73b1 40bc 8582 6abd
000001a0: c408 873d 021b bcbd 6fbc dbbd ccbb e6bd
000001b0: 8fdc f83c 1865 95bd 36b1 de3c 9f4d 893d
000001c0: 3f3e 623c 09c1 84bb a399 203d 3ce7 9c3d
000001d0: a264 c63d d684 0abc 4015 2fba 83a5 013e
000001e0: 8e07 833c cec7 01bc 1b1c 88bd f6dd 4f3c
000001f0: 78f5 aabd 96b2 833d 7da6 38bd 7bd5 8a3b
00000200: 897d 513d 3543 9cbc fb08 8bbd e6aa 9cbc
00000210: 19fc 20bc a404 d0bc 00aa 88bc 4fdd a3bd
00000220: 7bd2 183b c008 48bd 2785 3bbb 35eb 9c3d
00000230: d4a8 66bd ed31 c13d b820 993d ab2f 7abd
00000240: 6844 eabc 12c3 e23d de37 313d dcf9 e73d
00000250: 8d1f 87bd 8403 9abd 2de1 603d 906b dc3d
00000260: f372 533c 3d5b 30ba 21c4 ccbd 2dae 21bd
00000270: cb2d ccbb 2028 903d a0e1 05bd 746d f33d
00000280: 7c6d df3d 234b 8a3d 34af 85bc 3e40 9d3d
00000290: e5bf 9a3c 68b1 b63d 29a5 773d fe38 34bd
000002a0: 4ea7 fd3c 2b5a a63d 6c86 b4bd 29cd 89bd
000002b0: 9d2f 543c f8c8 1c3b 0d8c dfbc 25a8 56bd
000002c0: 73f5 89bd b288 e03d e075 963d b458 e9bb
000002d0: 1098 54bd ca73 bc3d b928 743c 1390 31bd
000002e0: f4ae ef3d 68d7 9ebc 377c b8bd c0d9 6dbd
000002f0: bca8 af3d 1fb1 a2bb f955 873d 6a14 293d
00000300: c827 b0bd aeae 153c baab 64bd 92c5 ec3c
00000310: 97c0 963d bc8a 91bd 5632 f33d 751f 4dbd
00000320: 0062 ec3c ab5e b63d e3a2 c03d 6dbd eabc
00000330: 9c3a 6fbd 3af0 d03d 80fb b63d 02d6 bd3d
00000340: 572d f0bc 2d28 c1bc fe9c 00bc 0ca4 3abd
00000350: f406 c93d 562a 03bd e2ba 273c 5891 473d
00000360: cd25 db3c 33be a83d c48c f53c d1f1 fbbc
00000370: f08d 71bc 25c9 b33d b496 73bd 03cd 5a3b
00000380: dae5 01be 3256 87bd c9dd 7cbb f2dd 1d3d
00000390: 7144 3abd 2ac1 d8bc 852c 09bb fb06 6b3c
000003a0: c3e0 adbd e621 29bc 9f5a afbd 97e1 fe3b
000003b0: 7e3f cebc 8341 783d ed96 8bbd 4373 203d
000003c0: d58a 8abd 05ac ea3c 77da e83c 441e 9e3d
000003d0: 8edd 2b3d 2bf5 f6bc c53d fbbc e9fb 87bc
000003e0: 57e3 873d 63b9 24bd d1cb e4bd c314 a03c
000003f0: deeb 343d 2599 edbc 14f0 86bc 02da ad3d

encoder.linear_log_var.bias f4 [14]
-0.0004920691 0.0011599754 -0.0021403218 0.0002463858 -0.0009091879 -0.0007255952 -0.0005289785 -0.0041215587
-0.0028015878 -0.00371023 -0.00083996303 0.0009814302 -0.0023613514 -0.0021853673
00000000: 33fe 00ba 510a 983a a444 0cbb 582d 8139
00000010: 9156 6eba df35 3eba 25ab 0aba 240e 87bb
00000020: d89a 37bb 5527 73bb f730 5cba 55a3 803a
00000030: e7c0 1abb 6138 0fbb
