model/CVAE_3000_0.001_16_[12, 256, 128, 64]_12_[64, 128, 256, 6].pth (torch, 368578 bytes, 18 tensors)

encoder.MLP.L0.weight f4 [256, 12]
-0.010177058 0.1569814 -0.24854934 -0.22273782 -0.12128389 0.06817937 -0.013337537 0.22111595
-0.033433028 0.06886643 -0.09435531 -0.06359837 -0.28339544 -0.17606117 -0.15488467 -0.021591555
0.08299802 0.17005469 -0.19351566 -0.13427092 0.08965861 0.22486249 -0.071326256 0.21626003
-0.04652962 0.03054589 0.26138848 -0.26779535 -0.18173194 -0.07308251 -0.11252555 0.24941552
-0.18711334 -0.13288665 -0.20168012 -0.27036187 -0.21198903 0.24229662 0.15820006 0.14351772
0.016768742 -0.17081559 0.043205597 -0.2550135 -0.13244076 -0.057733648 0.30681965 0.14598215
-0.22348447 0.073273934 0.109994985 0.20046668 0.02592536 -0.03953736 0.1198923 -0.23760995
0.00612269 -0.2663881 -0.20506404 -0.23263572 0.15504478 0.123321764 -0.21701664 0.0668803
0.14075275 -0.027341742 0.0066241194 0.04538027 0.14325933 0.2429517 -0.2563157 -0.122459665
0.01645172 0.27785647 0.23964192 0.21405976 0.014084225 -0.32523763 -0.023553822 -0.20233792
-0.20799948 0.33925337 0.3476161 -0.32136634 0.07329748 -0.021550171 -0.10332896 -0.17063667
0.07584248 -0.18608525 0.09698904 0.12475777 0.17865448 0.08381115 -0.31028208 -0.20373724
0.22758704 0.015655719 -0.18325226 -0.122103475 0.316629 0.27976504 -0.0010263132 0.04154737
-0.2050944 0.04660492 -0.19432639 -0.09533162 -0.015905887 0.043343157 -0.11822121 0.17129335
-0.1756701 0.26193517 0.19782904 -0.24343482 -0.07184671 0.01302579 0.042118013 0.068466306
0.11328429 0.017291695 -0.1408529 0.1365979 -0.2769113 -0.17109968 -0.072264 -0.1406175
-0.100988194 -0.23660439 -0.06140557 0.061706156 -0.22661203 -0.009462671 0.18638504 -0.06461846
-0.026334591 -0.06643411 0.038700383 0.16330498 0.26145524 0.16931257 0.25800684 -0.045390718
-0.2593231 -0.1368543 0.19656041 -0.0018713176 -0.14348492 -0.22121516 -0.27015722 -0.24364418
-0.05855392 0.15831119 0.15606964 -0.27840748 0.18007037 -0.22589102 -0.061028898 -0.11704987
-0.055603236 -0.05667925 -0.25904262 -0.24925305 -0.045171738 0.003733188 -0.13113786 0.1087437
-0.33728564 0.009198537 0.2548517 -0.14114437 0.23450218 0.04823305 -0.3036009 0.16258857
-0.022618644 -0.116652444 0.24374813 -0.25089836 -0.052580237 -0.025061756 0.20303158 0.049499862
0.104931 0.04048693 -0.11189696 -0.08219197 -0.22477384 0.16927934 0.24212112 0.16520324
-0.20362517 0.0128748715 -0.20349695 -0.1589111 -0.1682126 0.09865329 -0.17202532 -0.006298095
0.012144029 0.18608665 -0.21821532 -0.198179 -0.17032118 0.24121073 -0.16215415 0.20612809
0.06776373 0.03323867 -0.01621886 -0.07707556 0.004970874 -0.0971377 -0.025643943 0.03088523
-0.22580317 -0.15130371 0.2331031 -0.23427334 -0.020728648 0.2855686 0.104280144 0.008173257
-0.25016874 0.14300328 -0.20561774 -0.081944555 -0.17309985 0.019194312 -0.038507123 0.199484
-0.0059878156 0.22162779 0.11063064 -0.24654894 0.0716393 -0.2611309 -0.14772415 0.02958776
0.034650903 0.27641377 -0.11734168 -0.02620601 0.12315656 -0.33974773 0.053034823 -0.39610294
-0.14394113 -0.1435805 -0.3539617 -0.17237225 0.23871088 -0.08438538 -0.17138472 -0.10676327
00000000: adbd 26bc bbbf 203e b883 7ebe 6215 64be
00000010: b063 f8bd a0a1 8b3d af85 5abc 386c 623e
00000020: 12f1 08bd d809 8d3d 5b3d c1bd dd3f 82bd
00000030: 3519 91be 6149 34be 169a 1ebe c6e0 b0bc
00000040: defa a93d d122 2e3e f828 46be 517e 09be
00000050: ef9e b73d 5a42 663e 8013 92bd 4573 5d3e
00000060: d895 3ebd 603b fa3c b6d4 853e 791c 89be
00000070: f017 3abe 48ac 95bd cc73 e6bd c866 7f3e
00000080: a49a 3fbe 7013 08be 3c85 4ebe df6c 8abe
00000090: a713 59be 9b1c 783e 32ff 213e 4ff6 123e
000000a0: 9a5e 893c 48ea 2ebe 5af8 303d 2191 82be
000000b0: 8d9e 07be 1e7a 6cbd 7717 9d3e 587c 153e
000000c0: 1dd9 64be a510 963d 0d45 e13d 2347 4d3e
000000d0: 6c61 d43c edf1 21bd 188a f53d 0650 73be
000000e0: d9a0 c83b 0564 88be 4ffc 51be 0f38 6ebe
000000f0: 0fc4 1e3e 1f90 fc3d 9c39 5ebe 8af8 883d
00000100: 7d21 103e cafb dfbc 240f d93b a9e0 393d
00000110: 93b2 123e 55c8 783e d03b 83be 22cc fabd
00000120: c2c5 863c 3443 8e3e b164 753e 7b32 5b3e
00000130: 85c1 663c 8c85 a6be f2f3 c0bc ac31 4fbe
00000140: d1fd 54be 9eb2 ad3e bdfa b13e 218a a4be
00000150: fd1c 963d fc89 b0bc 229e d3bd 61bb 2ebe
00000160: 4d53 9b3d 228d 3ebe 31a2 c63d 0081 ff3d
00000170: 33f1 363e 2ea5 ab3d 4bdd 9ebe 7fa0 50be
00000180: 940c 693e 6c40 803c 7ba6 3bbe 6311 fabd
00000190: 321d a23e 5d3d 8f3e 5b85 86ba 932d 2a3d
000001a0: 4404 52be cde4 3e3d 7ffd 46be 393d c3bd
000001b0: 104d 82bc 9888 313d f61d f2bd 8667 2f3e
000001c0: dde2 33be 5e1c 863e b293 4a3e fa46 79be
000001d0: 5e24 93bd 206a 553c f083 2c3d 1038 8c3d
000001e0: 9801 e83d 50a7 8d3c be3b 10be 52e0 0b3e
000001f0: 51c7 8dbe c134 2fbe 26ff 93bd 09fe 0fbe
00000200: e6d2 cebd 6c48 72be 6884 7bbd 98bf 7c3d
00000210: fc0c 68be 5209 1bbc b8db 3e3e af56 84bd
00000220: a4bb d7bc 9b0e 88bd 4b84 1e3d 6c39 273e
00000230: 76dd 853e 4660 2d3e 7919 843e 9eeb 39bd
00000240: ffc5 84be 8923 0cbe 2247 493e 0047 f5ba
00000250: b6ed 12be 3a86 62be 0c52 8abe dc7d 79be
00000260: 3cd6 6fbd 541c 223e b8d0 1f3e 6d8b 8ebe
00000270: 5e64 383e fa4f 67be 70f9 79bd d8b7 efbd
00000280: 38c0 63bd 8028 68bd 3ca1 84be 313c 7fbe
00000290: 0006 39bd 80a8 743b 0149 06be 04b5 de3d
000002a0: b4b0 acbe 76b5 163c ec7b 823e 2688 10be
000002b0: 5721 703e 0590 453d 9471 9bbe 9e7d 263e
000002c0: bc4a b9bc 7ae7 eebd 1c99 793e c075 80be
000002d0: 605e 57bd 504e cdbc 83e7 4f3e 5ec0 4a3d
000002e0: 10e6 d63d a0d5 253d 3c2a e5bd 4354 a8bd
000002f0: 1d2b 66be 9057 2d3e 99ee 773e 0a2b 293e
00000300: 1e83 50be 20f1 523c 8161 50be 97b9 22be
00000310: ec3f 2cbe bc0a ca3d 6827 30be 4060 cebb
00000320: c0f7 463c 808d 3e3e d673 5fbe 70ef 4abe
00000330: ad68 2ebe f2ff 763e bd0b 26be 3e13 533e
00000340: b6c7 8a3d 4625 083d 6add 84bc cbd9 9dbd
00000350: b7e2 a23b 21f0 c6bd 3f13 d2bc 0603 fd3c
00000360: f238 67be 5cef 1abe 94b2 6e3e 5ae5 6fbe
00000370: 20cf a9bc 0c36 923e d490 d53d 20e9 053c
00000380: 1e16 80be 746f 123e 758d 52be 8cd2 a7bd
00000390: 1641 31be 643d 9d3c a5b9 1dbd 8945 4c3e
000003a0: 7035 c4bb 65f2 623e 5192 e23d 5377 7cbe
000003b0: a0b7 923d f3b2 85be 0045 17be 0862 f23c
000003c0: 1bee 0d3d 1b86 8d3e d650 f0bd fcad d6bc
000003d0: 8239 fc3d 6af3 adbe 0b3b 593d 01ce cabe
000003e0: 4e65 13be c406 13be 783a b5be 5a82 30be
000003f0: a070 743e 3ed2 acbd 7a7f 2fbe b4a6 dabd

encoder.MLP.L0.bias f4 [256]
0.2601466 0.2171693 -0.25259373 -0.13769585 0.07654191 -0.15465419 -0.019156491 -0.13815081
0.14448641 0.1408563 0.090734005 0.16674091 -0.034737766 0.1567134 0.035541918 -0.1537915
-0.2038815 0.2633814 -0.08606896 0.18277381 0.11967299 -0.011624455 -0.2419956 0.0019750646
-0.0742475 0.078065835 -0.14918225 0.17215855 -0.29055282 -0.06514995 0.07662787 0.046667367
0.24058679 -0.082033984 -0.19790663 0.15495026 0.080664486 0.1494044 -0.17085397 -0.23764259
-0.07558707 -0.013620502 0.051203903 -0.20810819 -0.055884976 -0.049892753 0.3495237 -0.087388776
0.22385488 -0.16339703 -0.15622286 -0.2994047 0.19382024 -0.20639987 0.055814948 -0.12722151
0.24821997 0.016573368 -0.25069034 0.034167863 0.035096914 -0.3177092 0.073125675 0.29312506
0.0449805 -0.0015351772 -0.05984299 0.04016729 -0.16622376 0.22679064 0.27160028 0.11169851
-0.107525304 -0.27652118 -0.15301679 0.22086145 -0.27849478 -0.30170134 -0.020805895 0.1209172
-0.27714702 -0.271046 0.029713372 -0.09683147 0.13249934 0.048115324 -0.25447437 -0.2657443
0.18051328 -0.0912838 -0.09899674 0.08545327 -0.0567348 0.13805813 0.045525867 -0.12498872
-0.23137008 0.15627202 -0.17343912 -0.10366439 0.039470047 -0.15314311 0.14827618 -0.20305051
0.04224742 -0.0053264573 0.10038295 -0.2524086 -0.011555241 0.09049556 -0.18481475 0.14383027
0.012017314 0.18171588 -0.04586167 -0.015606668 -0.07097563 -0.115280844 0.082641065 -0.3197538
0.2189911 0.20758659 0.078882456 0.1434731 -0.17966802 0.07770768 0.014686257 -0.21258143
-0.1996274 -0.11567907 -0.07137591 -0.2099481 -0.16583818 -0.034357112 -0.04962401 -0.2463314
0.1563901 0.2538407 0.25818786 0.22725932 -0.19521962 -0.15384726 -0.14125448 -0.020247145
0.04811417 0.06422627 0.16869318 0.08331102 -0.23822555 0.13049382 0.1947312 0.00854256
-0.2511543 -0.20953707 0.03458527 0.047863226 0.2691751 0.16763245 0.041457385 -0.012073424
0.1723107 -0.14016478 0.030601552 -0.19467267 0.002996337 0.086594254 0.089251205 -0.07625772
-0.0036552548 -0.21946697 0.090174325 0.18919949 0.10324671 -0.28995988 -0.21197608 0.14512587
-0.04133378 0.12893735 0.22200908 -0.14014487 -0.16937202 -0.32728198 0.07455852 0.21599218
-0.08221157 -0.28025308 -0.16774155 -0.030824821 0.12839626 -0.1777124 -0.19007379 -0.22083665
0.24428947 0.09754485 -0.24548924 -0.18997304 -0.21429764 -0.007091173 -0.19701943 -0.0009772182
-0.058806106 -0.25268942 -0.26194718 -0.23329566 -0.1287575 -0.010609858 -0.20666374 -0.024689786
-0.026118044 0.22333765 -0.13159831 0.27122003 -0.2638301 -0.24085173 0.03180036 -0.18881509
0.113921165 -0.15970874 0.1809803 0.26531708 0.045965925 0.03427621 0.30895242 0.16590883
-0.29745248 -0.013382076 -0.26058054 0.22051507 -0.09829183 -0.008778771 -0.2103096 -0.18023549
0.13386004 0.26641974 -0.14510338 -0.029247839 0.23242387 0.23003753 -0.16636346 0.27056408
0.090405725 0.22421414 0.008564889 -0.26653185 -0.09342794 0.13039869 0.06422597 -0.33531561
0.16621244 -0.2986284 0.10410274 0.2559185 0.013023669 -0.054482043 0.12140512 -0.093423285
00000000: ef31 853e a161 5e3e f753 81be 2400 0dbe
00000010: 01c2 9c3d ab5d 1ebe 13ee 9cbc 6877 0dbe
00000020: 3ff4 133e a23c 103e c0d2 b93d 21be 2a3e
00000030: 3049 0ebd 7a79 203e 6794 113d 857b 1dbe
00000040: 50c6 50be edd9 863e ec44 b0bd 0f29 3b3e
00000050: 1d17 f53d 8074 3ebc b2cd 77be 1670 013b
00000060: 130f 98bd fbe0 9f3d 3bc3 18be 554a 303e
00000070: 57c3 94be 566d 85bd 13ef 9c3d 4826 3f3d
00000080: 625c 763e 6f01 a8bd 09a8 4abe 48ab 1e3e
00000090: 6c33 a53d 78fd 183e 58f4 2ebe 9458 73be
000000a0: 65cd 9abd 8728 5fbc 2fbb 513d 501a 55be
000000b0: a5e7 64bd 585c 4cbd c5f4 b23e e3f8 b2bd
000000c0: 373a 653e 8d51 27be e3f8 1fbe 934b 99be
000000d0: d078 463e 7d5a 53be 379e 643d 5b46 02be
000000e0: 602d 7e3e dfc4 873c 7c5a 80be 9af3 0b3d
000000f0: c8c1 0f3d c8aa a2be eac2 953d 7d14 963e
00000100: 793d 383d 0038 c9ba ec1d 75bd 7586 243d
00000110: 9036 2abe ce3b 683e 310f 8b3e 30c2 e43d
00000120: 3a36 dcbd 2f94 8dbe 6fb0 1cbe 8129 623e
00000130: de96 8ebe 9978 9abe 2071 aabc 70a3 f73d
00000140: 37e6 8dbe 8bc6 8abe 7569 f33c 944f c6bd
00000150: e8ad 073e 9314 453d 774a 82be a30f 88be
00000160: 79d8 383e 00f3 babd cebe cabd 2002 af3d
00000170: c062 68bd 1c5f 0d3e 5579 3a3d 16fa ffbd
00000180: 47ec 6cbe c605 203e 069a 31be ff4d d4bd
00000190: 58ab 213d 8cd1 1cbe b6d5 173e 79ec 4fbe
000001a0: a10b 2d3d 9089 aebb 9395 cd3d b33b 81be
000001b0: 3252 3dbc bc55 b93d 1440 3dbe 3e48 133e
000001c0: 45e4 443c ba13 3a3e 72d9 3bbd 1cb3 7fbc
000001d0: ac5b 91bd 5d18 ecbd b83f a93d c5b6 a3be
000001e0: 343f 603e 9491 543e 208d a13d 9dea 123e
000001f0: e5fa 37be 3425 9f3d a09e 703c f2ae 59be
00000200: 206b 4cbe 26e9 ecbd 882d 92bd a2fc 56be
00000210: 7cd1 29be 0bba 0cbd 8c42 4bbd 4c3e 7cbe
00000220: ba24 203e 69f7 813e 3331 843e abb6 683e
00000230: a7e7 47be 238a 1dbe 04a5 10be 57dd a5bc
00000240: 5d13 453d 1089 833d e8bd 2c3e f89e aa3d
00000250: 66f1 73be 2ca0 053e 9e67 473e 18f6 0b3c
00000260: 4c97 80be e390 56be 49a9 0d3d 3b0c 443d
00000270: 52d1 893e d7a7 2b3e 38cf 293d 9ccf 45bc
00000280: 3772 303e 5b87 0fbe 1bb0 fa3c 4658 47be
00000290: 315e 443b 5458 b13d 56c9 b63d 022d 9cbd
000002a0: 008d 6fbb f3bb 60be 51ad b83d 83bd 413e
000002b0: 0373 d33d 9f75 94be 4210 59be e09b 143e
000002c0: 9c4d 29bd 2708 043e 5956 633e 2382 0fbe
000002d0: dc6f 2dbe 8191 a7be 23b2 983d 0e2d 5d3e
000002e0: 8a5e a8bd 557d 8fbe 71c4 2bbe 5684 fcbc
000002f0: 4f7a 033e 3dfa 35be b4a2 42be 0123 62be
00000300: 0527 7a3e 98c5 c73d 8861 7bbe 4b88 42be
00000310: d770 5bbe 125d e8bb 76bf 49be 0016 80ba
00000320: acde 70bd 8260 81be f11d 86be 0fe5 6ebe
00000330: 02d9 03be f8d4 2dbc a99f 53be 3c42 cabc
00000340: 82f5 d5bc a0b2 643e b5c1 06be 5add 8a3e
00000350: bd14 87be d6a1 76be 1841 023d be58 41be
00000360: 804f e93d b08a 23be e652 393e a4d7 873e
00000370: c446 3c3d 3665 0c3d 032f 9e3e 01e4 293e
00000380: b14b 98be 7f40 5bbc d06a 85be b4ce 613e
00000390: 3a4d c9bd d6d4 0fbc 665b 57be a78f 38be
000003a0: 9b12 093e 2b68 883e fb95 14be 2a99 efbc
000003b0: 8600 6e3e f58e 6b3e 2f5b 2abe 6087 8a3e
000003c0: a326 b93d 6498 653e c053 0c3c dd76 88be
000003d0: 2657 bfbd 3c87 053e e888 833d 7dae abbe
000003e0: 9833 2a3e d2e5 98be d133 d53d c007 833e
000003f0: 3a61 553c 9028 5fbd 3fa3 f83d b554 bfbd

encoder.MLP.L1.weight f4 [128, 256]
-0.046295792 -0.044355482 0.029386371 0.047732756 0.0025307983 -0.06059937 -0.061412998 -0.014112964
0.033738703 -0.0416497 0.0168463 -0.03416063 0.050850913 -0.016376942 -0.013024949 -0.054817528
-0.055980727 0.004224047 0.010105699 0.03376671 -0.05465182 0.010951288 -0.009028718 0.036662236
-0.028418496 0.018620431 0.0251856 0.031396106 -0.021436825 0.020113178 -0.012248896 0.01682996
-0.038431443 -0.04966308 -0.051124148 -0.0392892 -0.02645173 0.009303249 -0.013671078 -0.03557974
0.00052503496 -0.019737296 0.0385269 -0.05147534 -0.023069292 -0.04016456 0.007711932 0.0034097359
-0.0035953745 0.062012263 -0.023842737 -0.008983076 0.01614733 0.052163243 0.047373526 0.0071399063
-0.023645416 0.020532407 0.03932409 -0.0013338327 0.034314603 0.05115132 -0.03348553 -0.013817266
-0.056269713 0.014347084 0.04454314 -0.012136944 0.009973057 0.019970872 -0.0013330802 0.04859005
0.00910759 -0.061434105 -0.051611632 -0.061922833 0.0025760233 0.033785492 -0.008245654 0.05619456
-0.011243932 0.012778148 0.056358792 0.03163074 -0.0019939318 0.060201436 -0.037341528 0.023279727
0.03947106 -0.038699478 -0.058708973 0.019991383 -0.0237118 -0.031540103 0.012431584 -0.045339264
0.05621274 -0.005610369 -0.020015776 0.052248828 0.017402597 0.011907645 -0.029883184 0.05956717
-0.01903554 0.051983133 -0.0045942813 0.03135235 0.04394517 -0.0465314 -0.04165645 -0.061803386
0.04507891 0.053749107 -0.022841848 -0.030611202 0.010461889 0.033648707 0.015427217 -0.013025619
-0.039754674 0.053454243 -0.040475853 -0.06039369 -0.024954535 0.012463003 0.02323068 0.024166703
-0.03620617 -0.023986869 -0.027792484 -0.030266218 -0.052642085 0.012793727 -0.018176086 -0.06015663
-0.03649483 -0.037534125 -0.026960172 -0.03861901 -0.010838702 0.022397675 -0.05058212 -0.0053540394
-0.017986856 -0.03195364 -0.013878018 -0.026489452 0.0020092353 -0.045115627 0.011852428 0.05738327
0.051788196 -0.028022446 0.019264266 -0.05907526 0.05262146 -0.062285297 -0.05585164 -0.05610182
-0.058040872 0.008464366 -0.016527042 0.014959216 -0.0038671345 -0.0013425723 -0.022580087 -0.03708092
-0.052328475 0.031536482 -0.03222496 -0.012711175 0.030355923 -0.015478864 -0.015758418 -0.041665345
-0.053475037 0.02999793 -0.014101133 0.039300308 0.0041135326 -7.9385936e-05 -0.056425065 0.0013798773
-0.014124796 -0.035664648 -0.014464863 0.0032674223 -0.047092646 0.0103927255 0.043488435 0.0123467
0.059659548 0.029165134 -0.04929056 -0.024600893 -0.015040182 0.018696412 -0.0017825961 0.050293542
0.0072603896 -0.03958191 -0.022913486 -0.051997572 -0.017233096 0.030728556 0.0006035343 -0.05960027
-0.054081112 0.02265913 -0.054856412 -0.04985124 -0.03726343 0.059569895 -0.01777161 -0.025768831
-0.042200804 0.039981693 -0.0100917965 0.012052178 0.014930621 0.017626666 0.040005535 0.003243342
0.0064648464 -0.004058756 -0.048566706 -0.014303021 0.05948464 -0.044295147 -0.03944432 -0.062019616
0.003789857 -0.05845765 -0.032012135 0.057590067 0.025885306 0.033298224 0.010701947 -0.053111233
-0.029082485 -0.050597407 -0.03864743 0.021284014 -0.017334633 0.06107895 -0.045559816 -0.053338125
0.061712652 -0.053990997 0.053183205 0.016829863 -0.05696571 0.054436207 -0.017015263 -0.025771089
00000000: a8a0 3dbd 18ae 35bd b0bb f03c 6c83 433d
00000010: c0db 253b 0c37 78bd 328c 7bbd 103a 67bc
00000020: 9831 0a3d e098 2abd 4001 8a3c 04ec 0bbd
00000030: 0c49 503d f028 86bc 9866 55bc 5888 60bd
00000040: 0c4c 65bd e069 8a3b 6092 253c f64e 0a3d
00000050: 96da 5fbd 086d 333c 30ed 13bc 242b 163d
00000060: e8cd e8bc e089 983c 0852 ce3c 3499 003d
00000070: 489c afbc 64c4 a43c 98af 48bc fcde 893c
00000080: 4a6a 1dbd 846b 4bbd 8e67 51bd b6ed 20bd
00000090: 4cb1 d8bc a86c 183c a8fc 5fbc 10bc 11bd
000000a0: 80a2 093a 1cb0 a1bc 62ce 1d3d ced7 52bd
000000b0: d0fb bcbc 9883 24bd 60b4 fc3b e075 5f3b
000000c0: 60a0 6bbb 9200 7e3d d851 c3bc c02d 13bc
000000d0: 6847 843c 20a9 553d be0a 423d e0f5 e93b
000000e0: 08b4 c1bc 9433 a83c 4c12 213d 00d4 aeba
000000f0: 788d 0c3d 0c84 513d 2028 09bd d061 62bc
00000100: 127b 66bd 0810 6b3c de72 363d 08da 46bc
00000110: 0866 233c f499 a33c c0ba aeba 5c06 473d
00000120: 0038 153c 54a2 7bbd b866 53bd cca2 7dbd
00000130: 80d2 283b a862 0a3d c818 07bc 442c 663d
00000140: 7838 38bc 705b 513c 7ad8 663d 3c8f 013d
00000150: a0ac 02bb c895 763d 6ef3 18bd 20b5 be3c
00000160: 68ac 213d 5883 1ebd d278 70bd f8c4 a33c
00000170: 403f c2bc 3230 01bd d8ad 4b3c aab5 39bd
00000180: 543f 663d 30d7 b7bb 20f8 a3bc de02 563d
00000190: e48f 8e3c 4818 433c 94cd f4bc b4fc 733d
000001a0: 6cf0 9bbc 44ec 543d a08b 96bb 526b 003d
000001b0: daff 333d b697 3ebd f49f 2abd 8c25 7dbd
000001c0: aaa4 383d 0628 5c3d d41e bbbc 58c4 fabc
000001d0: 5868 2b3c 3ad3 093d 70c2 7c3c 6869 55bc
000001e0: ccd5 22bd d6f2 5a3d 02ca 25bd 605f 77bd
000001f0: 746d ccbc a031 4c3c 444e be3c 40f9 c53c
00000200: ec4c 14bd 1c80 c4bc 10ad e3bc dcf0 f7bc
00000210: 3a9f 57bd c89c 513c 04e6 94bc cc66 76bd
00000220: 9a7b 15bd 62bd 19bd 94db dcbc f82e 1ebd
00000230: d094 31bc 547b b73c 322f 4fbd f070 afbb
00000240: 2c59 93bc d2e1 02bd a060 63bc 6800 d9bc
00000250: 60ad 033b 2acb 38bd b030 423c b80a 6b3d
00000260: dc1f 543d 548f e5bc 18d0 9d3c e6f8 71bd
00000270: 9a89 573d de1e 7fbd b0c4 64bd 06cb 65bd
00000280: 44bc 6dbd 20ae 0a3c b863 87bc 8017 753c
00000290: c06f 7dbb 40f9 afba e0f9 b8bc 2ae2 17bd
000002a0: 6256 56bd 662c 013d 52fe 03bd 8842 50bc
000002b0: fcac f83c 109b 7dbc cc17 81bc 48a9 2abd
000002c0: a408 5bbd 38be f53c 7008 67bc 5cf9 203d
000002d0: d0ca 863b 007c a6b8 f81d 67bd 00dd b43a
000002e0: b06b 67bc 1815 12bd 08fe 6cbc 4022 563b
000002f0: 38e4 40bd 4046 2a3c ee20 323d d049 4a3c
00000300: 925d 743d b8eb ee3c e6e4 49bd d087 c9bc
00000310: 186b 76bc 3829 993c 00a6 e9ba 9a00 4e3d
00000320: 90e8 ed3b a420 22bd 10b5 bbbc 68fb 54bd
00000330: 6c2c 8dbc 74ba fb3c 8036 1e3a 6a1f 74bd
00000340: 2884 5dbd a49f b93c 1eb1 60bd d030 4cbd
00000350: 8aa1 18bd 90ff 733d c495 91bc 2819 d3bc
00000360: c0da 2cbd d8c3 233d 1058 25bc 8076 453c
00000370: 909f 743c cc65 903c d8dc 233d 408e 543b
00000380: 10d7 d33b 50ff 84bb e2ed 46bd 3857 6abc
00000390: 2aa6 733d d46e 35bd 5e90 21bd 4808 7ebd
000003a0: 405f 783b 4a71 6fbd 281f 03bd 90e3 6b3d
000003b0: 6c0d d43c b863 083d 3857 2f3c 2a8b 59bd
000003c0: 643e eebc 3a3f 4fbd c44c 1ebd d05b ae3c
000003d0: 5c01 8ebc ec2d 7a3d ee9c 3abd 1479 5abd
000003e0: 68c6 7c3d aa25 5dbd a2d6 593d c8de 893c
000003f0: e054 69bd 80f8 5e3d 9863 8bbc e41d d3bc

encoder.MLP.L1.bias f4 [128]
0.05648282 0.010900525 0.0361671 -0.03736113 0.003932917 0.027697472 -6.876141e-05 0.02659312
-0.055413134 -0.0642055 -0.05446494 0.03252827 -0.027394868 -0.035049833 -0.027916698 0.032947563
0.061730817 -0.053843472 -0.04120584 -0.04654436 -0.029338414 -0.062236924 -0.060759716 -0.01524464
-0.014178667 0.0013502091 -0.0043518804 -0.0273209 -0.03172484 0.021899143 -0.016539825 0.03535916
-0.04334798 0.0022972159 -0.031062694 0.00085698755 0.00356177 0.060933962 0.057120204 0.03221013
-0.0050128866 0.049397163 0.019329673 -0.05961498 0.008618809 0.03523868 -0.01557409 0.016649924
0.01335383 -0.020991668 -0.059865646 0.045876373 -0.041962896 0.01452931 -0.05834295 0.075728655
-0.035282906 -0.023639202 -0.04385993 -0.016081698 -0.019281706 0.010795818 0.021908658 -0.013513014
0.0026041805 -0.043193303 -0.0005291258 -0.005170646 0.014754134 -0.06040106 0.04458593 0.040424954
-0.03432274 -0.044879366 0.0068396777 -0.0070997 -0.043903273 0.0023012534 -0.011695125 0.039432123
0.012276282 0.021779925 0.014313877 -0.0125750825 0.017405726 -0.038625468 0.038038105 -0.009406961
0.048687853 0.05835576 0.009606134 -0.008093998 -0.04674905 -0.046154663 -0.048011318 -0.046113316
0.018088581 -0.046711173 -0.05501344 -0.023565484 0.06084337 -0.034029916 -0.025456881 -0.06913753
-0.043274276 -0.031003745 0.002165468 -0.008532431 -0.021106131 -0.00652445 -0.051817734 0.025688805
-0.033525728 -0.047677126 -0.023148429 0.02830895 -0.030284092 -0.020416832 0.025165148 -0.0015620609
-0.10183427 0.03970987 -0.041845173 -0.05359613 0.04156438 -0.054856785 -0.005681864 -0.032716908
00000000: 885a 673d 1e98 323c f423 143d fc07 19bd
00000010: b3df 803b cfe5 e23c 0034 90b8 d1d9 d93c
00000020: e2f8 62bd 2c7e 83bd a116 5fbd 5d3c 053d
00000030: 346b e0bc 6a90 0fbd 8fb1 e4bc 06f4 063d
00000040: 74d9 7c3d f98a 5cbd 74c7 28bd 4da5 3ebd
00000050: 1d57 f0bc 25ec 7ebd 2edf 78bd a8c4 79bc
00000060: a44d 68bc 80f9 b03a 389a 8ebb 14d0 dfbc
00000070: e8f1 01bd d565 b33c 877e 87bc c4d4 103d
00000080: a78d 31bd e38c 163b 3177 febc 76a7 603a
00000090: 966c 693b e495 793d e0f6 693d c5ee 033d
000000a0: 2443 a4bb ae54 4a3d 4359 9e3c d62e 74bd
000000b0: e835 0d3c 6f56 103d 782a 7fbc 6c65 883c
000000c0: 06ca 5a3c b8f6 abbc ae35 75bd dde8 3b3d
000000d0: 49e1 2bbd 580c 6e3c 04f9 6ebd a017 9b3d
000000e0: cf84 10bd 00a7 c1bc 78a6 33bd c4bd 83bc
000000f0: abf4 9dbc f1e0 303c c979 b33c b065 5dbc
00000100: e6aa 2a3b 76eb 30bd 08b5 0aba 866e a9bb
00000110: 53bb 713c 1a67 77bd bc9f 363d a394 253d
00000120: 0096 0cbd 6dd3 37bd 601f e03b 9aa4 e8bb
00000130: ebd3 33bd a0d0 163b e99c 3fbc 9483 213d
00000140: 7522 493c d06b b23c c084 6a3c b807 4ebc
00000150: 7496 8e3c bd35 1ebd d8cd 1b3d a71f 1abc
00000160: ea6c 473d 7306 6f3d 0c63 1d3c b09c 04bc
00000170: ef7b 3fbd ac0c 3dbd 84a7 44bd 51e1 3cbd
00000180: 812e 943c 3754 3fbd c655 61bd 670c c1bc
00000190: e636 793d f462 0bbd f38a d0bc fa97 8dbd
000001a0: 5e40 31bd 91fb fdbc 86ea 0d3b 9ccb 0bbc
000001b0: c4e6 acbc 0ecb d5bb d53e 54bd 5471 d23c
000001c0: 4652 09bd 1749 43bd c6a1 bdbc 2ce8 e73c
000001d0: 5816 f8bc 3341 a7bc 2427 ce3c 11be ccba
000001e0: 7c8e d0bd d1a6 223d d865 2bbd 9e87 5bbd
000001f0: 693f 2a3d 82b1 60bd ee2e babb 2a02 06bd

encoder.MLP.L2.weight f4 [64, 128]
0.086776264 -0.061685376 0.069377035 -0.08675873 0.041406494 0.053833865 0.029072344 0.01746593
0.015391355 0.0046976856 0.070421204 -0.05125162 -0.056221556 -0.049867995 -0.084102035 -0.0068667694
-0.021742923 -0.056419052 -0.060421016 -0.039922178 0.041516755 -0.013800139 -0.045738213 0.01253336
-0.05968499 0.023212425 -0.036520977 0.033222176 0.03121239 0.005902091 -0.07214001 0.073391266
0.020244393 0.011753537 0.054814927 -0.0015952772 0.0014562658 0.08635119 -0.08031707 0.03399144
-0.009149223 0.094180904 0.00041655547 -0.05159395 0.030181639 -0.08807655 -0.07984082 -0.027379556
-0.03883524 0.011089262 -0.03528456 -0.087463394 0.07955712 0.0020136386 0.02802402 -0.08805176
-0.019629998 0.016641453 0.028347204 0.04059031 0.07279168 0.062973335 -0.053651854 0.0026524067
-0.029715763 0.002935343 0.0780531 -0.07087641 -0.065893784 0.053315856 0.0007013205 -0.074511915
-0.03972172 -0.06771334 -0.07082167 0.00076834235 -0.025772793 -0.06774864 -0.08322502 0.011133313
3.830333e-05 -0.0588586 0.039929472 0.04007683 -0.028333016 0.04694024 0.044952273 0.07585047
0.06691789 0.045724057 0.06395487 0.027813748 0.055256635 0.041510586 0.026190197 -0.06008975
0.074208036 -0.07193788 -0.05109984 -0.018635312 -0.02657048 -0.01955913 0.017435484 -0.02297263
-0.013166435 0.058401812 -0.06815961 0.053325377 0.04370115 -0.039852392 -0.018741503 -0.03222943
0.0009786402 -0.06862795 -0.0343133 0.047381707 -0.054811828 0.04033517 0.031217441 -0.020726644
-0.09393246 0.030285647 -0.028679878 -0.05310742 -0.06455833 0.061169967 0.08569687 -0.003197783
0.06734405 -0.016219512 -0.052697327 -0.024868894 0.10635683 -0.069194995 0.010400623 -0.0695345
-0.074103765 0.0077077807 0.037579548 0.081809916 -0.03593871 -0.030688506 -0.074444525 0.011034907
0.01272792 0.021836054 0.05587253 0.083263166 -0.008883558 -0.037404146 0.07058305 0.0076627946
-0.040878467 -0.038989574 0.06491651 -0.025793165 -0.057917476 0.11363945 -0.01289045 -0.06206309
0.0054162825 -0.034152213 0.04829518 -0.061884284 0.039187796 -0.084070995 -0.054142434 0.0073153363
-0.037874673 0.048654053 -0.07624957 -0.075485274 0.057660736 -0.036460046 0.0582362 -0.06596589
0.034704592 0.016869847 0.032603323 -0.045987085 0.08035146 0.07858267 0.03501133 0.025077168
-0.08358581 0.0214528 -0.053386625 0.016261406 -0.034192696 0.040038526 -0.03516988 0.009926826
0.05515155 0.04693505 0.042966276 0.0278691 -0.07683788 -0.016407862 0.007890224 -0.017591735
0.03691388 0.039479494 -0.02803209 0.050753344 -0.0052645104 -0.05824038 0.03860736 -0.0556604
0.023119671 0.033705764 0.031448983 -0.022183158 0.032983787 -0.05353985 -0.06384175 -0.0627043
-0.03777813 -0.04714786 0.0011600925 0.030926503 0.06894534 -0.0039531305 0.003140201 0.069790475
0.082401104 0.0060601686 0.00630682 0.054721814 -0.059451275 -0.080387294 -0.05029654 0.029201811
0.076706834 0.049845368 -0.014933489 0.048618663 0.014648348 -0.07070843 0.012477894 -0.055655777
0.07348836 0.06834683 -0.030623287 0.030188676 0.025134958 -0.03510795 -0.008207485 -0.0025367837
0.054783773 0.08327853 -0.08108994 0.07617489 -0.0757289 -0.005407178 -0.016902 0.0010195031
00000000: c1b7 b13d cea9 7cbd 8c15 8e3d 90ae b1bd
00000010: db99 293d e680 5c3d 2029 ee3c b614 8f3c
00000020: 062c 7c3c 0bef 993b fe38 903d 38ed 51bd
00000030: 9348 66bd 6242 4cbd b03d acbd a302 e1bb
00000040: 371e b2bc aa17 67bd 077c 77bd 7085 23bd
00000050: 790d 2a3d fa19 62bc fe57 3bbd b958 4d3c
00000060: 4078 74bd fc27 be3c 0597 15bd fa13 083d
00000070: 20b1 ff3c 5466 c13b 24be 93bd 294e 963d
00000080: 92d7 a53c e891 403c 9e85 603d 9f18 d1ba
00000090: 2ce0 be3a e5d8 b03d 477d a4bd 9c3a 0b3d
000000a0: 9fe6 15bc ebe1 c03d 2165 da39 2d54 53bd
000000b0: 7c3f f73c 7a61 b4bd 9583 a3bd 174b e0bc
000000c0: b311 1fbd bcaf 353c 8b86 10bd 0220 b3bd
000000d0: d8ee a23d 40f7 033b a192 e53c 7b54 b4bd
000000e0: 17cf a0bc a853 883c 6538 e83c 0642 263d
000000f0: ce13 953d 2af8 803d 0cc2 5bbd 00d4 2d3b
00000100: 796e f3bc e25e 403b 4eda 9f3d a727 91bd
00000110: 52f3 86bd ba61 5a3d d2d8 373a b499 98bd
00000120: 3eb3 22bd 4bad 8abd f40a 91bd 956a 493a
00000130: 7721 d3bc cdbf 8abd e171 aabd 8068 363c
00000140: e3a7 2038 b715 71bd 168d 233d 9a27 243d
00000150: a41a e8bc 6944 403d e01f 383d 7e57 9b3d
00000160: 3f0c 893d 2649 3b3d c5fa 823d a8d9 e33c
00000170: c854 623d 0107 2a3d d38c d63c ab20 76bd
00000180: 62fa 973d 2b54 93bd 114e 51bd 15a9 98bc
00000190: 56aa d9bc 783a a0bc dcd4 8e3c 1931 bcbc
000001a0: 08b8 57bc bd36 6f3d 4497 8bbd b66b 5a3d
000001b0: faff 323d 433c 23bd c887 99bc 0203 04bd
000001c0: b745 803a d08c 8cbd 1a8c 0cbd 5213 423d
000001d0: 5e82 60bd 7e36 253d b8bb ff3c ecca a9bc
000001e0: a95f c0bd 9b19 f83c 10f2 eabc 2b87 59bd
000001f0: 2837 84bd 5c8d 7a3d d781 af3d e591 51bb
00000200: adeb 893d c8de 84bc 27d9 57bd dab9 cbbc
00000210: 9cd1 d93d 1bb6 8dbd 6067 2a3c 1b68 8ebd
00000220: b7c3 97bd 8d91 fc3b 03ed 193d f58b a73d
00000230: 7834 13bd 7666 fbbc 5f76 98bd c1cb 343c
00000240: c488 503c 86e1 b23c 98da 643d e185 aa3d
00000250: 588c 11bc 1735 19bd d98d 903d 2e18 fb3b
00000260: 2e70 27bd 88b3 1fbd f2f2 843d 304c d3bc
00000270: e03a 6dbd cdbb e83d 7732 53bc de35 7ebd
00000280: 127b b13b 31e3 0bbd 2bd1 453d 607a 7dbd
00000290: 6283 203d 6a2d acbd 75c4 5dbd 7db5 ef3b
000002a0: 7922 1bbd 7949 473d bc28 9cbd 0698 9abd
000002b0: aa2d 6c3d 2157 15bd 1589 6e3d 2019 87bd
000002c0: 6726 0e3d a232 8a3c 108b 053d f45c 3cbd
000002d0: 4e8f a43d f3ef a03d 0a68 0f3d a26e cd3c
000002e0: 0a2f abbd c8bd af3c efab 5abd a436 853c
000002f0: a40d 0cbd 70ff 233d 4b0e 10bd 20a4 223c
00000300: 97e6 613d f83e 403d 68fd 2f3d bd4d e43c
00000310: 2e5d 9dbd c869 86bc 0046 013c 8b1c 90bc
00000320: 0233 173d 40b5 213d 8ea3 e5bc bde2 4f3d
00000330: ea81 acbb 778d 6ebd c022 1e3d 29fc 63bd
00000340: 7765 bd3c 0e0f 0a3d a6d0 003d 74b9 b5bc
00000350: 021a 073d 9a4c 5bbd 77bf 82bd 1d6b 80bd
00000360: 3ebd 1abd 1d1e 41bd 3f0e 983a 9459 fd3c
00000370: 3733 8d3d 4389 81bb d5cb 4d3b 4fee 8e3d
00000380: e9c1 a83d 6194 c63b 71a9 ce3b fb23 603d
00000390: 2e83 73bd 18a2 a4bd bf03 4ebd a338 ef3c
000003a0: 7918 9d3d a82a 4c3d 98ab 74bc 5d24 473d
000003b0: a0ff 6f3c 95cf 90bd 1570 4c3c 50f7 63bd
000003c0: 1181 963d 6cf9 8b3d b0dd fabc 3e4e f73c
000003d0: d4e7 cd3c 5bcd 0fbd b078 06bc 2b40 26bb
000003e0: f364 603d ef8d aa3d 7c12 a6bd 9501 9c3d
000003f0: c117 9bbd b22e b1bb 1076 8abc d9a0 853a

encoder.MLP.L2.bias f4 [64]
-0.04146398 -0.0039786366 0.020267852 -0.024237357 0.029643314 0.0021927871 -0.09121013 0.010359438
-0.08505114 0.014760895 -0.09990255 -0.07412878 -0.052961294 0.02041423 0.049504004 -0.081695616
-0.004207683 0.03614931 -9.988954e-05 -0.018386913 0.00069854525 -0.06701202 -0.016046053 -0.02946511
0.043389887 -0.0827146 -0.021039411 0.043477286 -0.073867366 -0.0026267208 -0.078675754 -0.068854496
-0.052294873 0.05451468 -0.014740006 0.015041752 0.024931088 -0.04772547 -0.024266602 -0.040135715
-0.020311287 0.025845187 -0.09668493 -0.10106933 -0.0016860768 0.029515505 -0.07191871 0.036472745
0.030482747 -0.011118971 0.05966193 -0.052168157 -0.032741554 -0.0731305 -0.04862651 -0.08627794
-0.059209835 -0.093878455 -0.0848368 -0.027562944 -0.017875576 -0.10870536 0.00077674736 -0.0690332
00000000: 22d6 29bd 395f 82bb c408 a63c 6c8d c6bc
00000010: 89d6 f23c ddb4 0f3b 60cc babd a2ba 293c
00000020: 4b2f aebd aed7 713c b599 ccbd d4d0 97bd
00000030: f1ed 58bd be3b a73c b6c4 4a3d 0850 a7bd
00000040: 9ae0 89bb 4d11 143d ca7b d1b8 27a0 96bc
00000050: 941e 373a 993d 89bd 0373 83bc d060 f1bc
00000060: 98b9 313d 4666 a9bd d85a acbc 3d15 323d
00000070: c647 97bd 1025 2cbb c120 a1bd 9603 8dbd
00000080: 2633 56bd c94a 5f3d 1180 71bc ae71 763c
00000090: 483c cc3c c87b 43bd c1ca c6bc 5965 24bd
000000a0: db63 a6bc 49b9 d33c c002 c6bd 70fd cebd
000000b0: 59ff dcba 80ca f13c 1e4a 93bd 7264 153d
000000c0: f4b6 f93c 582c 36bc 1160 743d 47ae 55bd
000000d0: 021c 06bd 72c5 95bd 972c 47bd 7db2 b0bd
000000e0: 0386 72bd 5943 c0bd ebbe adbd afcb e1bc
000000f0: cd6f 92bc eaa0 debd a29e 4b3a 4761 8dbd

encoder.linear_means.weight f4 [12, 64]
-0.09399229 -0.10197465 0.0471439 -0.08483522 -0.14197157 -0.07098726 -0.09436993 -0.0554193
-0.05705854 -0.016092254 0.10058546 0.02923592 -0.030624272 -0.04852382 -0.08318491 0.0232524
0.019803733 0.073604256 0.014117619 0.03799564 0.10162414 -0.07832367 0.013917295 0.024351116
-0.07140403 0.07546452 -0.08357692 -0.009058271 -0.02419163 0.056997936 -0.1285194 -0.006019399
0.052056767 -0.025224121 0.08718714 -0.049905825 -0.08608844 -0.09065332 -0.01786295 -0.039787866
-0.021603394 -0.027268318 -0.03729897 -0.09619781 -0.034480024 -0.011074834 0.025224779 -0.054492358
0.05371867 -0.038682062 -0.066284165 0.109962374 -0.08888189 0.115580134 -0.01569741 0.05989104
0.018460946 0.062270027 -0.07611911 0.105985776 -0.017985767 -0.03466229 -0.12605135 -0.045438528
0.032286204 0.042181358 0.013053956 0.09150905 0.12385963 -0.0019501795 0.041983098 0.06919525
0.0080562625 -0.042295903 0.07561547 -0.04287657 0.03980519 -0.06413056 0.05754934 -0.025583211
0.10705373 -0.004255921 -0.06819605 -0.03652679 0.11333776 -0.013010614 0.039528377 -0.04853833
0.020215156 0.11377456 -0.0024108677 0.10564861 0.011017257 0.04846825 0.09797319 0.056985658
0.01798202 0.0471151 0.026505087 0.036564175 0.05339123 0.09279553 -0.016730303 -0.029343056
0.0032553708 -0.04562975 0.012315425 0.07533704 0.07075221 0.15515895 -0.011214787 0.049881577
0.019529786 0.108159006 0.0107603995 -0.05704494 -0.08338947 0.03728343 0.10361166 -0.11357541
-0.089304954 0.09676672 -0.13663302 -0.0049702 -0.0036077925 0.07322618 -0.057221115 0.044963855
0.1174871 0.0147711905 -0.0004880192 -0.14209718 0.05873573 0.042478412 0.038364306 0.13758822
-0.053844012 -0.070074804 -0.008057387 0.029440328 -0.049148936 -0.09488478 -0.0955776 -0.027075706
-0.004607435 0.059044942 0.107148424 0.015009616 0.018292235 -0.13082276 -0.07688477 0.102256104
0.0038362925 0.04082559 0.010516556 -0.055943236 -0.018954586 0.07160445 -0.030380629 0.027513584
-0.036714826 -0.05450499 -0.02989793 -0.10286096 -0.06055935 -0.16951555 -0.03717056 -0.077885285
0.022609087 -0.08352078 -0.038411446 -0.081539236 -0.014254772 0.042655602 -0.030644905 -0.00047948875
-0.112819426 0.055146433 -0.006634369 -0.031175744 0.07505586 0.07295582 0.018942079 -0.015069102
-0.037793495 0.024076194 0.05216767 0.06887993 0.010745574 -0.06902434 -0.10617414 0.051252473
0.064751066 0.15004778 0.052031804 -0.081607655 0.02818188 0.12912434 0.023343815 0.0503447
-0.10153746 -0.04589456 0.074960686 -0.087634526 0.029337041 -0.11541309 0.08017781 0.023966195
0.03497542 0.07459216 0.009852524 -0.14662899 0.11077715 0.11509341 -0.024377748 -0.0062497784
0.024527801 -0.051933814 -0.008727687 -0.1063459 -0.021540483 -0.07603986 0.038092118 0.07206023
0.086614855 0.088370904 -0.11280717 0.05412482 0.11306334 -0.11338006 0.03985965 -0.046549756
0.0047325776 0.088099666 -0.032277465 0.04304066 0.08752786 -0.0015346766 -0.070484094 0.012592922
0.027497023 -0.08507431 0.02791476 0.034703873 0.05127143 0.06512468 0.07736596 0.08001347
0.045176413 -0.0234228 -0.06476244 0.051307995 -0.024491327 -0.081573635 -0.116265565 -0.00018491526
00000000: 087f c0bd 16d8 d0bd f619 413d 16be adbd
00000010: ff60 11be c561 91bd 0645 c1bd 59ff 62bd
00000020: 37b6 69bd e7d3 83bc c0ff cd3d 2b80 ef3c
00000030: c1df fabc eac0 46bd da5c aabd d17b be3c
00000040: 703b a23c d4bd 963d 964d 673c 51a1 1b3d
00000050: 5120 d03d 2968 a0bd 5e05 643c fe7b c73c
00000060: 473c 92bd 248d 9a3d 602a abbd 2469 14bc
00000070: 862d c6bc ab76 693d 979a 03be 613e c5bb
00000080: 7a39 553d d1a2 cebc 2c8f b23d 0d6a 4cbd
00000090: 234f b0bd 73a8 b9bd 5255 92bc 9af8 22bd
000000a0: 9af9 b0bc cf61 dfbc cec6 18bd 5b03 c5bd
000000b0: ed3a 0dbd 3873 35bc 32a4 ce3c 6133 5fbd
000000c0: 1c08 5c3d 1571 1ebd febf 87bd f433 e13d
000000d0: b507 b6bd 47b5 ec3d db97 80bc 4f50 753d
000000e0: 693b 973c db0e 7f3d 56e4 9bbd 120f d93d
000000f0: e356 93bc 0cfa 0dbd 9b13 01be c01d 3abd
00000100: 8a3e 043d 5cc6 2c3d 43e0 553c 1969 bb3d
00000110: 1eaa fd3d 2a9d ffba 78f6 2b3d 3db6 8d3d
00000120: 6afe 033c 783e 2dbd 49dc 9a3d 589f 2fbd
00000130: c40a 233d e256 83bd dbb8 6b3d e293 d1bc
00000140: fc3e db3d 4175 8bbb 5faa 8bbd 1e9d 15bd
00000150: a11d e83d 782a 55bc 82e8 213d 21d0 46bd
00000160: 419a a53c a302 e93d a6ff 1dbb 4c5e d83d
00000170: ba81 343c a586 463d 2ba6 c83d cb69 693d
00000180: 074f 933c c3fb 403d 3221 d93c 51c4 153d
00000190: c3b0 5a3d 950b be3d fd0d 89bc d960 f0bc
000001a0: 0f58 553b 43e6 3abd a3c6 493c 4e4a 9a3d
000001b0: 89e6 903d fde1 1e3e 3abe 37bc a050 4c3d
000001c0: eefc 9f3c 7882 dd3d 634c 303c f4a7 69bd
000001d0: 19c8 aabd 83b6 183d 5a32 d43d 399a e8bd
000001e0: 84e5 b6bd a12d c63d 87e9 0bbe 0fdd a2bb
000001f0: b770 6cbb 9cf7 953d b060 6abd 052c 383d
00000200: 149d f03d dd02 723c d4dc ffb9 ec81 11be
00000210: e094 703d d8fd 2d3d e423 1d3d ede3 0c3e
00000220: 8a8b 5cbd 6183 8fbd 2103 04bc d82c f13c
00000230: 6550 49bd f452 c2bd 30be c3bd dfcd ddbc
00000240: f7f9 96bb 1cd9 713d a270 db3d e4ea 753c
00000250: 99d9 953c 67f6 05be c375 9dbd a66b d13d
00000260: 4f6a 7b3b bc38 273d a24d 2c3c bc24 65bd
00000270: a646 9bbc 5ba5 923d cce0 f8bc 2b64 e13c
00000280: 4962 16bd a040 5fbd 81ec f4bc c4a8 d2bd
00000290: 150d 78bd 7c95 2dbe 2840 18bd 5282 9fbd
000002a0: b136 b93c f10c abbd 5255 1dbd 0bfe a6bd
000002b0: d98c 69bc a4b7 2e3d 060b fbbc e463 fbb9
000002c0: df0d e7bd 3ae1 613d 1f65 d9bb 4664 ffbc
000002d0: e3b6 993d dc69 953d 6b2c 9b3c 65e4 76bc
000002e0: 5acd 1abd 703b c53c c4ad 553d ec10 8d3d
000002f0: 340e 303c a25c 8dbd d471 d9bd 1dee 513d
00000300: 359c 843d 20a6 193e 4d1f 553d ea21 a7bd
00000310: b0dd e63c 2c39 043e 873b bf3c 3f36 4e3d
00000320: dff2 cfbd effb 3bbd fd84 993d bb79 b3bd
00000330: 3c54 f03c b35d ecbd 4334 a43d c154 c43c
00000340: 6342 0f3d c6c3 983d 7b6c 213c e925 16be
00000350: 21df e23d 18b6 eb3d d8b3 c7bc f1ca ccbb
00000360: 87ee c83c 8db8 54bd 93fe 0ebc e1cb d9bd
00000370: ab75 b0bc c9ba 9bbd 7b06 1c3d 5094 933d
00000380: 2163 b13d cefb b43d 7207 e7bd fdb1 5d3d
00000390: c18d e73d ce33 e8bd df43 233d f5aa 3ebd
000003a0: bd13 9b3b 996d b43d 6035 04bd 674b 303d
000003b0: cf41 b33d 3427 c9ba f759 90bd 8b52 4e3c
000003c0: 7041 e13c 713b aebd 7fad e43c a625 0e3d
000003d0: fe01 523d 1760 853d 0b72 9e3d 1ade a33d
000003e0: e70a 393d 2ce1 bfbc 2ca2 84bd 5528 523d
000003f0: 09a2 c8bc 1410 a7bd a41c eebd d0e5 41b9

encoder.linear_means.bias f4 [12]
-0.0006096269 0.00015129356 5.554163e-05 0.0007215575 0.00055887084 0.00039372995 0.0001159521 0.00027793358
-0.00012040929 -0.0005346003 -0.0003700065 0.0005831012
00000000: 5ecf 1fba 8ea4 1e39 5ff5 6838 e726 3d3a
00000010: 3081 123a 8a6d ce39 4f2b f338 9db7 9139
00000020: 3f84 fcb8 6b24 0cba 6ffd c1b9 42db 183a

encoder.linear_log_var.weight f4 [12, 64]
-0.088307664 0.05682599 0.09733034 -0.07832541 0.018628836 -0.045760494 -0.011636025 0.11397941
-0.081562884 0.039329797 -0.08388297 0.095122546 0.11793618 -0.11779537 -0.0713732 -0.032773945
0.08419719 -0.0015382069 0.033518128 0.09645486 -0.074045494 -0.077264555 0.088073984 0.09743467
0.09548736 -0.0050881277 0.09396299 0.01644373 0.0274144 -0.05487549 -0.06626354 -0.007293924
-0.015631404 0.019423988 -0.064422786 -0.04561756 -0.011604784 -0.124980494 0.09955445 0.04375762
-0.12761474 -0.097512946 -0.11115267 -0.11420685 0.013176555 -0.026591951 0.0034253143 -0.06554342
0.15241067 0.06524359 -0.0385277 -0.005314578 0.04607384 0.020222967 0.01958038 0.027777746
-0.07402257 -0.014235771 -0.11420002 0.029783333 -0.03333846 0.053704064 -0.051154096 0.079065226
-0.07313915 0.09912193 0.035050552 -0.079278946 -0.08964241 -0.00030170972 0.10208407 0.037792984
0.037858892 0.025893107 0.069285 0.084331386 -0.011358357 0.010924727 0.051492516 -0.117700025
-0.010079513 -0.08360885 -0.08675869 0.0150658935 -0.06278403 0.16458246 -0.03640117 -0.12511428
-0.058550462 0.00854322 -0.08669992 0.094890475 -0.028769389 0.051533263 0.035924047 -0.12317675
0.01936617 -0.105853416 -0.07561706 -0.15175062 -0.035179503 -0.16353771 0.09242153 0.079187095
-0.1215949 -0.018623207 -0.08684238 0.016330123 -0.09757083 0.042811844 0.09575867 0.08885673
0.10167924 0.104388446 0.010042061 -0.015943523 -0.05843053 0.0695732 -0.030414348 -0.035451096
0.07547025 0.07595017 0.056635823 0.074172564 0.03368769 0.004941309 -0.054207623 -0.06819811
0.0911002 0.035442352 -0.09561297 0.107785486 -0.07457333 0.09608701 -0.07893731 -0.06822701
-0.08704879 -0.045378678 -0.042429395 0.087847725 0.12229063 0.03935345 -0.12660392 0.047241367
-0.07513399 -0.0029836365 -0.0012182064 0.027368339 -0.10184095 -0.090020314 0.101392224 0.034440573
-0.0035904127 0.11097373 -0.048405282 -0.025969902 -0.043292243 -0.037322532 0.112691104 -0.010007541
-0.005090793 -0.05505119 0.04963934 -0.06929196 -0.11016812 -0.03160411 0.04087493 0.10759535
-0.09405496 0.059530232 0.0793008 0.04830587 0.002921121 0.007931758 0.012176177 -0.042112026
0.0958268 -0.004977708 0.060366955 0.03670122 0.10181446 -0.06835019 -0.045040432 0.04519734
0.120581396 0.038864903 0.11965623 0.14013472 -0.1035885 -0.09922924 -0.09638221 -0.11174658
0.032149993 -0.098330274 -0.038668443 0.038404744 0.070370674 0.046318937 -0.055235542 -0.019955799
-0.03439261 -0.007877066 0.013571538 0.021048099 -0.024887063 0.00085564354 -0.054083377 -0.11212254
0.0854941 -0.018347459 -0.056710254 0.037512187 -0.0631669 -0.08785951 -0.09740048 -0.11298679
0.046155896 -0.104739435 -0.12096872 0.02253874 0.06652856 -0.033083636 0.055380184 -0.010047996
-0.12095134 -0.09056973 -0.06583117 0.09043816 -0.040063016 -0.15027921 0.08156328 0.0721459
-0.07858023 0.056668874 0.018857988 0.08600322 -0.11142661 -0.04703518 0.108883314 0.014471855
-0.00048546618 0.10903822 -0.11607234 -0.05157669 0.032471593 -0.00022033903 -0.032931197 0.033575423
0.016048439 -0.09150935 0.078762844 0.06254296 0.06256997 0.13599794 0.08752591 0.05643946
00000000: a6da b4bd 5fc2 683d 2155 c73d 1369 a0bd
00000010: 809b 983c 5b6f 3bbd 07a5 3ebc 096e e93d
00000020: 710a a7bd 4818 213d d6ca abbd 9ccf c23d
00000030: 8688 f13d b33e f1bd 1d2c 92bd f93d 06bd
00000040: 946f ac3d a99d c9ba 4e4a 093d 208a c53d
00000050: 2aa5 97bd e13c 9ebd 2260 b43d d48b c73d
00000060: e18e c33d 4fba a6bb ab6f c03d 00b5 863c
00000070: 2a94 e03c 1fc5 60bd 2eb5 87bd df01 efbb
00000080: 6e0d 80bc 0e1f 9f3c 18f0 83bd 7bd9 3abd
00000090: fe21 3ebc c6f5 ffbd 34e3 cb3d 313b 333d
000000a0: 70ad 02be deb4 c7bd 03a4 e3bd 48e5 e9bd
000000b0: 7ae2 573c 5dd7 d9bc 3d7b 603b a13b 86bd
000000c0: 8b11 1c3e 6e9e 853d 39cf 1dbd e925 aebb
000000d0: ecb7 3c3d a3aa a53c 0867 a03c 288e e33c
000000e0: 2599 97bd 273d 69bc b3e1 e9bd 2dfc f33c
000000f0: e98d 08bd cbf8 5b3d f586 51bd f3ec a13d
00000100: fbc9 95bd 7000 cb3d 2b91 0f3d 005d a2bd
00000110: 7196 b7bd cb2e 9eb9 7411 d13d d1cc 1a3d
00000120: ed11 1b3d c81d d43c 4be5 8d3d efb5 ac3d
00000130: 6718 3abc a0fd 323c d1e9 523d b60c f1bd
00000140: 8b24 25bc 1e3b abbd 8aae b1bd f0d6 763c
00000150: ea94 80bd 4e88 283e 6519 15bd f51d 00be
00000160: 9cd2 6fbd ddf8 0b3c ba8f b1bd f055 c23d
00000170: c8ad ebbc 8b14 533d 1825 133d 1844 fcbd
00000180: cda5 9e3c adc9 d8bd 1edd 9abd 8464 1bbe
00000190: 6218 10bd 6e76 27be 8047 bd3d d82c a23d
000001a0: bf06 f9bd b28f 98bc 6bda b1bd c0c6 853c
000001b0: 37d3 c7bd 795b 2f3d 1f1d c43d 84fa b53d
000001c0: 353d d03d 9cc9 d53d 7587 243c fe9b 82bc
000001d0: da54 6fbd 657c 8e3d 8327 f9bc 2b35 11bd
000001e0: 2590 9a3d c38b 9b3d f7fa 673d c9e7 973d
000001f0: 1afc 093d b4ea a13b d008 5ebd 73ab 8bbd
00000200: be92 ba3d 002c 113d bcd0 c3bd a3be dc3d
00000210: e7b9 98bd 44c9 c43d e2a9 a1bd 9aba 8bbd
00000220: a346 b2bd fede 39bd 72ca 2dbd 82e9 b33d
00000230: 8373 fa3d 1531 213d 75a4 01be 2a80 413d
00000240: d9df 99bd 1d89 43bb 39ac 9fba 9133 e03c
00000250: fd91 d0bd 925c b8bd baa6 cf3d 8f11 0d3d
00000260: 214d 6bbb 3246 e33d 9e44 46bd d5be d4bc
00000270: 3553 31bd 83df 18bd 98ca e63d abf6 23bc
00000280: abd0 a6bb 5b7d 61bd 9f52 4b3d f1e8 8dbd
00000290: d39f e1bd 5073 01bd 786c 273d f35a dc3d
000002a0: e39f c0bd f9d5 733d 7568 a23d 60dc 453d
000002b0: 4770 3f3b 34f4 013c 977e 473c a97d 2cbd
000002c0: d740 c43d 0b1c a3bb 5743 773d 0554 163d
000002d0: 1984 d03d 2ffb 8bbd 517c 38bd d920 393d
000002e0: 61f3 f63d ce30 1f3d 530e f53d 7a7f 0f3e
000002f0: 3526 d4bd b338 cbbd 0964 c5bd 64db e4bd
00000300: b6af 033d 6261 c9bd cd62 1ebd 4b4e 1d3d
00000310: 801e 903d edb8 3d3d aa3e 62bd 587a a3bc
00000320: 44df 0cbd cf0e 01bc 285b 5e3c 106d ac3c
00000330: f4df cbbc 444d 603a 8886 5dbd 81a0 e5bd
00000340: 8817 af3d 694d 96bc 0349 68bd 61a6 193d
00000350: a65d 81bd b0ef b3bd e779 c7bd 9e65 e7bd
00000360: f70d 3d3d a181 d6bd 73be f7bd 2aa3 b83c
00000370: 2040 883d b582 07bd 55d6 623d 5aa0 24bc
00000380: 56b5 f7bd 9f7c b9bd 7ed2 86bd a437 b93d
00000390: 1e19 24bd cbe2 19be a60a a73d 3bc1 933d
000003a0: acee a0bd 9f1d 683d 117c 9a3c 7522 b03d
000003b0: a233 e4bd f6a7 40bd 37fe de3d 5c1b 6d3c
000003c0: 2b86 feb9 6e4f df3d 56b7 edbd 1442 53bd
000003d0: ef00 053d cf0a 67b9 dde2 06bd 6286 093d
000003e0: 0478 833c 4169 bbbd 6a4e a13d 8616 803d
000003f0: af24 803d 0b43 0b3e c940 b33d 102d 673d

encoder.linear_log_var.bias f4 [12]
-0.00034991498 0.00041555843 -0.0006055804 -0.0010946876 -0.00036920095 0.00011420152 -2.6904787e-05 0.00041723077
-0.0005352753 -0.0007513604 -0.0001216056 -0.0001396854
00000000: cb74 b7b9 4fdf d939 d0bf 1eba 9f7b 8fba
00000010: 5091 c1b9 797f ef38 97b1 e1b7 c4bf da39
00000020: b851 0cba f1f6 44ba 8206 ffb8 8478 12b9

decoder.MLP.L0.weight f4 [64, 18]
-0.019672561 0.027242493 -0.008599331 -0.020899724 0.014154038 0.0012947487 -0.001825747 -0.020061973
-0.0001685248 0.020334918 -0.012469304 0.004187823 -1.2451917 -1.3722914 -4.2985635 -19.004374
9.46419 4.20317 0.014006875 0.028626464 -0.06491097 -0.027331622 0.00439915 -0.03760366
-0.020240948 0.00049252016 0.035106376 0.018704657 -0.029407322 -0.02287425 -0.7882958 -0.7896276
-0.61282164 -0.87184095 -0.38902348 -0.43787408 -0.016632473 0.0066914386 -0.027273156 -0.0032024912
0.0070558246 0.019832926 -0.019208018 -0.0052082697 0.023371456 0.011455236 -0.0138456365 -0.009530935
0.07211047 -0.2727189 -0.31293014 -0.5009109 -0.0996894 -0.040016852 -0.004842829 -0.041853122
-0.015034678 0.016857803 -0.038898803 0.037231218 0.06972688 -0.029346533 0.0050189975 -0.03458531
-0.013800719 -0.00714637 -0.041534636 0.06506093 0.6034266 -1.0925361 -0.95274115 -0.44728354
-0.017294742 -0.036236133 -0.042501498 0.0575209 0.03203224 0.029091079 -0.05044771 -0.022433197
-0.03017584 0.01040679 0.00062862877 -0.04726562 -0.5362676 -0.41516656 3.5745637e-05 -0.2627337
-0.17114687 -0.32745755 0.04408509 0.057334136 0.029533098 0.01870124 0.041265126 -0.020702153
-0.025501555 -0.029599931 -0.013110026 -0.04237885 0.011050688 -0.005972255 -0.43261793 -0.5144435
-0.0694922 -0.2044078 -0.2901381 -0.26801458 0.06927226 -0.076355554 0.106212124 0.017394217
-0.038739625 0.004729517 0.056805685 0.054495137 0.05781519 0.07909672 -0.059085555 0.0053087105
-0.7199107 -0.41527075 -0.598841 -0.34109995 -0.48506266 -0.8961409 -0.027530365 0.0137549825
-0.03472978 -0.0052202935 0.039676417 0.0015444774 0.013134177 -0.001957653 -0.0048718117 0.0061129406
-0.013566537 -0.02269234 -1.5401977 -0.9603549 -0.37883225 -0.096242875 -6.7356176 -9.245472
-0.005415445 0.055866763 -0.030302752 -0.034961037 0.010043298 -0.021496074 -0.10894813 -0.013941578
-0.005215786 0.031200565 0.062449023 0.008977006 -0.2536902 -0.17090571 -0.119712904 0.019466015
0.06783166 0.01734069 -0.042843077 -0.04257323 -0.027857916 -0.074755155 0.02455424 0.056952707
0.0056446595 0.038575515 0.021215972 0.0074456753 0.0077391784 0.07383892 -0.56144726 -0.5761197
-0.3580269 -0.40019968 -0.7682456 -1.0040879 0.012964005 -0.07396055 0.022684433 -0.022115571
-0.027232224 -0.038362715 -0.04738408 0.040891945 -0.0146968 0.040809833 0.06393264 0.051291764
-0.19931264 -0.1885968 -0.47265053 -0.45960826 -0.11741184 -0.23510808 0.0030967635 -0.0125799775
0.012931903 0.009645924 0.004606977 0.004538127 0.006614651 0.01181849 -0.009733393 0.0041957833
-0.023205273 0.008590301 0.60960746 0.41132545 -0.23601845 -2.5068972 -1.2032851 4.0258727
0.00051644765 0.010956655 0.013452323 -0.0058927215 -0.002018191 0.0078850845 -0.03943295 0.0016529749
-0.0014445256 0.020412404 0.012769168 -0.009277277 -0.4057847 -0.4117082 -0.44885156 -0.09030892
-0.123259455 -0.33811247 -0.045595784 -0.025794018 0.030352147 0.008974392 0.045998637 0.014188395
-0.018761093 0.042247754 0.015100362 -0.0057959547 -0.012394688 -0.0049391226 -0.11290098 -0.38324395
-0.035548978 -0.065791 -0.04727359 -0.5818812 -0.056536574 0.034161206 0.01719886 -0.012194611
00000000: 5a28 a1bc a62b df3c 35e4 0cbc e635 abbc
00000010: 57e6 673c 8fb4 a93a e74d efba 0259 a4bc
00000020: 08b6 30b9 6a95 a63c 0d4c 4cbc 013a 893b
00000030: 7162 9fbf 3fa7 afbf d58d 89c0 f508 98c1
00000040: 526d 1741 5e80 8640 187d 653c 0c82 ea3c
00000050: 0bf0 84bd 91e6 dfbc bf26 903b 4c06 1abd
00000060: 58d0 a5bc 781c 013a b4cb 0f3d 823a 993c
00000070: a0e7 f0bc c762 bbbc c1cd 49bf 0925 4abf
00000080: e1e1 1cbf f830 5fbf 162e c7be 0831 e0be
00000090: d340 88bc db43 db3b f46b dfbc e3e0 51bb
000000a0: 8c34 e73b a978 a23c 225a 9dbc 22aa aabb
000000b0: 7f75 bf3c beae 3b3c cfd8 62bc a427 1cbc
000000c0: a7ae 933d d0a1 8bbe 6138 a0be b23b 00bf
000000d0: f529 ccbd b6e8 23bd 98b0 9ebb 2e6e 2bbd
000000e0: 0354 76bc 6019 8a3c 5a54 1fbd c37f 183d
000000f0: f7cc 8e3d 2468 f0bc 6776 a43b 53a9 0dbd
00000100: 691c 62bc 192c eabb 3920 2abd aa3e 853d
00000110: 2a7a 1a3f 39d8 8bbf d8e6 73bf 5902 e5be
00000120: b4ad 8dbc 576c 14bd 0d16 2ebd 099b 6b3d
00000130: 3d34 033d 6a50 ee3c 42a2 4ebd d3c5 b7bc
00000140: 5333 f7bc 3e81 2a3c 90ca 243a 9899 41bd
00000150: d548 09bf b690 d4be 96ed 1538 0885 86be
00000160: 2041 2fbe 84a8 a7be 9192 343d 33d7 6a3d
00000170: 65ef f13c 5833 993c 9f05 293d 9097 a9bc
00000180: a3e8 d0bc 8e7b f2bc 6fcb 56bc 7295 2dbd
00000190: f20d 353c e8b2 c3bb 1980 ddbe 92b2 03bf
000001a0: ed51 8ebd 4750 51be fb8c 94be 3539 89be
000001b0: 9dde 8d3d 4d60 9cbd be85 d93d 517e 8e3c
000001c0: 71ad 1ebd 10fa 9a3b 14ad 683d 4b36 5f3d
000001d0: 9fcf 6c3d 76fd a13d b203 72bd b1f4 ad3b
000001e0: 114c 38bf 5e9e d4be a54d 19bf a7a4 aebe
000001f0: 225a f8be 7d69 65bf 5c87 e1bc 945c 613c
00000200: d040 0ebd ff0e abbb bd83 223d 1070 ca3a
00000210: bb30 573c f84b 00bb b8a3 9fbb 104f c83b
00000220: 2e46 5ebc 49e5 b9bc 3325 c5bf d2d9 75bf
00000230: 4df6 c1be fc1a c5bd 2e8a d7c0 74ed 13c1
00000240: 0c74 b1bb 8cd4 643d 7a3d f8bc 4e33 0fbd
00000250: a58c 243c 8918 b0bc 3220 dfbd 376b 64bc
00000260: 2fe9 aabb 5498 ff3c 8cca 7f3d 4b14 133c
00000270: afe3 81be e801 2fbe 0a2c f5bd 3177 9f3c
00000280: 53eb 8a3d 100e 8e3c 397c 2fbd 4461 2ebd
00000290: 4936 e4bc 3b19 99bd f925 c93c 3e47 693d
000002a0: d6f6 b83b 5c01 1e3d 1ecd ad3c dafa f33b
000002b0: ef98 fd3b dc38 973d 02bb 0fbf 957c 13bf
000002c0: 4d4f b7be f9e6 ccbe beab 44bf f485 80bf
000002d0: fa66 543c a178 97bd b4d4 b93c b72b b5bc
000002e0: 1d16 dfbc 3922 1dbd cf15 42bd 507e 273d
000002f0: d9ca 70bc 3628 273d 1eef 823d 5017 523d
00000300: 9d18 4cbe 851f 41be 40ff f1be c651 ebbe
00000310: 9e75 f0bd 2cc0 70be 12f3 4a3b 401c 4ebc
00000320: 55e0 533c f009 1e3c 20f6 963b 92b4 943b
00000330: b7bf d83b 57a2 413c cf78 1fbc c87c 893b
00000340: fc18 bebc 55be 0c3c 3c0f 1c3f 4099 d23e
00000350: d2ae 71be 0171 20c0 3f05 9abf f3d3 8040
00000360: 3762 073a 8b83 333c 2267 5c3c bb17 c1bb
00000370: a043 04bb 7130 013c 7284 21bd a2a8 d83a
00000380: 3c56 bdba ea37 a73c c635 513c b8ff 17bc
00000390: 03c3 cfbe 6bcb d2be dfcf e5be e2f3 b8bd
000003a0: 746f fcbd 141d adbe a5c2 3abd fa4d d3bc
000003b0: 11a5 f83c 5409 133c 1169 3c3d 7176 683c
000003c0: ddb0 99bc fb0b 2d3d 8267 773c feeb bdbb
000003d0: 1713 4bbc 5dd8 a1bb a138 e7bd 8d38 c4be
000003e0: ce9b 11bd 6fbd 86bd f4a1 41bd 2bf6 14bf
000003f0: e592 67bd 9fec 0b3d a0e4 8c3c e8cb 47bc
