model/CVAE_8000_0.005_32_[12, 320, 200, 100]_16_[100, 200, 320, 6].pth (torch, 729966 bytes, 18 tensors)

encoder.MLP.L0.weight f4 [320, 12]
0	0xbc941fed	-0.01808163
1	0x3e38d81b	0.18051188
2	0xbe81e910	-0.25373125
3	0xbe6af591	-0.22945239
4	0xbe038ec4	-0.1284743
5	0x3d7316d3	0.05934794
6	0xbcc5af7e	-0.024131533
7	0x3e5acfe9	0.21368374
8	0xbd22b47f	-0.039722916
9	0x3d805a2f	0.06267201
10	0xbdce89ba	-0.10084863
11	0xbd8f10a2	-0.06985594
12	0xbe9a7ab0	-0.30171728
13	0xbe7b64a8	-0.24550116
14	0xbdbfe95b	-0.09370681
15	0x3b3a6a50	0.0028444715
16	0x3dd57eef	0.10424601
17	0x3e046655	0.12929662
18	0xbe32de8e	-0.1746771
19	0xbdce0d43	-0.10061123
20	0x3e17c173	0.14819889
21	0x3e8f119b	0.2794312
22	0xbcb43c61	-0.022001447
23	0x3e7253e4	0.23664814
24	0xbd3e95d8	-0.04652962
25	0x3cfa3b60	0.03054589
26	0x3e85d4b6	0.26138848
27	0xbe891c79	-0.26779535
28	0xbe3a17f0	-0.18173194
29	0xbd95ac48	-0.07308251
30	0xbde673cc	-0.11252555
31	0x3e7f66c8	0.24941552
32	0xbe3f9aa4	-0.18711334
33	0xbe081370	-0.13288665
34	0xbe4e853c	-0.20168012
35	0xbe8a6cdf	-0.27036187
36	0xbe67bf01	-0.22631456
37	0x3e8b36d7	0.27190277
38	0x3d90b07c	0.07064912
39	0x3db3785c	0.08763191
40	0xbd17da6e	-0.037073545
41	0xbe572335	-0.21009524
42	0xbd4a8600	-0.0494442
43	0xbebc6a3d	-0.36799803
44	0xbe972311	-0.2951894
45	0xbe606379	-0.21912946
46	0x3e0ba871	0.13638474
47	0x3d97e0f0	0.0741595
48	0xbe6e6834	-0.23281938
49	0x3d4fcdf8	0.050733536
50	0x3e0a41c1	0.13501646
51	0x3e528b80	0.20561028
52	0x3ced6a96	0.028981488
53	0xbd82bca5	-0.06383637
54	0x3de8e96e	0.11372648
55	0xbe703fdf	-0.23461865
56	0x3cf5ff7e	0.030029055
57	0xbe732990	-0.23746324
58	0xbe42f917	-0.19040333
59	0xbe708f9b	-0.23492281
60	0x3de104a4	0.10987213
61	0x3e2faa0b	0.1715471
62	0xbe5f803b	-0.2182626
63	0x3d80e0ed	0.06292901
64	0x3e0a972a	0.13534227
65	0xbd38429d	-0.044985402
66	0xbcba100d	-0.022712732
67	0x3d1913be	0.037372343
68	0x3e15129c	0.1455788
69	0x3e79c076	0.24389824
70	0xbe82fde3	-0.25584325
71	0xbe0c9a75	-0.13730796
72	0x3b12002b	0.0022277932
73	0x3e9c5635	0.3053452
74	0x3e3c242b	0.18373172
75	0x3e1f94cc	0.15584105
76	0xbd369134	-0.04457207
77	0xbebb185c	-0.36542022
78	0xbd3f6b3b	-0.046733122
79	0xbe72dd15	-0.23717149
80	0xbe8ab986	-0.27094668
81	0x3e89e977	0.26935932
82	0x3e8073e2	0.25088412
83	0xbebaf492	-0.36514717
84	0x3d59f58d	0.05321269
85	0x3ccbd4f8	0.024881825
86	0xbdc0daa7	-0.094167046
87	0xbe176240	-0.14783573
88	0x3dc93d74	0.098261744
89	0xbe1dcac2	-0.15409377
90	0x3db3d293	0.08780398
91	0x3db5d9af	0.088794105
92	0x3e0c6601	0.13710786
93	0x3d1f73d8	0.038928837
94	0xbeb63788	-0.35589242
95	0xbe82a2a3	-0.25514707
96	0x3dcf2538	0.10114521
97	0x3dc2edb9	0.09517998
98	0xbe831be0	-0.25607204
99	0xbe493e8d	-0.19652767
100	0x3e76d8ac	0.24106091
101	0x3e2179b8	0.15769088
102	0xbe29a1ea	-0.16565672
103	0xbde5aabe	-0.11214207
104	0xbe9fd73f	-0.31218907
105	0xbd2786e9	-0.040900145
106	0xbe7ea633	-0.24868087
107	0xbe85d8f8	-0.26142097
108	0xbc824d10	-0.015905887
109	0x3d318898	0.043343157
110	0xbdf21df6	-0.11822121
111	0x3e2f6786	0.17129335
112	0xbe33e2dd	-0.1756701
113	0x3e861c5e	0.26193517
114	0x3e4a93b2	0.19782904
115	0xbe7946fa	-0.24343482
116	0xbd93245e	-0.07184671
117	0x3c556a20	0.01302579
118	0x3d2c83f0	0.042118013
119	0x3d8c3810	0.068466306
120	0x3de80198	0.11328429
121	0x3c8da750	0.017291695
122	0xbe103bbe	-0.1408529
123	0x3e0be052	0.1365979
124	0xbe8dc751	-0.2769113
125	0xbe2f34c1	-0.17109968
126	0xbd93ff26	-0.072264
127	0xbe0ffe09	-0.1406175
128	0xbdced2e6	-0.100988194
129	0xbe72486c	-0.23660439
130	0xbd7b8468	-0.06140557
131	0x3d7cbf98	0.061706156
132	0xbe6855ca	-0.22688976
133	0x3c2f9520	0.0107167065
134	0x3e35dec4	0.1776076
135	0xbd8bdc77	-0.0682916
136	0xbcff4cf1	-0.031164618
137	0xbd962ff7	-0.07333367
138	0x3cb6a4d2	0.02229539
139	0x3e1e7c56	0.15477118
140	0x3e7eedca	0.24895397
141	0x3e2320e3	0.15930514
142	0x3e806616	0.25077885
143	0xbd2f0978	-0.04273364
144	0xbe84c5ff	-0.2593231
145	0xbe0c2389	-0.1368543
146	0x3e494722	0.19656041
147	0xbaf54700	-0.0018713176
148	0xbe12edb6	-0.14348492
149	0xbe62863a	-0.22121516
150	0xbe8a520c	-0.27015722
151	0xbe797ddc	-0.24364418
152	0xbd6fd63c	-0.05855392
153	0x3e221c54	0.15831119
154	0x3e1fd0b8	0.15606964
155	0xbe8e8b6d	-0.27840748
156	0x3e38645e	0.18007037
157	0xbe674ffa	-0.22589102
158	0xbd79f970	-0.061028898
159	0xbdefb7d8	-0.11704987
160	0xbd63c038	-0.055603236
161	0xbd682880	-0.05667925
162	0xbe84a13c	-0.25904262
163	0xbe7f3c31	-0.24925305
164	0xbd390600	-0.045171738
165	0x3b74a880	0.003733188
166	0xbe064901	-0.13113786
167	0x3ddeb504	0.1087437
168	0xbeb74630	-0.35795736
169	0x3bfd5ef3	0.007732266
170	0x3e600215	0.21875794
171	0xbe5576bc	-0.20846075
172	0x3e2a5aaa	0.16636148
173	0xbccf5b7d	-0.02531218
174	0xbea18044	-0.3154317
175	0x3e291fba	0.16516009
176	0xbcad01b2	-0.021118972
177	0xbdea40a4	-0.114381105
178	0x3e804050	0.25049067
179	0xbe6578a1	-0.22409298
180	0xbdc42a9e	-0.09578441
181	0x39a5523c	0.00031532522
182	0x3e18d89c	0.1492638
183	0xbcc4db1a	-0.024030257
184	0x3cf903aa	0.030397255
185	0xbcf1cfa2	-0.029517952
186	0xbe0edb24	-0.13950783
187	0xbdd718b7	-0.10502761
188	0xbe836eb0	-0.25670385
189	0x3e0c7a54	0.1371854
190	0x3e58f08e	0.21185514
191	0x3e1d492c	0.15359944
192	0xbe50831e	-0.20362517
193	0x3c52f120	0.0128748715
194	0xbe506181	-0.20349695
195	0xbe22b997	-0.1589111
196	0xbe2c3fec	-0.1682126
197	0x3dca0abc	0.09865329
198	0xbe302768	-0.17202532
199	0xbbce6040	-0.006298095
200	0x3c46f7c0	0.012144029
201	0x3e3e8d80	0.18608665
202	0xbe5f73d6	-0.21821532
203	0xbe4aef70	-0.198179
204	0xbe615089	-0.22003378
205	0x3e613e63	0.21996455
206	0xbe10d569	-0.1414391
207	0x3e59a3c0	0.21253872
208	0x3d9330d9	0.07187051
209	0xbbbec015	-0.005821238
210	0xbd67106b	-0.05641214
211	0xbde2eb1c	-0.1108
212	0xbb28f0b3	-0.0025778234
213	0xbdc7c77d	-0.09754846
214	0xbcd274b6	-0.025690418
215	0xbcbfbd11	-0.023405584
216	0xbe6738f2	-0.22580317
217	0xbe1aef5c	-0.15130371
218	0x3e6eb294	0.2331031
219	0xbe6fe55a	-0.23427334
220	0xbca9cf20	-0.020728648
221	0x3e92360c	0.2855686
222	0x3dd590d4	0.104280144
223	0x3c05e920	0.008173257
224	0xbe80161e	-0.25016874
225	0x3e126f74	0.14300328
226	0xbe528d75	-0.20561774
227	0xbda7d28c	-0.081944555
228	0xbe19d118	-0.15021169
229	0x3c8a091a	0.016850043
230	0xbd88f4e5	-0.06687335
231	0x3e436ed3	0.19085245
232	0xbc32ee2c	-0.010921042
233	0x3e660a4a	0.22464862
234	0x3df58da8	0.119899094
235	0xbe819881	-0.25311664
236	0x3cfb5e77	0.030684693
237	0xbe9c22b6	-0.30495232
238	0xbe651c87	-0.22374164
239	0xbcacd02d	-0.02109536
240	0x3d20e21e	0.039278142
241	0x3e8883a7	0.26662943
242	0xbe1c485f	-0.15261982
243	0xbd6be99b	-0.05759583
244	0x3db964c9	0.09052426
245	0xbeac6fb8	-0.33678985
246	0x3e25eeb8	0.16204345
247	0xbe9175ed	-0.28410283
248	0xbd0b88c2	-0.03406597
249	0xbdadd6ba	-0.084882215
250	0xbe4cca9d	-0.19999166
251	0xbbedb913	-0.0072547286
252	0x3e7470a0	0.23871088
253	0xbdacd23e	-0.08438538
254	0xbe2f7f7a	-0.17138472
255	0xbddaa6b4	-0.10676327

encoder.MLP.L0.bias f4 [320]
0	0xbe8d036b	-0.2754167
1	0xbe98dd54	-0.2985636
2	0xbd7daea0	-0.061934114
3	0x3e20fe89	0.15722097
4	0xbc8fb13a	-0.017540563
5	0x3d447e82	0.04797221
6	0xbe449dd0	-0.19200826
7	0x3e905f0d	0.28197518
8	0xbd0ded4e	-0.03465014
9	0x3dc79f60	0.09747195
10	0x3b965900	0.0045882463
11	0xbb9f2955	-0.004857222
12	0x3dc525e4	0.09626368
13	0x3e62d71c	0.2215237
14	0x3d053409	0.032520328
15	0xbdc4e984	-0.09614852
16	0x3dec5d48	0.115412295
17	0xbe03efd9	-0.12884463
18	0x3e4a0e54	0.19732028
19	0x3d4a6de9	0.049421225
20	0x3e241206	0.160225
21	0xbd389d74	-0.045072034
22	0xbec05de4	-0.37571633
23	0x3bcf6ec8	0.006330345
24	0x3d775d04	0.06039144
25	0x3e3d849e	0.1850762
26	0x3d6db4a2	0.058033593
27	0x3d9cdfe4	0.07659891
28	0x3dfad511	0.122476704
29	0xbe2230dd	-0.15838952
30	0x3e653a3a	0.22385493
31	0x3da9c3be	0.08289288
32	0x3e0c354a	0.13692203
33	0x3e305128	0.17218459
34	0xbe9872af	-0.29774997
35	0x3cbb2efb	0.02284955
36	0x3e805004	0.25061047
37	0xbe63f8ee	-0.22262928
38	0xbccaae90	-0.024741441
39	0xbeb98810	-0.3623662
40	0xbdf783dd	-0.12085698
41	0xbc9d968f	-0.019236831
42	0x3df5e268	0.12006074
43	0xbe573b97	-0.21018825
44	0xbeb9d09e	-0.36291975
45	0x3e1f9d6a	0.15587392
46	0x3e84bb80	0.259243
47	0xbd98851d	-0.07447264
48	0x3df1f78a	0.118147925
49	0x3e3d5440	0.1848917
50	0xbdb72235	-0.08942071
51	0xbd80d6e7	-0.06290989
52	0x3ce20ee9	0.027595
53	0xbda4d24d	-0.08047924
54	0xbe0b979e	-0.13632056
55	0xbe253086	-0.16131791
56	0xbe6943e0	-0.22779799
57	0x3ddd71fb	0.10812756
58	0xbdfb7593	-0.12278285
59	0xbe35d722	-0.17757848
60	0x3e6c417c	0.23071855
61	0x3d02c9bf	0.03193068
62	0x3e43b885	0.19113357
63	0x3e71ee3b	0.23626034
64	0xbd90c669	-0.07069094
65	0x3d305f98	0.043059915
66	0x3e890860	0.26764202
67	0xbe4b62ae	-0.19861862
68	0xbe23d089	-0.15997519
69	0x3bd6fd3c	0.0065609496
70	0xbc473dfd	-0.012160775
71	0x3d5b2e32	0.053510852
72	0x3de2ca67	0.110737614
73	0xbdeb1956	-0.11479442
74	0xbd1fade6	-0.0389842
75	0x3e27b0d0	0.16376042
76	0xbe3e9922	-0.18613103
77	0xbe5ed8d5	-0.21762402
78	0xbe822e9b	-0.25426182
79	0x3e2ce0e3	0.16882662
80	0xbe96f0da	-0.2948063
81	0xbe29d1b6	-0.16583905
82	0x3e306568	0.17226183
83	0xbe313560	-0.17305517
84	0x3e269d84	0.16271025
85	0xbe0fd82b	-0.14047305
86	0x3c802580	0.015642881
87	0x3c6da6a4	0.014505062
88	0x3d3c4f4e	0.04597407
89	0x3e00f88e	0.12594816
90	0x3e81b790	0.2533536
91	0xbe63addc	-0.22234291
92	0x3e25c8c2	0.16189864
93	0x3d9df670	0.0771302
94	0xbd9287fc	-0.07154843
95	0xbe4eb02d	-0.20184393
96	0x3daf5fe0	0.085632086
97	0x3e99c861	0.3003569
98	0xbe7dba59	-0.24778117
99	0xbeb53095	-0.35388628
100	0xbe914d2c	-0.2837919
101	0x3da0c37d	0.078497864
102	0xbde8917c	-0.11355874
103	0xbdb7a524	-0.08967045
104	0x3e458a0e	0.19290945
105	0xbe1a2672	-0.15053728
106	0xbe86fd36	-0.2636506
107	0x3ca593b3	0.02021203
108	0xbe5acfb6	-0.21368298
109	0xbe4d77f5	-0.20065291
110	0x3e1c2574	0.15248662
111	0x3e2e0c01	0.16996767
112	0xbe7a739a	-0.24458161
113	0x3e407051	0.18792845
114	0x3e4304f4	0.19044858
115	0xbe90cde4	-0.28282082
116	0x3dbcabf7	0.09212487
117	0x3da391dc	0.07986805
118	0xbe79acdf	-0.24382351
119	0xbe9e4322	-0.30910593
120	0xbe74c446	-0.23902997
121	0x3df625f2	0.12018956
122	0xbdb4a095	-0.08819691
123	0xbd04d067	-0.03242531
124	0xbe6bd503	-0.23030476
125	0x3e24695b	0.16055815
126	0x3d16fb30	0.036860645
127	0xbe86639c	-0.2624787
128	0xbdbc88e2	-0.09205796
129	0x3d15dc76	0.0365872
130	0x3d81ff04	0.063474685
131	0xbd4d94eb	-0.050190847
132	0xbe56aaf4	-0.20963651
133	0xbe37e2b0	-0.17957568
134	0x3e7ef7ac	0.24899167
135	0xbe922013	-0.28540096
136	0x3e898b15	0.26863924
137	0x3c8aa611	0.01692489
138	0xbbd77c6c	-0.0065761115
139	0xbea5beed	-0.32372227
140	0xbdc11a3e	-0.094288334
141	0x3df9ddb2	0.12200488
142	0xbe99d068	-0.30041814
143	0x3dce8c0e	0.10085307
144	0xbea547a8	-0.32281232
145	0x3d2c7548	0.042104036
146	0xbe9120f6	-0.2834546
147	0xbe96a9a9	-0.29426315
148	0xbed3556b	-0.41276106
149	0xbe524ec3	-0.20537858
150	0x3d20fe88	0.03930524
151	0xbea0e663	-0.3142577
152	0x3d95d54c	0.07316074
153	0x3de34887	0.11097818
154	0x3e4372eb	0.19086806
155	0x3e49f163	0.19720988
156	0x3e429f3c	0.19006056
157	0xbde316e7	-0.11088353
158	0xbe2157ec	-0.15756196
159	0x3e6858ef	0.22690175
160	0x3dd90732	0.105970755
161	0xbe1b361a	-0.15157357
162	0x3e1fbad5	0.15598615
163	0xbe96a946	-0.2942602
164	0x3e6bfcec	0.23045701
165	0x3c92333d	0.017846698
166	0xbe77c05e	-0.24194476
167	0xbe852567	-0.26005098
168	0x3e672b60	0.2257514
169	0x3e7a0d01	0.24419023
170	0xbd7c78dd	-0.0616387
171	0xbe3e69a5	-0.18594988
172	0x3e05eb94	0.13078147
173	0x3e02ce3b	0.12773983
174	0xbd939d0a	-0.07207687
175	0x3e505a9f	0.20347069
176	0x3e3f9a40	0.18711185
177	0xbd6d9c55	-0.058010418
178	0x3cdedd76	0.02720521
179	0xbee01e0c	-0.43772924
180	0xbe15ac65	-0.14616545
181	0x3bda8653	0.0066688447
182	0x3d36d28c	0.044634387
183	0xbc40c25a	-0.011765087
184	0x3d15c201	0.03656197
185	0x3e07acaa	0.1324946
186	0xbe8ede5f	-0.2790403
187	0x3d9036b4	0.07041684
188	0xbd9f7ebe	-0.07787846
189	0xbeac1fdb	-0.33618054
190	0xbd27610c	-0.040864035
191	0xbddea530	-0.10871351
192	0xbe74c493	-0.23903112
193	0xbe9b24e6	-0.3030159
194	0x3e546b42	0.2074404
195	0xbe7f13a4	-0.24909836
196	0x3d0da0d6	0.034577213
197	0x3e1952de	0.14973018
198	0xbe903566	-0.2816574
199	0xbe41be18	-0.18920171
200	0xbea53f7e	-0.32275003
201	0x3d447650	0.047964394
202	0xbe320c47	-0.17387496
203	0xbd197430	-0.03746432
204	0x3d7b5397	0.061359014
205	0xbe2db2e9	-0.1696278
206	0x3da8574f	0.08219778
207	0xbd88e632	-0.06684531
208	0xbe04cd72	-0.12968996
209	0xbe9b19f8	-0.3029325
210	0x3db35f84	0.087584525
211	0xbe36c21c	-0.17847484
212	0x3c38aaa9	0.011271157
213	0xbd153b70	-0.036433637
214	0x3e1a2403	0.150528
215	0xbe346fa5	-0.17620714
216	0xbe2c0ac1	-0.16800977
217	0xbd18cf10	-0.037306845
218	0xbea52b28	-0.32259488
219	0x3daccb09	0.084371634
220	0xbe223f9d	-0.15844579
221	0x3d31300f	0.043258723
222	0x3e16efea	0.14739957
223	0x3e9a6f40	0.30163002
224	0xbdb0497e	-0.086077675
225	0x3e3aec96	0.18254313
226	0xbe1c87be	-0.15286157
227	0xbe934318	-0.28762126
228	0xbe464584	-0.19362456
229	0xbe6a48c2	-0.22879317
230	0xbe9fa794	-0.3118254
231	0x3ca47a8c	0.020077966
232	0x3e5b6932	0.21426848
233	0xbe130e1a	-0.14360848
234	0xbc85c5e0	-0.016329706
235	0xbeb0a13a	-0.34498006
236	0xbb071571	-0.0020612145
237	0x3d3c0d91	0.045911375
238	0xbe3234bb	-0.17402928
239	0x3e60e75c	0.21963257
240	0xbea8f9f3	-0.33003196
241	0xbdc4742e	-0.09592472
242	0xbe2414a6	-0.16023502
243	0x3e81c75c	0.25347412
244	0x3e6266ee	0.22109577
245	0x3e8b17ab	0.27166495
246	0x3e171841	0.14755346
247	0x3d917822	0.07102992
248	0xbe91dd28	-0.2848904
249	0xbe571df3	-0.21007518
250	0xbd00110d	-0.03126626
251	0xbea65c5c	-0.3249234
252	0x3df1031e	0.11768173
253	0x3e0082ea	0.1254994
254	0x3c1cb07f	0.009563564
255	0xbe94ddd6	-0.29075497

encoder.MLP.L1.weight f4 [200, 320]
0	0xbda6885f	-0.081314795
1	0xbc2f630f	-0.01070477
2	0xbc69d094	-0.01427092
3	0xbc413984	-0.011793498
4	0x3ceed5dc	0.02915471
5	0xbca5ba85	-0.020230541
6	0xbd0a8496	-0.03381785
7	0xbd64a833	-0.05582447
8	0xbc0b3980	-0.008497596
9	0xbc624910	-0.013811365
10	0xbc41e4f8	-0.011834376
11	0xbd8bbfbf	-0.06823682
12	0x3d25dfd4	0.040496662
13	0x3ced804c	0.02899184
14	0xbc9b9c74	-0.018995501
15	0xbc8e4bd9	-0.017370151
16	0x3bd671a8	0.0065443106
17	0x3d2b3610	0.041799605
18	0x3c4f3fd0	0.012649491
19	0x3c0b8518	0.008515619
20	0xbcfbbd04	-0.030729778
21	0x3c98c460	0.018648326
22	0xbd56371b	-0.052298646
23	0xbc4b1bdd	-0.01239678
24	0xbd4678bf	-0.048454996
25	0xbd59c20a	-0.053163566
26	0xba06f264	-0.00051478134
27	0xbd81af90	-0.06332314
28	0x3c6d5492	0.014485495
29	0xbd79813f	-0.060914274
30	0x3d58e1a8	0.052949578
31	0xbc51ae84	-0.012797955
32	0xbcc673fe	-0.024225231
33	0x3b8539de	0.004065736
34	0xbd4ac6f2	-0.049506135
35	0xbd110d72	-0.035413213
36	0xbd0f743e	-0.035022967
37	0xbcb9b38a	-0.022668619
38	0x3bb3f5d0	0.0054919496
39	0xbd44f10f	-0.048081454
40	0x3cc3ea59	0.023915457
41	0xbcf66c4b	-0.030080935
42	0xbd75437d	-0.059878815
43	0x3aaf0480	0.0013352782
44	0xbcc4933e	-0.023995992
45	0x3c7cb010	0.015422836
46	0x3ca5c7ec	0.020236932
47	0xbd3bf183	-0.04588462
48	0xbcdb4983	-0.026768452
49	0x3b53f8f0	0.0032344423
50	0xbd14ee72	-0.03636021
51	0xbd2e0d0b	-0.042492907
52	0xbd1cc596	-0.03827437
53	0xbd893def	-0.06701266
54	0xbcd0aed3	-0.025473988
55	0xbce5278d	-0.02797296
56	0xbd99f86a	-0.07518084
57	0xbc980b07	-0.018559946
58	0x3d5a8c22	0.053356297
59	0xb999fffd	-0.0002937316
60	0xbcf86860	-0.030323207
61	0x3d519836	0.05117055
62	0xbd8c319c	-0.068454
63	0xbd6f69c4	-0.058450475
64	0x3cc9ff44	0.024657853
65	0x3d362864	0.044472113
66	0x3d5a8190	0.053346217
67	0x3d4520f8	0.048127145
68	0xbcfc2a99	-0.03078203
69	0xbc8d31a8	-0.017235592
70	0xbd856254	-0.06512895
71	0xbcebdf3f	-0.028792975
72	0x3d3db4a0	0.046314836
73	0xbb23f879	-0.0025019927
74	0xbda73573	-0.081644915
75	0xbd5d88b4	-0.05408545
76	0xbd4131b9	-0.04716656
77	0x3cd7b9c0	0.02633369
78	0xbbe88948	-0.0070964433
79	0xbd91304a	-0.070892885
80	0xbd442829	-0.047889862
81	0x3c964824	0.018344946
82	0xbccb96be	-0.024852153
83	0x3d56d8ee	0.052452974
84	0xbcfc10b5	-0.030769685
85	0xbc4bded0	-0.012443259
86	0xbd4059a5	-0.04696049
87	0xbcbf5670	-0.023356646
88	0xbce593f8	-0.028024659
89	0x3d44af0e	0.048018508
90	0xbbd85c19	-0.006602776
91	0xbd7d7b6b	-0.06188528
92	0xbd4b74bb	-0.04967187
93	0xbd59daaa	-0.05318705
94	0xbca64ea0	-0.020301163
95	0x3becc950	0.0072261468
96	0x3d57690e	0.052590422
97	0xbbb3fb40	-0.005492598
98	0x3cb30d8c	0.021857046
99	0xbad3eb4b	-0.0016168145
100	0xbd2f64c8	-0.042820722
101	0xbd9c3393	-0.076270245
102	0xbc10ec96	-0.008845469
103	0x3cd57404	0.026056297
104	0xbd659c56	-0.056057297
105	0xbcae38af	-0.021267263
106	0xbdad9766	-0.084761426
107	0xbcf035f2	-0.029322598
108	0xbc85bb73	-0.016324734
109	0x3a0ab600	0.00052914023
110	0xbc116134	-0.008873273
111	0xbbdd7f4e	-0.0067595607
112	0xbd39ee05	-0.04539301
113	0x3c3dd073	0.011585343
114	0xbda01b55	-0.07817713
115	0xbd7dd99c	-0.061975107
116	0xbd3f278d	-0.046668578
117	0xbda509d2	-0.08058514
118	0x3d29c00c	0.041442916
119	0xbc62a8a8	-0.013834156
120	0xbd33dd5f	-0.043912288
121	0x3c3df710	0.011594549
122	0xbd943128	-0.07235938
123	0xbcde5004	-0.027137764
124	0xbb624913	-0.003452842
125	0xbd2b691b	-0.041848283
126	0x3ceb6b60	0.028737724
127	0xbc97fe6d	-0.018553937
128	0xbd995d73	-0.07488527
129	0x3c3443a8	0.011002459
130	0x3d139b10	0.03603655
131	0xbd3012b8	-0.0429866
132	0xbccab482	-0.024744276
133	0x3be9b040	0.0071316063
134	0x3b9d84e8	0.0048071034
135	0xbc7de2bc	-0.015495952
136	0xbd5b3b8f	-0.053523596
137	0x3d2db9c0	0.042413473
138	0xbbb90464	-0.0056462754
139	0x3be23560	0.0069033355
140	0xbca2a5ca	-0.019854445
141	0xbd99d23b	-0.075108014
142	0xbd3c5e63	-0.04598845
143	0xbd04f3bf	-0.032459017
144	0xbc89208c	-0.016739152
145	0xbcfb35f5	-0.030665377
146	0x3bc25c50	0.0059314147
147	0xbd420db3	-0.047376346
148	0x3d26aa3e	0.0406897
149	0xbd9fc46a	-0.07801135
150	0x3bbf7b60	0.005843565
151	0x3d1b20d4	0.037873104
152	0xbd31d6ea	-0.04341785
153	0xbad20180	-0.0016022176
154	0xbb897ca3	-0.004195766
155	0xbbf4c518	-0.0074697845
156	0x3bd76b20	0.0065740496
157	0xbbf377cb	-0.007430052
158	0xbd1f9dda	-0.0389689
159	0x3c876e82	0.016532186
160	0x3aa36b40	0.0012467876
161	0x3d140296	0.03613528
162	0xbc90ada7	-0.017660929
163	0xbd1476ab	-0.036245983
164	0xbbc750a2	-0.00608261
165	0x3d595d52	0.053067513
166	0x3ccdbdac	0.025114857
167	0xbd9ddd70	-0.077082515
168	0x3b5e3190	0.0033904053
169	0xbd8fbda5	-0.07018594
170	0x3d056934	0.032571033
171	0x3c258b34	0.010103989
172	0xbd8de372	-0.069281474
173	0xbd0839eb	-0.03325836
174	0x3d1e71d6	0.03868278
175	0x3be36e75	0.0069406577
176	0xbd2c2879	-0.042030785
177	0x3d19bd58	0.037534088
178	0xbc222638	-0.009896807
179	0xbd42bc48	-0.04754284
180	0x3c3671f8	0.011135571
181	0xbb82948e	-0.0039849943
182	0x3d0951f4	0.033525422
183	0xbd8b5526	-0.0680335
184	0xbd906ac2	-0.070516124
185	0xbd19d85e	-0.03755986
186	0x3d01c314	0.03168018
187	0xbda18e36	-0.07888453
188	0xbcf9d8d3	-0.030498898
189	0xbd3e4765	-0.046454806
190	0x3cc7f110	0.02440694
191	0x3c33dde8	0.0109782
192	0xbd6e9e5a	-0.058256485
193	0x3c1ff9e0	0.009764165
194	0x3caf72d3	0.021417057
195	0xbcaa9642	-0.020823602
196	0xbd6c7582	-0.05772925
197	0x3af55000	0.0018715858
198	0xbda6823e	-0.081303105
199	0xbd12e88e	-0.035866313
200	0xbc2a2018	-0.010383628
201	0xbd0eaf64	-0.034835234
202	0x3c8dcf91	0.01731089
203	0x3c31c8c8	0.010851093
204	0x3d315980	0.043298244
205	0xbd2f21bc	-0.04275678
206	0xbbfec190	-0.0077745393
207	0xbc827867	-0.015926553
208	0xbd3f134b	-0.04664926
209	0xbc9c1a04	-0.019055374
210	0xbd609e05	-0.0548382
211	0x3d2c7f10	0.042113364
212	0x3ca87843	0.020565158
213	0xbd62b62e	-0.05534952
214	0xbd46c00b	-0.04852299
215	0xbd9417b8	-0.072310865
216	0xbd57f04e	-0.052719407
217	0x3d2e51e2	0.04255856
218	0xb902449a	-0.00012423322
219	0xbd0cc256	-0.03436502
220	0xbbc99526	-0.006151813
221	0xbc5a72b1	-0.013333009
222	0x3a03a0fc	0.0005021242
223	0xbd3800c9	-0.044922624
224	0xbc50dc9c	-0.01274791
225	0xbda9ed06	-0.08297162
226	0xbd16967f	-0.036764618
227	0xbcaaa7dc	-0.020831995
228	0xbbb27848	-0.0054464675
229	0xbda989b5	-0.08278219
230	0xbcea969e	-0.028636273
231	0xbcacdefa	-0.021102417
232	0xbcb5be58	-0.02218549
233	0xbc42e3ae	-0.011895103
234	0x3d48150e	0.048848204
235	0xbc1c72b0	-0.009548828
236	0xbcf3e482	-0.029772047
237	0xbd4ad4c3	-0.04951931
238	0xbd911841	-0.07084704
239	0xbcfd48db	-0.03091853
240	0xbd922225	-0.07135419
241	0xbd55037b	-0.052005272
242	0x3cfc46a0	0.030795395
243	0x3c8f4d38	0.017492875
244	0x3ca6c5ec	0.020358048
245	0x3cd0b027	0.025474621
246	0xbca4e8e4	-0.020130582
247	0xbd54a999	-0.051919553
248	0x3bfaabc0	0.0076498687
249	0xbd3653d1	-0.044513527
250	0x39c66ce3	0.0003784663
251	0xbd2433eb	-0.040088575
252	0xbd9d5bfa	-0.07683559
253	0xbd2cdee5	-0.042204756
254	0xbd8c62ae	-0.06854759
255	0xbc703c48	-0.01466281

encoder.MLP.L1.bias f4 [200]
0	0x3c53fa78	0.012938134
1	0xbc87fe7b	-0.016600838
2	0x3cf6afa0	0.030113041
3	0xbc6c0346	-0.014405077
4	0xbd8eba46	-0.069691226
5	0x3d005dfd	0.031339634
6	0x3cc9f06b	0.024650773
7	0x3cac7081	0.02104974
8	0x3d000ac4	0.031260267
9	0xbd90aa83	-0.070637725
10	0x3d36441e	0.044498555
11	0xbd1d9ed7	-0.03848156
12	0xbdc2061a	-0.0947382
13	0x3b4f3922	0.0031619747
14	0xbd75fb53	-0.060054135
15	0xbb6f6a4b	-0.0036531861
16	0xbcee9b0d	-0.029126668
17	0xbdf267ef	-0.1183623
18	0xbce5bfe6	-0.028045606
19	0xbd2a1385	-0.04152252
20	0xbd1b0586	-0.037847064
21	0xbcf2aac5	-0.029622445
22	0xbcd493cf	-0.025949387
23	0x3cb82f27	0.022483421
24	0xbc8839ca	-0.016629118
25	0xbc9f8ee8	-0.019477323
26	0xbd8159c4	-0.063159496
27	0x3d4ee88a	0.050514735
28	0xbdb531f3	-0.08847418
29	0x3c981ed9	0.018569397
30	0xbceb8b72	-0.028753016
31	0xbd97cc73	-0.074120425
32	0x3c7e9271	0.015537844
33	0xbcd332a0	-0.025780976
34	0x3c53866b	0.012910466
35	0xbda67bf4	-0.08129111
36	0xbcb8b156	-0.022545498
37	0xbb9d985f	-0.004809424
38	0xbc8262ec	-0.01591631
39	0xbd7180a8	-0.058960587
40	0xbbddd028	-0.006769199
41	0xbd2fa8e2	-0.04288567
42	0xbdbb06a2	-0.091321245
43	0xbd6222a0	-0.055208802
44	0x3cef3c52	0.029203568
45	0x3cd1c050	0.025604397
46	0xbdaf6e29	-0.08565933
47	0x3b1ff95b	0.0024410102
48	0xbd8e0f4d	-0.06936512
49	0xbda18d15	-0.078882374
50	0xbd186b56	-0.03721174
51	0xbd6bfb68	-0.057612807
52	0xbd04e583	-0.032445442
53	0xbd90f803	-0.070785545
54	0xbd6d38fa	-0.057915665
55	0xbd8b61b0	-0.06805742
56	0x3d00ddb1	0.03146142
57	0xbc92be30	-0.017912954
58	0xbc2e0bf8	-0.010622971
59	0xbaa5ee66	-0.0012659549
60	0xb8eeec52	-0.000113927425
61	0xbd1b6baa	-0.037944473
62	0xbdacc54f	-0.08436071
63	0x3c942d49	0.018088
64	0xbd6e8ed3	-0.058241677
65	0x3cfbf8f0	0.030758351
66	0x3c1357e4	0.008993123
67	0xbce132e9	-0.027490096
68	0xbcf57af2	-0.029965851
69	0xbc4779cb	-0.012175034
70	0xbb94fcea	-0.0045467513
71	0xbcfef1aa	-0.031121094
72	0xbd660c04	-0.056163803
73	0xbd053dad	-0.03252952
74	0x3de0889d	0.10963557
75	0xbcf4b7df	-0.029872833
76	0xbd570276	-0.05249258
77	0xbd328c18	-0.043590635
78	0xbcf2cb7d	-0.029638046
79	0xbdafdfed	-0.08587632
80	0xbd1ef3d3	-0.038806748
81	0xbd4b052b	-0.049565475
82	0xbc0caf4c	-0.008586716
83	0xbc0f8335	-0.00875931
84	0xbd990a36	-0.07472651
85	0x3c1b2ae7	0.009470678
86	0xbd2e7430	-0.042591274
87	0xbdab98e2	-0.083787695
88	0xbd99b62e	-0.07505451
89	0x3d818a21	0.06325174
90	0xbd0620a4	-0.032745972
91	0xbd016f98	-0.031600565
92	0xbd9a12f6	-0.07523148
93	0xbd584f65	-0.05281009
94	0x3d37fe92	0.04492051
95	0x3d5b433e	0.053530924
96	0xbd67ec9a	-0.056622125
97	0xbc9062cf	-0.01762524
98	0xbdeb374e	-0.11485158
99	0xbd66390e	-0.056206755
100	0xbd8eb239	-0.06967587
101	0x3c65f00e	0.014034284
102	0xbd1ab8f7	-0.037774052
103	0x3c9464ec	0.01811453
104	0xbd4a1470	-0.049335897
105	0x3cb53df9	0.022124277
106	0xbd9d341d	-0.076759554
107	0x3d59d565	0.053182025
108	0xbcf6ec02	-0.030141834
109	0xbd735c36	-0.05941411
110	0x3b9cc177	0.004783805
111	0xbd030032	-0.03198261
112	0xbc849b9a	-0.016187478
113	0xbd483110	-0.048874915
114	0x3c35dd4a	0.011100123
115	0x3b87dd3c	0.0041462462
116	0xbda202f5	-0.0791072
117	0xbbc84982	-0.0061122784
118	0xbc833562	-0.016016666
119	0x3db92508	0.09040266
120	0xbe200888	-0.15628254
121	0xbcf2bf00	-0.029632092
122	0xbd11bc26	-0.035579823
123	0xbcf82d49	-0.030295031
124	0xbd6771b3	-0.056504916
125	0xbd89ec8a	-0.06734569
126	0xbd5d110e	-0.053971343
127	0x3badd1e8	0.005304564
128	0x3ca7b78a	0.02047326
129	0xbccf6528	-0.02531679
130	0xbd2125f6	-0.039342843
131	0xbd9221d7	-0.07135361
132	0xbdc1471e	-0.09437393
133	0x3ce05ef2	0.027389023
134	0xbc6437ed	-0.013929349
135	0xbd227698	-0.03966388
136	0xbd46c9db	-0.048532348
137	0x3d2b412a	0.041810192
138	0xbd9c1f2d	-0.07623134
139	0xbd03980d	-0.03212743
140	0xbd75b82f	-0.059990104
141	0x3cc6c042	0.024261598
142	0xbd36c27a	-0.04461906
143	0xbc2ecb10	-0.010668531
144	0xbbdc7eac	-0.0067289677
145	0xbd33b9b7	-0.043878283
146	0x3dd6fb8b	0.10497197
147	0xbd1f1d62	-0.03884638
148	0x3c834374	0.016023375
149	0xbc6c5d00	-0.01442647
150	0xbd08550c	-0.033284232
151	0x3c882634	0.01661978
152	0xbc7c7cf0	-0.015410647
153	0x3d038f9b	0.032119375
154	0x3c013bd5	0.0078878
155	0xbbacef38	-0.0052775405
156	0x3c490bb6	0.0122708585
157	0xbd762dfa	-0.06010244
158	0xbd8c9c2e	-0.068657264
159	0x3bde227a	0.0067790123
160	0xbc130153	-0.008972484
161	0x3c96ba05	0.018399248
162	0xbd765708	-0.060141593
163	0x3bc45668	0.0059917457
164	0xbda48175	-0.080325045
165	0xbc412774	-0.0117891915
166	0xbd96aa48	-0.07356697
167	0xbc1450b8	-0.009052448
168	0x3c896543	0.016771918
169	0xbc80ebf7	-0.015737517
170	0x3c88910b	0.016670724
171	0xbd5dbbfa	-0.054134347
172	0xbcf2c508	-0.029634967
173	0xbc805975	-0.015667656
174	0xbe41a6c4	-0.18911272
175	0x3c243c6d	0.010024172
176	0xbd781551	-0.060567204
177	0x3cba26a8	0.02272351
178	0x3c84d246	0.016213547
179	0xbd14af71	-0.036300126
180	0xbd1ba434	-0.037998393
181	0x3ce88238	0.028382406
182	0xbd2b80aa	-0.04187075
183	0x3d20a205	0.039217014
184	0xbd0b277c	-0.033973202
185	0xbc797763	-0.015226218
186	0x3caf752e	0.02141818
187	0xbcd46954	-0.02592913
188	0xbd389157	-0.045060482
189	0xbe4e35bf	-0.2013769
190	0xbceea13f	-0.029129623
191	0xbd24aed1	-0.04020578
192	0xbcc2e956	-0.023792904
193	0xbca0bc1b	-0.019620946
194	0xbd11057e	-0.03540563
195	0xbd2add36	-0.04171487
196	0xbbed07d2	-0.0072335983
197	0x3c4a4479	0.012345427
198	0xbd001934	-0.031274036
199	0xbd9b57e1	-0.07585121

encoder.MLP.L2.weight f4 [100, 200]
0	0xbd59dfe1	-0.053192023
1	0x3d3c30c8	0.04594496
2	0x3d8c2fe5	0.06845073
3	0xbcab1390	-0.020883352
4	0xbd46764a	-0.048452653
5	0xbba61370	-0.005068235
6	0xbbbb2a40	-0.0057118237
7	0x3d13e478	0.036106557
8	0x3b399b60	0.002832137
9	0xbd7fc92f	-0.062447723
10	0x3d63764e	0.055532746
11	0x3cd7a794	0.026325025
12	0xbc1b0038	-0.009460501
13	0x3d173ab2	0.03692121
14	0x3cdcc048	0.026947156
15	0xbd072275	-0.032991845
16	0xbcb98d90	-0.02265051
17	0x3d905b99	0.07048721
18	0x3bc9bc30	0.006156467
19	0x3d7bc422	0.061466344
20	0xbc5dd700	-0.0135400295
21	0xbd4f1036	-0.05055257
22	0x3c8eb2f8	0.017419323
23	0xbb9a68f0	-0.0047122166
24	0xbc5f4c5c	-0.013629045
25	0xbbf811e0	-0.0075704902
26	0x3d4518c0	0.048119307
27	0xbd567d36	-0.052365504
28	0xbd64131a	-0.05568228
29	0x3cdd81a8	0.027039364
30	0x3d8b9e29	0.06817276
31	0x3d799672	0.06093449
32	0x3c8f516c	0.01749488
33	0x3d0504ba	0.03247521
34	0xbc993592	-0.018702302
35	0x3d3f1e1a	0.046659566
36	0x3d158d4c	0.036511704
37	0xbd0b48e7	-0.034005072
38	0x3d2cf034	0.042221263
39	0xbcb64ea8	-0.022254303
40	0x3d85e113	0.0653707
41	0xbd8ba044	-0.068176776
42	0x3d7d7616	0.061880194
43	0xbd72e0e4	-0.059296504
44	0xbc55c8b0	-0.013048336
45	0xbc887b4c	-0.016660355
46	0xbce96224	-0.02848918
47	0xbd6f1ac4	-0.058375135
48	0xbd866f38	-0.06564182
49	0x3bc87950	0.006117977
50	0x3c012800	0.007883072
51	0x3c6b0c58	0.014346205
52	0xbcddf698	-0.027095124
53	0x3cf10dcc	0.029425524
54	0x3d2a944c	0.041645333
55	0x3d795602	0.06087304
56	0xbd902c44	-0.07039693
57	0x3d89eca5	0.067345895
58	0xbd07917c	-0.03309773
59	0xbd44c889	-0.048042808
60	0xbc953d9e	-0.018217858
61	0x3d5ad064	0.053421393
62	0xbd9110a9	-0.07083256
63	0xbd45c974	-0.048287824
64	0xbd4de677	-0.050268617
65	0xbd5c3ee2	-0.053770907
66	0x3d4b4d04	0.049633995
67	0xbd24e385	-0.040256042
68	0xbd904d1e	-0.07045959
69	0xbc3ae88c	-0.011407983
70	0x3d61b80a	0.055107154
71	0xbdd654f0	-0.10465419
72	0xbc956658	-0.018237278
73	0x3cb531e0	0.022118509
74	0xbd0786b5	-0.03308745
75	0xbd77e4d9	-0.06052098
76	0x3d57c972	0.052682348
77	0x3bb3e000	0.0054893494
78	0x3d1743b0	0.036929786
79	0xbd1ec883	-0.03876544
80	0x3d085a54	0.03328927
81	0xbd856c5b	-0.06514808
82	0xbb883b70	-0.004157476
83	0x3d0bffd0	0.03417951
84	0xbd0676b1	-0.032828037
85	0xbc2c9eb7	-0.010535887
86	0x3be8dec0	0.007106632
87	0xbc95feda	-0.01831
88	0xbce0fa02	-0.027462963
89	0xbdf33675	-0.11875621
90	0x3d8632d9	0.06552667
91	0x3d907b39	0.07054753
92	0x3d2ad576	0.04170748
93	0xbd3aa15e	-0.045564048
94	0x3d508f18	0.050917715
95	0x3d3df584	0.04637672
96	0xbaef7b00	-0.001827091
97	0xbd41ed50	-0.04734546
98	0x3d559320	0.052142262
99	0x3c8f0548	0.017458573
100	0x3d07e122	0.033173688
101	0x3d644ec2	0.05573917
102	0xbcb135e8	-0.02163215
103	0xbce437e4	-0.027858682
104	0x3d83a0ab	0.06427129
105	0xbd8fe603	-0.07026293
106	0xbd3d6852	-0.046242066
107	0xbde2fac7	-0.11082988
108	0x3c42c558	0.011887871
109	0x3d54e0aa	0.05197207
110	0x3ca9b930	0.020718187
111	0xbcc7a91c	-0.02437263
112	0xbd1473c2	-0.036243208
113	0xbbde9fa0	-0.006793931
114	0xbc9b8188	-0.018982664
115	0x3a8a3c80	0.0010546595
116	0x3d7dfb26	0.062007092
117	0xbd0d8526	-0.03455081
118	0x3bcb7c20	0.006209865
119	0xbbaf8934	-0.005356932
120	0xbd388416	-0.045047842
121	0xbd1bb4f0	-0.038014352
122	0xbd7612e2	-0.0600766
123	0x3d078430	0.03308505
124	0xbcf12e18	-0.029440925
125	0x3c75ff48	0.015014477
126	0x3d70598e	0.058679156
127	0x3d139bee	0.036037378
128	0xbcac5c24	-0.02104003
129	0xbd591f4e	-0.05300837
130	0x3c39a480	0.011330724
131	0x3d883633	0.06650963
132	0x3b6f3ea0	0.0036505833
133	0xbc080a64	-0.008303259
134	0xbcc903d6	-0.024537962
135	0xbd0d454c	-0.034489915
136	0xbcebf54a	-0.028803486
137	0xbc9fa257	-0.01948659
138	0x3b35af80	0.0027723014
139	0xbcb55058	-0.022133037
140	0xbd8a7601	-0.06760789
141	0xbcdc813e	-0.026917096
142	0xbb850830	-0.004059814
143	0x3d29218e	0.041291766
144	0xbd06adeb	-0.032880705
145	0xbcbc8238	-0.023011312
146	0xbbec958a	-0.007219975
147	0x3d842961	0.06453205
148	0xbbc859e0	-0.0061142296
149	0xbc3faf18	-0.01169946
150	0xbd75d053	-0.060013127
151	0x3d5060f2	0.050873704
152	0x3d7b207a	0.06131027
153	0x3d4e595c	0.05037819
154	0x3d15ef2e	0.036605053
155	0x3d0521f4	0.032503083
156	0xbd7c4413	-0.061588358
157	0x3d63edc2	0.055646665
158	0x3d49688e	0.049171977
159	0xbae38b40	-0.0017360225
160	0xbd8e2dae	-0.069423065
161	0x3b472000	0.0030384064
162	0x3d3be44c	0.045872018
163	0x3c351428	0.011052169
164	0xbdeaa9aa	-0.11458142
165	0xbd2b9f76	-0.04190012
166	0xbd125eed	-0.03573506
167	0xbd42deb0	-0.047575653
168	0x3bf5d8b0	0.007502638
169	0x3c431d08	0.011908777
170	0xbd8981dd	-0.067142226
171	0xbd4a4087	-0.049377944
172	0xbd34b3a7	-0.044116642
173	0x3d7d14ba	0.061787345
174	0xbd1655c4	-0.036702886
175	0xbd80da57	-0.06291645
176	0xbd3c6a50	-0.045999825
177	0xbd400d82	-0.046887882
178	0xbd374cf8	-0.044751137
179	0x3d33f44a	0.043934144
180	0x3c8a30e8	0.016869023
181	0xbd62cc3b	-0.05537055
182	0x3a26a680	0.0006357208
183	0xbd64bc9e	-0.055843942
184	0xbd2b1812	-0.041771002
185	0xbc1ce51c	-0.009576108
186	0x3d7d3006	0.061813377
187	0x3c63d850	0.013906553
188	0x3d89ecbd	0.06734607
189	0x3c86c27c	0.01645016
190	0x3d836d9d	0.064173914
191	0xbd3ddc30	-0.046352565
192	0xbd2e908a	-0.042618312
193	0xbd5f72c6	-0.054552816
194	0x3d5d2410	0.05398947
195	0xbd176a0a	-0.03696636
196	0x3cd71424	0.026254721
197	0x3d64a502	0.055821426
198	0xbc774434	-0.0150919445
199	0x3d261b74	0.040553525
200	0x3b8f6991	0.004376598
201	0xbd04954c	-0.032368943
202	0x3cb69d98	0.022291943
203	0x3c61b8c8	0.013776965
204	0x3d011537	0.031514373
205	0xbb77abe7	-0.003779167
206	0x3d0fd3e1	0.035114173
207	0xbd443f81	-0.047912125
208	0x3cbed0f6	0.023293
209	0xbdb77994	-0.08958736
210	0xbc81d850	-0.015850216
211	0xbca707b8	-0.020389423
212	0x3d5be992	0.053689547
213	0xbc5c4112	-0.013443248
214	0x3cbdeecc	0.023185156
215	0x3cf795e4	0.03022284
216	0xbca008ab	-0.019535383
217	0xbb865820	-0.004099861
218	0x3d522b62	0.051310904
219	0x3c82a0b3	0.015945768
220	0xbd177c39	-0.036983702
221	0x3d0983b7	0.03357288
222	0xbd3527ee	-0.044227533
223	0xbcca72b8	-0.024712905
224	0xbd054dac	-0.032544777
225	0xbbf224a2	-0.007389621
226	0xbd6d595e	-0.057946555
227	0x3c013b98	0.007887743
228	0xbd638a87	-0.05555203
229	0xbcb05c31	-0.021528335
230	0xbd4eed4d	-0.050519276
231	0xbd3c10a7	-0.04591432
232	0x3d0c3511	0.034230296
233	0xbda88d69	-0.08230097
234	0xbd69da7e	-0.057093136
235	0xbdb61ba3	-0.0889199
236	0xbcc495b6	-0.023997169
237	0x3cce51a8	0.025185421
238	0xbd9eabad	-0.07747588
239	0x3cd349dc	0.025792055
240	0x3d55133a	0.05202029
241	0x3d263273	0.040575456
242	0xbd6d51cf	-0.057939347
243	0xbd13e843	-0.036110174
244	0x3d426556	0.047459923
245	0xbdb7b742	-0.089705005
246	0xbd3ddcfc	-0.046353325
247	0xbb09d286	-0.0021030023
248	0x3d507f9a	0.05090294
249	0xbdbcf578	-0.09226507
250	0xbd84e54f	-0.0648905
251	0xbda90719	-0.08253307
252	0xbd347eb0	-0.04406613
253	0xbd348760	-0.044074416
254	0xbd6a6bde	-0.057231776
255	0x3d05a32c	0.032626316

encoder.MLP.L2.bias f4 [100]
0	0xbc0d0d18	-0.008609079
1	0xbd8a30be	-0.06747578
2	0xbcd4990e	-0.025951888
3	0xbdc4f015	-0.096161045
4	0xbe08df6e	-0.13366482
5	0xbd41cd0d	-0.047314692
6	0xbe442905	-0.19156273
7	0xbd4d8f0b	-0.050185245
8	0xbd85ae10	-0.065273404
9	0xbd15e63b	-0.036596518
10	0xbd1de01d	-0.03854381
11	0xbc0c43d0	-0.00856109
12	0x3bb60392	0.005554625
13	0xbc08472d	-0.008317751
14	0xbde39453	-0.11112275
15	0xbe170688	-0.14748585
16	0xbd41af52	-0.04728634
17	0x3cf275f3	0.029597258
18	0x3cec68e2	0.028858606
19	0xbd47643a	-0.048679568
20	0x3b8368d1	0.004010298
21	0xbb6a9b14	-0.0035798
22	0x3ae5fb5b	0.0017546223
23	0xbd835f07	-0.064146094
24	0x3d13d881	0.036095146
25	0xbd56661f	-0.052343484
26	0x3e134323	0.1438108
27	0xbdc5f97a	-0.096667245
28	0xbd6ac5b6	-0.057317458
29	0xbe1a12f5	-0.15046294
30	0x3b3c7718	0.002875751
31	0xbd9ceeb2	-0.07662715
32	0xbd71e843	-0.059059393
33	0xbca93588	-0.020655409
34	0x3b6b684e	0.0035920325
35	0xbd8a4c4d	-0.067528345
36	0xbdac46fe	-0.08411978
37	0xbc92345d	-0.017847234
38	0xbdc9ee0e	-0.098598585
39	0xbe05999e	-0.13046882
40	0xbd8ebc2d	-0.069694854
41	0xbdd68a00	-0.1047554
42	0xbe3a8b74	-0.1821726
43	0xbd403064	-0.04692115
44	0xbdc9ca9a	-0.09853096
45	0x3cbb7908	0.02288486
46	0xbd5b9ece	-0.053618245
47	0x3c6effc0	0.014587343
48	0xbe07c92e	-0.13260338
49	0xbd97b023	-0.07406642
50	0xbe398072	-0.18115404
51	0xbdb1a6c5	-0.08674387
52	0xbd35eeeb	-0.044417303
53	0xbda8accd	-0.08236084
54	0x3bcb3c08	0.0062022246
55	0xbda54372	-0.08069505
56	0xbd8d8c32	-0.06911506
57	0xbc500f87	-0.0126990145
58	0xbcda00ec	-0.026611768
59	0xbdd5f03a	-0.1044621
60	0xbe376853	-0.1791089
61	0xbdefad2f	-0.11702954
62	0xbd20782f	-0.039177116
63	0xbc368bcb	-0.011141728
64	0x3c4a9d19	0.012366557
65	0xbdba76ae	-0.091046676
66	0xbd7ed07d	-0.06221055
67	0x3c7e731c	0.015530374
68	0xb90229cb	-0.00012413335
69	0xbdacbf22	-0.08434893
70	0xbd18703e	-0.037216417
71	0xbd9350db	-0.07193156
72	0xbdc99036	-0.09841959
73	0xbd706538	-0.05869028
74	0xbd74a6ab	-0.05972926
75	0xbd55a270	-0.052156866
76	0xbd230bb1	-0.03980607
77	0xbdae17d6	-0.0850064
78	0xbb22c752	-0.0024838042
79	0xbc7aa493	-0.015298027
80	0xbc4ecabd	-0.012621579
81	0xbd654239	-0.055971358
82	0xbdda10e9	-0.106477566
83	0x3cb3b1be	0.02193534
84	0xbcfb6bae	-0.030690994
85	0xbdb9520e	-0.09048854
86	0xbc7a4aa1	-0.015276582
87	0x3cc48bd4	0.023992456
88	0x3bb6d149	0.005579148
89	0x3b5578d8	0.003257325
90	0xbd8274df	-0.06369948
91	0xbdbc3cf7	-0.091913156
92	0xbd699901	-0.05703068
93	0xbd08150d	-0.0332232
94	0xbda705d2	-0.08155407
95	0xbdc939eb	-0.098255
96	0x3c749448	0.014927931
97	0xbce14450	-0.027498394
98	0xbd2ff707	-0.042960193
99	0xbd610c82	-0.05494357

encoder.linear_means.weight f4 [16, 100]
0	0x3d08cbb0	0.033397377
1	0x3d75ea63	0.06003798
2	0xbda562fa	-0.08075519
3	0xbc4aa3ce	-0.012368156
4	0x3cba2191	0.022721084
5	0x3bf84087	0.0075760516
6	0x3d7f0c50	0.0622676
7	0x3c9ba524	0.018999644
8	0xbd097e67	-0.033567812
9	0xbd198559	-0.037480686
10	0xbd93f76a	-0.07224925
11	0x3d419ba9	0.04726759
12	0xbd28e2b7	-0.041231837
13	0xbd62776c	-0.05528967
14	0xbcd4bacf	-0.025967984
15	0x3d02df63	0.03195132
16	0xbdd8bc29	-0.10582764
17	0xbdbc85e1	-0.09205223
18	0xbce849e0	-0.028355539
19	0xbd472f42	-0.048629053
20	0x3aff08ec	0.0019457615
21	0xbdf4e735	-0.11958162
22	0xbda0a033	-0.078430556
23	0xbd7202a3	-0.059084546
24	0xbd3edfa3	-0.046599995
25	0x3cef11b9	0.029183256
26	0xbc6a4679	-0.014299029
27	0xbc2f8d6a	-0.010714868
28	0x3cf70377	0.03015302
29	0xbc62f88b	-0.013853203
30	0x3d814177	0.063113146
31	0x3ccdb905	0.025112638
32	0x3d20b123	0.03923143
33	0x3d685ef3	0.056731176
34	0x3d115f02	0.035490997
35	0x3e209f1a	0.15685692
36	0x3d6a6228	0.057222515
37	0xbd8cd9e1	-0.068774946
38	0x3d874185	0.06604294
39	0xbca199bf	-0.019726632
40	0xbdd126f9	-0.102125116
41	0x3d635c0e	0.055507712
42	0x3d20ed39	0.039288733
43	0x3de51c46	0.11187033
44	0x3c9d3735	0.019191364
45	0x3d3fc04f	0.04681426
46	0xbd1fd8fb	-0.039025288
47	0xbd9e4939	-0.0772881
48	0xbdcad048	-0.09903008
49	0xbb1871b5	-0.0023261134
50	0x3de393de	0.11112188
51	0x3cfb40e0	0.030670583
52	0x3d486a4b	0.048929494
53	0xbda73cbd	-0.08165882
54	0x3c2ba976	0.010477414
55	0x3d8f3f8c	0.069945425
56	0x3dbaeb8b	0.091269575
57	0xbcc8116f	-0.024422375
58	0x3d95139e	0.07279132
59	0x3e35cf54	0.1775487
60	0x3d1e23ab	0.038608234
61	0xbdadb666	-0.08482055
62	0x3ba8c9c0	0.0051510036
63	0xbc88a00b	-0.016677877
64	0x3d24debd	0.040251482
65	0x3c862070	0.01637289
66	0x3d8b37a5	0.06797723
67	0xbbec9358	-0.007219713
68	0x3d62bda7	0.055356648
69	0x3bdd5377	0.0067543346
70	0x3d6c0767	0.057624247
71	0x39933d98	0.00028083916
72	0x3d3ccdaf	0.046094593
73	0x3db48de4	0.08816126
74	0xbdb2a108	-0.087221205
75	0x3ac0fc3d	0.001472361
76	0xbb056eca	-0.0020360225
77	0xbdc5541b	-0.096351825
78	0xbd0a06b8	-0.033697814
79	0x3cb2a354	0.021806397
80	0xbbe59ef7	-0.0070074755
81	0xbc339eb2	-0.010963129
82	0x3d7b9856	0.061424576
83	0x3ca87182	0.020561937
84	0xbd7ec514	-0.062199667
85	0xbdd093aa	-0.10184415
86	0xbded423d	-0.115848996
87	0xbd031300	-0.03200054
88	0xbd01fadd	-0.031733382
89	0xbcf5a88a	-0.029987592
90	0x3ca72091	0.020401271
91	0xbd8771db	-0.06613513
92	0xbcf98284	-0.030457743
93	0xbd731cc9	-0.059353624
94	0x3c670e9b	0.014102603
95	0x3d148a0a	0.036264457
96	0x3c9f46aa	0.019442875
97	0x3d84caa9	0.06483967
98	0x3cdc5016	0.026893657
99	0x3d6c211b	0.05764876
100	0xbb19e94a	-0.0023484998
101	0x3d75bcac	0.059994385
102	0x3d438260	0.047731757
103	0xbd9454a6	-0.07242708
104	0xbd856035	-0.06512491
105	0x3c6f2a15	0.0145974355
106	0xbddd7624	-0.10813549
107	0xbd82254e	-0.063547716
108	0x3cdd61c6	0.027024161
109	0x3d65dee6	0.056120776
110	0x3b8d8e3a	0.0043199332
111	0xbd831ce6	-0.06401996
112	0xbd89f463	-0.06736066
113	0xbd00c2cb	-0.03143577
114	0x3d1a35f4	0.03764911
115	0x3e61805c	0.22021621
116	0xbba24d51	-0.0049530645
117	0xba306c16	-0.0006729973
118	0xbd718d90	-0.058972895
119	0x3a033e51	0.0005006539
120	0xbcbd2043	-0.023086673
121	0xbd79a671	-0.060949747
122	0xbd6b092c	-0.057381794
123	0x3bbce77a	0.005764899
124	0x3d3cd007	0.046096828
125	0xbc88369c	-0.016627602
126	0x3b9c46ee	0.0047691977
127	0xbcbc1289	-0.022958057
128	0xbd204fe9	-0.03913871
129	0x3ac96845	0.0015366158
130	0xbd1c4b8c	-0.038157985
131	0xbca74135	-0.020416835
132	0x3bd96b78	0.0066351257
133	0xbc1318a2	-0.008978041
134	0x3ba71d62	0.0050999383
135	0xbe3d8f93	-0.185118
136	0x3dc55f30	0.09637296
137	0xbdef8d8c	-0.1169692
138	0xbd665d6c	-0.056241438
139	0x3c75e1f8	0.015007488
140	0xbd5afe21	-0.053465012
141	0xbdca8647	-0.098888926
142	0xbd1d6f9a	-0.03843651
143	0xbdb321e0	-0.087466955
144	0xbc4adeaa	-0.012382189
145	0x3d6981cd	0.057008553
146	0x3c971931	0.01844463
147	0x3d7f1501	0.06227589
148	0xbba14e7b	-0.0049226857
149	0x3d25a45d	0.040439952
150	0xbd9fbfde	-0.07800268
151	0xbcdc8c57	-0.026922388
152	0x3d7a76f2	0.06114859
153	0xbd09139c	-0.033465967
154	0xbd53df33	-0.05172653
155	0xbc5429fe	-0.012949465
156	0x3d80fe06	0.06298451
157	0x3e0d80cb	0.13818662
158	0x3dd297eb	0.10282882
159	0xbdffbd1d	-0.12487242
160	0xbd9be09a	-0.07611199
161	0xbcf72139	-0.030167209
162	0x3cf5079a	0.029910851
163	0x3cff5207	0.031167043
164	0x3d69de64	0.057096854
165	0x3ce44281	0.027863743
166	0x3db52017	0.08844011
167	0xbd96670b	-0.07343873
168	0xbdc93cb5	-0.09826032
169	0x3d12feb7	0.035887446
170	0x3d3c4aca	0.045969762
171	0xbd920563	-0.07129934
172	0x3d5d41da	0.05401788
173	0x3cc83143	0.024437552
174	0xbbddee28	-0.006772775
175	0xbd9b9800	-0.07597351
176	0xbb569385	-0.0032741737
177	0x3dc6c8ff	0.09706306
178	0xbc3a6924	-0.011377607
179	0x3d8798a8	0.06620914
180	0x3d143ddf	0.036191817
181	0xbdee56f6	-0.1163768
182	0x3d198e1c	0.03748904
183	0xbc7cee33	-0.0154376505
184	0x3dc0b71b	0.094099246
185	0x3dbd635e	0.092474684
186	0xbd098a99	-0.033579443
187	0x3d754998	0.059884638
188	0xbd72798f	-0.05919796
189	0xbca30f2f	-0.019904701
190	0x3d978b60	0.073996305
191	0x3d7af447	0.061268117
192	0x3da9c877	0.08290189
193	0xbcc97be9	-0.024595218
194	0xbbb865b0	-0.0056273565
195	0x3d4de22c	0.050264522
196	0xbd68a114	-0.05679424
197	0x3d4845d5	0.048894722
198	0x3d9a7105	0.07541088
199	0x3dbb7cee	0.09154688
200	0x3bbb75a7	0.0057208124
201	0x3cbd637c	0.023118727
202	0xbdd180df	-0.10229658
203	0xbdb4591b	-0.08806058
204	0xbdb4273c	-0.08796546
205	0xbd63090f	-0.05542856
206	0x3e112d94	0.14177543
207	0xbd9e753c	-0.077372044
208	0xbcd0f630	-0.025508016
209	0xbdde58d1	-0.10856784
210	0xbdb1b511	-0.08677114
211	0x3c898953	0.016789114
212	0x3cc9db86	0.02464081
213	0x3d9cc2f3	0.07654371
214	0xbe08b99e	-0.13352057
215	0x3e0ec64d	0.13942833
216	0xbd873d65	-0.06603507
217	0xbd662973	-0.056191873
218	0xbd57de68	-0.052702338
219	0x3d04802d	0.0323488
220	0xbd2dcdb7	-0.042432513
221	0x3dc3f7c5	0.09568743
222	0xbd9dbe0e	-0.07702266
223	0x3d1961ce	0.03744679
224	0xbdef0933	-0.116716765
225	0xbdbeadcd	-0.093104936
226	0x3b60668a	0.0034240806
227	0xbbcce5e5	-0.0062529915
228	0x3c1c5479	0.009541624
229	0x3cf5f8cb	0.03002586
230	0xbc80c6a7	-0.015719725
231	0x3b9e4696	0.004830192
232	0x3d2b446c	0.0418133
233	0x3d0b515e	0.034013145
234	0xbdb05c55	-0.08611361
235	0x3c2affe7	0.010436988
236	0x3c24d097	0.010059497
237	0xbc3381d0	-0.010956243
238	0xbc385eb4	-0.011253048
239	0x3c8cb7ce	0.017177489
240	0x3d603040	0.054733515
241	0xbb7afdf5	-0.0038298343
242	0xbdcdc3c8	-0.10047108
243	0xbd2e23cd	-0.04251461
244	0x3c816ee3	0.015799945
245	0x3c87ca8c	0.016576074
246	0xbd182589	-0.03714517
247	0x3d05f4f4	0.03270431
248	0x3e2e0d02	0.1699715
249	0x3d52a539	0.0514271
250	0x3d632160	0.05545175
251	0xbd495dc8	-0.049161702
252	0x3c9ade6a	0.018904883
253	0xbb56d228	-0.0032779071
254	0x3c0a77c4	0.008451406
255	0x3d5d5318	0.054034323

encoder.linear_means.bias f4 [16]
0	0x393f2c8c	0.00018231774
1	0xba870c5e	-0.0010303368
2	0x3adca5b4	0.0016834051
3	0xba992852	-0.001168499
4	0xbab4af05	-0.001378507
5	0xb80983a4	-3.2785945e-05
6	0xbbb419b8	-0.00549623
7	0xbb35db01	-0.0027748945
8	0xba03542b	-0.00050097954
9	0x3aa81b62	0.0012825544
10	0xbb83b785	-0.00401968
11	0x3b75767d	0.0037454658
12	0x3b59e0b2	0.00332455
13	0x389ec39e	7.570464e-05
14	0xbb3aff35	-0.0028533463
15	0x3a7b38a9	0.0009583333

encoder.linear_log_var.weight f4 [16, 100]
0	0x3dc288e4	0.09498766
1	0x3d9b8c9e	0.0759518
2	0x3d48c662	0.049017318
3	0xbd819f4b	-0.06329211
4	0xbcafc3e6	-0.021455716
5	0xbd5557bb	-0.05208562
6	0xbdee8564	-0.11646536
7	0xbd6da8be	-0.058022253
8	0xbdcae134	-0.09906235
9	0x3c477416	0.012173673
10	0x3db649c3	0.08900788
11	0xbd3f4749	-0.046698842
12	0xbde38149	-0.111086436
13	0xbd8bd670	-0.0682801
14	0xbafd0983	-0.0019305203
15	0x3de73ddd	0.11291096
16	0x3cff6eb6	0.03118072
17	0x3d0c26f3	0.034216832
18	0xbc7300dd	-0.014831749
19	0x3cea9945	0.028637538
20	0xbd600091	-0.05468804
21	0xbdc15ace	-0.09441148
22	0xbd4fbdfc	-0.050718293
23	0xbde4a10d	-0.111635305
24	0xbc269839	-0.010168129
25	0xbd779695	-0.06044634
26	0xbe0a83b6	-0.13526806
27	0x3d6103c3	0.054935228
28	0x3a2a90e7	0.00065065775
29	0x3de08a5f	0.10963892
30	0xbdf18aad	-0.117940284
31	0x3b82ec06	0.0039954213
32	0xbbe0e964	-0.00686376
33	0xbdecb0a9	-0.11557133
34	0x3d7dcbc2	0.061961897
35	0xbc179066	-0.009250736
36	0x3db8917d	0.09012125
37	0x3d5cf7e1	0.053947333
38	0xbdb30681	-0.08741475
39	0xbdb30ac9	-0.087422915
40	0xbc2ac028	-0.01042179
41	0xbb51caad	-0.0032011673
42	0x3dc3d8e9	0.09562857
43	0xbe172925	-0.14761789
44	0xbc9ed0bb	-0.01938664
45	0xbce70472	-0.028200362
46	0xbd65c734	-0.056098178
47	0x3bfe6273	0.007763201
48	0xbe6e2e82	-0.23259929
49	0x3d276b2b	0.040873688
50	0xbe4e5918	-0.20151174
51	0xbd0ebe53	-0.034849476
52	0xbd0320bb	-0.032013636
53	0xbd029390	-0.031879008
54	0x3d126278	0.03573844
55	0xbe01cbf7	-0.12675463
56	0x3c42ccec	0.0118896775
57	0xbe14e66c	-0.14541024
58	0x3dd1904b	0.102326
59	0xbd550a62	-0.052011855
60	0x3cc3b27f	0.023888825
61	0x3ca58670	0.020205706
62	0xbd685c41	-0.056728605
63	0xbd3c4505	-0.04596426
64	0x3d6b2420	0.0574075
65	0xbcb58158	-0.022156402
66	0x3ddc791b	0.107652865
67	0xbd536de4	-0.05161847
68	0xbdae5728	-0.085127175
69	0xbcef2a98	-0.029195115
70	0xbac4b342	-0.0015007036
71	0x3c2187d8	0.009859048
72	0x3d8e035c	0.069342345
73	0x3da3923f	0.079868786
74	0xbd5989fc	-0.053110108
75	0x3b6c9abb	0.0036102969
76	0xbd469df1	-0.04849047
77	0xbd541df9	-0.051786397
78	0xbd673217	-0.056444254
79	0x3a9a600a	0.001177789
80	0xbc1a48dd	-0.009416786
81	0x3d29d2e3	0.041460883
82	0xbd194c59	-0.037426326
83	0xbcb8f482	-0.022577528
84	0xbd8e4bf4	-0.06948081
85	0x3ca3c8ff	0.019993303
86	0x3cabfb75	0.020993927
87	0x3c9ee68c	0.019397043
88	0xbcf82541	-0.030291202
89	0x3ce97e68	0.028502658
90	0xbd2b75bf	-0.04186034
91	0x3cd51357	0.026010199
92	0x3bf439b4	0.007453168
93	0x3da65880	0.08122349
94	0x3d806910	0.06270039
95	0x3d8a33d9	0.067481704
96	0x3da2b287	0.07944208
97	0x3c9fb981	0.019497635
98	0x3c643843	0.013929429
99	0x3d4af2ab	0.049547832
100	0xbe0d92a3	-0.13825469
101	0x3e06e73d	0.13174148
102	0x3d7fa4c2	0.062412985
103	0xbdc0d6c4	-0.09415963
104	0xbcac7a22	-0.021054331
105	0x3d37419b	0.0447403
106	0x3e0eafda	0.1393427
107	0x3dc3bb20	0.09557176
108	0x3dfa7ddb	0.12231036
109	0x3d6529a2	0.055947907
110	0x3d5ea35b	0.054355007
111	0xbbb59576	-0.005541499
112	0x3df9800c	0.12182626
113	0xbda5d3e3	-0.08097055
114	0xbca0ef47	-0.019645346
115	0x3da39942	0.07988216
116	0x3d1180db	0.035523277
117	0x3d9ec7e9	0.077529736
118	0xbb386312	-0.0028135222
119	0xbd68528d	-0.05671935
120	0xbcdf9a1d	-0.027295167
121	0xbb29bc69	-0.0025899655
122	0x3c642e60	0.013927072
123	0x3c80143e	0.015634652
124	0xbb313d20	-0.002704449
125	0x3d8fd1d6	0.07022445
126	0xbe1918e4	-0.14950901
127	0xbd01d1c3	-0.031694185
128	0xbcc6bb02	-0.024259094
129	0x3d28b845	0.041191358
130	0xbd04e8ae	-0.032448463
131	0x3bef1e17	0.007297288
132	0xbde9bbaa	-0.11412747
133	0x3cb6d667	0.022319032
134	0xbc00733d	-0.007839975
135	0xbe062b5a	-0.13102475
136	0xbc6ac90a	-0.014330158
137	0xbd3825b5	-0.044957835
138	0xbcbe5b89	-0.023237007
139	0xbd37a770	-0.044837415
140	0x3cb97834	0.022640325
141	0xbccae0d9	-0.024765419
142	0xbcf6c609	-0.030123727
143	0xbe193b1d	-0.14963956
144	0x3cd2fa26	0.025754046
145	0xbd2f0dcd	-0.04273777
146	0x3cc0073a	0.023440946
147	0x3d552830	0.05204028
148	0xbe88f39c	-0.2674836
149	0xbd819c6c	-0.06328663
150	0x3dec503e	0.115387425
151	0x3ceb4ee2	0.028724138
152	0x3da313cb	0.079627596
153	0x3ddbc7d8	0.107314765
154	0xbc53431c	-0.012894418
155	0xbc6cb948	-0.014448471
156	0x3b5f0175	0.0034027968
157	0xbe092c60	-0.13395834
158	0xbd82510a	-0.06363113
159	0x3e327a9b	0.17429583
160	0xbdd597db	-0.10429355
161	0x3d518fbd	0.05116247
162	0x3ccbe783	0.024890667
163	0x3d0fc0c3	0.03509594
164	0x3e01f0b1	0.12689473
165	0x3d9c252b	0.07624277
166	0x3d8acc95	0.06777302
167	0xbd872db8	-0.06600517
168	0xbca548bb	-0.020176282
169	0x3d56e510	0.052464545
170	0xbe0eb032	-0.139344
171	0x3d8fa5b0	0.07014024
172	0x3c95e5c1	0.018298032
173	0xbda4e562	-0.08051564
174	0x3d8b00d7	0.067872696
175	0x3cfb91b2	0.030709121
176	0xbca3d27a	-0.019997824
177	0xbd7acc1a	-0.061229803
178	0xbc4affea	-0.012390116
179	0xbcbb09c2	-0.022831801
180	0xbdafd6f5	-0.08585922
181	0x3c9f0833	0.01941309
182	0xbe0ea12d	-0.13928671
183	0x3b80d930	0.003932141
184	0x3be1b78e	0.0068883365
185	0x3dc2957e	0.095011696
186	0x3c98639f	0.01860219
187	0x3d89ed67	0.06734734
188	0xbcb0a675	-0.021563748
189	0x3cf12ce6	0.029440355
190	0x3d1407f2	0.03614039
191	0x3c9fc3b0	0.01950249
192	0x3d7781e0	0.060426593
193	0xbc8ef886	-0.01745249
194	0xbd7d28a6	-0.061806343
195	0x3d080074	0.033203557
196	0xbcf70f4d	-0.030158663
197	0x3e01de33	0.12682419
198	0x3bdb4adc	0.0066922735
199	0x3e01f404	0.12690741
200	0x3d902998	0.070391834
201	0xbd21fc65	-0.039547343
202	0x3d591694	0.053000048
203	0xbccf67b1	-0.025317999
204	0x3e03ae6d	0.12859507
205	0xbd41bb1d	-0.047297586
206	0xbdbaa7d9	-0.09114046
207	0xbd9a7b86	-0.075430915
208	0xbcb119ab	-0.021618685
209	0x3dc4f770	0.096175075
210	0x3ce75366	0.02823801
211	0xbc247868	-0.010038473
212	0xbcbc74c2	-0.023004893
213	0x3cf607e6	0.030033063
214	0x3bd1a392	0.006397673
215	0x3e5338d9	0.20627154
216	0xbd509b65	-0.050929446
217	0x3dea740b	0.11447915
218	0x3c3dc2a9	0.011582055
219	0x3bd51f9f	0.0065040137
220	0xbd2db1e0	-0.042405963
221	0x3d442974	0.047891095
222	0xbd0b4735	-0.034003455
223	0xbcdad3f0	-0.026712388
224	0x3df1bbae	0.11803375
225	0x3d902533	0.07038345
226	0xbe0ce418	-0.13758886
227	0xbd725c1a	-0.059169866
228	0x3de66a2a	0.11250718
229	0xbd6a23f0	-0.05716318
230	0x3cf22378	0.029557928
231	0x3dc2e127	0.09515601
232	0xbdf23a15	-0.118274845
233	0xbcdfe0b4	-0.027328826
234	0xbd6daadb	-0.05802427
235	0x3d370df8	0.044691056
236	0xbce7474e	-0.028232243
237	0x3ccbd31d	0.02488094
238	0xbd062293	-0.032747816
239	0xbd8ca365	-0.068671025
240	0xbd40d320	-0.047076344
241	0x3cb0e98b	0.021595737
242	0xbde1df1a	-0.11028881
243	0xbe61d6d3	-0.22054605
244	0x3db14647	0.086559825
245	0xbcc85e30	-0.024458975
246	0xbd69e608	-0.05710414
247	0xbdac66c1	-0.08418036
248	0xbcc95874	-0.02457831
249	0xbd045f25	-0.0323173
250	0xbe6314f3	-0.2217596
251	0x3db566c0	0.08857489
252	0xbd644168	-0.05572644
253	0x3de752f1	0.11295117
254	0x3d1e0256	0.038576446
255	0x3d8cd32d	0.06876216

encoder.linear_log_var.bias f4 [16]
0	0xbc194cef	-0.009356721
1	0xba7b27b5	-0.0009580807
2	0xba658182	-0.0008754955
3	0xbb24aa48	-0.002512591
4	0xbbbbcfb4	-0.0057315473
5	0xbac6b278	-0.0015159389
6	0xbc2b2d02	-0.010447742
7	0x3adb6f25	0.0016741498
8	0xbaad7219	-0.0013232856
9	0x3ad8fc5e	0.0016554703
10	0x3b33b48d	0.002742085
11	0xba827ea0	-0.000995595
12	0xba7d503d	-0.00096631405
13	0xbb8996fe	-0.004198908
14	0xbb1d73e1	-0.0024025368
15	0xbb17d641	-0.0023168477
