model/CVAE_5000_0.001_64_[12, 256, 64]_6_[64, 256, 6].pth (torch, 164412 bytes, 14 tensors)

encoder.MLP.L0.weight f4 [256, 12]
0	0xbd3f588d	-0.046715308
1	0x3e0c1625	0.13680322
2	0xbe86f2ce	-0.2635712
3	0xbe73cd92	-0.23808888
4	0xbe0b70ce	-0.1361725
5	0x3d69f211	0.05711562
6	0xbc9e1d86	-0.019301187
7	0x3e5760c6	0.2103301
8	0xbd3d4a57	-0.046213474
9	0x3d5ec43e	0.05438637
10	0xbde10e0e	-0.10989009
11	0xbda53a13	-0.080677174
12	0xbe82bb5b	-0.25533566
13	0xbe4f0f50	-0.20220685
14	0xbdfb75c9	-0.12278325
15	0x3c848bd7	0.016179962
16	0x3df6e667	0.120556645
17	0x3e4814d4	0.19539195
18	0xbe39b5bc	-0.18135732
19	0xbde5d296	-0.11221807
20	0x3defd133	0.117098235
21	0x3e80f0fb	0.25183854
22	0xbd3f0e4a	-0.046644486
23	0x3e6d013d	0.23145004
24	0xbd3e95d8	-0.04652962
25	0x3cfa3b60	0.03054589
26	0x3e85d4b6	0.26138848
27	0xbe891c79	-0.26779535
28	0xbe3a17f0	-0.18173194
29	0xbd95ac48	-0.07308251
30	0xbde673cc	-0.11252555
31	0x3e7f66c8	0.24941552
32	0xbe3f9aa4	-0.18711334
33	0xbe081370	-0.13288665
34	0xbe4e853c	-0.20168012
35	0xbe8a6cdf	-0.27036187
36	0xbe288f93	-0.16461019
37	0x3e73786d	0.23776408
38	0x3e180c27	0.14848386
39	0x3e1130e0	0.141788
40	0x3c836d80	0.016043425
41	0xbe04f52c	-0.1298415
42	0x3de45078	0.11148161
43	0xbe4b560f	-0.19857047
44	0xbdf38c4d	-0.118919946
45	0xbd68456f	-0.056706842
46	0x3e8afaa6	0.27144355
47	0x3e5ee40d	0.21766682
48	0xbe90ea4e	-0.2830376
49	0x3dfcab1f	0.12337326
50	0x3dec60e4	0.11541918
51	0x3e3ea898	0.18619001
52	0x3bc569ea	0.006024589
53	0xbd9703f3	-0.073738
54	0x3de6b8ef	0.11265742
55	0xbe6b7701	-0.22994615
56	0x3d23fad4	0.04003413
57	0xbe6adc8d	-0.22935696
58	0xbe2b2b1f	-0.16715668
59	0xbe71c765	-0.23611219
60	0x3db8c55a	0.09022017
61	0x3e0f998d	0.14023419
62	0xbe60961f	-0.21932267
63	0x3d5022d9	0.050814483
64	0x3dfb52b2	0.12271632
65	0xbd6c1b05	-0.057642955
66	0xbc928e8b	-0.017890235
67	0x3cb7b6b3	0.022425985
68	0x3e006b51	0.12540938
69	0x3e62bb26	0.22141704
70	0xbe8f3712	-0.27971703
71	0xbe2ab83c	-0.16671842
72	0x3d4f5dc8	0.050626546
73	0x3e70435f	0.234632
74	0x3e8af449	0.271395
75	0x3e78fbb0	0.24314761
76	0x3d2dc4ee	0.042424135
77	0xbe9aec39	-0.3025835
78	0xbce04c9e	-0.027380284
79	0xbe56f503	-0.20991902
80	0xbe6ec28f	-0.23316406
81	0x3e9e57fc	0.30926502
82	0x3e997c63	0.29977712
83	0xbe99167b	-0.29899964
84	0x3c5a8834	0.013338137
85	0xbb31dfe9	-0.0027141517
86	0xbdbd15bd	-0.09232662
87	0xbe2f6f23	-0.17132239
88	0x3d90f211	0.070774205
89	0xbe4fd1cd	-0.20294876
90	0x3d858248	0.0651899
91	0x3dd02ad8	0.10164422
92	0x3e248a44	0.16068369
93	0x3d7b9eb0	0.061430633
94	0xbeaa1514	-0.33219206
95	0xbe71c0a3	-0.23608641
96	0x3e51aa33	0.20475082
97	0x3d1f3789	0.03887132
98	0xbe3da279	-0.1851901
99	0xbde6da5b	-0.11272117
100	0x3ea6452a	0.32474643
101	0x3e8ff074	0.2811314
102	0xbd4f815f	-0.050660487
103	0xbc583d04	-0.013198141
104	0xbe83e330	-0.25759268
105	0xba97e803	-0.0011589531
106	0xbe62e972	-0.22159365
107	0xbe5dc273	-0.21656208
108	0xbc824d10	-0.015905887
109	0x3d318898	0.043343157
110	0xbdf21df6	-0.11822121
111	0x3e2f6786	0.17129335
112	0xbe33e2dd	-0.1756701
113	0x3e861c5e	0.26193517
114	0x3e4a93b2	0.19782904
115	0xbe7946fa	-0.24343482
116	0xbd93245e	-0.07184671
117	0x3c556a20	0.01302579
118	0x3d2c83f0	0.042118013
119	0x3d8c3810	0.068466306
120	0x3de80198	0.11328429
121	0x3c8da750	0.017291695
122	0xbe103bbe	-0.1408529
123	0x3e0be052	0.1365979
124	0xbe8dc751	-0.2769113
125	0xbe2f34c1	-0.17109968
126	0xbd93ff26	-0.072264
127	0xbe0ffe09	-0.1406175
128	0xbdced2e6	-0.100988194
129	0xbe72486c	-0.23660439
130	0xbd7b8468	-0.06140557
131	0x3d7cbf98	0.061706156
132	0xbe4f9c27	-0.20274411
133	0x3ca87ba5	0.02056677
134	0x3e44b690	0.19210267
135	0xbd16b8e6	-0.036797427
136	0xba9129ec	-0.0011075116
137	0xbd0e68ac	-0.03476779
138	0x3cf74293	0.030183112
139	0x3e20c178	0.15698802
140	0x3e7e7f15	0.24853165
141	0x3e22486d	0.1584794
142	0x3e7f9518	0.24959219
143	0xbd2cb70e	-0.042166762
144	0xbe84c5ff	-0.2593231
145	0xbe0c2389	-0.1368543
146	0x3e494722	0.19656041
147	0xbaf54700	-0.0018713176
148	0xbe12edb6	-0.14348492
149	0xbe62863a	-0.22121516
150	0xbe8a520c	-0.27015722
151	0xbe797ddc	-0.24364418
152	0xbd6fd63c	-0.05855392
153	0x3e221c54	0.15831119
154	0x3e1fd0b8	0.15606964
155	0xbe8e8b6d	-0.27840748
156	0x3e38645e	0.18007037
157	0xbe674ffa	-0.22589102
158	0xbd79f970	-0.061028898
159	0xbdefb7d8	-0.11704987
160	0xbd63c038	-0.055603236
161	0xbd682880	-0.05667925
162	0xbe84a13c	-0.25904262
163	0xbe7f3c31	-0.24925305
164	0xbd390600	-0.045171738
165	0x3b74a880	0.003733188
166	0xbe064901	-0.13113786
167	0x3ddeb504	0.1087437
168	0xbe83a8d8	-0.25714755
169	0xbcf07b87	-0.029355777
170	0x3e8e9133	0.27845153
171	0xbdeceb3b	-0.11568304
172	0x3e861cf0	0.26193953
173	0x3daa9da6	0.0833085
174	0xbe842e96	-0.25816792
175	0x3e4aab5c	0.19791931
176	0xbbfc1c48	-0.007693801
177	0xbdd11770	-0.102095485
178	0x3e83eb2d	0.25765362
179	0xbe57c491	-0.21071078
180	0x3bc0bbd5	0.0058817663
181	0xbde663f7	-0.112495355
182	0x3e4a4864	0.19754177
183	0x3d7572ba	0.059923865
184	0x3df49b44	0.11943677
185	0x3d83862f	0.06422078
186	0xbdb90725	-0.09034566
187	0xbd81d28d	-0.063389875
188	0xbe64d72f	-0.22347711
189	0x3e31b76e	0.17355129
190	0x3e8281fc	0.25489795
191	0x3e619aa1	0.22031642
192	0xbe50831e	-0.20362517
193	0x3c52f120	0.0128748715
194	0xbe506181	-0.20349695
195	0xbe22b997	-0.1589111
196	0xbe2c3fec	-0.1682126
197	0x3dca0abc	0.09865329
198	0xbe302768	-0.17202532
199	0xbbce6040	-0.006298095
200	0x3c46f7c0	0.012144029
201	0x3e3e8d80	0.18608665
202	0xbe5f73d6	-0.21821532
203	0xbe4aef70	-0.198179
204	0xbe7ca511	-0.24672343
205	0x3e5a0e7d	0.2129459
206	0xbda21019	-0.07913227
207	0x3e725b77	0.23667704
208	0x3dbee9a6	0.09321909
209	0xbc28d8b6	-0.010305574
210	0xbd843fdf	-0.06457495
211	0xbdbcd8f1	-0.09221066
212	0x3d3e0d4b	0.046399396
213	0xbd3cb39a	-0.04606972
214	0x3d165129	0.036698494
215	0x3cb0fccf	0.021604924
216	0xbe6738f2	-0.22580317
217	0xbe1aef5c	-0.15130371
218	0x3e6eb294	0.2331031
219	0xbe6fe55a	-0.23427334
220	0xbca9cf20	-0.020728648
221	0x3e92360c	0.2855686
222	0x3dd590d4	0.104280144
223	0x3c05e920	0.008173257
224	0xbe80161e	-0.25016874
225	0x3e126f74	0.14300328
226	0xbe528d75	-0.20561774
227	0xbda7d28c	-0.081944555
228	0xbdc82ca3	-0.09774139
229	0xbc7792db	-0.015110697
230	0xbcd1ab28	-0.025594309
231	0x3e59b74b	0.21261327
232	0x3c57b54c	0.013165783
233	0x3e880e1f	0.26573274
234	0x3e471692	0.19442204
235	0xbe2e0152	-0.16992691
236	0x3e08601d	0.13317914
237	0xbe512a17	-0.20426212
238	0xbe0abd3f	-0.13548754
239	0x3ddf29dc	0.10896656
240	0x3de7e579	0.11323065
241	0x3e551e85	0.20812424
242	0xbd9c9333	-0.076452635
243	0x3ce36f67	0.027763082
244	0x3e337ae0	0.17527342
245	0xbe67e80b	-0.22647111
246	0x3e81928d	0.25307122
247	0xbe508165	-0.2036186
248	0x3c49d903	0.012319806
249	0xbd518134	-0.05114861
250	0xbe1babe3	-0.15202288
251	0x3d7dc4e0	0.061955333
252	0x3e7470a0	0.23871088
253	0xbdacd23e	-0.08438538
254	0xbe2f7f7a	-0.17138472
255	0xbddaa6b4	-0.10676327

encoder.MLP.L0.bias f4 [256]
0	0x3e7b9317	0.24567829
1	0x3e78cedb	0.24297659
2	0xbe8153f7	-0.25259373
3	0xbdc2b01a	-0.09506245
4	0x3d2d21ab	0.042268436
5	0xbe3d9f71	-0.18517853
6	0x3b5ea18b	0.0033970799
7	0xbe1c090a	-0.15237823
8	0x3e1722ed	0.14759417
9	0x3e103ca2	0.1408563
10	0x3db9d2c0	0.090734005
11	0x3e4f0917	0.20218311
12	0xbd0e4930	-0.034737766
13	0x3e20797a	0.1567134
14	0x3d8f542e	0.06998478
15	0xbe05c023	-0.13061576
16	0xbe50c650	-0.2038815
17	0x3e5ceee4	0.21575505
18	0xbdb044ec	-0.08606896
19	0x3e66d2e6	0.22541389
20	0x3e73b9ff	0.2380142
21	0xbc3e7480	-0.011624455
22	0xbe951fe8	-0.29125905
23	0x3c58e853	0.013238984
24	0xbe56e934	-0.20987397
25	0x3e2434d5	0.16035779
26	0xbe215e98	-0.15758741
27	0x3e44bab3	0.19211845
28	0xbe8f00e8	-0.2793038
29	0xbd996221	-0.0748942
30	0xba5966a0	-0.00082931854
31	0x3d315117	0.043290224
32	0x3e8ddbce	0.2770676
33	0xbe07ea86	-0.13273057
34	0xbe55d165	-0.20880659
35	0x3de6a6df	0.11262297
36	0x3da5336c	0.080664486
37	0x3e406850	0.18789792
38	0xbe2ef458	-0.17085397
39	0xbe574808	-0.21023571
40	0xbda0aed4	-0.07845846
41	0x3d24edec	0.040265962
42	0x3d29f347	0.041491773
43	0xbe2e84ee	-0.17042896
44	0xbd7ca7d8	-0.061683506
45	0xbd4c5c58	-0.049892753
46	0x3ea1c82e	0.31598037
47	0xbd9f891f	-0.07789826
48	0x3e7872af	0.24262498
49	0xbe35fcae	-0.17772171
50	0xbe00f344	-0.12592798
51	0xbe8655ac	-0.26237237
52	0x3e3c56a4	0.18392426
53	0xbe506b42	-0.20353416
54	0x3db5b63d	0.0887265
55	0xbdc75099	-0.0973217
56	0x3e6ebc1c	0.23313946
57	0x3ca9c218	0.020722434
58	0xbe89097f	-0.26765057
59	0x3c5ae748	0.013360806
60	0x3c72e30a	0.014824638
61	0xbe69d544	-0.2283526
62	0x3d7621d3	0.06009085
63	0x3e76132b	0.2403075
64	0x3d92be6d	0.07165227
65	0xbac93800	-0.0015351772
66	0xbd751dec	-0.05984299
67	0x3d938f1b	0.072050296
68	0xbe40cb86	-0.18827638
69	0x3e7a4364	0.2443977
70	0x3e917af1	0.2841411
71	0x3de606b4	0.11231747
72	0x3c19e1a8	0.00939218
73	0xbe9aad32	-0.30210263
74	0xbe0ad2a4	-0.13556916
75	0x3e7a007f	0.24414252
76	0xbe62cbbd	-0.22148032
77	0xbea9ea6e	-0.33186668
78	0x3d0a0cfd	0.033703793
79	0x3d82f44e	0.06394254
80	0xbe8e7e2d	-0.2783064
81	0xbe941ba0	-0.28927326
82	0x3d71e7ba	0.059058882
83	0xbdc64f94	-0.09683147
84	0x3e0e3bca	0.13889995
85	0x3dd7651d	0.10517333
86	0xbe82c993	-0.25544414
87	0xbe8aaf03	-0.27086648
88	0x3e51d9b4	0.20493203
89	0xbc47e64f	-0.012200906
90	0xbe14dc91	-0.14537264
91	0x3d9c8e4c	0.076443285
92	0xbd6862c0	-0.0567348
93	0x3e0d5f1c	0.13805813
94	0x3956e4e3	0.00020493897
95	0xbdfffa16	-0.12498872
96	0xbe6cec47	-0.23137008
97	0x3e6a8d89	0.22905554
98	0xbe319a06	-0.17343912
99	0xbc85c52a	-0.016329367
100	0x3d21ab58	0.039470047
101	0xbe27b9f2	-0.16379526
102	0x3e0307c9	0.12795939
103	0xbe4fec79	-0.20305051
104	0x3d623b04	0.055232063
105	0xbc62b0a7	-0.0138360625
106	0x3db20da7	0.0869401
107	0xbe88ba9d	-0.26704875
108	0x3c3f2020	0.011665374
109	0x3e565432	0.20930555
110	0xbe3d4014	-0.18481475
111	0x3e0c1809	0.13681044
112	0xbd301c65	-0.04299583
113	0x3e548830	0.20755076
114	0xbda044d8	-0.07825631
115	0xbbcc44ce	-0.006233788
116	0xbd8bc8fe	-0.068254456
117	0xbd8b4fd6	-0.06802337
118	0x3da3ddb1	0.08001269
119	0xbe803ba8	-0.25045514
120	0x3e603f34	0.2189911
121	0x3e4ccd86	0.20000276
122	0x3de48ab5	0.11159269
123	0x3e1e95df	0.15486859
124	0xbdae9ff0	-0.085265994
125	0x3d8c53b5	0.06851903
126	0x3c709ea0	0.014686257
127	0xbe1b544d	-0.15168877
128	0xbdad822c	-0.08472094
129	0xbdf97665	-0.12180785
130	0xbd922d88	-0.07137591
131	0xbe8c0970	-0.2735095
132	0xbe7cf202	-0.24701694
133	0xbce09200	-0.027413368
134	0xbd33df54	-0.043914154
135	0xbe9cc31c	-0.30617607
136	0x3dfcd8d6	0.12346046
137	0x3e61b700	0.22042465
138	0x3e7193d0	0.23591542
139	0x3e48d4b6	0.19612393
140	0xbe60982c	-0.21933049
141	0xbd9e3a74	-0.07725993
142	0xbddd3db2	-0.10802783
143	0x3cbf591f	0.023357926
144	0x3daf2b81	0.085532196
145	0x3d838910	0.06422627
146	0x3e4a454a	0.19752994
147	0x3dbdef79	0.092741914
148	0xbe5dac78	-0.21647823
149	0x3dfb8a22	0.12282206
150	0x3e47679e	0.1947312
151	0x3d6d9664	0.05800475
152	0xbe80974c	-0.2511543
153	0xbe5ab6fd	-0.21358867
154	0x3cf719a6	0.030163597
155	0x3dabdda0	0.08391881
156	0x3e89d152	0.2691751
157	0x3dffe088	0.12493998
158	0x3ccb839f	0.024843035
159	0xbd157175	-0.036485154
160	0x3e41bf48	0.18920624
161	0xbdeba356	-0.11505763
162	0x3d8152af	0.06314599
163	0xbe1e469f	-0.15456627
164	0x3d9704eb	0.07373985
165	0x3de8b969	0.11363489
166	0x3d5048d6	0.05085071
167	0xbccece5b	-0.025244882
168	0xbb6f8d00	-0.0036552548
169	0xbe522298	-0.20521009
170	0x3d516947	0.05112579
171	0x3e4c9775	0.19979651
172	0x3df4afc8	0.1194759
173	0xbe86dbf8	-0.26339698
174	0xbe5163ce	-0.20448229
175	0x3e1bd5cb	0.15218274
176	0xbd294d9c	-0.04133378
177	0x3e45c02e	0.19311592
178	0x3e292d40	0.16521168
179	0xbe0d7b34	-0.1381653
180	0xbe339de8	-0.17540705
181	0xbea16daf	-0.31528994
182	0x3e08425a	0.13306561
183	0x3e3ff4df	0.18745755
184	0xbd39e866	-0.045387648
185	0xbe87a188	-0.26490426
186	0xbe533dd3	-0.20629053
187	0x3cbf6621	0.023364129
188	0x3e06bde3	0.13158374
189	0xbe02d167	-0.12775193
190	0xbe690c7c	-0.22758669
191	0xbe0efe62	-0.13964227
192	0x3e8986a5	0.26860538
193	0x3e512a5f	0.2042632
194	0xbe7ec539	-0.24879922
195	0xbe1132c9	-0.14179529
196	0xbe975f2c	-0.29564798
197	0x3bcc2bc1	0.006230802
198	0xbe1742f0	-0.14771628
199	0xba801600	-0.0009772182
200	0x3ac722cb	0.0015192864
201	0xbe816082	-0.25268942
202	0xbe56470c	-0.2092554
203	0xbe36cd4e	-0.17851755
204	0xbe07f028	-0.13275206
205	0xbc54f96a	-0.012998918
206	0xbe1ecfd8	-0.15508974
207	0x3d1764b6	0.03696128
208	0x3c4f276f	0.012643679
209	0x3e8464a0	0.2585802
210	0xbe06c1b5	-0.13159831
211	0x3e8add5a	0.27122003
212	0xbe8c245c	-0.2737149
213	0xbe76a1d6	-0.24085173
214	0x3db0c1e0	0.08630729
215	0xbe317a5b	-0.17331831
216	0x3e21565a	0.15755597
217	0xbe238ab0	-0.15970874
218	0x3e694916	0.22781786
219	0x3e8989ae	0.26862854
220	0x3d5c57a4	0.053794518
221	0x3d959541	0.073038585
222	0x3ebde89b	0.37091526
223	0x3e76d165	0.24103315
224	0xbe98d3b8	-0.2984903
225	0xbcaf6743	-0.021411544
226	0xbe856ad0	-0.26058054
227	0x3e61ceb4	0.22051507
228	0xbd8d5234	-0.069004446
229	0x3c93c597	0.018038554
230	0xbe45fdf3	-0.19335155
231	0xbe551cf1	-0.20811822
232	0x3de87e87	0.11352258
233	0x3e818c8a	0.25302535
234	0xbe1495fb	-0.14510338
235	0xbccad750	-0.024760872
236	0x3e9384b2	0.28812176
237	0x3e854987	0.2603266
238	0xbdf1cec1	-0.11807013
239	0x3e8a8760	0.27056408
240	0x3de6f543	0.11277249
241	0x3e80035c	0.25002563
242	0x3c0c53c0	0.008564889
243	0xbe7a85b6	-0.24465069
244	0xbda32f6b	-0.07968029
245	0x3e078511	0.13234355
246	0x3d6e8793	0.058234762
247	0xbe925f6f	-0.28588435
248	0x3e6d1ff0	0.23156714
249	0xbe4e8f7f	-0.20171927
250	0x3e04b8ca	0.12961116
251	0x3e86183f	0.26190373
252	0x3c9b3795	0.018947402
253	0xbd5f2890	-0.054482043
254	0x3e036fde	0.12835643
255	0xbdaebbf5	-0.08531944

encoder.MLP.L1.weight f4 [64, 256]
0	0xbd3da0a8	-0.046295792
1	0xbd35ae18	-0.044355482
2	0x3cf0bbb0	0.029386371
3	0x3d43836c	0.047732756
4	0x3b25dbc0	0.0025307983
5	0xbd78370c	-0.06059937
6	0xbd7b8c32	-0.061412998
7	0xbc673a10	-0.014112964
8	0x3d0a3198	0.033738703
9	0xbd2a98e0	-0.0416497
10	0x3c8a0140	0.0168463
11	0xbd0bec04	-0.03416063
12	0x3d50490c	0.050850913
13	0xbc8628f0	-0.016376942
14	0xbc556698	-0.013024949
15	0xbd608858	-0.054817528
16	0xbd654c0c	-0.055980727
17	0x3b8a69e0	0.004224047
18	0x3c259260	0.010105699
19	0x3d0a4ef6	0.03376671
20	0xbd5fda96	-0.05465182
21	0x3c336d08	0.010951288
22	0xbc13ed30	-0.009028718
23	0x3d162b24	0.036662236
24	0xbce8cde8	-0.028418496
25	0x3c9889e0	0.018620431
26	0x3cce5208	0.0251856
27	0x3d009934	0.031396106
28	0xbcaf9c48	-0.021436825
29	0x3ca4c464	0.020113178
30	0xbc48af98	-0.012248896
31	0x3c89defc	0.01682996
32	0xbd1d6a4a	-0.038431443
33	0xbd4b6b84	-0.04966308
34	0xbd51678e	-0.051124148
35	0xbd20edb6	-0.0392892
36	0xbcd8b14c	-0.02645173
37	0x3c186ca8	0.009303249
38	0xbc5ffca8	-0.013671078
39	0xbd11bc10	-0.03557974
40	0x3a09a280	0.00052503496
41	0xbca1b01c	-0.019737296
42	0x3d1dce62	0.0385269
43	0xbd52d7ce	-0.05147534
44	0xbcbcfbd0	-0.023069292
45	0xbd248398	-0.04016456
46	0x3bfcb460	0.007711932
47	0x3b5f75e0	0.0034097359
48	0xbb6ba060	-0.0035953745
49	0x3d7e0092	0.062012263
50	0xbcc351d8	-0.023842737
51	0xbc132dc0	-0.008983076
52	0x3c844768	0.01614733
53	0x3d55a920	0.052163243
54	0x3d420abe	0.047373526
55	0x3be9f5e0	0.0071399063
56	0xbcc1b408	-0.023645416
57	0x3ca83394	0.020532407
58	0x3d21124c	0.03932409
59	0xbaaed400	-0.0013338327
60	0x3d0c8d78	0.034314603
61	0x3d51840c	0.05115132
62	0xbd092820	-0.03348553
63	0xbc6261d0	-0.013817266
64	0xbd667b12	-0.056269713
65	0x3c6b1008	0.014347084
66	0x3d3672de	0.04454314
67	0xbc46da08	-0.012136944
68	0x3c236608	0.009973057
69	0x3ca399f4	0.019970872
70	0xbaaebac0	-0.0013330802
71	0x3d47065c	0.04859005
72	0x3c153800	0.00910759
73	0xbd7ba254	-0.061434105
74	0xbd5366b8	-0.051611632
75	0xbd7da2cc	-0.061922833
76	0x3b28d280	0.0025760233
77	0x3d0a62a8	0.033785492
78	0xbc0718c8	-0.008245654
79	0x3d662c44	0.05619456
80	0xbc383878	-0.011243932
81	0x3c515b70	0.012778148
82	0x3d66d87a	0.056358792
83	0x3d018f3c	0.03163074
84	0xbb02aca0	-0.0019939318
85	0x3d7695c8	0.060201436
86	0xbd18f36e	-0.037341528
87	0x3cbeb520	0.023279727
88	0x3d21ac68	0.03947106
89	0xbd1e8358	-0.038699478
90	0xbd7078d2	-0.058708973
91	0x3ca3c4f8	0.019991383
92	0xbcc23f40	-0.0237118
93	0xbd013032	-0.031540103
94	0x3c4badd8	0.012431584
95	0xbd39b5aa	-0.045339264
96	0x3d663f54	0.05621274
97	0xbbb7d730	-0.005610369
98	0xbca3f820	-0.020015776
99	0x3d5602de	0.052248828
100	0x3c8e8fe4	0.017402597
101	0x3c431848	0.011907645
102	0xbcf4cd94	-0.029883184
103	0x3d73fcb4	0.05956717
104	0xbc9bf06c	-0.01903554
105	0x3d54ec44	0.051983133
106	0xbb968ba0	-0.0045942813
107	0x3d006b52	0.03135235
108	0x3d33ffda	0.04394517
109	0xbd3e97b6	-0.0465314
110	0xbd2a9ff4	-0.04165645
111	0xbd7d258c	-0.061803386
112	0x3d38a4aa	0.04507891
113	0x3d5c2806	0.053749107
114	0xbcbb1ed4	-0.022841848
115	0xbcfac458	-0.030611202
116	0x3c2b6858	0.010461889
117	0x3d09d33a	0.033648707
118	0x3c7cc270	0.015427217
119	0xbc556968	-0.013025619
120	0xbd22d5cc	-0.039754674
121	0x3d5af2d6	0.053454243
122	0xbd25ca02	-0.040475853
123	0xbd775f60	-0.06039369
124	0xbccc6d74	-0.024954535
125	0x3c4c31a0	0.012463003
126	0x3cbe4e44	0.02323068
127	0x3cc5f940	0.024166703
128	0xbd144cec	-0.03620617
129	0xbcc4801c	-0.023986869
130	0xbce3ad10	-0.027792484
131	0xbcf7f0dc	-0.030266218
132	0xbd579f3a	-0.052642085
133	0x3c519cc8	0.012793727
134	0xbc94e604	-0.018176086
135	0xbd7666cc	-0.06015663
136	0xbd157b9a	-0.03649483
137	0xbd19bd62	-0.037534125
138	0xbcdcdb94	-0.026960172
139	0xbd1e2ef8	-0.03861901
140	0xbc3194d0	-0.010838702
141	0x3cb77b54	0.022397675
142	0xbd4f2f32	-0.05058212
143	0xbbaf70f0	-0.0053540394
144	0xbc93592c	-0.017986856
145	0xbd02e1d2	-0.03195364
146	0xbc6360a0	-0.013878018
147	0xbcd90068	-0.026489452
148	0x3b03ad60	0.0020092353
149	0xbd38cb2a	-0.045115627
150	0x3c4230b0	0.011852428
151	0x3d6b0ab8	0.05738327
152	0x3d541fdc	0.051788196
153	0xbce58f54	-0.028022446
154	0x3c9dd018	0.019264266
155	0xbd71f8e6	-0.05907526
156	0x3d57899a	0.05262146
157	0xbd7f1ede	-0.062285297
158	0xbd64c4b0	-0.05585164
159	0xbd65cb06	-0.05610182
160	0xbd6dbc44	-0.058040872
161	0x3c0aae20	0.008464366
162	0xbc8763b8	-0.016527042
163	0x3c751780	0.014959216
164	0xbb7d6fc0	-0.0038671345
165	0xbaaff940	-0.0013425723
166	0xbcb8f9e0	-0.022580087
167	0xbd17e22a	-0.03708092
168	0xbd565662	-0.052328475
169	0x3d012c66	0.031536482
170	0xbd03fe52	-0.03222496
171	0xbc504288	-0.012711175
172	0x3cf8acfc	0.030355923
173	0xbc7d9b10	-0.015478864
174	0xbc8117cc	-0.015758418
175	0xbd2aa948	-0.041665345
176	0xbd5b08a4	-0.053475037
177	0x3cf5be38	0.02999793
178	0xbc670870	-0.014101133
179	0x3d20f95c	0.039300308
180	0x3b86cad0	0.0041135326
181	0xb8a67c00	-7.9385936e-05
182	0xbd671df8	-0.056425065
183	0x3ab4dd00	0.0013798773
184	0xbc676bb0	-0.014124796
185	0xbd121518	-0.035664648
186	0xbc6cfe08	-0.014464863
187	0x3b562240	0.0032674223
188	0xbd40e438	-0.047092646
189	0x3c2a4640	0.0103927255
190	0x3d3220ee	0.043488435
191	0x3c4a49d0	0.0123467
192	0x3d745d92	0.059659548
193	0x3ceeebb8	0.029165134
194	0xbd49e4e6	-0.04929056
195	0xbcc987d0	-0.024600893
196	0xbc766b18	-0.015040182
197	0x3c992938	0.018696412
198	0xbae9a600	-0.0017825961
199	0x3d4e009a	0.050293542
200	0x3bede890	0.0072603896
201	0xbd2220a4	-0.03958191
202	0xbcbbb510	-0.022913486
203	0xbd54fb68	-0.051997572
204	0xbc8d2c6c	-0.017233096
205	0x3cfbba74	0.030728556
206	0x3a1e3680	0.0006035343
207	0xbd741f6a	-0.05960027
208	0xbd5d8428	-0.054081112
209	0x3cb99fa4	0.02265913
210	0xbd60b11e	-0.054856412
211	0xbd4c30d0	-0.04985124
212	0xbd18a18a	-0.03726343
213	0x3d73ff90	0.059569895
214	0xbc9195c4	-0.01777161
215	0xbcd31928	-0.025768831
216	0xbd2cdac0	-0.042200804
217	0x3d23c3d8	0.039981693
218	0xbc255810	-0.0100917965
219	0x3c457680	0.012052178
220	0x3c749f90	0.014930621
221	0x3c9065cc	0.017626666
222	0x3d23dcd8	0.040005535
223	0x3b548e40	0.003243342
224	0x3bd3d710	0.0064648464
225	0xbb84ff50	-0.004058756
226	0xbd46ede2	-0.048566706
227	0xbc6a5738	-0.014303021
228	0x3d73a62a	0.05948464
229	0xbd356ed4	-0.044295147
230	0xbd21905e	-0.03944432
231	0xbd7e0848	-0.062019616
232	0x3b785f40	0.003789857
233	0xbd6f714a	-0.05845765
234	0xbd031f28	-0.032012135
235	0x3d6be390	0.057590067
236	0x3cd40d6c	0.025885306
237	0x3d0863b8	0.033298224
238	0x3c2f5738	0.010701947
239	0xbd598b2a	-0.053111233
240	0xbcee3e64	-0.029082485
241	0xbd4f3f3a	-0.050597407
242	0xbd1e4cc4	-0.03864743
243	0x3cae5bd0	0.021284014
244	0xbc8e015c	-0.017334633
245	0x3d7a2dec	0.06107895
246	0xbd3a9cee	-0.045559816
247	0xbd5a7914	-0.053338125
248	0x3d7cc668	0.061712652
249	0xbd5d25aa	-0.053990997
250	0x3d59d6a2	0.053183205
251	0x3c89dec8	0.016829863
252	0xbd6954e0	-0.05696571
253	0x3d5ef880	0.054436207
254	0xbc8b6398	-0.017015263
255	0xbcd31de4	-0.025771089

encoder.MLP.L1.bias f4 [64]
0	0x3c316238	0.01082664
1	0x3ba643b7	0.00507399
2	0xbc1442f4	-0.009049166
3	0x3c1a40e5	0.009414886
4	0xbc40089a	-0.011720801
5	0x3d027000	0.031845093
6	0xbd33be06	-0.043882392
7	0xbcdb258f	-0.026751308
8	0x3d5601fa	0.05224798
9	0x3d0bdccf	0.034146126
10	0xbd89eb57	-0.06734341
11	0x3aaed115	0.0013337458
12	0xbcdb1e77	-0.026747925
13	0xbd4e82e2	-0.05041779
14	0x3d67ff36	0.056639872
15	0x3d058429	0.03259674
16	0x3c20bb05	0.009810214
17	0xbd47d250	-0.048784554
18	0xbd53b932	-0.051690288
19	0x3b9e1a25	0.004824894
20	0x3d3df7f6	0.046379052
21	0xbd28deb8	-0.041228026
22	0x3d2e4dc8	0.042554647
23	0xbbee329c	-0.0072692167
24	0xbcb08ace	-0.021550562
25	0xbd10b5f6	-0.03532978
26	0x3cfba9b6	0.030720573
27	0xbc1074f5	-0.008816947
28	0xbd713fd9	-0.05889878
29	0x3d1e4ada	0.038645603
30	0xbd093822	-0.033500798
31	0xbd96e7d4	-0.073684365
32	0xbb0e0254	-0.0021668868
33	0x3d304f9e	0.04304468
34	0x3d1cffd5	0.038329918
35	0xbd233dfa	-0.039854027
36	0x3bea4fc8	0.007150624
37	0xbc04d9ec	-0.008108597
38	0x3ccc434a	0.02493443
39	0xbdaaabad	-0.08333526
40	0xbd86f7ba	-0.06590219
41	0xbd336c78	-0.043804616
42	0xbb48361f	-0.0030549837
43	0xbd2521f9	-0.040315602
44	0x3d2a3d64	0.041562453
45	0xbd85c3f9	-0.065315194
46	0x3d1bbfa4	0.03802456
47	0xbcc7bf8f	-0.024383334
48	0x3d1d3868	0.03838387
49	0xbd99ba43	-0.0750623
50	0xbd13792c	-0.03600423
51	0xbcedbd6c	-0.029020987
52	0xbd8c03d3	-0.06836667
53	0x3cd3c50c	0.025850795
54	0x3d35b96b	0.04436628
55	0xbcf364d5	-0.029711166
56	0xbcef9396	-0.02924518
57	0xbce6f318	-0.028192088
58	0xbd8989a0	-0.06715703
59	0x3c848b37	0.016179664
60	0xbcfa19a9	-0.030529814
61	0x3c47d6fa	0.0121972505
62	0x3ca24e8d	0.019812847
63	0xbad31940	-0.0016105548

encoder.linear_means.weight f4 [6, 64]
0	0xbd1877ac	-0.037223503
1	0xbda0c126	-0.0784934
2	0xbd2ae7f8	-0.04172513
3	0x3d958b2c	0.073019356
4	0x3d65c8e2	0.05609978
5	0x3d75bfa4	0.059997216
6	0xbda91670	-0.08256233
7	0xbdd68a72	-0.10475625
8	0xbc84f028	-0.016227797
9	0xbdd422b5	-0.10358182
10	0x3d02e19f	0.03195345
11	0x3cd8f73e	0.026485082
12	0x3d3abf39	0.04559252
13	0xbdb31478	-0.087441385
14	0x3d43a175	0.0477614
15	0x3d84ab0f	0.06477939
16	0xbce4db5a	-0.027936626
17	0x3de04b55	0.109518684
18	0x3d944757	0.072401695
19	0xbd8e06cb	-0.069348894
20	0x3d1fe07b	0.03903244
21	0x3dda9ef2	0.10674848
22	0xbd290368	-0.041263014
23	0x3d490f88	0.049087077
24	0x3c8c9652	0.017161522
25	0x3d48245c	0.0488628
26	0xbcb7ef64	-0.022453018
27	0xbd83b2e1	-0.06430603
28	0x3c9b13c4	0.018930323
29	0x3d72745b	0.059192996
30	0xbd0189d6	-0.03162559
31	0x3d7d7c22	0.06188596
32	0xbbbf8240	-0.0058443844
33	0xbd79d84d	-0.060997296
34	0xbda5eb67	-0.0810154
35	0xbd7ac1e3	-0.06122006
36	0x3db57f57	0.08862179
37	0xbca494f2	-0.020090554
38	0x3cea9216	0.028634112
39	0xbc15750d	-0.009122145
40	0xbd59ab36	-0.053141795
41	0x3b2076ce	0.0024484876
42	0xbbd47d77	-0.006484683
43	0x3cf171a8	0.02947314
44	0xbde8f598	-0.11374968
45	0xbd4d93d3	-0.050189804
46	0x3d928684	0.07154563
47	0xbdd65ee7	-0.1046732
48	0x3c3e57af	0.011617585
49	0x3d75a983	0.059976112
50	0x3ce7c477	0.028291924
51	0x3d0cd8a7	0.034386303
52	0x3d4b36a8	0.04961267
53	0xbd73abec	-0.05949013
54	0x3cafdccf	0.021467594
55	0x3d732fad	0.05937164
56	0xbda74f6c	-0.081694454
57	0x3dd466d8	0.103711784
58	0xbcb3f4cf	-0.02196732
59	0x3cf02008	0.029312149
60	0xbd1dc166	-0.038514517
61	0xbc7f8d5d	-0.0155976685
62	0x3e068d03	0.13139729
63	0x3a0bd800	0.00053346157
64	0x3dccfdbc	0.100093335
65	0xbd8a1e4c	-0.0674406
66	0xbc9a5fbe	-0.018844482
67	0xbde88a03	-0.11354449
68	0xbd843135	-0.06454698
69	0x3dcbc714	0.099500805
70	0xbd916248	-0.07098824
71	0x3def22f3	0.11676588
72	0xbd6599b0	-0.05605477
73	0x3dd1661a	0.102245525
74	0xbc7a95ae	-0.0152944755
75	0x3dc4cc7c	0.09609315
76	0x3dfb7836	0.12278788
77	0xbc8ecf61	-0.01743287
78	0xbcbb2d63	-0.02284879
79	0x3c222629	0.009896793
80	0x3da505e3	0.080577634
81	0xbd109690	-0.035299838
82	0xbb4db7cf	-0.0031390076
83	0xbd309941	-0.043114904
84	0xbd80265c	-0.062573165
85	0xbddd92c8	-0.10819012
86	0xbc83d2b8	-0.01609169
87	0x3e03d963	0.12875895
88	0x3cd0cef9	0.025489317
89	0x3d3b148c	0.045673892
90	0xbcb67fe2	-0.022277776
91	0x3c7e5972	0.015524255
92	0x3dbb8555	0.091562904
93	0xbdece118	-0.11566371
94	0x3b4e43c6	0.0031473502
95	0xbdec5155	-0.1153895
96	0xbd81156b	-0.06302913
97	0x3da596fc	0.080854386
98	0x3d83f937	0.06444018
99	0xbd6fa5f6	-0.058507882
100	0x3d6c7835	0.057731826
101	0x3d474617	0.048650827
102	0xbd509e06	-0.050931953
103	0x3dea830f	0.11450779
104	0xbdbc7e03	-0.09203722
105	0xbd025dea	-0.031827845
106	0x3aed09ff	0.0018084644
107	0xbb2084c6	-0.0024493202
108	0xbd63febc	-0.055662856
109	0xbda0d8d6	-0.07853858
110	0xbceb2553	-0.028704321
111	0xbd7b960b	-0.06142239
112	0xbd74def7	-0.05978295
113	0x3ccb6960	0.02483052
114	0x3d8898f7	0.06669801
115	0xbdba6da9	-0.09102947
116	0xbd33812b	-0.043824356
117	0xbd928288	-0.07153803
118	0xbd213c2e	-0.039364032
119	0x3bd22abb	0.0064137853
120	0xbd8e8f00	-0.06960869
121	0x3df9087a	0.1215982
122	0x3ba91162	0.005159543
123	0x3c6136ae	0.013745947
124	0x3e1bde90	0.1522162
125	0xbd86795a	-0.06566115
126	0x3b9e503f	0.0048313434
127	0xbddda728	-0.10822898
128	0xbd8a4cda	-0.067529395
129	0x3cf7ff47	0.030273093
130	0xbdcc07de	-0.09962438
131	0x3dd14067	0.10217362
132	0x3d3e31f8	0.046434373
133	0x3c00b450	0.00785549
134	0x3b693cc0	0.0035589188
135	0xbce3e3ca	-0.02781858
136	0x3c5e9ecb	0.013587664
137	0x3d320376	0.04346033
138	0xbd74373b	-0.059622984
139	0xbd8fb2c4	-0.07016519
140	0xbd195555	-0.037434895
141	0xbd6baa3b	-0.05753539
142	0x3cf77c65	0.030210683
143	0xbd9eff45	-0.077635325
144	0xbd206bf3	-0.03916545
145	0x3d9bc3d3	0.0760571
146	0x3d9b0a08	0.07570273
147	0xbd6a94b8	-0.057270736
148	0x3de261a8	0.11053783
149	0xbd8750f1	-0.06607235
150	0x3bb79f00	0.005603671
151	0x3de2aed0	0.11068499
152	0xba55898c	-0.0008145801
153	0xbd7dd414	-0.06196983
154	0x3cb2cdd9	0.021826671
155	0xbe0a4f66	-0.1350685
156	0x3d0d3086	0.034470104
157	0xbdbb7e58	-0.091549575
158	0x3d8d80da	0.06909342
159	0xbcab9b4f	-0.02094808
160	0xbc43e2ea	-0.011955956
161	0xbc7d60f0	-0.015465006
162	0xbdf26737	-0.11836093
163	0x3da79f0c	0.08184633
164	0x3d820881	0.06349278
165	0x3d7512d3	0.059832405
166	0x3ddd2704	0.10798457
167	0x3dd015da	0.10160418
168	0x3ddca29c	0.10773203
169	0x3d751e55	0.05984338
170	0x3ce5ff7e	0.02807593
171	0xbdfda43a	-0.12384839
172	0x3d13a28c	0.03604369
173	0xbb4fb5c9	-0.0031694046
174	0xbcb4773a	-0.022029508
175	0x3c111acc	0.0088564865
176	0xbd3d2f55	-0.046187717
177	0x3db44633	0.08802452
178	0xbbd9f50a	-0.0066515254
179	0xbdb82b93	-0.08992686
180	0x3ca4e724	0.020129748
181	0x3de9a9be	0.11409329
182	0xbda9ead5	-0.08296744
183	0xbca0b802	-0.019618992
184	0xbca6c9c1	-0.020359876
185	0xbdee848e	-0.116463766
186	0x3bff64b5	0.0077939876
187	0xbd44e3e5	-0.0480689
188	0xbc15c9e7	-0.009142376
189	0xbce26b64	-0.027639098
190	0x3d8560f0	0.0651263
191	0xbde9e420	-0.114204645
192	0x3cd93680	0.026515245
193	0x3d6ce6d3	0.05783732
194	0x3d64debf	0.05587649
195	0xbd5d9bf2	-0.0541038
196	0x3c9f6f3e	0.019462224
197	0x3d314c40	0.04328561
198	0x3ddae1e4	0.106876165
199	0x3d3c650e	0.04599481
200	0x3c63d618	0.013906024
201	0xbd98d113	-0.07461753
202	0x3d18c6eb	0.037299078
203	0xbcbf75b5	-0.023371557
204	0x3db26a72	0.08711709
205	0x3dd8219e	0.10553287
206	0x3cd52d82	0.026022676
207	0x3c1efa82	0.00970328
208	0xbdbdee1b	-0.09273931
209	0x3de09b37	0.10967105
210	0xbdbf716a	-0.09347804
211	0xbc16cf4c	-0.009204697
212	0xbd308349	-0.043093953
213	0x3d9ba478	0.07599729
214	0x3dd42a74	0.1035966
215	0xbd9f2345	-0.07770399
216	0x3ce256cb	0.027629277
217	0x3dcac108	0.09900099
218	0xbdbb9a29	-0.09160263
219	0xbdb375ed	-0.08762727
220	0xbdcecc7d	-0.10097597
221	0xbd42ebf9	-0.047588322
222	0xbd4d822a	-0.050172962
223	0x3dd68ecc	0.10476455
224	0x3bf0c86c	0.007348111
225	0xbd5eb21c	-0.054369077
226	0xbdbb1986	-0.091357276
227	0x3ce0c325	0.027436802
228	0x3cf7c1cc	0.030243777
229	0xbdc68a3f	-0.09694337
230	0x3d289cde	0.041165225
231	0xbda2e82e	-0.07954441
232	0xbde132a1	-0.10995985
233	0xbd96b49b	-0.073586665
234	0xbdd7aaa4	-0.10530594
235	0x3d8951f9	0.06705088
236	0x3df4e98a	0.119586065
237	0x3de6b6ec	0.11265358
238	0xbd823988	-0.063586295
239	0x3ba029a1	0.004887775
240	0xbd591ed1	-0.053007904
241	0xbd4c1f99	-0.04983482
242	0x3ce28f7e	0.027656313
243	0x3ddb679f	0.107131235
244	0x3d530bc9	0.05152491
245	0x3c774540	0.015092194
246	0xbc6ac235	-0.014328529
247	0x3d4920e4	0.049103633
248	0xbc60decb	-0.013724993
249	0xbdd42c7a	-0.10360046
250	0xbc1e0587	-0.0096448725
251	0x3d9e6b60	0.07735324
252	0x3db6c000	0.0892334
253	0x3c6dffa0	0.014526278
254	0xbd92fefc	-0.07177541
255	0xbd48a4a4	-0.04898514

encoder.linear_means.bias f4 [6]
0	0xbaa072b0	-0.0012241211
1	0x391bf6c7	0.00014873884
2	0x3aa485ee	0.0012552121
3	0xb8e1b6b9	-0.00010762871
4	0x3a4f222f	0.0007901517
5	0xba5c4451	-0.0008402514

encoder.linear_log_var.weight f4 [6, 64]
0	0xbd296e74	-0.041365102
1	0x3b8cd0f3	0.0042973696
2	0xbdfae11f	-0.1224997
3	0x3de08ef0	0.10964763
4	0x3db1fbf6	0.08690636
5	0xbd5c75ac	-0.05382316
6	0x3d053db8	0.032529563
7	0x3d8e3ea2	0.0694554
8	0xbd5f45e2	-0.054510005
9	0xbda26392	-0.07929148
10	0xbd95f4d0	-0.07322085
11	0xbd9e0e97	-0.077176265
12	0x3dd78985	0.10524277
13	0xba4dc2fa	-0.0007849183
14	0x3c784c99	0.015154981
15	0x3aed08fc	0.0018084343
16	0xbdb75c2f	-0.089531295
17	0x3dc10492	0.094247
18	0xbe00149f	-0.12507866
19	0x3dc1e5c7	0.09467655
20	0xbda33b63	-0.079703115
21	0x3d42e19d	0.047578443
22	0xb98f7600	-0.00027363002
23	0xbde9fa4c	-0.114246935
24	0x3da3ab18	0.07991618
25	0x3d972d44	0.073816806
26	0x3d18e171	0.037324373
27	0x3ce72a8b	0.028218528
28	0xbdf86f75	-0.12130634
29	0x3cdb0e80	0.026740313
30	0x3d5ef4a2	0.05443252
31	0x3d85d0c6	0.06533961
32	0xbdf50ddf	-0.11965536
33	0xbc0d7c15	-0.0086355405
34	0x3da9cb57	0.08290737
35	0xbd4a7333	-0.04942627
36	0xbd9a720a	-0.075412825
37	0x3e0d3248	0.13788712
38	0x3d1b396c	0.03789656
39	0xbce31547	-0.027720107
40	0xbd8d878a	-0.06910618
41	0x3c510d49	0.012759515
42	0x3cde431c	0.02713161
43	0x3dbe6bec	0.09297928
44	0xbcd5d6c0	-0.026103377
45	0x3d59aef4	0.053145364
46	0x3d745d4c	0.059659287
47	0x3d428a93	0.047495436
48	0xbd4aaaa4	-0.04947914
49	0x3d04a797	0.03238639
50	0xbcefe2f4	-0.029283024
51	0xbcf88963	-0.030338949
52	0xbd2e7c8f	-0.042599257
53	0xbd0a6dd0	-0.03379613
54	0xbceaa1ad	-0.028641546
55	0xbc744051	-0.014907912
56	0x3dc18177	0.094485216
57	0x3d6c26a4	0.057654038
58	0xbbafe533	-0.005367899
59	0x3cf32ef6	0.029685479
60	0x3dcc8ff7	0.099883966
61	0xbd52652c	-0.051366016
62	0xbce9058e	-0.028445031
63	0xbdbe07fa	-0.09278865
64	0xbd801224	-0.0625346
65	0x3d99d0d8	0.07510537
66	0x3dc6fe3c	0.0971646
67	0x3d12d9e5	0.03585233
68	0xbcb17ad0	-0.021665007
69	0xbd6cf858	-0.057854027
70	0xbdab260c	-0.08356866
71	0x3c3a6e18	0.011378787
72	0xbdd4e7b9	-0.1039576
73	0x3dc173d3	0.0944592
74	0xbd04531c	-0.03230582
75	0x3b5db6cb	0.0033830877
76	0xbdbb827d	-0.09155748
77	0xbd46ee38	-0.048567027
78	0x3c0340cb	0.008011053
79	0x3cdd1e35	0.026991943
80	0x3ca2f8ba	0.019893993
81	0x3dbdcdce	0.0926777
82	0xbdb1d2b8	-0.086827695
83	0x3de63d2e	0.11242138
84	0x3b61adac	0.0034435792
85	0xbdccb12c	-0.0999473
86	0x3d91506e	0.07095419
87	0xbd9c725e	-0.07639001
88	0x3db2082c	0.08692965
89	0xbd75ec2c	-0.060039684
90	0xbd736597	-0.059423055
91	0x3d8f2908	0.06990248
92	0x3dee2809	0.1162873
93	0xbdb05579	-0.086100526
94	0x3d3c0343	0.045901548
95	0xbda67e2e	-0.081295356
96	0x3de40c89	0.111352034
97	0x3b6b067a	0.0035862015
98	0x3d7182a7	0.05896249
99	0xbdbb8895	-0.0915691
100	0x3d038bf5	0.032115895
101	0x3d953b19	0.072866626
102	0x3db9a915	0.09065453
103	0x3d3e3cb3	0.046444606
104	0x3dcc39ed	0.09971986
105	0xbcaa8e2f	-0.020819752
106	0xbdf57bfc	-0.11986539
107	0x3cbe8fed	0.023261989
108	0xbdc5ba8c	-0.096547216
109	0xbe05badb	-0.13059561
110	0x3cfdfbaf	0.031003801
111	0x3dad64a9	0.08466465
112	0x3c5fc6ee	0.013658268
113	0xbdfe83cf	-0.12427484
114	0xbce43a1b	-0.027859738
115	0x3d976307	0.07391935
116	0x3c1d4235	0.0095983045
117	0xbdca5c82	-0.09880926
118	0xbd038f41	-0.03211904
119	0xbdaa5c28	-0.08318359
120	0x3ad02e63	0.0015882965
121	0xbd75f0e4	-0.060044184
122	0xbc574a57	-0.013140283
123	0x3b841320	0.0040306
124	0xbd70eab3	-0.058817577
125	0xbdd97ecd	-0.106198885
126	0x3dd10054	0.10205141
127	0xbd0c1990	-0.034204066
128	0xbddc4bfe	-0.10756682
129	0x3d813c8b	0.06310376
130	0x3dd17a9f	0.10228466
131	0xbd8947d9	-0.06703157
132	0xbde5a530	-0.11213148
133	0xbc6ba370	-0.014382228
134	0x3df93a56	0.1216933
135	0x3e005501	0.12532426
136	0x3d2fbb62	0.04290331
137	0xbd053c37	-0.03252813
138	0x3d7819a4	0.060571328
139	0x3daa556c	0.08317074
140	0x3cb77968	0.022396758
141	0x3c9ff095	0.019523898
142	0x39f1f98c	0.0004615303
143	0xbd84191b	-0.06450101
144	0xbd1ab2b8	-0.037768096
145	0xbd3ff9fe	-0.04686927
146	0x3c8aced4	0.016944326
147	0x3b37efb8	0.0028066467
148	0x3c9e7f48	0.019347802
149	0x3dd8f41f	0.105934374
150	0x3c2c3db0	0.010512754
151	0x3d8355fc	0.064128846
152	0xbad17e04	-0.001598299
153	0xbdbaa708	-0.0911389
154	0x3d5c3fdd	0.053771842
155	0x3dda7413	0.10666671
156	0x3d903715	0.07041756
157	0x3b448ade	0.0029989998
158	0xbc40819c	-0.011749651
159	0xbdbe2b1b	-0.092855655
160	0x3db7dd21	0.08977724
161	0x3dbb9352	0.091589585
162	0x3cabb2c8	0.020959273
163	0xbc4a075b	-0.012330855
164	0x3d4d248d	0.050083686
165	0xbdd067e3	-0.10176065
166	0x3d72ba0b	0.059259456
167	0xbd8a7aee	-0.06761728
168	0x3deb4894	0.114884526
169	0xbd723200	-0.059129715
170	0xbda220cf	-0.07916414
171	0x3b650c59	0.0034949987
172	0xbd14a720	-0.036292195
173	0x3cde4b85	0.02713562
174	0xbd96b4fc	-0.07358739
175	0xbd3ba267	-0.045809176
176	0x3bbef299	0.0058272597
177	0xbd10e7ed	-0.03537743
178	0xbca63894	-0.02029065
179	0xbcc1cb28	-0.023656443
180	0x3caad7b7	0.020854814
181	0x3d87a022	0.0662234
182	0x3d6d442a	0.057926334
183	0x3da14ee0	0.07876372
184	0xbd82cde0	-0.06386924
185	0xbda6a766	-0.081373975
186	0xbb38ed93	-0.0028217777
187	0xbda5a388	-0.08087832
188	0xbc41f635	-0.0118384855
189	0x3c0e560f	0.00868751
190	0xbda54147	-0.08069091
191	0xbb9e6720	-0.004834071
192	0x3d90f56a	0.07078059
193	0x3d9bbae1	0.07604004
194	0x3d089c61	0.03335226
195	0xbd004d09	-0.031323466
196	0xbd264e63	-0.0406021
197	0x3db62606	0.08893971
198	0xbd516b94	-0.051127985
199	0x3daaab98	0.0833351
200	0x3d6e7f98	0.05822715
201	0xbd6fc9b1	-0.058541957
202	0xba9136dc	-0.0011078971
203	0x3c40c715	0.011766215
204	0xbdbe5e04	-0.09295276
205	0x3d7ace0d	0.06123166
206	0xbc01c473	-0.007920372
207	0xbdbe2a4a	-0.0928541
208	0x3e004ac1	0.12528516
209	0x3ddfc30d	0.10925875
210	0x3d89bcd2	0.06725468
211	0x3d542247	0.051790502
212	0x3d9ef8d7	0.07762306
213	0x3b936161	0.0044976925
214	0x3c1dcec0	0.009631813
215	0xbbda075f	-0.0066537107
216	0xbd9b21f7	-0.07574838
217	0xbcb6dca8	-0.022322014
218	0x3d8b1c20	0.06792474
219	0xbd079697	-0.033102598
220	0xbe025170	-0.12726378
221	0x3d3967bb	0.04526494
222	0x3d1a3c2f	0.03765505
223	0x3d7a927f	0.061174866
224	0x3d2cc4f3	0.042180013
225	0x3d8f30f1	0.06991757
226	0x3d780ad5	0.060557205
227	0x3d104b0e	0.035227828
228	0xbd99a00d	-0.075012304
229	0xbdae3729	-0.08506615
230	0x3d9f740c	0.07785806
231	0x3cfc7ac0	0.03082025
232	0xbc72b3f5	-0.014813413
233	0x3dbfeb74	0.09371081
234	0xbd27a7db	-0.040931564
235	0xbd2ece8e	-0.042677455
236	0xbd1ec700	-0.038764
237	0x3dc013cb	0.09378775
238	0xbda6481d	-0.08119223
239	0x3d1c4809	0.038154636
240	0xbb8ab351	-0.004232802
241	0xbc91569f	-0.0177415
242	0xbdd18ff1	-0.10232533
243	0x3d56fa10	0.052484572
244	0x3d246589	0.040135894
245	0x3d985ece	0.074399576
246	0x3dc06ae4	0.09395388
247	0xbda920ef	-0.08258235
248	0x3d8958e4	0.06706408
249	0x3cbd5a98	0.023114488
250	0xbb8cd41b	-0.004297746
251	0xbd90cc2e	-0.07070194
252	0x3d9ed451	0.0775534
253	0x3bc9efa0	0.0061625987
254	0x3d93b1de	0.0721166
255	0xbd0701f8	-0.032960862

encoder.linear_log_var.bias f4 [6]
0	0xbb05c7d7	-0.0020413303
1	0xbb32baca	-0.002727198
2	0x393c9a40	0.0001798654
3	0xbb16ced1	-0.0023011456
4	0xbaa901fa	-0.0012894266
5	0xbb370864	-0.0027928585

decoder.MLP.L0.weight f4 [64, 12]
0	0x3b351111	0.002762858
1	0x3b15ed60	0.0022877082
2	0xbb5af7b7	-0.003341181
3	0x3b46bbfc	0.003032445
4	0xb71371ec	-8.788407e-06
5	0xbb8410a9	-0.0040303064
6	0xbf183660	-0.5945797
7	0x3eccfb1a	0.40035325
8	0xbed12ace	-0.4085297
9	0x3f86581c	1.0495639
10	0xbf4478d0	-0.76746845
11	0xbf206191	-0.62648875
12	0x3bbb2bb6	0.005711998
13	0xbb05fadd	-0.0020443716
14	0x3bc632c7	0.0060485336
15	0x3b4307f8	0.0029759388
16	0x39950458	0.0002842273
17	0xbc0f54a9	-0.008748212
18	0xbda62ea5	-0.081143655
19	0xbdeb495c	-0.114886016
20	0x3f9571d1	1.1675359
21	0xbeeb061e	-0.45903105
22	0xbf57809e	-0.8418063
23	0xbeeb340c	-0.45938146
24	0x3b012fd2	0.001971234
25	0xbaf18177	-0.0018425424
26	0xbbb6d470	-0.0055795237
27	0x3bab7dd2	0.005233505
28	0xba53ede2	-0.00080844585
29	0xb9e126c5	-0.0004294423
30	0x3f15537f	0.5833053
31	0x3cbe3e52	0.023223076
32	0xbe4f51bd	-0.20246024
33	0xbfc02ebe	-1.5014265
34	0x3fb35c21	1.401249
35	0x3efdc7e4	0.49566567
36	0xbc33eea1	-0.0109821865
37	0xbd5600e1	-0.052246932
38	0x3cc73b56	0.024320286
39	0x3c05ca31	0.008165882
40	0xbc01e99b	-0.007929231
41	0x3db64109	0.08899123
42	0xbee89fa0	-0.45434284
43	0xbee497bd	-0.44647017
44	0xbe67863f	-0.22609805
45	0xbeef5ed3	-0.46752033
46	0xbf12429d	-0.57132894
47	0xbef6fed5	-0.48241296
48	0x3b75547c	0.003743439
49	0x3b3e0f35	0.0029000763
50	0xbb85b89a	-0.004080844
51	0x3a8a07ca	0.0010530886
52	0xbb7bb930	-0.003840994
53	0x3bfd9a01	0.007739306
54	0xbf167886	-0.58777654
55	0x3eb72502	0.35770422
56	0x3f49ecad	0.78876764
57	0xbf4722b6	-0.7778734
58	0xbf6e1266	-0.92996824
59	0x3e87e16b	0.26539168
60	0xbcece813	-0.028919255
61	0xbd31fb48	-0.04345253
62	0x3cc78ff4	0.024360634
63	0xbd2dbd9c	-0.042417154
64	0xbd4b6537	-0.049657073
65	0xbc725868	-0.0147915855
66	0xbf03a1ba	-0.5141865
67	0xbeedb740	-0.4642887
68	0xbf1c29d6	-0.61001337
69	0xbf0ae76a	-0.5425936
70	0xbd77e68b	-0.060522597
71	0xbf141396	-0.57842386
72	0x3c954574	0.018221594
73	0x3b4732bc	0.003039523
74	0x3cba42cb	0.022736927
75	0x3d00a9d0	0.031411946
76	0x3b85105d	0.0040607885
77	0xbbbaed05	-0.0057045245
78	0xbedfa322	-0.43679148
79	0xbdbe1d84	-0.092829734
80	0xbf362048	-0.7114301
81	0x3e674b47	0.2258731
82	0xbdc8f22a	-0.09811814
83	0xbedf567b	-0.43620667
84	0x3b62b4de	0.0034592669
85	0x3bbcdcf2	0.0057636434
86	0xbb23d301	-0.0024997594
87	0x3bef34e1	0.007300005
88	0xbbcf6c1c	-0.0063300263
89	0x3c84d133	0.016213035
90	0x3e37f2ae	0.17963669
91	0xbf69d145	-0.91334945
92	0xc0461183	-3.0948188
93	0xc12177e0	-10.091766
94	0x40caffa7	6.3437076
95	0x406b0a43	3.6725013
96	0x3bdf9e12	0.0068242634
97	0x3d094da1	0.0335213
98	0xbd2df273	-0.042467546
99	0xbafd0a54	-0.0019305446
100	0xbcab816e	-0.02093574
101	0xbd150c71	-0.03638882
102	0xbdbb86a3	-0.09156539
103	0xbeab49d8	-0.33454776
104	0x3dee1935	0.116259016
105	0x3b17e6b2	0.0023178277
106	0xbe71b5c7	-0.23604499
107	0xbe733d1d	-0.23753782
108	0x3c1446a2	0.009050043
109	0xbb282c37	-0.002566112
110	0x3b8f70ec	0.004377475
111	0x3a67aced	0.00088377186
112	0xbbba1247	-0.0056784484
113	0x3a376687	0.0006996174
114	0x3ee91f26	0.45531577
115	0x3e9c63aa	0.30544788
116	0xbf816a81	-1.0110627
117	0x3da654fd	0.08121679
118	0x3e068828	0.13137877
119	0x3f45f063	0.77319926
120	0x3aa84173	0.0012836888
121	0x3a0637b8	0.0005119997
122	0xb7647f7f	-1.3619544e-05
123	0xbb3530a8	-0.002764741
124	0xbae97643	-0.0017811734
125	0x3b7207af	0.003693085
126	0x3ed5431f	0.41652772
127	0x3e69d8b8	0.22836578
128	0xbf34ffb3	-0.70702666
129	0x3ee51347	0.4474127
130	0xbe0b9801	-0.13632204
131	0xbfc86b61	-1.565777
132	0xbd7d6fe6	-0.061874293
133	0x3df115ce	0.11771737
134	0xbdf4348e	-0.119240865
135	0x399129d7	0.00027687728
136	0xbcc8ad35	-0.024496654
137	0xbd3564d2	-0.044285603
138	0xbf03b094	-0.5144131
139	0xbec98759	-0.39361075
140	0xbf0b5de3	-0.54440135
141	0x3d821fc0	0.06353712
142	0xbe591081	-0.21197702
143	0xbe3da214	-0.18518859
144	0xbc4cebaf	-0.012507363
145	0xb979440e	-0.00023771843
146	0xbce31b7c	-0.027723067
147	0xbcb44fde	-0.02201074
148	0x3c25a945	0.010111158
149	0xbc85d44c	-0.016336583
150	0xbebe14f6	-0.37125367
151	0xbe2dafa2	-0.1696153
152	0xbe9dcfca	-0.30822593
153	0xbe96a0f6	-0.29419678
154	0xbe395f8c	-0.18102854
155	0x3ce76fde	0.028251585
156	0xbb809910	-0.0039244965
157	0x3bc708a7	0.0060740295
158	0x3c0d77b8	0.0086345
159	0x3a05c345	0.0005102645
160	0x3bc02c99	0.0058646915
161	0xbc695a5e	-0.014242737
162	0xbda64195	-0.081179775
163	0xbd30b6c4	-0.04314305
164	0x3e3e8673	0.18605976
165	0xbd94d941	-0.072680004
166	0xbeacff66	-0.33788604
167	0xbd8aad3c	-0.06771323
168	0xbb4eb577	-0.0031541267
169	0xb9e5343f	-0.0004371721
170	0xbbde19d0	-0.0067779794
171	0xbc0509dd	-0.008120027
172	0x3a9d161b	0.0011984737
173	0x3b8dfa4b	0.0043328158
174	0xbf3190f0	-0.6936178
175	0x3f09906c	0.53735995
176	0x3e1b634d	0.15174599
177	0x3ed8e766	0.42364043
178	0xbf3bdf6b	-0.73387784
179	0xbf796d45	-0.9743236
180	0x3c9c9079	0.019111859
181	0xbcdc0695	-0.026858607
182	0xbc133bf0	-0.008986458
183	0xbc9028db	-0.017597606
184	0xbcd6ad04	-0.026205547
185	0x3c1acabe	0.009447752
186	0x3dd81466	0.10550766
187	0xbf049b3a	-0.51799357
188	0xbe8d3cdb	-0.27585492
189	0xbe4aa50f	-0.19789527
190	0x3e5dfb7e	0.21677968
191	0xbcab77cc	-0.020931147
192	0xbcbf252d	-0.023333156
193	0xbd9dc1ed	-0.07703004
194	0x3d20c29e	0.0392481
195	0x3ccbca55	0.024876753
196	0x3a3a94b3	0.0007117495
197	0xbd36ad74	-0.04459901
198	0xbe92cf1b	-0.28673634
199	0xbe8ad301	-0.27114108
200	0xbebeee0b	-0.37290987
201	0xbd705fac	-0.05868499
202	0xbf7e155c	-0.9925134
203	0xbf778102	-0.96681225
204	0x3d808858	0.062760055
205	0xbb554e17	-0.0032547766
206	0x3d07839a	0.03308449
207	0xbccbd794	-0.02488307
208	0x3c8a5194	0.016884603
209	0x3c9e749d	0.019342715
210	0xbd8404f0	-0.06446254
211	0xbefdc407	-0.4956362
212	0xbe505c78	-0.20347774
213	0xbe2a5a49	-0.16636004
214	0x3ce28e29	0.027655678
215	0xbdb1b3f7	-0.08676904
216	0xba028050	-0.00049782265
217	0xb9c4ad4c	-0.0003751315
218	0x38b870b7	8.7947985e-05
219	0xbb666831	-0.0035157318
220	0x3b7675ef	0.0037606915
221	0xbb2815f8	-0.002564786
222	0x3e828a2f	0.2549605
223	0xbde66c56	-0.11251132
224	0x3fd489c5	1.6604544
225	0xc0190ab7	-2.391279
226	0xbfc2a2b9	-1.5205909
227	0x3f3ced15	0.7379926
228	0x3ce4734b	0.027887007
229	0x3d2f3064	0.04277076
230	0x3cd9ebad	0.026601637
231	0x3cb58c5d	0.022161657
232	0x3d754d0a	0.059887923
233	0xbc70a9ae	-0.014688892
234	0xbe8aa8a5	-0.2708179
235	0xbed90520	-0.42386723
236	0x3d33d28f	0.043901976
237	0x3db3dede	0.08782743
238	0xbe4085ad	-0.18800993
239	0xbe850769	-0.25982216
240	0x3c784ca0	0.015154988
241	0x3b9af547	0.0047289464
242	0xbc467e1c	-0.012115028
243	0x3ba4d073	0.005029732
244	0xbbb4800c	-0.0055084284
245	0x3ba36f9e	0.004987671
246	0xbfbc22f0	-1.4698162
247	0xbff97ba4	-1.9490857
248	0xc08e4177	-4.4454913
249	0xbf267d34	-0.65034795
250	0x40a16c0b	5.044439
251	0x403c1d4c	2.9392881
252	0xbb90b54d	-0.004416144
253	0x3a548d10	0.0008108178
254	0x3a11933c	0.00055532507
255	0x3ab4b1fa	0.0013785951

decoder.MLP.L0.bias f4 [64]
0	0x3f6ed042	0.93286526
1	0x3e1a5425	0.15071161
2	0xc00cfd0f	-2.2029455
3	0xbe052c66	-0.13005218
4	0x3da5b82d	0.08091769
5	0x3c10f4e8	0.008847453
6	0xbdca5dc6	-0.09881167
7	0x3f2b8e25	0.6701377
8	0xbe87033f	-0.26369664
9	0xbf9e9ca6	-1.2391555
10	0xbebbc214	-0.36671507
11	0xbece0c11	-0.4024358
12	0xbd4e2527	-0.0503284
13	0xbcf57d9f	-0.029967127
14	0xbde5fb9e	-0.11229633
15	0xbe2ca861	-0.16861106
16	0xbe76a9fc	-0.24088281
17	0xbe5391f6	-0.20661148
18	0xbe1e4eda	-0.15459767
19	0xbea07de4	-0.31346047
20	0x3feab8e4	1.8337674
21	0xbd0ef176	-0.034898244
22	0xbd890817	-0.06690996
23	0xbdbc0d42	-0.09182216
24	0x3e91038c	0.2832302
25	0x3fc03b52	1.5018103
26	0xbfe9da96	-1.8269832
27	0xbe97908e	-0.29602474
28	0xbd56b153	-0.052415203
29	0xbe22d4af	-0.15901445
30	0xbeced8f0	-0.40399885
31	0xbeb0cb3b	-0.34530053
32	0xbf020555	-0.50789386
33	0xc010514b	-2.2549617
34	0xbf5f2e6f	-0.8718023
35	0x3ea329a5	0.3186771
36	0xbe2a8787	-0.16653262
37	0x3e110688	0.14162648
38	0x3f4da66a	0.8033205
39	0xbd088b3b	-0.033335906
40	0x3fff2af9	1.9934989
41	0xbeafbe5c	-0.3432492
42	0xbcf65859	-0.030071424
43	0x3ef9b1fc	0.48768604
44	0xbf7e95ce	-0.99447334
45	0x3ff78be0	1.9339561
46	0x3ecbb770	0.3978839
47	0x3fc1a918	1.5129728
48	0xbe387268	-0.18012393
49	0xbe91a51a	-0.28446275
50	0x3f216a5f	0.63052934
51	0x3ec66e24	0.38755906
52	0xbe405d07	-0.18785487
53	0xbf5f116f	-0.87135977
54	0xbfbff72d	-1.4997307
55	0xbffe01e9	-1.9844333
56	0x3fdbc799	1.7170287
57	0x3fb3181a	1.399173
58	0xbf63e440	-0.89020157
59	0x3f1e0c98	0.61737967
60	0x3cf6567d	0.030070538
61	0x3ed2f35f	0.41201302
62	0xbf85cf31	-1.0453855
63	0xbe98e21d	-0.2986001
