model/CVAE_8000_0.005_32_[12, 128, 64, 32]_10_[32, 64, 128, 6].pth (torch, 105622 bytes, 18 tensors)

encoder.MLP.L0.weight f4 [128, 12]
000000 ec be 06 bc 5b f9 22 3e db 7e 78 be cd 9c 5f be
       -0.00822423 0.15915434 -0.24267142 -0.21837159
000010 d8 2b f0 bd 6b 25 8f 3d f3 74 52 bc fd 06 66 3e
       -0.117271125 0.06989559 -0.012845266 0.22463603
000020 e4 be e9 bc 50 ee 96 3d 79 29 b8 bd f0 bb 71 bd
       -0.028533407 0.07369673 -0.08992285 -0.05901712
000030 b6 b9 9d be 3d 0f 17 be 3c b0 19 be af 78 c6 bc
       -0.3080575 -0.14751907 -0.15008634 -0.024227468
000040 df 7a a1 3d 16 9f 00 3e 1b 2b 67 be 63 d5 11 be
       0.07884764 0.12560686 -0.22575037 -0.14241557
000050 b3 72 bc 3d 48 9e 69 3e 47 17 8f bd ab 39 51 3e
       0.09201565 0.22814286 -0.06986862 0.20432155
000060 d8 95 3e bd 60 3b fa 3c b6 d4 85 3e 79 1c 89 be
       -0.04652962 0.03054589 0.26138848 -0.26779535
000070 f0 17 3a be 48 ac 95 bd cc 73 e6 bd c8 66 7f 3e
       -0.18173194 -0.07308251 -0.11252555 0.24941552
000080 a4 9a 3f be 70 13 08 be 3c 85 4e be df 6c 8a be
       -0.18711334 -0.13288665 -0.20168012 -0.27036187
000090 3b 08 63 be 1c 37 9a 3e 69 ec 8e 3d b0 08 9e 3d
       -0.22171108 0.3012017 0.069786854 0.07716501
0000a0 f1 78 44 bd cf 59 54 be 17 d7 cf 3c 6d fd 93 be
       -0.0479669 -0.20737384 0.025371118 -0.28904286
0000b0 27 e8 4f be a9 b5 ff bd 3f 19 1c 3e 78 2e 0c 3e
       -0.20303403 -0.12485821 0.15244006 0.13689601
0000c0 8b 0f 87 be 44 b8 9d 3c d6 66 5f 3e 3d 86 70 3e
       -0.26379046 0.019252904 0.21816573 0.23488708
0000d0 fc ef 60 3d 4d 1c 7b bd e2 f3 1f 3e 9d a9 29 be
       0.054916367 -0.061306287 0.15620378 -0.16568609
0000e0 8b 80 20 3e 0e 0b d9 bd 3d bb 2e bd ec e9 2b be
       0.15674035 -0.10597812 -0.042659033 -0.16788453
0000f0 75 30 4b 3e 14 ba 2c 3e ca 05 8c be 76 04 87 3d
       0.19842704 0.16867858 -0.27348167 0.06592648
000100 9c f3 13 3e 87 0b 05 ba 27 9e fc ba 60 ea 4f 3d
       0.14448398 -0.0005075265 -0.0019273207 0.050760627
000110 31 d0 1c 3e c0 ae 85 3e 84 c1 6f be 15 1c a5 bd
       0.15313794 0.26109886 -0.23413664 -0.08061997
000120 72 8a 8f bd 22 ec 8c 3e ea a8 90 3e 76 8d 31 3e
       -0.07008828 0.27523905 0.2825387 0.1733912
000130 d9 29 b6 bc dc 4d c4 be 8f 14 8e bc c7 e0 3b be
       -0.022236751 -0.38340652 -0.017343787 -0.18347465
000140 42 ba 0f be 2e 27 ca 3e 17 80 d1 3e ec 56 cc be
       -0.14035895 0.39483017 0.40918037 -0.39910066
000150 84 be da 3d a9 81 bf bc d3 c0 e5 bd 9a 5b 13 be
       0.10680869 -0.023377256 -0.11218419 -0.14390412
000160 36 3e e3 3d 69 ef b9 bd fd 54 07 3e 52 6e 12 3e
       0.1109585 -0.09078867 0.13216014 0.14299896
000170 cf e4 3c 3e ae fe ac 3d b6 f5 9e be 20 c9 3d be
       0.18446659 0.08447014 -0.31046838 -0.18533754
000180 21 95 bc 3d 0e bd f0 3d a0 ac 8e be 9a 21 65 be
       0.092081316 0.11754809 -0.27866077 -0.22376099
000190 27 2a 5b 3e 85 bf 0f 3e 87 bf 1f be af 6d cf bd
       0.21402799 0.14037903 -0.15600406 -0.10128342
0001a0 c6 01 96 be 4e 38 a3 bc f9 f3 64 be 66 aa 86 be
       -0.29298228 -0.01992431 -0.22358693 -0.2630188
0001b0 10 4d 82 bc 98 88 31 3d f6 1d f2 bd 86 67 2f 3e
       -0.015905887 0.043343157 -0.11822121 0.17129335
0001c0 dd e2 33 be 5e 1c 86 3e b2 93 4a 3e fa 46 79 be
       -0.1756701 0.26193517 0.19782904 -0.24343482
0001d0 5e 24 93 bd 20 6a 55 3c f0 83 2c 3d 10 38 8c 3d
       -0.07184671 0.01302579 0.042118013 0.068466306
0001e0 98 01 e8 3d 50 a7 8d 3c be 3b 10 be 52 e0 0b 3e
       0.11328429 0.017291695 -0.1408529 0.1365979
0001f0 51 c7 8d be c1 34 2f be 26 ff 93 bd 09 fe 0f be
       -0.2769113 -0.17109968 -0.072264 -0.1406175
000200 e6 d2 ce bd 6c 48 72 be 68 84 7b bd 98 bf 7c 3d
       -0.100988194 -0.23660439 -0.06140557 0.061706156
000210 63 32 74 be 32 48 0a 3d 4c e2 10 3e 3f 51 cd bd
       -0.23847346 0.033760257 0.14148825 -0.10025262
000220 dc 94 7c bd 5f 40 bc bd 74 31 37 3c b3 91 10 3e
       -0.0616654 -0.09191965 0.011181224 0.1411808
000230 f7 5c 6f 3e 0b 58 13 3e ab 78 70 3e b2 4b 6b bd
       0.23375307 0.14389054 0.23483531 -0.057445236
000240 ff c5 84 be 89 23 0c be 22 47 49 3e 00 47 f5 ba
       -0.2593231 -0.1368543 0.19656041 -0.0018713176
000250 b6 ed 12 be 3a 86 62 be 0c 52 8a be dc 7d 79 be
       -0.14348492 -0.22121516 -0.27015722 -0.24364418
000260 3c d6 6f bd 54 1c 22 3e b8 d0 1f 3e 6d 8b 8e be
       -0.05855392 0.15831119 0.15606964 -0.27840748
000270 5e 64 38 3e fa 4f 67 be 70 f9 79 bd d8 b7 ef bd
       0.18007037 -0.22589102 -0.061028898 -0.11704987
000280 38 c0 63 bd 80 28 68 bd 3c a1 84 be 31 3c 7f be
       -0.055603236 -0.05667925 -0.25904262 -0.24925305
000290 00 06 39 bd 80 a8 74 3b 01 49 06 be 04 b5 de 3d
       -0.045171738 0.003733188 -0.13113786 0.1087437
0002a0 8f 2d ca be 1b d4 c3 3a 35 a9 8e 3e 69 38 42 be
       -0.39487883 0.0014940532 0.2786347 -0.18966831
0002b0 68 86 3c 3e cc 9b a8 bb 44 6d 86 be e6 89 37 3e
       0.18410647 -0.0051455256 -0.26255238 0.17923698
0002c0 54 3c 9f bc 77 2c 02 be 41 5a 67 3e ba 86 91 be
       -0.019437946 -0.12712274 0.22593023 -0.284231
0002d0 03 a5 0b bd f8 ff bb 3c 59 7c 23 3e 9d ab 04 bc
       -0.034092914 0.022949204 0.15965404 -0.008097556
0002e0 b6 bc 46 3d d7 ff c7 3b e2 1c b7 bd ba bc 80 bd
       0.048519813 0.0061034965 -0.08941056 -0.06285997
0002f0 a2 03 6b be 38 28 28 3e 7d a6 72 3e 07 a8 45 3e
       -0.22950605 0.16421592 0.23696323 0.19302379
000300 1e 83 50 be 20 f1 52 3c 81 61 50 be 97 b9 22 be
       -0.20362517 0.0128748715 -0.20349695 -0.1589111
000310 ec 3f 2c be bc 0a ca 3d 68 27 30 be 40 60 ce bb
       -0.1682126 0.09865329 -0.17202532 -0.006298095
000320 c0 f7 46 3c 80 8d 3e 3e d6 73 5f be 70 ef 4a be
       0.012144029 0.18608665 -0.21821532 -0.198179
000330 dd 62 aa be be da 61 3e db 59 8c bd ea 03 40 3e
       -0.33278552 0.220561 -0.06853076 0.18751493
000340 b8 85 25 3d e2 2e 93 bd a9 aa 3b bd a5 da a2 bd
       0.040410727 -0.071866766 -0.04581705 -0.079518594
000350 08 ce cc 3d da 74 14 bc 95 05 a9 3d b8 e8 dd bd
       0.10000235 -0.009061063 0.08253018 -0.10835403
000360 f2 38 67 be 5c ef 1a be 94 b2 6e 3e 5a e5 6f be
       -0.22580317 -0.15130371 0.2331031 -0.23427334
000370 20 cf a9 bc 0c 36 92 3e d4 90 d5 3d 20 e9 05 3c
       -0.020728648 0.2855686 0.104280144 0.008173257
000380 1e 16 80 be 74 6f 12 3e 75 8d 52 be 8c d2 a7 bd
       -0.25016874 0.14300328 -0.20561774 -0.081944555
000390 ec 28 92 be 76 11 8c bc 90 4e 2c 3d 15 de 37 3e
       -0.28546846 -0.01709817 0.04206711 0.17955811
0003a0 98 33 02 bd b5 82 0b 3e 79 e2 cb 3d 34 d4 62 be
       -0.031787485 0.1362408 0.099553056 -0.22151262
0003b0 b8 71 66 3e 79 04 bd bd 42 b1 91 3d 94 66 3b bd
       0.22504318 -0.09229369 0.07113887 -0.045752123
0003c0 73 ef 83 3d 65 fe 70 3e 86 9b 01 be 0e cc 01 bd
       0.06442156 0.23534544 -0.12656984 -0.031688742
0003d0 64 ed ee 3d a2 5f 9f be 4b 02 36 3e 73 0b 8a be
       0.116663724 -0.3112765 0.17774312 -0.2696186
0003e0 f8 20 db bc 0a 15 a4 bd f6 1a 3a be 7b 72 02 3c
       -0.02674912 -0.080118254 -0.18174347 0.007961865
0003f0 a0 70 74 3e 3e d2 ac bd 7a 7f 2f be b4 a6 da bd
       0.23871088 -0.08438538 -0.17138472 -0.10676327

encoder.MLP.L0.bias f4 [128]
000000 8d 15 d3 bd 4d 76 3c 3d a6 c1 02 3e db ec 8f bd
       -0.10306845 0.046011258 0.12769184 -0.070275985
000010 bc 08 33 3e af 44 26 be 9a 32 b4 bc 3f 93 ad 3e
       0.174838 -0.16237138 -0.021996785 0.33901402
000020 6e 43 d5 bd a4 ae 6a 3e 40 ee 9b 3b a6 a6 91 be
       -0.10413252 0.22918183 0.004758626 -0.28447455
000030 3f 2c 22 be 68 0e dc 3d 98 89 71 be eb 2b da bc
       -0.15837191 0.10744935 -0.23587644 -0.02663227
000040 7e 79 91 3e da 23 27 bc e0 52 dd bc ec 01 4e bd
       0.28413004 -0.010201419 -0.027017057 -0.0502948
000050 0a 3c 4b be b2 61 78 be 9b 3a 8c be 2d f2 96 be
       -0.19847122 -0.24256018 -0.27388462 -0.2948164
000060 17 84 0f 3c de 8f e6 3c d2 11 2d be 67 16 b8 be
       0.00875952 0.028144773 -0.16901329 -0.35954592
000070 3d dd 59 3d ba ec 5b be aa ae 1a be a5 0c 9a be
       0.053189505 -0.21477023 -0.15105692 -0.30087772
000080 cd 95 6b be 08 87 2e 3d 56 03 9e be 37 6a 82 be
       -0.23006363 0.042609245 -0.3086192 -0.2547166
000090 8e 32 15 3e bf 7b 3e be be 08 f6 bd 2a 2c 36 be
       0.14570066 -0.18601893 -0.12013386 -0.17790285
0000a0 17 14 2f 3e 18 d9 82 be 77 b1 a2 bc 89 c7 83 3d
       0.17097507 -0.25556254 -0.019860012 0.06434543
0000b0 66 d7 f3 bd 68 cd 55 3d 5e 0b af bd a3 71 e7 3d
       -0.11906318 0.052197844 -0.0854709 0.11300971
0000c0 e9 67 20 3c 32 b1 33 bd b2 dc 82 be 5d 39 61 3d
       0.009790399 -0.04387016 -0.25559002 0.054986347
0000d0 a9 a9 0c 3e b1 dc 4e 3d c9 d4 9e 3d 24 fd 7a 3d
       0.13736595 0.050503436 0.07755429 0.06127657
0000e0 ba 28 3d be 3b b5 52 bc 86 eb cc 3e 4a d1 b5 3c
       -0.18472567 -0.0128605915 0.4002344 0.022194523
0000f0 e1 07 83 be 28 09 83 bd 62 a7 f1 3d a4 58 0a be
       -0.2559195 -0.06398231 0.11799504 -0.13510376
000100 09 de 2f be f8 82 73 3e ac 60 1c 3e e6 9b 69 bd
       -0.17174543 0.2378043 0.15271252 -0.057033442
000110 5a 6b be bd b7 45 89 bd 52 c3 70 3d ce 29 24 bd
       -0.092978194 -0.0670275 0.058780022 -0.04007893
000120 70 9e 51 be 75 10 2b 3d 08 ef 45 3d e7 24 04 be
       -0.20470595 0.04176374 0.04832366 -0.12904702
000130 09 56 06 be 6c d5 fd 3c 5e 21 8d be 6e 47 5e 3d
       -0.13118757 0.030985557 -0.2756452 0.05426734
000140 b2 38 6b 3e 87 95 0e 3d 7e ea 73 be 00 8b 89 ba
       0.22970846 0.03481057 -0.2381992 -0.0010493696
000150 e9 9e e6 bd 47 e3 8f be 94 ec 58 be f9 af 88 3e
       -0.112607785 -0.28103086 -0.21183997 0.26696756
000160 92 3b 71 3e b1 54 c4 3d 3b eb 7b 3e 0a 8a 39 3e
       0.2355788 0.09586466 0.24601452 0.18119064
000170 ba 5c 26 3e d4 c8 43 3e b6 cd 1e be 90 4f 16 bd
       0.1624631 0.19119579 -0.1550816 -0.03669697
000180 66 c7 52 3e 66 7a fd bc 58 58 40 be 95 18 9e be
       0.20583877 -0.030942153 -0.187837 -0.3087813
000190 dc 52 25 3e 56 a5 b7 3e 2c da 11 3e b0 c6 44 3d
       0.1614489 0.3586833 0.14243382 0.048041046
0001a0 89 b0 23 3e e8 09 ab be 09 d0 8d be 09 5d 6d be
       0.15985312 -0.33405995 -0.2769778 -0.23180021
0001b0 9a d2 36 3e f0 10 f2 bc 6a 1d 08 be ab 93 56 3e
       0.17853776 -0.029549092 -0.1329247 0.20954768
0001c0 92 3f 5e be 30 7a a8 be 55 7e 10 3e 96 39 d0 3c
       -0.21703938 -0.32905722 0.14110692 0.025418084
0001d0 c8 79 7b be 39 96 95 be 80 ad d4 3d 4a 12 4d 3e
       -0.24558175 -0.29216173 0.10384655 0.20026508
0001e0 80 83 c0 3c 99 1c 40 be c5 31 b0 bc 20 15 05 be
       0.023500204 -0.18760909 -0.021508107 -0.1299634
0001f0 1e 40 9e be dc 26 87 be c4 66 81 3d f4 3c 74 3e
       -0.30908293 -0.26396835 0.06318429 0.23851377

encoder.MLP.L1.weight f4 [64, 128]
000000 5c 38 6f bd ce 0e 2f 3d 15 37 60 bd 6c ba 53 3d
       -0.058403358 0.04273873 -0.05474003 0.051691458
000010 e8 c5 9b 3c 44 08 d5 bc 9b 36 6e bb 55 58 22 bc
       0.019015267 -0.026004918 -0.0036348465 -0.009908755
000020 ca 46 a8 bd 80 0b 4a ba 30 15 c1 3c c1 19 70 bd
       -0.08216627 -0.0007707402 0.023569673 -0.05861831
000030 71 96 ad 3d 85 9d 0b bd 56 eb f3 bd 4c e8 ac bd
       0.0847596 -0.03408577 -0.11910121 -0.084427446
000040 55 00 a8 bd 91 f4 f2 3c c4 85 22 bd 2b 49 d7 bd
       -0.08203188 0.029657634 -0.03967835 -0.105120026
000050 ca 1e 22 bd d9 f1 73 bd fc 59 b6 bd 57 45 8f 3b
       -0.039580144 -0.059556816 -0.08903882 0.0043722796
000060 3b 65 c5 bd bf a2 85 3b b5 91 b8 3c 4a 15 13 bd
       -0.09638449 0.0040782387 0.022530416 -0.035908975
000070 a6 b7 4b bb 1f 28 c0 bd ec 79 d9 3c 28 70 3a 3d
       -0.0031084805 -0.093826525 0.026547395 0.045517117
000080 3a 49 b8 bc ce 8f 1b 3d 40 c8 b3 bd be 36 56 bd
       -0.022495855 0.03797894 -0.08778429 -0.0522983
000090 80 de 8f 3c 8d d4 e8 bd f6 2d 30 3d c2 7e 9c bd
       0.017562151 -0.11368666 0.04301258 -0.07641365
0000a0 6d 60 97 bd 2b 94 e2 bd 61 39 be bb a0 71 da bd
       -0.07391439 -0.11063417 -0.00580518 -0.106662035
0000b0 0e a9 78 bd 36 d4 20 3d d7 c0 aa 3c 38 d3 be bc
       -0.060708098 0.03926488 0.020843906 -0.023294076
0000c0 01 80 97 bd 84 3b 8c bd c2 34 4b 3d 9c 1f d5 bc
       -0.07397462 -0.06847289 0.04961086 -0.02601605
0000d0 2c 4a 25 3d 60 93 12 bc 4b da 0b 3d bc f0 e2 bd
       0.04035394 -0.00894627 0.034143727 -0.11081073
0000e0 fe 71 f3 3c 8a ce 90 bd c4 b3 8f bd 00 af 0a 3a
       0.029717442 -0.07070644 -0.070167094 0.0005290359
0000f0 9c c9 87 bc 08 3a 8f 3c 2a 9f 47 3d 10 50 58 bd
       -0.016575627 0.017483726 0.048735775 -0.05281073
000100 08 bb df 3c 6b 7c 91 bd f8 61 63 3c 33 20 95 3d
       0.027310863 -0.07103809 0.013878338 0.07281532
000110 ea dd 81 3c 9d 7c 2c 3d 14 b7 d1 3b 40 a0 ef bb
       0.015852887 0.042111028 0.0063999984 -0.0073128045
000120 60 4d e3 bb bd 22 89 bd de f1 fe 3c 49 a0 02 3b
       -0.006936714 -0.06696079 0.03112119 0.0019931963
000130 3d e3 cd bd b7 3f 02 3d 40 ea ab ba 77 15 0b bd
       -0.10053108 0.031799044 -0.0013116077 -0.033956017
000140 54 2b c6 bc 28 17 8a bd 65 85 02 bd 56 be 30 bd
       -0.024190582 -0.06742698 -0.031865496 -0.04315027
000150 04 e0 fc bd 03 f3 a7 bd e4 16 90 bc bc 80 f7 3c
       -0.12347415 -0.08200648 -0.01758904 0.030212753
000160 c0 cf bf 3c ce 72 b9 bd 9d 57 41 bd 08 fb d0 bc
       0.023414493 -0.090551004 -0.047202695 -0.025510326
000170 e5 ad 41 bd 80 a7 7e bc 00 f0 97 bd 9a 5c 4a 3d
       -0.04728498 -0.015542865 -0.07418823 0.049404718
000180 7b 8c 33 bd 63 e1 0a bd ba 4d 4c bd 99 81 91 bd
       -0.043835144 -0.03390635 -0.049878813 -0.07104797
000190 b3 80 8e 3d 0e c8 9e bd 0a 78 41 bd df e1 ac 3d
       0.06958141 -0.07753001 -0.04723362 0.08441519
0001a0 29 11 43 bc 5d d7 af bd ac 81 c5 bd a6 b5 98 bd
       -0.011905947 -0.08585999 -0.096438736 -0.07456522
0001b0 d9 c3 8e bd 3d 3d 57 3a fc fa a0 bc 3e a7 fd 3c
       -0.06970949 0.00082107243 -0.019650929 0.030963536
0001c0 89 63 b1 bd 0d 7b 8f bd a8 cf 03 3d 29 07 e4 3c
       -0.08661563 -0.07005892 0.03218046 0.027835445
0001d0 f8 88 36 3d a3 5b c1 bc 78 15 c5 bc fa 55 95 bd
       0.044564217 -0.023603266 -0.024058089 -0.07291789
0001e0 02 8f 4c 3d fa da 51 bd b4 d9 86 bd a4 5c ec bd
       0.04994107 -0.051234223 -0.06584492 -0.11541107
0001f0 ca 05 02 be 5f ab 52 3c 50 c4 c4 3b a2 55 f6 3c
       -0.12697521 0.012858241 0.0060048476 0.03007013
000200 12 75 f1 3c 16 4a 03 3c c4 e2 10 3d 68 d9 aa 3b
       0.029474769 0.008013269 0.03537251 0.005213905
000210 e2 6d 1e 3b 0a 9d 16 3b c6 0e 42 bc 2a 1f 29 bd
       0.0024174382 0.0022981786 -0.011844343 -0.041289486
000220 61 d4 30 3d 00 9c cd 39 cf 5e 83 bd c6 52 99 bc
       0.04317129 0.00039216876 -0.06414568 -0.018716227
000230 55 13 85 bd 62 a9 2f 3d 94 08 bb bd 1b f8 8c bd
       -0.06497828 0.042886145 -0.091324955 -0.0688326
000240 af b2 2b bd 6d 89 f6 3c 52 f4 7e bd 3e 47 8d b8
       -0.041918453 0.030094827 -0.06224472 -6.736674e-05
000250 ac 45 98 3d fe fc 7f 3d 3d 9a 94 bc 19 8e 13 3c
       0.07435164 0.06249713 -0.018139953 0.009006047
000260 1b 90 cc 3d 09 6a 96 bc ec ec 0c bc 76 f7 dc bd
       0.099884234 -0.018361108 -0.008601408 -0.10789387
000270 fd e6 82 bd e6 99 09 bd d6 4f 07 bd 08 17 90 bd
       -0.06391714 -0.033594035 -0.03303512 -0.07035643
000280 dd f5 cf bd 29 3c 81 bd 6e 9a 0a 3d e4 7b 10 3d
       -0.101543166 -0.06310303 0.033838682 0.0352744
000290 3b 77 a3 bd 60 76 51 3b b7 c3 ab bd c8 59 03 be
       -0.07981726 0.0031961426 -0.08386939 -0.12827218
0002a0 c3 02 c0 bd 89 f4 4f bd 46 fb 6e bc 14 f9 b0 bd
       -0.09375527 -0.050770316 -0.014586275 -0.08641258
0002b0 09 b1 d6 3c 4f b2 a3 3d 29 a3 1c bd 49 96 fc 3c
       0.026207464 0.07992994 -0.03824154 0.03083338
0002c0 53 6c 9f bd 2a 57 97 bd 88 e0 3a bc 86 a7 f8 bc
       -0.07784333 -0.07389672 -0.0114060715 -0.030353319
0002d0 70 f4 cc bd f3 f0 e5 bd 35 a8 8d bb c9 fa 52 bc
       -0.1000756 -0.11227598 -0.0043230304 -0.012877175
0002e0 4e c8 42 3d 11 fa 9e bd 1a fd 1e bc 05 e2 9c bd
       0.047554307 -0.0776254 -0.009703899 -0.07660297
0002f0 5e b8 32 3d 00 71 a0 bb 97 33 d9 3c f3 9d 2e 3c
       0.043632858 -0.004896283 0.026513858 0.010657775
000300 fd 46 25 3d ce 0c 3a 3d c0 a0 59 3b 5b ff 9b 3d
       0.040350903 0.045422368 0.0033207387 0.076170646
000310 cd a4 c4 bd 4d da 48 3d 07 2a 40 3d 23 5c 41 3d
       -0.09601746 0.049036313 0.04691508 0.04720701
000320 99 e3 38 bc c4 b6 af bd e3 c7 13 bd fa 10 8b bc
       -0.011284732 -0.08579782 -0.0360793 -0.016975868
000330 72 93 ef 3b c3 bf 0c bc 8a e5 42 3d 4e 11 72 bd
       0.007311278 -0.008590641 0.047582187 -0.059098534
000340 42 c3 8e bd 0b df d0 bb 80 eb 64 bc ea 2f 53 bd
       -0.06970836 -0.006374245 -0.013972163 -0.051559366
000350 01 90 fb bc 4e ed d8 bd e1 0d 5c bd 74 30 9e bd
       -0.030708315 -0.10592137 -0.053724173 -0.077240855
000360 89 84 19 3d 21 34 a5 bd 0a da c4 bd 4d e8 03 be
       0.03747991 -0.080665834 -0.096119 -0.12881584
000370 c0 9d b6 3c 1e 54 8b bd aa 4b 69 bc e0 79 7b bd
       0.022292018 -0.068031535 -0.014239231 -0.061395526
000380 41 ea 67 bd 48 8e b7 bd b8 52 59 3c 7c 8b 1f 3d
       -0.056619886 -0.08962685 0.013264351 0.038951382
000390 23 90 a9 3d df 56 3e bd ad 11 01 be 94 37 ef bc
       0.08279445 -0.046469565 -0.12604399 -0.029201306
0003a0 85 77 96 bd c3 68 6f bd d1 83 d2 bb 09 ca dd 3a
       -0.07347015 -0.058449518 -0.006424405 0.0016921173
0003b0 c6 93 1c ba 06 32 93 bc 39 90 12 bd f5 2a 2b bd
       -0.00059729477 -0.017968189 -0.035782073 -0.041789014
0003c0 10 c9 e4 bc bf aa ae bd 9e ce 4d bd 24 b6 4f bd
       -0.027927905 -0.08528661 -0.050245874 -0.050710812
0003d0 99 7a f7 bd 53 e5 a9 3c 6a 68 16 bd de d2 ca bd
       -0.120839305 0.020739233 -0.03672067 -0.09903501
0003e0 bd 37 8f 3d b9 cd 42 bd 08 a5 12 bc 9b a9 44 3d
       0.06993053 -0.047559474 -0.008950479 0.04801331
0003f0 ee 9f 14 bd 31 c0 60 bc 2e d9 0f 3d 4b cc d5 3c
       -0.036285333 -0.013717697 0.035119228 0.026098391

encoder.MLP.L1.bias f4 [64]
000000 7c 6f 7c bd 51 a1 9d bd 2f bf ba bd e2 24 15 3b
       -0.061629757 -0.07696784 -0.091184966 0.002275758
000010 96 c1 6d bd 64 66 b3 bd 29 5b 39 bd b2 0d 8e bd
       -0.058045946 -0.08759764 -0.045252953 -0.06936206
000020 4d 2e 9a bd 81 b0 08 bd 74 0f ce bc 59 9b b6 3c
       -0.075283624 -0.033371452 -0.025153853 0.022290872
000030 f2 bc 9a bd 19 76 93 bd 99 ef 12 3d 18 d0 d5 bc
       -0.0755557 -0.0720026 0.03587303 -0.026100203
000040 98 01 6e bc 6a ef 0f 3d 43 5b 40 3d 71 55 1e bc
       -0.014526747 0.035140432 0.046962034 -0.0096639255
000050 bf 9e 8e bd 62 56 5e 3d d5 df a3 bd 99 07 04 be
       -0.06963872 0.0542816 -0.08001677 -0.12893523
000060 16 38 f5 bc 2e 21 d4 bc 14 8b da bd e2 a6 26 3b
       -0.02993397 -0.025894728 -0.10671058 0.002542906
000070 66 df b1 bc 7a 13 ec bd a0 03 80 3d 73 e4 5a 3d
       -0.02171297 -0.11527152 0.062506914 0.053440522
000080 8c 55 1e bd dc 0f df 3c de 7f 2f 3c 81 02 76 bc
       -0.038655803 0.027229242 0.010711638 -0.015015245
000090 65 57 9b bd 1d ab 51 bd 75 e8 39 bd a3 06 4c bd
       -0.075850286 -0.051188577 -0.045387704 -0.049811017
0000a0 df 34 e3 bd f7 79 a9 bd 26 66 b0 bd 4d 80 40 bd
       -0.11094069 -0.08275216 -0.08613233 -0.046997357
0000b0 6e 8c e4 38 9b 3c c7 bd c4 ee 9b bd 3b 28 84 bd
       0.00010898044 -0.097283565 -0.076139 -0.06452986
0000c0 e1 0a 80 bd 87 76 01 3e 2d 2d f5 3c 41 83 e4 3c
       -0.06252075 0.12642871 0.029928768 0.027894618
0000d0 d2 d5 a7 3d b5 d0 50 bd 1a e5 81 bd aa 2e 17 bd
       0.0819508 -0.05098029 -0.06342526 -0.036909737
0000e0 50 4a 87 bc 8a be 58 bd 29 9e 25 3d ba 94 3c bb
       -0.016514927 -0.052916087 0.040434036 -0.0028775171
0000f0 94 4b 83 bd 45 b3 bb bc 3c 4f 7c bd 32 4e 09 3b
       -0.064109 -0.02291263 -0.061599 0.002095115

encoder.MLP.L2.weight f4 [32, 64]
000000 89 05 8f bd 6d f3 1a 3e 97 bf 58 bc 91 c2 9c 3d
       -0.069834776 0.15131922 -0.013229272 0.07654298
000010 00 5b 7d bd f0 21 2e 3d 21 0d 00 be 55 cd 13 bd
       -0.061854362 0.042512834 -0.12505008 -0.03608449
000020 40 ff e4 bd 9d a4 97 3d 90 70 8c 3c 71 86 8c 3d
       -0.111814976 0.07404444 0.017143518 0.0686158
000030 83 76 6c bd 4a fa 67 3d 88 62 51 bd 7c 67 0e 3d
       -0.05773021 0.05663518 -0.051119357 0.03476666
000040 fc 03 ef 3d e0 af a6 bd 9e c4 92 3c 69 b4 08 be
       0.11670682 -0.08139014 0.01791602 -0.13350071
000050 60 db 1c 3d 28 a6 34 3b 08 fd 50 3d d2 0f bf bd
       0.03829515 0.0027564857 0.05102256 -0.09329189
000060 80 c7 dc 3c ea 9a 90 3d 78 3f f0 bd ef 63 34 be
       0.026950598 0.070607975 -0.11730856 -0.17616247
000070 23 9d 71 3d 47 c2 1a be 7e a6 cb bb 99 5c dc bd
       0.058987748 -0.15113173 -0.006214916 -0.10759849
000080 1f e6 a7 bd 08 4d 88 3d 04 c0 c6 bc da ef a8 bd
       -0.08198189 0.066553175 -0.024261482 -0.08248873
000090 cb d7 6b 3d ac 0d 42 3d d8 c4 00 3e 17 ff 1a 3e
       0.057578843 0.04737632 0.1257509 0.15136372
0000a0 68 4f 8d 3d 68 f2 13 bd 2b a2 0c 3c c6 41 c1 3d
       0.06899911 -0.03611985 0.008583586 0.094363734
0000b0 14 76 b2 bd e8 2c 61 3d d9 4a 13 3b 44 b3 44 3d
       -0.08713928 0.054974467 0.0022475033 0.048022524
0000c0 03 ae 46 3d 4f aa 83 bd b1 19 ef 3c c5 1f b8 3c
       0.048505794 -0.06428968 0.029187055 0.022476086
0000d0 9d 20 8f bc 5d 6e 96 bd bd e6 74 3d fd 98 1c 3b
       -0.017471606 -0.07345269 0.05979036 0.00238949
0000e0 b5 cd ef 3c bc a9 da bd dc 95 c4 3d c2 4d ec bd
       0.029272893 -0.106769055 0.09598896 -0.115382686
0000f0 a6 73 9e 3d ff b9 ad 3d a8 d3 57 bd 36 db f7 bd
       0.07736902 0.084827416 -0.052692086 -0.12102358
000100 b9 86 b3 bd f0 f4 1c bd 1e 1d fb bd 6f 56 90 bd
       -0.08765931 -0.038319528 -0.12261413 -0.07047736
000110 f8 a4 e7 bc 17 6e 8d bd 3e 09 84 3c a7 91 ac 3d
       -0.028276905 -0.069057636 0.016117688 0.084262185
000120 20 48 65 bd 7b 65 0d 3d 12 e5 4c 3d 34 cf 7b 3d
       -0.055976987 0.034520607 0.050023146 0.0614769
000130 f1 a8 19 be f3 52 bc bd 28 23 cd bc 66 60 b8 3d
       -0.15005852 -0.09195509 -0.025041178 0.090027615
000140 d6 9d ca 3d fb c6 82 bd c2 4c db bd 71 d8 d0 bd
       0.09893386 -0.06385609 -0.10708 -0.10197533
000150 00 e2 7b 3c 8e 65 e4 ba cc 82 81 bd 30 44 10 3d
       0.015373707 -0.0017425285 -0.06323776 0.03522128
000160 0f a0 a4 3c 72 87 be 3d 4c 2d 43 bd 97 7f 32 be
       0.020095853 0.09303178 -0.04765062 -0.17431484
000170 6d 37 31 bc d1 19 8f bc ae d6 2a 3d a1 b5 a5 3d
       -0.010816437 -0.017468365 0.04170864 0.080912836
000180 19 98 a4 bd 93 8f b0 3d ec 05 eb 3c b5 73 9c 3d
       -0.08036823 0.086211346 0.028689347 0.07639257
000190 6d 11 0b 3c c9 37 4c bd 3e eb 52 bc c2 11 e0 bc
       0.008488041 -0.04985789 -0.012873469 -0.027352218
0001a0 0f 91 fa bd 1c 6f 2a bd 1d 66 84 3d 91 4a b5 bb
       -0.12234699 -0.04160987 0.06464789 -0.0055325706
0001b0 76 6d 98 3b 1d e1 92 bc 90 2f c0 bd 76 33 b2 bd
       0.0046517206 -0.017929608 -0.09384072 -0.08701222
0001c0 f8 6a 5d bd 5c 47 87 bd 05 68 c9 bd a7 4d df bd
       -0.05405709 -0.066054076 -0.09834293 -0.10903483
0001d0 51 da 94 bd 4e 39 07 bd f9 36 91 bd a7 22 78 bd
       -0.07268203 -0.033013634 -0.07090563 -0.060579922
0001e0 06 1c 8c bd a8 4f a3 bc 56 ed 04 be 1a a9 d0 3d
       -0.068412825 -0.019935444 -0.12981161 0.101885036
0001f0 e8 ba 88 bd fc af 0f 3d e3 44 41 be 60 4f bb bb
       -0.066762745 0.03507994 -0.18873934 -0.0057162493
000200 70 0c 3d bc ec b8 d9 bd c0 b3 d4 3b fa 14 bf bd
       -0.01153861 -0.10630974 0.0064911544 -0.09330173
000210 88 1b 35 3d f4 32 a0 3d 18 56 9e bc 08 b4 a9 3c
       0.04421571 0.078222185 -0.019328162 0.020715728
000220 aa 21 80 bd 40 56 39 3d b2 b0 f1 bd 22 ff fe 3d
       -0.06256421 0.04524827 -0.1180128 0.124510065
000230 80 b9 e6 bb 70 5f d4 3c 68 e3 d8 3d 0c 0b d4 bd
       -0.0070411563 0.025924414 0.10590249 -0.103536695
000240 20 59 85 bd 38 b0 b7 3c dc 6e ff bd a8 ec e8 3c
       -0.0651114 0.022422895 -0.124723166 0.028433159
000250 a0 16 2e bc c4 21 f0 bd e0 d5 fe bc 42 59 bb bd
       -0.010625511 -0.1172519 -0.031107843 -0.09147884
000260 30 d8 45 3c 62 a5 bc 3d e0 ad f3 3d ee 5e ef bd
       0.012075469 0.09211232 0.118983984 -0.11688028
000270 24 92 36 3d bc 0a c5 bd 73 c5 0d bd ee e9 8c 3d
       0.044572964 -0.09621188 -0.03461213 0.06880556
000280 44 e1 f3 bd 68 c7 b8 bd a0 8c e5 bd f0 04 40 bc
       -0.119082004 -0.09022409 -0.11208463 -0.011719927
000290 20 a2 3b 3d da a8 2d be 90 40 05 bc 48 3c 32 bd
       0.04580891 -0.16958943 -0.008133069 -0.04351452
0002a0 30 40 e8 3d b8 b6 ea bd 12 17 8e bd 80 7b 99 ba
       0.11340368 -0.11460632 -0.06937994 -0.001170978
0002b0 f4 7f c7 bd 10 0e c5 3d 10 32 eb bd bc 2e 25 bd
       -0.09741202 0.09621823 -0.11484158 -0.040327772
0002c0 dc 1a 56 bd b4 42 a4 bd 18 42 73 bd 02 c9 b7 3d
       -0.05227171 -0.08020535 -0.059389204 0.08973886
0002d0 aa fa 3e be 00 08 87 bd 18 57 6a bd ae ad f4 bd
       -0.18650308 -0.06593323 -0.057211965 -0.11947189
0002e0 64 ea fd bd d8 a8 34 3d b6 1b f1 3d 30 8f 9c bc
       -0.12398222 0.044106334 0.117728636 -0.019111246
0002f0 78 a5 46 bd 14 d3 5f 3d fc d8 96 3d f2 bf e5 bd
       -0.048497647 0.05464466 0.07365605 -0.11218251
000300 21 b9 b7 bd 95 e2 9a 3d 0a cc d1 3c f7 93 15 be
       -0.089708574 0.07562748 0.025609989 -0.14607225
000310 40 27 19 3b 02 dc c1 bd 19 98 9c be 6f a5 bc bd
       0.0023369342 -0.09465791 -0.3058479 -0.092112415
000320 d0 79 2b 3c a5 1a d1 bd 06 f6 af 3d d5 e8 12 be
       0.010466054 -0.1021016 0.08591847 -0.14346631
000330 69 6a 1d bd bb 04 aa 3d 30 ed e5 bc 78 75 30 bd
       -0.03843156 0.083016835 -0.028067201 -0.043080777
000340 7c 5a 62 bd 5f 85 f6 bd 19 23 25 3c 43 4c 06 be
       -0.055262074 -0.12037157 0.010079169 -0.13115029
000350 bc d2 a2 bd 8c e2 a0 3d 84 7e be 3d 7e db 85 bd
       -0.07950351 0.078557104 0.09301475 -0.065360054
000360 47 f1 98 bd 54 91 09 bd f2 e3 c2 3d 8d f6 5d be
       -0.07467895 -0.03358586 0.09516133 -0.21676083
000370 10 c0 11 be 1c 9d 7a 3d ee 02 96 bd ec 61 88 bd
       -0.14233422 0.061184987 -0.073247775 -0.06659302
000380 81 3f 0b 3d f8 91 ae 3c c5 a6 eb bd 40 42 92 3d
       0.03399611 0.021309838 -0.11506418 0.071415424
000390 e5 54 2e 3d 58 d7 86 bd 83 7d 0d be a5 1a b5 ba
       0.04256143 -0.06584042 -0.1381741 -0.0013817145
0003a0 25 05 36 3d 48 4c fe bd cb 2d 15 be 10 4a 77 bc
       0.0444385 -0.12416893 -0.1456825 -0.0150933415
0003b0 a0 69 09 be c0 5d bd bd c4 73 01 3d 68 47 bb 3c
       -0.13419199 -0.09246397 0.031604543 0.022861198
0003c0 2c e3 36 3d 7c db c4 bd 2d d1 bc 3d b3 cb b1 3c
       0.04465024 -0.09612176 0.092195846 0.021703577
0003d0 38 41 ad bc a6 4d 84 3d e9 2b a3 bd 2f ea 9d 3d
       -0.021149263 0.06460123 -0.079673596 0.077106826
0003e0 6f 6e 94 bc da 57 ea 3d 7a 9f 98 bd f8 e5 ad bd
       -0.018119065 0.114425376 -0.07452293 -0.08491129
0003f0 02 46 ba 3d 77 ea d0 bd 3c eb 38 bd 10 85 f2 3d
       0.09095384 -0.102009706 -0.045146212 0.11841786

encoder.MLP.L2.bias f4 [32]
000000 16 75 e7 bd 5f f2 ed bd fc b4 a6 bd e7 c6 43 be
       -0.11301629 -0.11618494 -0.08139989 -0.19118844
000010 a1 dc 05 be 2a 84 89 bd 3a b1 11 be 97 78 8a 3d
       -0.13072444 -0.067146614 -0.14227763 0.06761282
000020 49 a1 3b bd 06 e6 f2 bd 6a 50 70 be f0 67 9d 3d
       -0.04580811 -0.1186028 -0.23468176 0.0768584
000030 10 01 2d 3e d6 b3 f7 bc 31 83 56 be de a5 bd 3c
       0.16894937 -0.03023712 -0.20948483 0.02315038
000040 5c d1 d5 3b 84 ae f5 bd 6f a0 94 3b cf a4 a0 3d
       0.0065252017 -0.11996177 0.0045357267 0.07843935
000050 f8 fa e0 3c 29 c9 0e be 6f 0d 86 3c 68 66 8e bd
       0.027463421 -0.13943924 0.016363828 -0.06953126
000060 7b d2 ca 3c 8c 46 f9 bd ed 76 e6 bd ab 0f d8 3c
       0.024758568 -0.12171659 -0.11253152 0.026374659
000070 34 2e 3d 3c 55 e8 7d bd 46 35 3d 3d 4f 1e 0f be
       0.01154666 -0.061989147 0.046193384 -0.13976406

encoder.linear_means.weight f4 [10, 32]
000000 b7 f6 19 3e 84 eb eb bd ee 79 a8 3c 40 d4 97 3d
       0.1503552 -0.115195304 0.020565953 0.0741353
000010 c9 db 19 3e 69 dd 01 3e f6 c5 1a 3e 35 d6 4e 3e
       0.15025248 0.12682118 0.15114579 0.20198901
000020 00 e2 fb bd e1 c4 e3 3d 99 bb 03 bd c0 d8 4e 3d
       -0.122989655 0.11121536 -0.03216133 0.050499678
000030 e0 31 d3 bb 46 53 31 be 32 3e 86 3e bd 5b 09 be
       -0.0064451545 -0.17316923 0.26219326 -0.13413902
000040 3a 5d af 3d d5 08 ec 3d f5 a6 c0 3d c7 4b d1 bd
       0.085627034 0.11525122 0.094068445 -0.102195315
000050 90 db 56 3d ce 04 fd 3d 75 dc 0d be 36 40 6a bd
       0.052455485 0.12354432 -0.13853629 -0.057190143
000060 3e e2 f1 bd c7 d8 c4 bd 03 03 aa bd 2f e5 38 bd
       -0.118107304 -0.096116595 -0.08301356 -0.04514044
000070 14 78 48 3e 85 35 e0 3c d3 b6 b6 bc f9 70 11 3d
       0.19577056 0.02736927 -0.022303974 0.03550813
000080 0e 2d 34 3e cc 15 5d 3e be 61 7a bd ed d0 23 3e
       0.17595312 0.21590346 -0.06112837 0.15997668
000090 95 fb ac bd 15 c6 e0 3d 91 31 03 be ac 79 a8 3d
       -0.08446423 0.10975281 -0.12811877 0.08226332
0000a0 d4 c6 00 bd 68 52 16 be d9 63 8f bd 47 02 3a 3d
       -0.031439617 -0.14679873 -0.07001466 0.045412328
0000b0 e8 48 23 3d 0b de 81 bb df 81 73 3e 45 f0 87 bd
       0.03986445 -0.003963237 0.2378001 -0.06637625
0000c0 05 0f d7 bd 47 5a b9 3c 5c ea db bd 49 f2 24 3d
       -0.105009116 0.022626055 -0.1073806 0.040270124
0000d0 f3 b2 8d 3d 22 39 6c bd 4b 98 ca bd 25 44 38 3d
       0.069188975 -0.057671674 -0.09892329 0.044986863
0000e0 1f be 20 bd 9f 11 c0 bd e6 6b 03 be cd e7 39 3e
       -0.039243814 -0.09378361 -0.12834129 0.18154831
0000f0 08 0c a9 3d a6 09 d8 bd e9 16 c0 3d ac 82 3d bd
       0.08254248 -0.10548715 0.0937937 -0.046267197
000100 45 1e ac bc 9e 75 a5 3d 5a cf ea 3b ae 6b 2b bc
       -0.021010527 0.08079074 0.0071658315 -0.010462685
000110 06 77 f5 3d bb 7c 57 3c 69 27 5b 3d f2 bf 07 be
       0.119855925 0.013152297 0.05350438 -0.13256815
000120 5c bf 48 3e 26 0e 14 3e be 8c ce bd 18 9f 3a be
       0.19604248 0.14458522 -0.10085438 -0.18224752
000130 0e 7b 47 3c 10 4f 1c be ef e3 35 3e a9 c2 bf 3d
       0.012175335 -0.15264535 0.17762731 0.093633
000140 96 53 1a be 4e 4d 3c be 48 7d 06 3e 15 b5 58 bd
       -0.15070948 -0.18388864 0.13133729 -0.05290707
000150 73 7b a9 bb 9e 52 73 bd 68 a0 82 3d 7b b6 d0 3d
       -0.005172187 -0.05940496 0.06378251 0.101910554
000160 7f e6 cb 3d e6 89 00 be 8c a4 10 be 9e 5e 0b 3e
       0.09956073 -0.12552604 -0.1412527 0.13610312
000170 98 c8 b7 3d f6 ce fe bd 60 2d 45 be df 33 a7 3d
       0.08973807 -0.124418184 -0.1925559 0.081641905
000180 07 5e a5 bc b9 cf 73 3d 4f 45 27 be 0c 07 ce 3d
       -0.020186437 0.05952427 -0.16335033 0.10059938
000190 5c e8 e7 3d fd 05 6e bd f3 2c a4 bd 07 b7 41 3e
       0.11323616 -0.05811118 -0.08016386 0.18917476
0001a0 d8 69 12 3e 91 85 b8 bd d0 f2 91 3d 4c 2d d4 bd
       0.14298189 -0.09009851 0.07126391 -0.10360202
0001b0 0e 8c b0 bc 17 d7 b0 3c ad 1b a7 bc 89 6f f3 3d
       -0.021551158 0.021586938 -0.020398939 0.11886508
0001c0 5d 94 e5 3d a9 9b b4 3d 30 89 83 3c 2d cc ed bb
       0.11209939 0.08818752 0.016056627 -0.0072570057
0001d0 80 c5 9f bd db 9f 11 3e e7 fa f6 3d a1 6d 3d 3e
       -0.07801342 0.14221136 0.120595746 0.18498851
0001e0 8e 48 8c bd 63 2d 14 3e 38 39 86 bd a5 f4 e0 3c
       -0.06849776 0.14470439 -0.06553882 0.027460406
0001f0 67 ef 99 3c b5 88 0a be f5 d6 b3 3d 3d 2e 07 be
       0.018790914 -0.13528712 0.08781234 -0.13201232
000200 0b cc f6 3d 7f 9b 4d bd d0 00 95 3c 86 1d 96 3d
       0.12050637 -0.05019712 0.018188864 0.0732985
000210 6b dd 98 bd 61 f1 08 3e 52 e2 fc bd ba 3e 8c 3c
       -0.07464107 0.13373329 -0.12347855 0.017119754
000220 ec 4b 1e bd d8 22 8a ba fb 89 e7 3d e4 b2 05 bb
       -0.038646623 -0.0010538949 0.113056146 -0.0020400817
000230 5f 74 2f bc 13 be 8e 3d b2 d9 98 be 66 53 a8 bd
       -0.010708897 0.069698475 -0.29853588 -0.08219032
000240 fb 20 ca bc f2 51 0d 3d 2d 01 11 bb 86 16 a4 bd
       -0.02467393 0.034501977 -0.0022125945 -0.080121085
000250 9b 0c 16 3e 0e 89 d3 38 f7 6c cd 3d 04 8c 9b 3c
       0.14653246 0.000100867925 0.10030549 0.018987663
000260 33 6b 0e be 51 ca 28 3a 88 99 28 be 96 8f 3d 3d
       -0.13908081 0.0006438839 -0.16464818 0.046279512
000270 0d 1b de 3d 06 7f b2 3c d7 5f f7 3d 8c 2f 2b 3d
       0.10845003 0.021789085 0.12078827 0.04179339
000280 37 6e 30 3c 20 f0 8f 3d fd 94 bd 3d 46 3e 4a 3e
       0.010768465 0.07028222 0.09256933 0.19750318
000290 c6 75 37 bd 62 dd 15 3e 48 f0 89 bd 2e 5b 3c be
       -0.044790052 0.14635232 -0.06735283 -0.18394157
0002a0 c5 10 c7 bd 01 55 08 3e d1 ba c4 bd 84 df b7 3d
       -0.097199954 0.13313676 -0.09605945 0.08978179
0002b0 18 45 5e bc 67 cc 90 bd e2 87 bc 3d 70 c2 e4 39
       -0.013566278 -0.07070237 0.09205605 0.00043632416
0002c0 0a 97 cb 3d 1c dc ed bd 09 2d e8 bd b5 eb 0c 3e
       0.09940918 -0.11614248 -0.11336715 0.1376179
0002d0 1c ce 76 bd e7 db eb bc 4b a9 ce bd c7 ec cd 3d
       -0.060255155 -0.028791381 -0.10090884 0.10054927
0002e0 78 53 32 3e d4 4f f3 bd 11 b9 bd 3d f7 8c 06 be
       0.17414653 -0.118804604 0.09263814 -0.13139711
0002f0 3d 19 b3 bd cd 95 a1 3d 37 3c 7d bd d8 7e 52 3d
       -0.08745048 0.078899 -0.061825003 0.0513905
000300 b3 59 9e bd b9 ed 5d be f5 1f 1a bd 3f 47 7e 3b
       -0.077319525 -0.21672715 -0.037628133 0.003879979
000310 7b f5 cd bd 5e f5 50 bd 3f 27 28 3c c1 7c 3c 3e
       -0.10056587 -0.05101525 0.010263263 0.18406965
000320 d7 0e 99 3d 10 cd bb 3c 2f c0 d2 bd 54 99 2d bd
       0.074735336 0.02292493 -0.10290562 -0.042382553
000330 ce fd cf 3b 57 ad 22 3e 0a fb 9e 3d 60 84 cb 3d
       0.0063473945 0.15886436 0.07762726 0.09937358
000340 04 82 19 be 79 3d 99 3d 0e d5 0c be 33 46 48 3e
       -0.14991003 0.07482428 -0.13753149 0.19558029
000350 53 ff ed 3d c0 54 b3 3d f6 b3 aa bd 11 b5 c1 3d
       0.11620965 0.08756399 -0.08335106 0.09458364
000360 4f 77 71 bd e9 d1 da 3d b9 d0 0d 3e 96 37 d7 3d
       -0.058951672 0.106845684 0.13849153 0.10508649
000370 2c 49 fc bc b9 69 42 3d 3a ce 90 bd 52 ae 6c 3c
       -0.03079661 0.047464106 -0.070705846 0.014445858
000380 1a bc 6e bb e5 5b af ba 3f a0 58 bd 8c 40 9f 3d
       -0.0036428035 -0.0013378827 -0.052887198 0.07775983
000390 a0 0a 88 be f4 5c d9 bd 93 57 0a 3e 97 71 05 bd
       -0.26570606 -0.106134325 0.1350997 -0.03257903
0003a0 fc d7 83 3d 5c 75 07 bd 8c a0 1f 3e a4 dc cc bc
       0.0643768 -0.033070907 0.15588588 -0.025007553
0003b0 5c 9a a2 bb bf 80 21 3c 30 82 05 be b9 11 1d bd
       -0.0049622487 0.009857356 -0.13037944 -0.03834698
0003c0 47 51 13 3c 6a 50 07 3e e7 7e 09 3e 35 29 a4 bd
       0.008991546 0.1321427 0.13427316 -0.08015672
0003d0 38 ef ad bc 40 a1 fd bb 2f 60 26 3c c4 2f df 3b
       -0.021232232 -0.0077401698 0.010154768 0.006811114
0003e0 e3 4b 18 3d 82 4f ce bd 52 91 d1 bd c8 e5 c5 bb
       0.037181746 -0.10073759 -0.10232796 -0.006039355
0003f0 05 3d 24 be 33 5e 38 3d 64 1b e1 bd 9f 86 2f bd
       -0.16038902 0.04501171 -0.109915525 -0.042852994

encoder.linear_means.bias f4 [10]
000000 14 20 d4 3b e3 5f b2 3a 24 5b b3 3b 5f fb c7 3b
       0.0064735506 0.0013608899 0.0054735113 0.006102964
000010 aa a6 69 bb 87 d3 7a bb b9 38 ff 39 fb 86 f8 3b
       -0.0035652318 -0.0038273053 0.00048679652 0.0075844503
000020 87 68 a3 3b 3c 2e 9a 3a
       0.004986826 0.0011763046

encoder.linear_log_var.weight f4 [10, 32]
000000 9b 67 95 3c df eb 82 bc 8c a2 70 3b 07 68 67 bd
       0.01823788 -0.015981613 0.003671798 -0.056495693
000010 e2 db 7e 3d 04 c6 24 be 2a 24 08 3e 50 17 ea 3d
       0.062221415 -0.16091162 0.13295045 0.11430228
000020 94 9a 83 bd 67 55 31 bc 8e 52 94 bc b8 a2 04 3d
       -0.06425968 -0.010823584 -0.018105771 0.032381743
000030 af b6 a9 bd 71 5c 60 3b d1 ea 4a 3e f7 8a e9 3c
       -0.08286797 0.0034234787 0.19816138 0.028508646
000040 06 89 8e 3d 2c 82 93 3c fe 8e d8 3d b7 71 15 3d
       0.06959729 0.018006407 0.105741486 0.0364854
000050 83 58 8e bd 25 5e ca 3d f7 b6 df 3d 1f da 2b 3d
       -0.06950476 0.09881238 0.1092357 0.041956063
000060 2f 22 2b be c4 a8 06 3e 42 10 0d be aa 98 de 3c
       -0.16712259 0.13150316 -0.13775733 0.027172405
000070 84 2e 05 3e 95 47 ef bd c5 7d 94 bd d2 d7 0d 3e
       0.13006026 -0.11683575 -0.07250551 0.1385186
000080 51 af 94 3c 9c bb d9 3d 56 56 dd bb 8c e8 52 bd
       0.018150004 0.10631487 -0.006754677 -0.051491305
000090 5b ca 6a 3d 13 f8 08 be 2a e1 02 3c b8 4b 63 3e
       0.057321887 -0.13375883 0.007988254 0.22196853
0000a0 9c 3b 42 3e 3a 1e 2b be 68 24 30 3e 2d 59 18 be
       0.18968052 -0.1671075 0.17201388 -0.14877768
0000b0 87 e8 bc bd 27 ec 3a bc b8 a9 98 3e 71 8b d9 3d
       -0.092240386 -0.011408842 0.29816985 0.106222995
0000c0 db d3 22 be b3 4e a2 bd 8a 81 eb 3d 7f d3 18 3d
       -0.15901129 -0.07925167 0.11499317 0.037311073
0000d0 b9 ff 6b 3b f2 5a 08 be 43 be a7 3d 06 d8 e2 3d
       0.0036010577 -0.13315943 0.081905864 0.110763595
0000e0 de 49 ac 3d cc 61 69 3d b3 78 c3 bd 06 1d 4d be
       0.084125265 0.056978032 -0.09544506 -0.20030603
0000f0 dd 33 0a 3e cd 3f 1c bc 4c e9 c7 bc a7 54 06 3d
       0.13496347 -0.009536696 -0.024403237 0.032795575
000100 d9 3f 13 3d f0 19 10 be 7f ca 30 3e 5d c6 8e bc
       0.03594956 -0.14072394 0.17264746 -0.017428571
000110 85 ec e5 3c 7e 82 24 3c 1a d3 5e 3b ee 94 c6 3d
       0.028066883 0.010040877 0.0034000338 0.09696375
000120 27 b0 e0 3c 80 9e 14 bc d8 8a 22 be e7 45 2a 3e
       0.027427746 -0.0090709925 -0.15873277 0.16628228
000130 1a f6 21 be 2b 2e d0 bd 1b c0 a1 3c 1e 14 ec bc
       -0.15816537 -0.10165056 0.019744923 -0.028818186
000140 f8 d5 14 be 5b 4c aa 3c c7 79 9b bd b7 79 0d 3e
       -0.14534748 0.020788362 -0.075915866 0.13815962
000150 91 79 d8 bd b6 33 65 3e 47 0a 49 3e b0 96 a8 3d
       -0.10570062 0.22383007 0.19632827 0.08231866
000160 76 a7 65 3c 28 69 7e 3d 88 c9 7b be cd 57 b4 bd
       0.014016977 0.062112004 -0.24588597 -0.08805809
000170 90 57 79 3d 55 6d 39 3e c4 3c 03 be 6d a5 2d bd
       0.06087452 0.18108113 -0.12816149 -0.04239409
000180 ed 05 04 3e 9d 75 5f be b6 7d 0a be 10 de 0e be
       0.12892886 -0.2182221 -0.13524517 -0.13951898
000190 71 6e a3 bc 49 e6 ab bd 77 bd db 3d 20 d6 27 3e
       -0.019950124 -0.08393533 0.10729497 0.16390276
0001a0 3b 37 18 3e 76 85 14 3e 9b 64 38 3d 12 c5 27 bd
       0.14864819 0.14504036 0.04501782 -0.040959425
0001b0 85 c7 b7 bd a1 b6 45 bd 11 77 b8 bc 77 73 d3 3b
       -0.08973602 -0.04826987 -0.022517713 0.0064529735
0001c0 e9 30 26 3d 66 ed 2a be e4 a2 56 3c e4 38 10 3e
       0.040573988 -0.16692123 0.01310036 0.14084202
0001d0 69 95 69 3d cf 6f 2c 3d e9 b9 d0 bd ca d4 15 3e
       0.057027254 0.042098816 -0.101917095 0.14631954
0001e0 86 02 8b bd a8 62 4f 3c d3 44 97 bd f0 37 f2 bc
       -0.06787591 0.012657799 -0.07386174 -0.029567689
0001f0 25 ba 23 be ef 35 a6 3c 16 94 6a bd 18 19 ac bd
       -0.15988977 0.02028939 -0.057270132 -0.08403224
000200 58 6f 16 3e 6e 64 20 bd 96 be c9 3d 80 ca ab 3d
       0.14690912 -0.039158277 0.098508045 0.08388233
000210 5a 6a cf 3d 8e 20 f4 bc 38 d4 06 3e bb 29 b8 3b
       0.10127707 -0.02980068 0.13166893 0.005620209
000220 83 83 f0 3d 80 1c 16 bd 01 92 40 bd 36 9b 70 3d
       0.11743834 -0.036648273 -0.04701424 0.05874177
000230 5b 44 e1 bd 1c 5c 2a be 1c 11 ec 3c b1 d4 f1 bd
       -0.10999366 -0.166367 0.028816752 -0.11808146
000240 e3 a9 04 3e e4 23 d1 3d d9 3b 78 bd b7 55 ef 3c
       0.12955432 0.10211924 -0.06060395 0.029215677
000250 21 d3 ad 3d cc 45 ca 3d 90 97 89 3c 98 22 dd 3d
       0.08487535 0.09876594 0.016795903 0.10797614
000260 eb 76 9e bd da 54 28 3d 4f c4 46 be 3e 51 35 be
       -0.077375256 0.041096546 -0.19410823 -0.17706773
000270 83 b6 83 bd e8 53 3d be 2e 55 20 3b 05 05 ae 3d
       -0.06431296 -0.18489039 0.0024464834 0.08497051
000280 88 5a 5a 3d 6b 0e f3 bd d9 83 1c 3e 2b 00 3b 3e
       0.053308994 -0.118679844 0.15284671 0.18261783
000290 98 80 a2 3d e0 8a 22 be bc ae c9 bb bd aa db 3d
       0.079346836 -0.15873289 -0.006154863 0.10725925
0002a0 83 df 49 bd 0c 49 a5 bd 8b 52 1b 3e 73 b0 d7 3d
       -0.049285423 -0.08070573 0.15168206 0.10531702
0002b0 2f 86 c4 bd 8b 77 c1 3b b3 dc b5 bd eb 7b 09 3e
       -0.09595906 0.005904143 -0.08879986 0.13426177
0002c0 2d 00 0c be e6 e0 65 bd 79 88 bb 3d 72 ba 0e be
       -0.13671942 -0.056122683 0.091568895 -0.1393831
0002d0 ba ed 9f bd bf ac 3f bc c1 ab 52 3e 02 f3 ce bd
       -0.078090146 -0.011698901 0.20573331 -0.10104944
0002e0 17 f0 01 be 2e 6d 70 3d 0e d4 8d 3c 49 a0 a3 bd
       -0.12689243 0.058697872 0.01731303 -0.07989556
0002f0 9a b9 b1 bd 1f c2 0c 3d e8 b2 90 bc 6e d0 d2 bd
       -0.08677979 0.034364816 -0.017663434 -0.10293661
000300 96 b6 39 bd de aa f8 bb ad 69 c2 3d 44 d7 b9 3d
       -0.045340143 -0.0075887283 0.09492812 0.09074262
000310 de 55 6c 3e 4d 91 46 bc 3c 72 c3 3d 97 51 19 3d
       0.2307963 -0.012119603 0.09543273 0.037431326
000320 12 0c 82 3d ee 36 2c 3c 78 fb 08 be 5e 9a 49 bd
       0.063499585 0.010511143 -0.13377178 -0.04921948
000330 bf 61 0f be bc d2 45 be e7 6c 26 3e 4a 58 14 3e
       -0.14002131 -0.1931867 0.1625248 0.14486805
000340 26 98 18 be c5 26 37 bd 43 0d b5 3a 34 d3 2b bd
       -0.1490179 -0.044714708 0.0013813156 -0.041949466
000350 29 b9 63 3d 12 7e 31 be ff 9d 12 3e 7e 13 f6 bd
       0.055596504 -0.17333248 0.14318083 -0.120154366
000360 c0 01 47 bd 5d 79 17 3d 68 45 91 be 0a 39 d6 3d
       -0.048585653 0.036980975 -0.28373265 0.10460098
000370 07 e5 88 bd 8e 88 2a 3d a4 dc 10 be 1a 5f f4 bc
       -0.066843085 0.041634135 -0.14146668 -0.029830504
000380 58 bd 4b bc 91 b2 f8 3d 2c c6 c4 bd 8f 33 c8 bc
       -0.01243528 0.12143434 -0.09608111 -0.024438648
000390 1f 21 16 3e 26 8e a1 bd bb 22 1f 3b 81 3a 71 3d
       0.14661072 -0.07888441 0.0024282176 0.058893684
0003a0 66 70 8e 3e b9 d4 8a 3d fd b0 eb bd d3 09 ad bd
       0.27820128 0.06778855 -0.11508367 -0.084491394
0003b0 a7 7e 03 be 96 b3 17 3d d1 59 aa bc 0f eb be bd
       -0.12841283 0.0370365 -0.02079478 -0.093221776
0003c0 39 ab e7 bd 34 16 d8 bd a2 4b 5b 3d 68 2f ef 3d
       -0.11311955 -0.1055111 0.053538926 0.11678964
0003d0 37 93 dc bd c9 6e 9d 3c f3 75 99 3d 57 ac b6 3d
       -0.107702665 0.019217866 0.074932 0.0891959
0003e0 e4 df d8 3d d8 46 d2 3c 12 67 59 be 79 e3 9c bd
       0.10589579 0.025668547 -0.21230724 -0.076605745
0003f0 a6 44 11 be 23 62 26 3d 22 bb e4 3b a5 ec 29 3d
       -0.14186344 0.040620934 0.006980316 0.041485447

encoder.linear_log_var.bias f4 [10]
000000 70 2d 15 b9 9b ff bd ba d7 00 a2 bb 52 53 00 bc
       -0.00014226674 -0.0014495732 -0.004943948 -0.007832365
000010 35 6c 9a bb 81 eb ce 3a 6a 1b 97 bb a0 0f 35 bc
       -0.0047126063 0.0015786738 -0.0046114223 -0.011051089
000020 0c a3 a5 b8 6b 89 20 bb
       -7.898183e-05 -0.002449597

decoder.MLP.L0.weight f4 [32, 16]
000000 d7 a0 b2 3c 16 af ae bc 79 73 0b bd c2 a0 ab bb
       0.02180521 -0.021323722 -0.03404567 -0.0052376697
000010 00 b6 f7 3c f6 4d a7 3c ef 11 fa 3a 74 cb 4c 3d
       0.030238152 0.020422917 0.0019078831 0.049998716
000020 47 d5 a5 3c c7 2a 41 bd e2 5e ee bd 85 94 ba bd
       0.0202433 -0.047159936 -0.11639191 -0.09110359
000030 44 31 d4 3d 05 49 64 be 36 be 30 3e 79 98 14 3e
       0.10360959 -0.2229348 0.1726006 0.14511289
000040 43 3b 61 3e 9b 8f d7 bd 88 99 f6 3d dc 57 e5 3c
       0.21995263 -0.105254374 0.120410025 0.027995996
000050 a9 d6 98 bd b1 31 0b be 53 06 26 3d 6f 8f 21 3e
       -0.07462818 -0.13593175 0.040533375 0.15777372
000060 73 94 84 3d 6c ba 74 3c af f6 ba bf 48 7b ad bf
       0.06473627 0.014937025 -1.4606532 -1.3553247
000070 29 19 40 bf d1 12 2c bf f4 5d 56 bf dd 21 82 bf
       -0.7503839 -0.6721621 -0.8373711 -1.0166584
000080 2b 95 ce bd ac 47 f4 3c 32 1a 25 3d fc ce 80 3d
       -0.10087045 0.029819332 0.040308185 0.06289479
000090 3e 1a 29 be 44 54 27 3e ca e0 91 3d 78 cc 8d 3c
       -0.16513917 0.16340739 0.07122953 0.017309412
0000a0 a7 93 75 be da fc 07 bd cd 42 91 bf 67 51 b7 bf
       -0.23982106 -0.033200122 -1.1348511 -1.4321717
0000b0 53 3b cb bf af 0d 8f bf f1 58 03 be 54 99 d3 3e
       -1.5877479 -1.1176051 -0.12826897 0.41327918
0000c0 a3 2d a1 bd bc 59 b2 bd da 57 a1 bd 1a 97 3d bd
       -0.07870033 -0.08708522 -0.078780845 -0.04628668
0000d0 d3 63 9f 3d d0 04 89 3c d3 7f c7 3c 52 d9 8c 3c
       0.07782712 0.016725928 0.024352944 0.01719347
0000e0 c6 69 28 3e 09 28 94 bd 01 1b 29 bf cf 35 03 bf
       0.164466 -0.072341986 -0.6605683 -0.5125398
0000f0 cb c9 f5 be 6e 1d 43 bf e8 62 41 bf 7b b5 16 bf
       -0.48005518 -0.7621678 -0.75541544 -0.5887067
000100 8e 3e af bc dc d9 12 3c a2 de c7 3d 0d 59 8a 3d
       -0.021392133 0.008963075 0.09759261 0.06755266
000110 39 0c 77 bc b8 f5 b2 bc c2 28 6e bd 87 6c 4e 3c
       -0.015078598 -0.021845683 -0.05814434 0.012599117
000120 61 b6 d9 3c 1f 84 10 3d f4 aa 00 40 7a 58 be 3f
       0.026576223 0.03528225 2.0104342 1.4870751
000130 84 99 77 c1 d1 a8 c6 41 c2 5b a6 c1 5d ae 5f c1
       -15.474979 24.83243 -20.794804 -13.980069
000140 41 5e 71 bb 94 a1 52 bc ec 5f 70 3c 70 c0 b7 3c
       -0.0036829861 -0.012855906 0.014671307 0.022430629
000150 b2 ce aa bb 20 c5 cf bc 52 ed 89 bc 06 c2 fd 3c
       -0.0052126283 -0.025362551 -0.016836796 0.030976307
000160 5c 0b c5 3c bd 98 b6 3c 44 41 15 c0 12 02 8a bf
       0.024053268 0.022289628 -2.3321085 -1.0781882
000170 57 50 35 41 2e f0 01 bf 1b 84 09 c1 71 37 19 c1
       11.332114 -0.5075711 -8.594752 -9.5760355
000180 a0 0c bd 3d 7b bd 7f 3d de 6a 7b bd 61 24 93 ba
       0.09230924 0.062436562 -0.061381213 -0.0011226052
000190 2f 42 f3 bd b5 05 05 3c ec e9 a8 3d 88 27 fd 3c
       -0.11877858 0.008119036 0.08247742 0.030902639
0001a0 57 e6 2c 3d 3c 16 9a bc 4f 2a 3b c0 38 da ca 3f
       0.042211857 -0.01880943 -2.9244573 1.5847845
0001b0 96 70 1b 40 b9 92 cc bf 5a b5 84 c0 30 4f 1c 40
       2.4287467 -1.5982276 -4.1471376 2.4423332
0001c0 fb a6 e6 bd 7e 33 07 3e 50 f9 9c bd 5c 8d eb 3d
       -0.11262318 0.13203236 -0.0766474 0.115015715
0001d0 ff 95 bf bc 81 b4 9b bc bf 4b 06 3c aa 99 a6 3e
       -0.023386953 -0.01900697 0.00819677 0.3253911
0001e0 66 d2 2e be 52 cb 1c be 8f 9a 06 c0 95 b3 27 c0
       -0.17072448 -0.15311936 -2.1031835 -2.6203358
0001f0 ea 60 99 bf a0 14 08 c0 0e 80 e8 bf dc 87 ad c0
       -1.1982701 -2.1262589 -1.8164079 -5.4228344
000200 15 73 8f 3d 86 0c 9f 3c 8e 1d 8e 3e 94 d3 db bd
       0.07004372 0.019415151 0.27756923 -0.10733715
000210 12 ae 91 bd f2 45 0b 3e e2 93 f8 bc 94 5a 0a bd
       -0.071132794 0.13600901 -0.030343954 -0.03377779
000220 96 3f c7 bd e2 a9 c3 bb 55 c4 a0 bf 6b 96 5b bf
       -0.09728925 -0.0059711793 -1.2559916 -0.85776395
000230 3e 82 32 bf 72 94 57 bf 77 c7 39 bf 15 ba 97 bf
       -0.69729984 -0.84210885 -0.72569984 -1.1853663
000240 ad 3c 84 be 88 35 9d 3d b4 f2 7d be d5 d3 09 be
       -0.25827542 0.07676226 -0.24799615 -0.13459714
000250 2b 01 8c be 5e 85 4e 3b 59 5e d1 3d a2 9d 77 be
       -0.2734464 0.0031512599 0.102230735 -0.24181226
000260 b0 bd 91 3d 69 ae 6b 3b e4 26 1d bf 23 89 e9 be
       0.07116258 0.003596211 -0.6138747 -0.4561244
000270 2f 69 23 bf 86 e5 29 bf f6 fc 9a bf 1a da 16 bf
       -0.6383237 -0.6636585 -1.2108448 -0.58926547
000280 2e bc 75 bd 15 5f 29 bd bb 2a 85 bc 2d 63 ef 3b
       -0.059993915 -0.041350443 -0.016255727 0.007305524
000290 72 a8 d5 bc c6 a9 70 3d 8f 75 37 3c 1e 3d c9 bc
       -0.026081298 0.05875566 0.011197462 -0.024565276
0002a0 4f 7b 7c bd 3c 84 15 bd 92 ca e7 c0 78 e5 e0 c0
       -0.061641034 -0.03650306 -7.243478 -7.0280113
0002b0 ef 17 7e c1 22 70 5d c1 14 94 d6 41 c0 b6 31 41
       -15.880843 -13.839876 26.822304 11.107117
0002c0 4b 66 e4 3c f7 df 8e 3d c1 1a 49 3e fa 25 91 be
       0.027880808 0.06976312 0.19639112 -0.28349286
0002d0 77 ca 6c bc 8c 40 2f 3e a0 ce 0f be 15 63 94 bd
       -0.014452568 0.17114466 -0.14043665 -0.07245461
0002e0 81 33 79 3d ff 3c ad 3d 98 80 ac bf 76 19 ad bf
       0.060840134 0.084589 -1.3476744 -1.3523395
0002f0 48 03 61 bf a3 ad f0 be d8 e8 2d bf d7 76 a2 bf
       -0.8789563 -0.47007474 -0.67933416 -1.2692517
000300 ea d1 ef 3b 6d ba 80 3e a2 e1 11 be 4c 88 0e 3e
       0.007318725 0.25142232 -0.14246228 0.1391918
000310 62 80 4a 3e 15 e1 27 bd f6 6f 01 bd 2d 62 0b 3e
       0.19775537 -0.04098614 -0.031600915 0.1361167
000320 33 60 94 bd 52 29 3e bd b7 0d d4 bf de c0 b2 bf
       -0.07244911 -0.046426125 -1.6566685 -1.3965108
000330 29 9b 73 bf 06 f9 22 bf b5 4a f1 be 25 63 84 bf
       -0.9515863 -0.6366123 -0.4712731 -1.0342757
000340 90 6d 55 3d da 2b 30 3c 0c ef e6 39 a2 5a 9e bc
       0.05210644 0.0107526425 0.00044047122 -0.019330326
000350 e3 ed cb 3c 7e ab 8a bc a4 0e 49 3d fe 5a ae 3c
       0.024893707 -0.016927477 0.049086228 0.021283623
000360 88 23 59 3c e9 b2 a5 3b c3 b8 c5 bf 8f 64 84 40
       0.0132531 0.005056728 -1.544701 4.137275
000370 6e 60 b0 c0 30 a5 69 40 53 a2 8c c0 c3 b2 f0 3f
       -5.511771 3.6507072 -4.394815 1.8804554
000380 6a aa 9e be ff 7b 62 be 1f 59 93 3d 5f 59 e6 bd
       -0.3098939 -0.22117613 0.07194733 -0.11247515
000390 cf 02 ed bc 46 6f 10 be b6 29 77 be a9 1a 1c be
       -0.028932003 -0.14104947 -0.24137005 -0.15244545
0003a0 c5 a9 2a bd 11 17 c1 3d 3b f7 e7 bf 2c 62 ca bf
       -0.04166581 0.09428228 -1.8122324 -1.581121
0003b0 01 82 a5 bf 30 ca 5c bf 7f 59 43 bf 0d fd cc bf
       -1.2930299 -0.86246014 -0.76308435 -1.6014725
0003c0 3b f2 85 bd 51 e5 52 bb f3 41 4f bd 94 19 9c bd
       -0.065403424 -0.003218014 -0.050600003 -0.07622066
0003d0 5e c3 bb 3c 31 97 5a 3d 03 b2 21 3e 72 e4 b8 bd
       0.022920307 0.053366844 0.15790562 -0.090279475
0003e0 37 f2 ab 3d 2b 81 bb 3d e9 9b e8 be 99 b9 41 bf
       0.08395808 0.09155496 -0.4543145 -0.75673825
0003f0 ea 80 b7 be 1a 6a 99 be 76 2e 02 bf e8 3e 19 bf
       -0.3584054 -0.29963762 -0.50852144 -0.5986161

decoder.MLP.L0.bias f4 [32]
000000 73 6c c0 be ca c6 4f bf fe 10 79 bf bc 5c 85 bf
       -0.3758274 -0.81162703 -0.97291553 -1.0418925
000010 cc a5 3e 3f ad 76 94 40 95 12 29 c0 85 f8 8c be
       0.74471736 4.639487 -2.6417592 -0.27533355
000020 ec c2 ab bf 93 ad 0e c0 21 b1 3a 41 60 33 a1 bf
       -1.341886 -2.2293441 11.668244 -1.2593803
000030 ac a6 7b bf ca 3b c8 c0 07 8f 9e bf 8d 73 91 bf
       -0.98301196 -6.2572985 -1.2387398 -1.1363388
000040 8a 83 b8 bf cc 88 c9 bf 3c e0 df bf ed e0 a2 bf
       -1.4415143 -1.5744872 -1.7490306 -1.2724892
000050 5f df 8e bf 18 e7 8c bf 6d 97 7e c0 89 19 a4 bf
       -1.1161917 -1.1008024 -3.9779923 -1.2820293
000060 8a 34 4f c0 0c 3e aa bf bf 0e 10 bf a4 f0 4e bf
       -3.2375817 -1.3300185 -0.562725 -0.8083594
000070 19 23 9e bf 73 52 31 c0 d3 42 cb bf 5c d4 4f bf
       -1.2354461 -2.7706573 -1.5879768 -0.8118341
