model/CVAE_10000_0.001_32_[12, 128, 64]_10_[64, 128, 6].pth (torch, 91936 bytes, 14 tensors)

encoder.MLP.L0.weight f4 [128, 12]
0	0xbd147532	-0.03624458
1	0x3da466ae	0.08027397
2	0xbe83bd3c	-0.25730312
3	0xbe6e6acd	-0.23282929
4	0xbe06aa50	-0.13150907
5	0x3d597d0f	0.05309778
6	0xbce3840e	-0.02777293
7	0x3e5533ee	0.20820591
8	0xbd3f7fcb	-0.046752732
9	0x3d57200b	0.052520793
10	0xbde7df69	-0.11321909
11	0xbdad4312	-0.08460058
12	0xbea6076f	-0.32427546
13	0xbdf54493	-0.1197597
14	0xbe03bca1	-0.12864925
15	0xbcae0321	-0.021241726
16	0x3da6b45a	0.08139868
17	0x3dcaf663	0.09910276
18	0xbe5c4d64	-0.21513897
19	0xbe1c211e	-0.15247008
20	0x3d9e7721	0.07737566
21	0x3e5338f1	0.2062719
22	0xbdcc9f4e	-0.099913225
23	0x3e29d6f3	0.16585903
24	0xbd3e95d8	-0.04652962
25	0x3cfa3b60	0.03054589
26	0x3e85d4b6	0.26138848
27	0xbe891c79	-0.26779535
28	0xbe3a17f0	-0.18173194
29	0xbd95ac48	-0.07308251
30	0xbde673cc	-0.11252555
31	0x3e7f66c8	0.24941552
32	0xbe3f9aa4	-0.18711334
33	0xbe081370	-0.13288665
34	0xbe4e853c	-0.20168012
35	0xbe8a6cdf	-0.27036187
36	0xbe5d39bf	-0.2160406
37	0x3e93b42d	0.288484
38	0x3da246ba	0.07923646
39	0x3dba61c7	0.09100681
40	0xbd0c6b95	-0.034282286
41	0xbe494bcd	-0.19657822
42	0x3bf1438c	0.0073627885
43	0xbe9e396c	-0.30903184
44	0xbe6fcd06	-0.23418054
45	0xbe2e9d2a	-0.17052141
46	0x3e221a24	0.15830284
47	0x3e0395c0	0.12850094
48	0xbe5de854	-0.21670657
49	0x3cf4364e	0.02981105
50	0x3e24431a	0.16041222
51	0x3e68633b	0.22694103
52	0x3d516dcf	0.051130112
53	0xbd8942fd	-0.0670223
54	0x3df12706	0.11775021
55	0xbe619b28	-0.22031844
56	0x3d97d559	0.0741374
57	0xbe39de0b	-0.18151109
58	0xbe1013c6	-0.14070043
59	0xbe634a25	-0.22196253
60	0x3d99e771	0.07514847
61	0x3d65a4cc	0.056065366
62	0xbe0d1289	-0.13776602
63	0x3db6dfdd	0.08929417
64	0x3e239f79	0.15978803
65	0xbd8e5c9d	-0.06951258
66	0x384bab68	4.8558606e-05
67	0x3d46b6e9	0.04851428
68	0x3e22694c	0.1586048
69	0x3e81ce2b	0.25352606
70	0xbe7f80e6	-0.24951515
71	0xbe0f182d	-0.13974066
72	0x3ccecbca	0.025243659
73	0x3e41152f	0.18855737
74	0x3e75d0a6	0.24005374
75	0x3e45dcff	0.19322585
76	0xbbeb2031	-0.0071754684
77	0xbeb80a84	-0.35945523
78	0xbccc95b5	-0.02497373
79	0xbe5b99cb	-0.21445386
80	0xbe850668	-0.2598145
81	0x3e881dae	0.26585144
82	0x3e6bb241	0.23017217
83	0xbec14c7d	-0.37753668
84	0x3ca62a2f	0.020283787
85	0xbd08857e	-0.033330433
86	0xbd28882f	-0.0411455
87	0xbe1016ff	-0.14071272
88	0x3dd16c14	0.102256924
89	0xbe4cba7c	-0.19993013
90	0x3d8accff	0.06777381
91	0x3dddc852	0.10829224
92	0x3e2ec59e	0.17067572
93	0x3d9e4025	0.07727078
94	0xbea0a0cf	-0.31372687
95	0xbe55c92f	-0.20877527
96	0x3dd5ec70	0.104454875
97	0x3dda7538	0.10666889
98	0xbe83deb2	-0.2575584
99	0xbe4c7626	-0.19966945
100	0x3e72f990	0.23728013
101	0x3e21356e	0.15743038
102	0xbe2e8c21	-0.17045642
103	0xbdf02604	-0.11726001
104	0xbea2b014	-0.31774962
105	0xbd1077f8	-0.03527066
106	0xbe82fdf7	-0.25584385
107	0xbe88edd2	-0.26743942
108	0xbc824d10	-0.015905887
109	0x3d318898	0.043343157
110	0xbdf21df6	-0.11822121
111	0x3e2f6786	0.17129335
112	0xbe33e2dd	-0.1756701
113	0x3e861c5e	0.26193517
114	0x3e4a93b2	0.19782904
115	0xbe7946fa	-0.24343482
116	0xbd93245e	-0.07184671
117	0x3c556a20	0.01302579
118	0x3d2c83f0	0.042118013
119	0x3d8c3810	0.068466306
120	0x3de80198	0.11328429
121	0x3c8da750	0.017291695
122	0xbe103bbe	-0.1408529
123	0x3e0be052	0.1365979
124	0xbe8dc751	-0.2769113
125	0xbe2f34c1	-0.17109968
126	0xbd93ff26	-0.072264
127	0xbe0ffe09	-0.1406175
128	0xbdced2e6	-0.100988194
129	0xbe72486c	-0.23660439
130	0xbd7b8468	-0.06140557
131	0x3d7cbf98	0.061706156
132	0xbe51d2b6	-0.20490536
133	0x3d5488c2	0.051888235
134	0x3e2cfd7d	0.16893573
135	0xbdac81ee	-0.084232196
136	0xbd43b76c	-0.047782347
137	0xbdc30641	-0.09522677
138	0x3bb4ae36	0.0055139316
139	0x3e0f8b24	0.14017922
140	0x3e70eeed	0.23528643
141	0x3e162ad3	0.14664774
142	0x3e72f572	0.23726442
143	0xbd5dd972	-0.05416245
144	0xbe84c5ff	-0.2593231
145	0xbe0c2389	-0.1368543
146	0x3e494722	0.19656041
147	0xbaf54700	-0.0018713176
148	0xbe12edb6	-0.14348492
149	0xbe62863a	-0.22121516
150	0xbe8a520c	-0.27015722
151	0xbe797ddc	-0.24364418
152	0xbd6fd63c	-0.05855392
153	0x3e221c54	0.15831119
154	0x3e1fd0b8	0.15606964
155	0xbe8e8b6d	-0.27840748
156	0x3e38645e	0.18007037
157	0xbe674ffa	-0.22589102
158	0xbd79f970	-0.061028898
159	0xbdefb7d8	-0.11704987
160	0xbd63c038	-0.055603236
161	0xbd682880	-0.05667925
162	0xbe84a13c	-0.25904262
163	0xbe7f3c31	-0.24925305
164	0xbd390600	-0.045171738
165	0x3b74a880	0.003733188
166	0xbe064901	-0.13113786
167	0x3ddeb504	0.1087437
168	0xbea2f672	-0.31828648
169	0xbc54bf28	-0.012985028
170	0x3e6c7780	0.2309246
171	0xbe233802	-0.15939334
172	0x3e5f909c	0.21832508
173	0x3cf3b964	0.029751487
174	0xbe9a8429	-0.30178955
175	0x3e20836d	0.15675135
176	0xbd39298b	-0.045205634
177	0xbe0f3a07	-0.1398698
178	0x3e5f1641	0.21785833
179	0xbe828b2c	-0.25496805
180	0xbc8a9355	-0.016915957
181	0xbb02b38e	-0.0019943449
182	0x3e4daff4	0.20086652
183	0x3d4ce24d	0.050020505
184	0x3dd67de0	0.104732275
185	0x3ce51758	0.027965233
186	0xbe1692bc	-0.14704412
187	0xbdd1871e	-0.1023085
188	0xbe7a6fe7	-0.2445675
189	0x3e1d70f0	0.15375113
190	0x3e5ff6db	0.21871512
191	0x3e48acba	0.1959714
192	0xbe50831e	-0.20362517
193	0x3c52f120	0.0128748715
194	0xbe506181	-0.20349695
195	0xbe22b997	-0.1589111
196	0xbe2c3fec	-0.1682126
197	0x3dca0abc	0.09865329
198	0xbe302768	-0.17202532
199	0xbbce6040	-0.006298095
200	0x3c46f7c0	0.012144029
201	0x3e3e8d80	0.18608665
202	0xbe5f73d6	-0.21821532
203	0xbe4aef70	-0.198179
204	0xbe8ae8e7	-0.27130815
205	0x3e7f1d11	0.24913432
206	0xbdd51089	-0.104035445
207	0x3e5327c4	0.20620638
208	0x3d7997c5	0.060935754
209	0xbd05cdbd	-0.03266691
210	0xbd17c234	-0.03705044
211	0xbd7f459d	-0.062322248
212	0x3daa04a5	0.08301667
213	0xbcce0421	-0.025148453
214	0x3d33ddf5	0.043912847
215	0x3c3c7eaf	0.011504813
216	0xbe6738f2	-0.22580317
217	0xbe1aef5c	-0.15130371
218	0x3e6eb294	0.2331031
219	0xbe6fe55a	-0.23427334
220	0xbca9cf20	-0.020728648
221	0x3e92360c	0.2855686
222	0x3dd590d4	0.104280144
223	0x3c05e920	0.008173257
224	0xbe80161e	-0.25016874
225	0x3e126f74	0.14300328
226	0xbe528d75	-0.20561774
227	0xbda7d28c	-0.081944555
228	0xbe469e6e	-0.19396374
229	0x3d4dbbb8	0.05022785
230	0xbda7f0b9	-0.08200211
231	0x3e3184ca	0.17335811
232	0xbcff70ab	-0.031181654
233	0x3e699249	0.2280971
234	0x3dd79760	0.10526919
235	0xbe8045d5	-0.25053278
236	0x3d8999a7	0.0671876
237	0xbe89a1d9	-0.26881292
238	0xbdcdd9d3	-0.10051312
239	0x3da4407d	0.08020113
240	0x3dc7b077	0.09750455
241	0x3e38a997	0.18033443
242	0xbd7995c3	-0.06093384
243	0x3d3c1b4e	0.045924477
244	0x3e43bb68	0.19114459
245	0xbe483de3	-0.19554858
246	0x3e7637f4	0.24044782
247	0xbe5dcfcd	-0.21661301
248	0xbb11aca6	-0.002222815
249	0xbd8658e8	-0.06559926
250	0xbdb3e834	-0.087845236
251	0x3d0a9adc	0.03383909
252	0x3e7470a0	0.23871088
253	0xbdacd23e	-0.08438538
254	0xbe2f7f7a	-0.17138472
255	0xbddaa6b4	-0.10676327

encoder.MLP.L0.bias f4 [128]
0	0xbdf445ae	-0.11927353
1	0x3c7fdfaa	0.0156172905
2	0x3e02c1a6	0.12769184
3	0xbd72419b	-0.059144598
4	0x3e2b6df6	0.16741166
5	0xbe6d7e29	-0.23192658
6	0x39d99358	0.00041499245
7	0x3e6b3450	0.22969174
8	0xbdb31447	-0.08744102
9	0x3e6aaea4	0.22918183
10	0x3b9bee40	0.004758626
11	0xbe93dd74	-0.28879893
12	0xbe222c3f	-0.15837191
13	0x3ddc0e68	0.10744935
14	0xbe4f4648	-0.20241654
15	0xbbd6c112	-0.0065537775
16	0x3e91797e	0.28413004
17	0x3cfd341f	0.030908642
18	0xbcdd52e0	-0.027017057
19	0x3d3fedde	0.046857707
20	0xbda228f0	-0.079179645
21	0xbe7861b2	-0.24256018
22	0xbe637b96	-0.22215113
23	0xbe700d33	-0.23442535
24	0x3c9b8f27	0.018989159
25	0x3d2dcb76	0.042430364
26	0xbe05e98f	-0.13077377
27	0xbe9ee41c	-0.3103341
28	0x3e1a0dbd	0.15044303
29	0xbdfadfc0	-0.12249708
30	0xbd95ab9f	-0.07308125
31	0xbe88a4de	-0.26688284
32	0xbd59d1a3	-0.05317844
33	0x3d3aa9e3	0.045572173
34	0xbe2e1acd	-0.17002411
35	0xbe8b9e7f	-0.2726936
36	0x3e58d5bd	0.21175285
37	0xbe36477e	-0.1780071
38	0xbdf608be	-0.12013386
39	0xbe773279	-0.24140348
40	0x3e212013	0.15734892
41	0xbe8889da	-0.26667672
42	0xbd702502	-0.058629043
43	0x3d865153	0.0655848
44	0xbe0ec8ec	-0.13943833
45	0x3d55cd68	0.052197844
46	0xbe1cf48f	-0.15327667
47	0x3de96cf7	0.113977365
48	0x3c3c33a3	0.0114869205
49	0xbd27cfb9	-0.040969584
50	0xbe75837a	-0.23975936
51	0x3db8d6d3	0.090253495
52	0x3e3b19d9	0.18271579
53	0x3cfa699e	0.03056794
54	0x3d8a8315	0.06763283
55	0x3e1b4fc0	0.15167141
56	0xbe4c2add	-0.19938226
57	0xbc576e53	-0.013148862
58	0x3eb703ad	0.35744992
59	0x3c36d118	0.01115825
60	0xbde066a0	-0.10957074
61	0xbdc5d095	-0.096589245
62	0x3e17bb76	0.14817604
63	0xbd776995	-0.060403425
64	0xbe1f59d3	-0.15561609
65	0x3e7382f8	0.2378043
66	0x3e1c60ac	0.15271252
67	0xbd5e76c2	-0.054312475
68	0xbd401d47	-0.04690292
69	0xbd444cf2	-0.047924943
70	0x3d42cd07	0.04755881
71	0xbb803c89	-0.0039134664
72	0xbe3f60b5	-0.18689235
73	0x3dd62948	0.104570925
74	0x3cf136b0	0.029445022
75	0xbda558b6	-0.08073561
76	0xbdd59f42	-0.10430767
77	0x3d011a02	0.031518944
78	0xbe8064b7	-0.2507684
79	0x3d450a66	0.04810562
80	0x3e1aec88	0.15129292
81	0x3cf6ca66	0.030125808
82	0xbe694302	-0.22779468
83	0xba898b00	-0.0010493696
84	0xbda19eb6	-0.078916
85	0xbe8eaf7c	-0.2786826
86	0xbe573a76	-0.21018395
87	0x3e70f1dc	0.23529762
88	0x3e229d95	0.15880425
89	0x3e4c4681	0.1994877
90	0x3e0f88bf	0.14017008
91	0x3e12e42d	0.14344855
92	0x3e265cba	0.1624631
93	0x3e43c8d4	0.19119579
94	0xbe335854	-0.17514163
95	0xbd164f90	-0.03669697
96	0x3e52c766	0.20583877
97	0x3d51e3ff	0.051242825
98	0xbe405858	-0.187837
99	0xbe916870	-0.28399992
100	0x3e2552dc	0.1614489
101	0x3e623462	0.22090295
102	0x3e5d2c61	0.2159896
103	0x3d44c6b0	0.048041046
104	0x3e2dc7ee	0.16970798
105	0xbe883352	-0.26601654
106	0xbe8a4c16	-0.27011174
107	0xbe88ea33	-0.2674118
108	0x3e4aaf68	0.19793475
109	0xbd4d5999	-0.050134275
110	0xbe081d6a	-0.1329247
111	0x3dcd0368	0.10010415
112	0xbe0ab590	-0.13545823
113	0xbe4944bb	-0.19655125
114	0x3dcd3834	0.100204855
115	0x3dd04d12	0.1017095
116	0xbdec617b	-0.115420304
117	0xbe839487	-0.25699255
118	0x3dcd9622	0.10038401
119	0x3ddc09a6	0.10744028
120	0x3cc08380	0.023500204
121	0xbe1dcd90	-0.15410447
122	0x3d89ba31	0.06724966
123	0xbd054130	-0.03253287
124	0xbe498bc1	-0.19682218
125	0xbe114717	-0.14187275
126	0x3d8166c4	0.06318429
127	0x3e1a4401	0.15065004

encoder.MLP.L1.weight f4 [64, 128]
0	0xbcb76c51	-0.022390516
1	0x3d0aebe3	0.033916365
2	0xbd603715	-0.05474003
3	0x3d9bb84c	0.07603511
4	0x3d4a6c3e	0.049419634
5	0x3b1d6611	0.0024017135
6	0x3cd2badd	0.025723869
7	0x3c865aee	0.01640078
8	0xbd79e2dd	-0.06100737
9	0xba4a0b80	-0.0007707402
10	0x3cc11530	0.023569673
11	0xbd0ccfd3	-0.034377884
12	0x3dad9671	0.0847596
13	0xbd0b9d85	-0.03408577
14	0xbdbca265	-0.09210662
15	0xbd63e9a2	-0.05564273
16	0xbda80055	-0.08203188
17	0x3d75e1bb	0.060029726
18	0xbd2285c4	-0.03967835
19	0xbd9aff11	-0.07568181
20	0xbc81705b	-0.015800646
21	0xbd73f1d9	-0.059556816
22	0xbd70b226	-0.058763646
23	0x3cfa4fc7	0.030555619
24	0xbd9b73e3	-0.07590463
25	0x3cd738b7	0.026272161
26	0x3d4edef7	0.050505605
27	0xbc502a5b	-0.012705411
28	0x3ccc2d11	0.024923833
29	0xbd8198b6	-0.063279554
30	0x3d6402e6	0.055666827
31	0x3d91e059	0.07122869
32	0x3be9ab31	0.0071310033
33	0x3d87b415	0.06626145
34	0xbdc41cc5	-0.095758
35	0xbcb39b98	-0.021924779
36	0x3c8fde80	0.017562151
37	0xbdbc1bc7	-0.091849856
38	0x3d302df6	0.04301258
39	0xbd3e446f	-0.046451982
40	0xbd3ebab6	-0.04656478
41	0xbdad577b	-0.08463951
42	0x3cb4cbbe	0.022069808
43	0xbd9d1c36	-0.076713964
44	0xbcff51e5	-0.03116698
45	0x3d20d436	0.03926488
46	0x3d58c7cc	0.052924916
47	0x3bbe81d0	0.0058138147
48	0xbd3b80e7	-0.045777228
49	0xbd0e1e15	-0.034696657
50	0x3d4b34c2	0.04961086
51	0x3b1b7cce	0.0023725512
52	0x3d7286da	0.059210636
53	0x3cb0cf4c	0.021583222
54	0x3d73147f	0.05934572
55	0xbdb04ebf	-0.086087696
56	0x3d6a766f	0.057241853
57	0xbd2cfb9f	-0.042232152
58	0xbd15d189	-0.03657678
59	0x3a0aaf00	0.0005290359
60	0xbcc2ef49	-0.02379574
61	0x3c12febe	0.008971868
62	0x3dac7b2e	0.08421932
63	0xbd3fb6e7	-0.04680529
64	0x3cdfbb08	0.027310863
65	0xbd917c6b	-0.07103809
66	0x3c6361f8	0.013878338
67	0x3d952033	0.07281532
68	0x3d3b5c06	0.045742057
69	0x3d7ed100	0.062211037
70	0x3d09b9eb	0.03362457
71	0xbbefa040	-0.0073128045
72	0x3c4e741f	0.012600928
73	0xbd23f7a1	-0.04003108
74	0x3d794c09	0.06086353
75	0x3cfce6ce	0.030871775
76	0xbd9de429	-0.07709534
77	0x3d80c21a	0.06287022
78	0xbc1aa544	-0.009438816
79	0xbc00f1a1	-0.007870109
80	0xbcc62b54	-0.024190582
81	0xbd16a75d	-0.036780704
82	0xbc2c57d5	-0.010518988
83	0xbd30be56	-0.04315027
84	0xbdc5388e	-0.096299276
85	0xbd76a66b	-0.060217302
86	0xbc9016e4	-0.01758904
87	0x3d714d53	0.058911633
88	0x3d503681	0.05083323
89	0xbd88f9ba	-0.066882566
90	0xbc8f9216	-0.017525714
91	0xbcd0fb08	-0.025510326
92	0xbd41ade5	-0.04728498
93	0xbc7ea780	-0.015542865
94	0xbd34c8d3	-0.044136833
95	0x3d4a5c9a	0.049404718
96	0xbd338c7b	-0.043835144
97	0xba3c461b	-0.00071820774
98	0xbd4c4dba	-0.049878813
99	0xbd2929b6	-0.041299544
100	0x3d8e80b3	0.06958141
101	0xbd5bc3ac	-0.053653404
102	0xbca06e67	-0.019583894
103	0x3dace1df	0.08441519
104	0x3c8451d2	0.016152296
105	0xbd742393	-0.05960424
106	0xbd89644f	-0.067085855
107	0xbd38b4d5	-0.04509433
108	0xbd2ccab8	-0.042185515
109	0x3cd92ffa	0.026512135
110	0xbca0fafc	-0.019650929
111	0x3d76be53	0.0602401
112	0xbd814376	-0.06311695
113	0xbd2b0c93	-0.04176004
114	0x3d03cfa8	0.03218046
115	0x3d68870a	0.05676941
116	0x3d8fed5d	0.07027695
117	0xb98dbe91	-0.000270356
118	0xbba07946	-0.0048972694
119	0xbd4b97cd	-0.049705315
120	0x3d4c8f02	0.04994107
121	0xbd51dafa	-0.051234223
122	0xbd18590d	-0.0371943
123	0xbdb31469	-0.08744127
124	0xbdcab961	-0.098986395
125	0x3d0d6fe3	0.03453053
126	0x3bc4c450	0.0060048476
127	0x3d679540	0.05653882
128	0x3d79374c	0.06084375
129	0x3d167189	0.03672937
130	0x3d10e2c4	0.03537251
131	0xbc539540	-0.012914002
132	0x3d14df00	0.036345482
133	0x3d06c516	0.0329028
134	0x3ca53ae0	0.020169675
135	0xbc46fe88	-0.012145646
136	0x3c6eb360	0.0145691335
137	0x39cd9c00	0.00039216876
138	0xbd835ecf	-0.06414568
139	0x3c32c35c	0.010910835
140	0xbd851355	-0.06497828
141	0x3d2fa962	0.042886145
142	0xbd800342	-0.062506214
143	0xbd1e0e1d	-0.03858768
144	0xbd2bb2af	-0.041918453
145	0x3d72505b	0.059158664
146	0xbd7ef452	-0.06224472
147	0x3d0c648b	0.034275573
148	0x3d2cdb7e	0.04220151
149	0x3d7ffcfe	0.06249713
150	0x3c27add9	0.01023432
151	0x3d1da056	0.038482986
152	0x3d81350e	0.063089475
153	0x3bf68104	0.007522704
154	0x3ca7b749	0.02047314
155	0xbda1b09c	-0.07895014
156	0xbd089682	-0.03334666
157	0xbab25ec6	-0.0013608567
158	0xbb145ddd	-0.0022638955
159	0xbd2759c1	-0.04085708
160	0xbdbac45f	-0.09119486
161	0xbd05dfa6	-0.03268399
162	0x3d1fbd0a	0.03899864
163	0x3d7e66a8	0.06210962
164	0xbda3773b	-0.07981726
165	0x3d058284	0.032595173
166	0xbdabc3b7	-0.08386939
167	0xbdc54d62	-0.096339
168	0xbd859cfb	-0.06524082
169	0xbcae8ee7	-0.021308376
170	0x3c766481	0.01503861
171	0xbd9ad361	-0.075598486
172	0x3d678e12	0.056531973
173	0x3da3b24f	0.07992994
174	0xbb85c2d9	-0.0040820655
175	0x3d7fb412	0.062427588
176	0xbd4ee0a5	-0.050507206
177	0xbd36730e	-0.04454332
178	0xbc5b8820	-0.013399154
179	0xb8a07c58	-7.652555e-05
180	0xbd92324d	-0.071385
181	0xbda50178	-0.08056921
182	0x3cd1e02a	0.025619585
183	0x3c810509	0.015749471
184	0x3d9d9ac7	0.07695537
185	0xbd3b8b56	-0.045787178
186	0x3ca96d47	0.02068199
187	0xbd39fa4a	-0.04540471
188	0x3d17d5f4	0.037069276
189	0xba560afe	-0.000816509
190	0x3d656e20	0.056013227
191	0x3d219b5e	0.03945481
192	0x3d87fb17	0.066396885
193	0x3d3a0cce	0.045422368
194	0x3b59a0c0	0.0033207387
195	0x3da6c959	0.08143873
196	0xbd7e1cce	-0.06203919
197	0x3d972d0a	0.073816374
198	0x3d9d357b	0.07676216
199	0x3d98e708	0.07465941
200	0xbd463f6d	-0.04840033
201	0xbd6755c6	-0.056478284
202	0xbb912818	-0.0044298284
203	0x3c8d73a4	0.017267056
204	0x3d0e89b0	0.034799278
205	0x3ccb1f03	0.024795061
206	0x3d8be79e	0.06831287
207	0xbd02383a	-0.031791903
208	0xbd1f159a	-0.03883896
209	0x3cab7aac	0.020932518
210	0x3c75c0e9	0.014999607
211	0xbd532fea	-0.051559366
212	0xba8ead9c	-0.001088548
213	0xbd9d5b2e	-0.07683407
214	0xbd02cf33	-0.03193588
215	0xbd3630b1	-0.04448003
216	0x3d8b18d5	0.06791846
217	0xbdb344ff	-0.08753394
218	0xbd7fe96a	-0.06247846
219	0xbdc54c3d	-0.09633682
220	0x3cb69dc0	0.022292018
221	0xbd8b541e	-0.068031535
222	0x3c7ca10d	0.015419257
223	0xbd7b79e0	-0.061395526
224	0xbd67ea41	-0.056619886
225	0xbd60ac38	-0.05485174
226	0x3c5952b8	0.013264351
227	0x3d92281d	0.07136557
228	0x3da99023	0.08279445
229	0xbc864a9e	-0.016393002
230	0xbdc504f1	-0.09620083
231	0xbcef3794	-0.029201306
232	0xbd31916a	-0.04335157
233	0xbce8b574	-0.028406836
234	0x3cc505a3	0.02405054
235	0x3d0d78e8	0.034539133
236	0x3cf239d5	0.029568592
237	0x3c7df740	0.0155008435
238	0xbd129039	-0.035782073
239	0xbc2dcba5	-0.010607635
240	0x3ad75265	0.0016427754
241	0xbd60b533	-0.054860305
242	0xbc928e44	-0.017890103
243	0xbcaa21f5	-0.020768145
244	0xbdba88d3	-0.091081284
245	0x3d4e2e83	0.050337326
246	0xbc8e6ccf	-0.017385868
247	0xbdab869d	-0.08375285
248	0x3d8f37bd	0.06993053
249	0xbd42cdb9	-0.047559474
250	0x3cb0e452	0.021593247
251	0x3d9fb1f6	0.07797615
252	0xbbb773eb	-0.0055985353
253	0x3c81791d	0.015804822
254	0x3d0fd92e	0.035119228
255	0x3d6a8d9d	0.05726396

encoder.MLP.L1.bias f4 [64]
0	0xbd055f16	-0.032561384
1	0xbd3b4eb9	-0.045729373
2	0xbdaade2d	-0.08343158
3	0x3c493a20	0.0122819245
4	0xbd11fa5c	-0.035639152
5	0xbd9175a4	-0.07102516
6	0x3bbf1975	0.005831892
7	0xbd445dae	-0.047940902
8	0x3c8f2b84	0.017476805
9	0xbd4006e2	-0.046881564
10	0xbb4fd257	-0.0031711066
11	0xbadbf73d	-0.0016782057
12	0xbdbe2617	-0.09284609
13	0xbd4d7e38	-0.0501692
14	0x3d9af7ce	0.07566796
15	0xbce783df	-0.028261123
16	0xbc6e0198	-0.014526747
17	0x3d43b817	0.047782984
18	0x3d916006	0.07098393
19	0x3c815ed9	0.015792297
20	0xbd8e9ebf	-0.06963872
21	0x3da1699d	0.07881472
22	0xbdb64066	-0.08899002
23	0xbde57fff	-0.11206054
24	0x3b6f3f33	0.0036506176
25	0xbcd4212e	-0.025894728
26	0xbd40ef73	-0.047103357
27	0x3cf01c53	0.029310381
28	0xbd0e83ce	-0.034793667
29	0xbda1f90e	-0.079088315
30	0x3c46de36	0.01213794
31	0x3d67889e	0.056526773
32	0xbd050c2f	-0.032482322
33	0x3d710f73	0.058852624
34	0x3d91d3c4	0.07120469
35	0xbce9a2ed	-0.028520072
36	0xbd422777	-0.047400918
37	0xbd8c1894	-0.068406254
38	0xbd1f4fae	-0.038894348
39	0xbd1844f7	-0.037175145
40	0xbdb4d0ed	-0.08828912
41	0xbdd0e9e6	-0.102008626
42	0xbd8625e0	-0.06550193
43	0xbd9608c3	-0.0732589
44	0xbd532758	-0.051551193
45	0xbdb6e526	-0.08930425
46	0xbda616c9	-0.08109815
47	0xbd1f9082	-0.038956173
48	0xbd949db9	-0.07256646
49	0xbbd953ae	-0.00663229
50	0x3d21562c	0.03938882
51	0x3d3868ed	0.04502194
52	0x3df794ae	0.12088905
53	0xbbc5ac52	-0.006032505
54	0xbd5dfec3	-0.054198038
55	0xbd63d6b3	-0.055624675
56	0xbcd6bb20	-0.026212275
57	0xbd421bd8	-0.047389835
58	0x3d856db9	0.065150686
59	0x3c9e90a1	0.019356074
60	0xbdc430be	-0.09579609
61	0xbafe7e8c	-0.0019416376
62	0x3b3d0651	0.0028842876
63	0x3ba29030	0.004961036

encoder.linear_means.weight f4 [10, 64]
0	0xbdb848f3	-0.08998289
1	0x3deb026c	0.11475071
2	0x3b87436f	0.0041279118
3	0x3d64f24d	0.05589514
4	0xbd44c709	-0.048041377
5	0x3d5ad9be	0.05343031
6	0xbcf48bc5	-0.029851804
7	0xbd962255	-0.07330767
8	0xbde4ff40	-0.111814976
9	0x3bf1bd43	0.007377298
10	0xbc49d82e	-0.012319608
11	0x3d65f21b	0.056139093
12	0xbd9329c8	-0.071857035
13	0x3cff5eb5	0.03117309
14	0xbde40202	-0.111331955
15	0x3c91115e	0.017708477
16	0x3def03fc	0.11670682
17	0x3c172fe3	0.009227726
18	0x3d2bc6c3	0.0419376
19	0xbc00ce3e	-0.007861672
20	0x3d1cdb60	0.03829515
21	0xbd10d0e0	-0.03535545
22	0x3d809b6c	0.06279644
23	0xbd8435b0	-0.064555526
24	0x3d88f143	0.06686642
25	0x3d909aea	0.070607975
26	0xbd66fc91	-0.05639321
27	0xbda01f6c	-0.07818493
28	0x3d4c2bf5	0.04984661
29	0xbdc5a5d1	-0.096507676
30	0x3d2c416a	0.04205457
31	0xbd8de73e	-0.069288716
32	0xbdf02960	-0.11726642
33	0xbc5f0590	-0.013612166
34	0xbd00956d	-0.031392504
35	0xbd80faec	-0.062978595
36	0x3ccddae8	0.025128797
37	0x3d67c116	0.056580625
38	0x3dae978c	0.08524999
39	0x3da5ccc3	0.08095696
40	0x3cf51546	0.02991737
41	0x3b928fd2	0.004472711
42	0xbcf6d7aa	-0.030132134
43	0x3dc14fb4	0.0943903
44	0xbdd6ed96	-0.10494535
45	0x3dab4c9e	0.08364223
46	0x3d4da9a3	0.050210606
47	0x3d44b344	0.048022524
48	0x3d2e2cbc	0.04252313
49	0xbda14659	-0.07874746
50	0x3d260065	0.04052772
51	0xbc8ace5c	-0.016944103
52	0x39d28fba	0.00040161406
53	0xbd87f841	-0.066391475
54	0x3da9eec2	0.082974926
55	0xbcb7cc8e	-0.022436406
56	0x3c5b96bc	0.013402637
57	0x3b23e49f	0.0025008095
58	0x3dced619	0.1009943
59	0xbdb4faca	-0.08836897
60	0x3dd73aa4	0.10509232
61	0x3d3f58e4	0.046715632
62	0x3cdf7160	0.027275741
63	0xbdc9c4dd	-0.09852002
64	0xbd26bfa4	-0.040710106
65	0xbc7388e4	-0.01486418
66	0xbcd9bf26	-0.026580404
67	0x3d777fba	0.060424544
68	0xbcf4da0f	-0.029889135
69	0xbd41c509	-0.047307048
70	0x3da10351	0.07861961
71	0x3dd5389b	0.10411187
72	0xbd654820	-0.055976987
73	0x3d8cb83e	0.06871079
74	0x3d03760b	0.032094996
75	0x3db8872e	0.090101585
76	0xbddac214	-0.10681549
77	0xbd9bb0b7	-0.07602065
78	0xbdaa0b7c	-0.08302972
79	0x3dc1fc05	0.09471897
80	0x3dca9dd6	0.09893386
81	0xbc8b70d4	-0.017021574
82	0xbdaa1a54	-0.08305803
83	0xbcf8e3b6	-0.030382019
84	0x3c7be200	0.015373707
85	0x3d35eedf	0.04441726
86	0xbd3f87f1	-0.046760503
87	0x3c53cfef	0.012927993
88	0xbc59e311	-0.013298766
89	0x3dbe8772	0.09303178
90	0xbd03d7e8	-0.032188326
91	0xbd80acde	-0.06282972
92	0xbb7c412a	-0.003849099
93	0x3ba6b45c	0.0050874185
94	0x3d9c999e	0.07646488
95	0x3de2e4b8	0.11078781
96	0xbd784020	-0.06060803
97	0x3d54a7b8	0.05191776
98	0x3dbf9706	0.09354977
99	0x3e2f08be	0.17093179
100	0x3d1583f8	0.03650281
101	0x3d0c0a5e	0.034189574
102	0x3ca1b94c	0.019741677
103	0x3d58b1aa	0.05290381
104	0xbd1dff87	-0.038573768
105	0xbd140286	-0.03613522
106	0x3dae665d	0.08515618
107	0x3d6a5dcc	0.057218358
108	0x3d4c47a7	0.04987302
109	0x3a67f9fd	0.0008849202
110	0x3c7e59d6	0.015524348
111	0xbdb23376	-0.08701222
112	0xbcd8cf16	-0.026465934
113	0xbd7f245c	-0.062290534
114	0xbcd0afe5	-0.025474498
115	0xbdc3dd64	-0.09563711
116	0xbd4ca087	-0.04995778
117	0x3c807c7e	0.015684363
118	0xbd06ce54	-0.032911614
119	0x3c6044c0	0.013688266
120	0xbd2052d3	-0.039141487
121	0xbc50139c	-0.012699988
122	0xbda0053d	-0.07813499
123	0x3e040bed	0.12895174
124	0xbdc11195	-0.09427182
125	0x3d5f552e	0.054524593
126	0xbdf33b9d	-0.11876605
127	0x3c8630bd	0.016380662
128	0xba6e4050	-0.0009088563
129	0xbdc3b138	-0.09555286
130	0x3ca6f4bd	0.020380372
131	0xbe003f32	-0.12524107
132	0x3d680ac8	0.056650907
133	0x3dbda79c	0.092604846
134	0xbba41efd	-0.005008577
135	0x3d0053bd	0.03132986
136	0xbd8021aa	-0.06256421
137	0x3c9564bc	0.01823651
138	0xbdb2a0db	-0.08722087
139	0x3dd45a85	0.10368828
140	0x3bd4b960	0.006491825
141	0x3d0edfec	0.034881517
142	0x3df8967f	0.1213808
143	0xbdf8a67d	-0.1214113
144	0xbd855920	-0.0651114
145	0xbb4eecd6	-0.003157427
146	0xbdf32241	-0.11871768
147	0x3d092271	0.03348011
148	0xbc2e16a0	-0.010625511
149	0xbddc5a6f	-0.10759436
150	0xbcc7c99a	-0.024388123
151	0xbd720146	-0.059083246
152	0x3c779173	0.015110361
153	0x3dbca562	0.09211232
154	0x3d934ca6	0.07192354
155	0xbdebd4f7	-0.11515229
156	0x3d2b71ff	0.041856762
157	0xbdbaaa58	-0.09114522
158	0x3d990eca	0.07473524
159	0x3da1df27	0.07903891
160	0xbddf5bbd	-0.109061696
161	0x3bd635bf	0.0065371688
162	0xbd9116f8	-0.07084459
163	0x3b90abe3	0.0044150217
164	0x3d4844eb	0.04889385
165	0x3c1682a1	0.009186418
166	0x3bb44e4a	0.005502497
167	0xbcc50505	-0.024050245
168	0x3dfdebb3	0.12398472
169	0xbde77bc9	-0.11302907
170	0xbd78177d	-0.060569275
171	0xbccdfa01	-0.025143625
172	0xbdaee20b	-0.08539208
173	0x3dd92b28	0.106039345
174	0xbe0191b2	-0.12653235
175	0xbd252ebc	-0.040327772
176	0xbd3fbae9	-0.04680911
177	0x3b450ed1	0.0030068646
178	0xbd45b52a	-0.048268475
179	0x3dc9d97c	0.09855935
180	0xbdbd75b6	-0.09250967
181	0xbd5c5e09	-0.053800616
182	0xbd4d7427	-0.0501596
183	0xbdb3a4cd	-0.08771668
184	0xbda4363b	-0.08018156
185	0x3d5629c0	0.05228591
186	0x3e01995c	0.12656158
187	0x3c02268b	0.00794376
188	0xbda139d1	-0.07872356
189	0x3d82a2f0	0.06378734
190	0x3db30d96	0.08742826
191	0xbe123a42	-0.14280036
192	0xbd2b413e	-0.041810267
193	0x3ded85d8	0.11597794
194	0x3d562b2a	0.05228726
195	0x3b59560a	0.0033162856
196	0x3caa103f	0.0207597
197	0xbd9d32f4	-0.07675734
198	0xbda03ab7	-0.07823699
199	0xbd53920f	-0.051652964
200	0x3dfe167a	0.12406631
201	0xbd61b8da	-0.05510793
202	0x3d647913	0.055779528
203	0xbda894d3	-0.08231511
204	0x3ba48d5e	0.005021735
205	0x3dde6c5a	0.1086051
206	0xbc9dccf7	-0.019262774
207	0xbc357b79	-0.011076801
208	0xbd625a7c	-0.055262074
209	0xbc850f91	-0.016242774
210	0x3d0bada5	0.034101147
211	0xbd8621ce	-0.065494165
212	0xbda2d2bc	-0.07950351
213	0x3de1d331	0.1102661
214	0x3da316f4	0.07963362
215	0xbd1d0991	-0.0383392
216	0x3d09c9f1	0.033639852
217	0xbd099154	-0.03358586
218	0x3dbf251d	0.09333251
219	0xbdafe2c0	-0.08588171
220	0xbdbad117	-0.09121912
221	0x3d82860d	0.063732244
222	0x3c3ad471	0.011403189
223	0xbcddff02	-0.027099136
224	0x3d96142b	0.073280655
225	0x3d4afaec	0.049555704
226	0xbdaceb1d	-0.08443282
227	0x3dac040f	0.083992116
228	0x3d6435fe	0.055715553
229	0xbd304471	-0.04303402
230	0xbdc0c589	-0.09412677
231	0x3d1eb12e	0.03874319
232	0x3da67070	0.081269145
233	0xbdd41c57	-0.10356968
234	0xbdea53dd	-0.11441777
235	0xbacde26f	-0.0015707741
236	0xbdc2bc81	-0.095086105
237	0xbd4fad72	-0.05070252
238	0x3dcb635c	0.09931061
239	0x3cbb4768	0.022861198
240	0x3d88490e	0.06654559
241	0x3d4c0d25	0.049817223
242	0x3e09176a	0.13387838
243	0x3d803b39	0.06261296
244	0x3c257ad0	0.010100082
245	0x3de097ab	0.10966428
246	0xbd688a8b	-0.05677275
247	0x3dc84d4e	0.0978037
248	0x3cb6dc99	0.022321986
249	0x3d3d6645	0.04624011
250	0xbd5391c1	-0.051652674
251	0xbde55cd5	-0.11199347
252	0x3d74bf89	0.059752975
253	0xbd86a9df	-0.06575369
254	0x3d2f81c3	0.04284836
255	0x3dc4d4fd	0.09610937

encoder.linear_means.bias f4 [10]
0	0x3a46687c	0.000756867
1	0xba3f47fd	-0.0007296799
2	0x3a3b85db	0.000715343
3	0xba6c60af	-0.00090170925
4	0xbab3dc76	-0.0013722319
5	0x3a04ac69	0.00050610915
6	0xba02a252	-0.0004983294
7	0x38097b14	3.277797e-05
8	0x3a2e4d61	0.00066491036
9	0xb9482550	-0.00019087386

encoder.linear_log_var.weight f4 [10, 64]
0	0x3d04558f	0.032308158
1	0x3bd7dd78	0.0065876804
2	0x3db10ddc	0.086452216
3	0x3b0065ae	0.0019591856
4	0x3da97186	0.08273606
5	0xbdde802f	-0.10864293
6	0x3c40c9a4	0.011766825
7	0x3dcb369e	0.09922527
8	0xbd680128	-0.056641728
9	0xbcedcb68	-0.029027656
10	0x3dc0afd3	0.09408536
11	0xbd7ba997	-0.06144103
12	0xbd9b257e	-0.075755104
13	0xbdc21f85	-0.09478668
14	0xbba0d411	-0.004908093
15	0x3d6baeab	0.057539623
16	0xbde0b30e	-0.10971652
17	0xbad7caf1	-0.001646368
18	0x3d2b6281	0.041841988
19	0x3d1ea319	0.03872976
20	0xbdfa9638	-0.12235683
21	0xbe0016ba	-0.1250867
22	0xbda2594b	-0.079271875
23	0xbc63fab7	-0.013914756
24	0xbdf575ab	-0.11985334
25	0x3d81ac9e	0.06331752
26	0xbd4f8609	-0.050664935
27	0xbd322352	-0.043490715
28	0x3da677e5	0.08128337
29	0x3c86650e	0.016405609
30	0xbbd2eea1	-0.006437138
31	0xbd6f608b	-0.05844168
32	0xbcd79b3f	-0.026319144
33	0x39b2deb8	0.00034116744
34	0xbd903a23	-0.07042339
35	0x3df25cc7	0.11834102
36	0xbd8bfa27	-0.06834822
37	0xbc948b0f	-0.018132715
38	0x3d7b43ce	0.06134396
39	0x3d7b359f	0.061330434
40	0x3d8406bc	0.06446597
41	0x3d681640	0.056661844
42	0x3d9cc1e6	0.07654171
43	0x3d347837	0.04405996
44	0xbd4b2bd3	-0.04960234
45	0xbdda3b4e	-0.10655843
46	0x3d90b8bb	0.070664845
47	0xbce81650	-0.028330952
48	0xbced0e93	-0.028937614
49	0xbd0a5f67	-0.03378239
50	0x3d86de57	0.06585377
51	0x3c575c6a	0.013144592
52	0x3d46809c	0.048462495
53	0x3d9c218c	0.07623586
54	0x3cfe0339	0.031007396
55	0xbcf2d535	-0.02964268
56	0x3d1df9dd	0.038568366
57	0xbd3ac575	-0.045598466
58	0x3d82fbae	0.0639566
59	0x3d8f9b03	0.07011988
60	0x3d28d173	0.04121537
61	0xbaea9e7b	-0.0017900014
62	0x3c7bb321	0.015362532
63	0x3db2ecb0	0.08736551
64	0x3ca7cfe0	0.020484865
65	0xbd922339	-0.071356244
66	0xbc1d259c	-0.009591486
67	0x3b16d597	0.0023015493
68	0xbc454795	-0.012040992
69	0xbe0038d5	-0.1252168
70	0x3c8622d3	0.016374027
71	0x3bfc9783	0.0077084913
72	0x3dee6112	0.116396084
73	0xbb4a7ee8	-0.0030898396
74	0x3c6a0ba5	0.014285003
75	0x3d11af91	0.035567824
76	0xbd410372	-0.047122426
77	0xbd44f9bd	-0.04808973
78	0xbd830932	-0.06398238
79	0xbcaac929	-0.020847874
80	0x3c6b11f0	0.014347538
81	0x3b0cd6e2	0.0021490385
82	0x3c9af8b7	0.018917425
83	0x3d776dd6	0.060407482
84	0xbc8138e0	-0.01577419
85	0x3cec0bf5	0.028814295
86	0xbdb3d85c	-0.08781502
87	0x3d2c264d	0.042028714
88	0x3da055f7	0.078288965
89	0x3d440140	0.047852755
90	0xbd1da5d9	-0.038488243
91	0x3c7005df	0.014649837
92	0xbd8ca854	-0.068680435
93	0xbde796a7	-0.113080315
94	0x3d8fd5be	0.0702319
95	0x3d4b2cbd	0.049603213
96	0x3db07c67	0.08617478
97	0x3be9101d	0.0071125166
98	0xbc5dd243	-0.0135389
99	0x3cd060c2	0.025436763
100	0xbd2986c7	-0.0413883
101	0xbc84c423	-0.016206807
102	0xbce0861a	-0.027407695
103	0xbd91e5da	-0.07123919
104	0x3dbd60cd	0.09246979
105	0xbd96b6c5	-0.07359079
106	0x3dde8765	0.10865668
107	0x3c853bb9	0.01626383
108	0x3c69f851	0.014280395
109	0x3dcc47bd	0.099746205
110	0xbc901214	-0.017586745
111	0xbd3db498	-0.046314806
112	0x3d3f1592	0.04665143
113	0xbc396d93	-0.011317628
114	0x3c03290e	0.008005394
115	0x3d85cbe4	0.0653303
116	0xbb3e3fa1	-0.0029029625
117	0x3d9be3c1	0.076118
118	0xbd7a152e	-0.061055355
119	0x3cb5ac79	0.022176968
120	0x3d03c6a0	0.032171845
121	0xbca286da	-0.019839693
122	0xbc034843	-0.008012834
123	0x3cb297bd	0.02180087
124	0xbda01e17	-0.07818239
125	0x3dc73da9	0.097285576
126	0xbda40b72	-0.080099955
127	0x3d3f4f4d	0.046706486
128	0x3b9a6408	0.0047116317
129	0xbdadaa2d	-0.08479724
130	0x3d69c754	0.05707486
131	0xbb79c7ce	-0.0038113478
132	0xbca4b96d	-0.02010795
133	0xbd3e511a	-0.046464063
134	0xbe08c216	-0.13355288
135	0x3d79f4fb	0.061024647
136	0xbd67f684	-0.05663158
137	0x3d485277	0.04890677
138	0x3daa52e1	0.08316589
139	0x3d3d7cee	0.04626172
140	0x3cff2d27	0.03114946
141	0x3cda161f	0.026621876
142	0xbd8de71f	-0.069288485
143	0xbd2cba79	-0.04217002
144	0xbd53e334	-0.05173035
145	0x3c8c5472	0.01713011
146	0x3d2d6e46	0.042341493
147	0xbaa89994	-0.0012863153
148	0xbde7d8aa	-0.11320622
149	0xbdfc04f3	-0.123056315
150	0xbd915f6b	-0.07098278
151	0x3d5cb43d	0.053882826
152	0x3d9a26a6	0.07526903
153	0xbde2cea4	-0.1107457
154	0xbd2c413e	-0.042054407
155	0x3d7c1d65	0.06155147
156	0x3c1b1299	0.009464883
157	0xbd9b8310	-0.075933576
158	0xbb06bfab	-0.002056102
159	0x3d84fbd1	0.06493343
160	0x3d5bf7b0	0.05370301
161	0xbb9257ea	-0.0044660466
162	0xbcf6fdde	-0.03015035
163	0xbd97175f	-0.073775046
164	0xbd212885	-0.039345283
165	0xbba87f96	-0.0051421626
166	0xbdbee6ac	-0.09321341
167	0x3d756f14	0.059920385
168	0x3d203f2e	0.039122753
169	0x3b538f80	0.0032281578
170	0xbdce7d09	-0.10082442
171	0xbc989d96	-0.01862983
172	0x3dcb4826	0.099258706
173	0x3d674740	0.056464434
174	0xbd55ff74	-0.052245572
175	0xbd6bb3b8	-0.05754444
176	0x3d49f412	0.04930503
177	0xbd6ac732	-0.057318874
178	0xbd40c3bc	-0.047061667
179	0xbc2b47ef	-0.010454162
180	0xbc25d8a4	-0.010122452
181	0xbc8cca97	-0.017186446
182	0xbd14109e	-0.03614866
183	0xbd72874e	-0.059211068
184	0x3c7a7ac9	0.015288063
185	0xbc0d168f	-0.008611335
186	0xbdf94113	-0.12170615
187	0x3c881d2a	0.016615469
188	0xbb538f51	-0.0032281468
189	0xbdbbe9c9	-0.0917545
190	0x3db7e569	0.089793034
191	0x3d5d6d84	0.05405952
192	0x3d54100b	0.051773112
193	0xbd1b05a9	-0.037847195
194	0x3d218a27	0.039438393
195	0x3c931302	0.0179534
196	0xbc127da5	-0.008941089
197	0xbd21e714	-0.039527014
198	0x3c97f52a	0.01854952
199	0xbdbf014f	-0.093264215
200	0x3db43396	0.08798902
201	0x3cfce1f3	0.03086946
202	0xbce89be3	-0.028394645
203	0x3d4ebd18	0.050473303
204	0xbd596286	-0.053072475
205	0xbc4df038	-0.01256948
206	0xbce5f9da	-0.02807324
207	0x3c13eb06	0.009028202
208	0x3d783600	0.060598373
209	0x38550fb9	5.07978e-05
210	0x3d961086	0.0732737
211	0x3dc0e8fd	0.09419439
212	0xbde67ea6	-0.11254625
213	0xbd90ebb5	-0.070762075
214	0x3d196064	0.03744544
215	0xbd2a6cbe	-0.04160761
216	0x3db30b1b	0.087423526
217	0x3ddff952	0.10936226
218	0xbdf3d993	-0.11906733
219	0x3cab1b63	0.020887082
220	0x3d2d574d	0.042319585
221	0x3dd7f9be	0.105456814
222	0xbdcdcc5d	-0.10048745
223	0x3d61bffe	0.05511474
224	0xbd9f14f3	-0.077676676
225	0x3a2e6872	0.0006653137
226	0x3d86efef	0.065887325
227	0x3dae579a	0.085128024
228	0xbd9621fd	-0.073307015
229	0xbbf23b32	-0.0073923105
230	0xbd9ba312	-0.075994626
231	0x3daf64c3	0.08564141
232	0x3c9c9e57	0.019118471
233	0xbb7ecc2b	-0.0038879018
234	0x3cae037d	0.021241898
235	0x3b5038ac	0.003177206
236	0x3c41aeb6	0.0118214395
237	0xbd96918d	-0.0735198
238	0x3d75e956	0.06003698
239	0xbdb13190	-0.086520314
240	0x3c158412	0.009125726
241	0xbd81e4cd	-0.063424684
242	0xbd624f0a	-0.05525116
243	0x3ce6a984	0.028157003
244	0xbc341bb6	-0.010992935
245	0xbdccc904	-0.09999278
246	0x3d29fe23	0.04150213
247	0x3d62729a	0.055285074
248	0xbc48402e	-0.012222333
249	0xbc14f996	-0.009092709
250	0xbd37b54b	-0.04485063
251	0xbda5c81e	-0.0809481
252	0x3bebdba9	0.0071978164
253	0x3dbe9ad9	0.093068786
254	0x3c9fd46d	0.019510472
255	0xbd78da72	-0.0607552

encoder.linear_log_var.bias f4 [10]
0	0xbb47da68	-0.003049517
1	0xbb451d6b	-0.003007735
2	0xba026596	-0.0004974244
3	0xbb91ca72	-0.004449182
4	0x3ac7807d	0.0015220788
5	0xbb0603b9	-0.0020448996
6	0xbb0f6d9e	-0.0021885405
7	0xbb0a1fe2	-0.0021076133
8	0xbbc845e4	-0.0061118472
9	0xbb2386d5	-0.0024952192

decoder.MLP.L0.weight f4 [64, 16]
0	0xbcb11b11	-0.021619352
1	0x3d254c1d	0.04035579
2	0xbd26c91a	-0.04071913
3	0xbb49bdcb	-0.0030783291
4	0xbd0eae50	-0.034834206
5	0xbcbfcf24	-0.023414202
6	0xbc6df873	-0.014524567
7	0xbd674871	-0.05646557
8	0x3d1c637f	0.038180824
9	0x3d63ddfb	0.05563162
10	0x3e04b883	0.1296101
11	0x3c5c8ec7	0.013461775
12	0xbf8f6bc2	-1.120476
13	0xbebc0dcc	-0.36729276
14	0x3fac6a02	1.3469851
15	0xbed71c2a	-0.42013675
16	0x3d0bd9b4	0.034143165
17	0x3bb07912	0.0053855265
18	0xbcf033db	-0.029321602
19	0x3c861db8	0.016371593
20	0x3c7dc160	0.015487999
21	0xbc1c22d8	-0.009529792
22	0xba01053d	-0.000492174
23	0xbc1fd840	-0.009756148
24	0xbcb25c25	-0.021772454
25	0xbd19721d	-0.037462343
26	0xc04d2fd1	-3.2060435
27	0xc0651691	-3.5795023
28	0xc12fbc8b	-10.983531
29	0xc198d3ba	-19.103382
30	0xc0947306	-4.639041
31	0xbf2c95c4	-0.67416024
32	0xba5fa3e0	-0.0008531194
33	0xba8936ee	-0.0010468641
34	0x3a65aca3	0.00087613816
35	0x3b42f512	0.0029748124
36	0x3a37c883	0.00070107746
37	0xbbd2c900	-0.0064326525
38	0x3c0fb8cd	0.008772087
39	0xbb204a2a	-0.0024458268
40	0x3bef04ae	0.007294259
41	0xbb4ad814	-0.0030951547
42	0xbf9c1ef9	-1.2196952
43	0x3f008223	0.5019857
44	0x3fac9f66	1.3486145
45	0x402b5fb4	2.6777163
46	0xc0ff2a74	-7.9739323
47	0x3db087b6	0.08619635
48	0x3c355356	0.011067232
49	0x37deac39	2.654466e-05
50	0xbc763eb5	-0.015029599
51	0xbd750dd0	-0.059827626
52	0x3b85a943	0.0040790155
53	0x3c937661	0.018000783
54	0xbd7063c2	-0.058688886
55	0xb90b06eb	-0.0001325865
56	0x3ca89304	0.020577915
57	0x3c819de9	0.015822368
58	0xbecc7cec	-0.39939058
59	0xbf7a04dc	-0.97663665
60	0x3f30fbcd	0.6913422
61	0xbeffa429	-0.49929932
62	0xbf99ae32	-1.2006285
63	0xbf4665b4	-0.77498937
64	0x3af3e797	0.0018608448
65	0x3adf4f25	0.0017037137
66	0x3b384853	0.002811928
67	0xbbc3eb39	-0.0059789685
68	0x3b983575	0.0046450444
69	0xbb09d326	-0.0021030395
70	0x3a827cf9	0.0009955458
71	0xbb27d5ff	-0.002560973
72	0xbbad692d	-0.005292079
73	0xbbb4a76f	-0.0055131237
74	0x3ed8af71	0.4232135
75	0x3e1a9edd	0.15099664
76	0x404e9771	3.2279932
77	0xc0cd94ad	-6.424399
78	0xc00a2ed8	-2.159109
79	0xc04648ba	-3.0981889
80	0x3b072e02	0.0020626788
81	0xb9b3105d	-0.00034153732
82	0x3afbc683	0.0019208941
83	0x3c1671cb	0.009182404
84	0x3b24970b	0.0025114443
85	0xbaebf21d	-0.0018001233
86	0xbb0f948c	-0.002190861
87	0x3ba91308	0.0051597394
88	0xbbd20fae	-0.0064105606
89	0x3c38940b	0.011265765
90	0x3fa46ff5	1.2846667
91	0xbdbcbbb2	-0.092154875
92	0xbf643a05	-0.8915103
93	0xbe272887	-0.16324054
94	0x3edb4653	0.4282709
95	0x3f8b2e77	1.0873555
96	0x3d8a61b1	0.067569144
97	0xba21044a	-0.0006142302
98	0xbca29ec3	-0.019851094
99	0x3b9c6fde	0.004774078
100	0x3d98bf64	0.0745838
101	0xbcbfe527	-0.023424698
102	0x3be10697	0.0068672406
103	0x3c21dbba	0.009879047
104	0xb9edefef	-0.00045382927
105	0xbc40c4a3	-0.011765632
106	0xbe7257cc	-0.23666304
107	0xbd9dbb95	-0.07701794
108	0xbd258d9d	-0.040418256
109	0xbe39f157	-0.1815847
110	0xbdaa1f4b	-0.0830675
111	0x3df9c021	0.12194849
112	0x3a1c9767	0.00059734884
113	0xbcbf11ee	-0.02332398
114	0xbc3cdebb	-0.011527712
115	0x3b1d1f00	0.0023974776
116	0x3c7b68fc	0.015344854
117	0xbb2c8dca	-0.002632963
118	0x3b28870b	0.0025715258
119	0x3c7e4fda	0.015521968
120	0xbbf65ebf	-0.007518619
121	0xbc79c5cb	-0.015244911
122	0x3fab91fb	1.3403925
123	0xbfddf7f6	-1.7341297
124	0x3fb6f2bd	1.4292828
125	0x3f2e4ab4	0.6808274
126	0xbddab715	-0.106794514
127	0xbe8b661f	-0.2722635
128	0xbd157f25	-0.036498208
129	0x3da5d7e1	0.08097816
130	0xbc09783f	-0.008390485
131	0x3c8972e7	0.016778423
132	0xbb4ce066	-0.0031261682
133	0xbc408852	-0.011751251
134	0x3d95ff02	0.073240295
135	0x3ccd5625	0.025065491
136	0xbcd9daa1	-0.026593508
137	0xbd08afb4	-0.03337069
138	0xbf19d96c	-0.60097384
139	0xbf267191	-0.6501704
140	0xbe1c29de	-0.15250346
141	0xbd134ef3	-0.035963964
142	0xbea1a9ea	-0.31574947
143	0xbf26fc60	-0.65228844
144	0x3c0435e0	0.008069485
145	0x3c60f67f	0.013730644
146	0xba908859	-0.0011026963
147	0x3c821834	0.015880682
148	0xbb669c11	-0.0035188238
149	0xbb5ff152	-0.0034170938
150	0xbb688d13	-0.0035484477
151	0x3b2d61e3	0.002645605
152	0xbbff415b	-0.0077897734
153	0x3b82f71e	0.003996744
154	0x3d975e06	0.073909804
155	0x3dc1053c	0.094248265
156	0x3ea1cb51	0.3160043
157	0xc0194596	-2.3948722
158	0xc12149fa	-10.080561
159	0x40107290	2.2569923
160	0x3bec2eba	0.0072077187
161	0xbbfd48ac	-0.0077296104
162	0x3ba28b01	0.004960418
163	0x3b1c4a6f	0.0023848077
164	0x3c8fd140	0.017555833
165	0xbb257d74	-0.0025251778
166	0x3bae2e84	0.0053156037
167	0xbc415e49	-0.0118022645
168	0xbb8b92f6	-0.0042594625
169	0xbb55605a	-0.003255865
170	0x3f91db83	1.1395115
171	0x3e3daaa8	0.18522131
172	0xbff2fdee	-1.8983743
173	0x3f746d2e	0.95479095
174	0x3f98a034	1.192389
175	0xbfff347a	-1.993789
176	0x3b2e8c73	0.0026634007
177	0x3bd50f0f	0.0065020393
178	0xba6d7a00	-0.0009059012
179	0x3b1f7ab3	0.002433461
180	0x3bdee102	0.0068017254
181	0xbad6b93f	-0.0016382112
182	0xbad88ec2	-0.0016522037
183	0x3bb4483c	0.005501775
184	0xbb749313	-0.0037319108
185	0xb873d863	-5.813724e-05
186	0xbf7e7130	-0.9939146
187	0x3ee19ba7	0.44064066
188	0x400f1b14	2.2360277
189	0x3ede0b23	0.43367872
190	0xc07cd19f	-3.9502943
191	0xbff36ff5	-1.9018542
192	0x3c254d2c	0.0100892
193	0xb9809ba2	-0.00024530018
194	0x3be9e151	0.0071374555
195	0x3c6482ae	0.013947172
196	0x3b5a9cdb	0.0033357653
197	0xbd330396	-0.04370459
198	0x3d594a3e	0.05304932
199	0x3b55087a	0.0032506273
200	0x3c69eef7	0.014278165
201	0xbd0a4599	-0.03375778
202	0xbeebe49f	-0.46072862
203	0xbe9efe4d	-0.3105339
204	0xbe896c66	-0.26840514
205	0xbe84a10b	-0.25904116
206	0xbd864b7f	-0.065573685
207	0xbea5bf8d	-0.32372704
208	0x3c6cc474	0.014451135
209	0xbc635512	-0.013875263
210	0xbc448649	-0.011994907
211	0x3bb4b2aa	0.0055144625
212	0xbaba5677	-0.0014216442
213	0xbb38e0d3	-0.0028210178
214	0xbb136e48	-0.0022496153
215	0x39f5fb20	0.00046917144
216	0xb81751f8	-3.6077545e-05
217	0xbbe03ecf	-0.006843425
218	0x3fcddb38	1.6082525
219	0x3e87e6d3	0.26543292
220	0xc02d7f0d	-2.7108796
221	0xc0454269	-3.0821784
222	0x406d4867	3.707544
223	0xc08bf868	-4.374073
224	0xbbe31ee7	-0.006931174
225	0x3c592028	0.013252296
226	0xbc978240	-0.018494725
227	0xbc28a5e6	-0.0102934595
228	0x3c3431ac	0.010998171
229	0x3db58007	0.0886231
230	0xbd2f60d1	-0.04281694
231	0x3c905fd8	0.017623827
232	0xbc7cd988	-0.015432723
233	0xbd599a2b	-0.05312554
234	0xbf3f5d0c	-0.74751353
235	0xbed9f66d	-0.4257082
236	0xbf118af6	-0.5685266
237	0xbde1a82b	-0.110184036
238	0xbf103c11	-0.56341654
239	0xbf191bd7	-0.59808105
240	0x3a5ff959	0.00085439306
241	0x3bb2be43	0.00545481
242	0xbc3a8a36	-0.011385491
243	0x3bf761ee	0.007549516
244	0xbc0a6cf6	-0.00844883
245	0x3c4dfa13	0.012571829
246	0x39f4e1ad	0.00046707448
247	0x3c024740	0.007951558
248	0x3c065837	0.008199743
249	0x3c34eef0	0.011043295
250	0x3f856497	1.0421323
251	0x3ebeb9b7	0.37251064
252	0xbd80f419	-0.06296558
253	0xbea984ea	-0.33109218
254	0xbed65638	-0.41862655
255	0xbf9c7df3	-1.2225937

decoder.MLP.L0.bias f4 [64]
0	0xbf2d310e	-0.67652977
1	0x405ee677	3.4828165
2	0x4003b761	2.0580676
3	0x3c5bf1cb	0.013424347
4	0x3e8cfb23	0.27535352
5	0xc015db83	-2.341523
6	0xbf07a1e0	-0.52981377
7	0x3fc8f878	1.5700827
8	0xbe471d48	-0.19444764
9	0x3fa5647c	1.292129
10	0xc038c5cb	-2.8870723
11	0x3f05c041	0.5224648
12	0xbde6fbc5	-0.1127849
13	0xbf096130	-0.5366392
14	0xbe8bb9f1	-0.272903
15	0xc10d36bd	-8.825864
16	0x3fdd0cdd	1.726955
17	0x3fc8ae38	1.5678167
18	0xbe9fedbc	-0.31236064
19	0xc0982398	-4.754345
20	0xbea02db6	-0.31284875
21	0x3f05ea6f	0.5231084
22	0xbf2fb69f	-0.6863803
23	0xbea32ac5	-0.31868568
24	0x40213fa4	2.5195093
25	0x3f3b2038	0.73096037
26	0xbdce3a39	-0.10069699
27	0x40230010	2.5468788
28	0xc04de166	-3.2168822
29	0xbe164cd6	-0.14677748
30	0xbf069682	-0.52573407
31	0xbf18842c	-0.5957668
32	0x3ff17460	1.886364
33	0x3d1b5b4b	0.03792886
34	0xc039fd56	-2.9060874
35	0xbe854823	-0.26031598
36	0x4063adf9	3.5574934
37	0x3f38211c	0.7192552
38	0x3ff437e1	1.9079553
39	0xbea95585	-0.3307306
40	0x4023c24c	2.558734
41	0xbe54c072	-0.20776537
42	0xbdb0ca2e	-0.08632313
43	0x406742b3	3.613446
44	0xbef6ef37	-0.4822938
45	0xbf3ab7dc	-0.729368
46	0xbf6d8082	-0.9277421
47	0xbf578a6a	-0.8419558
48	0xbe847106	-0.2586748
49	0x3f368eb7	0.71311516
50	0xbf1882c0	-0.5957451
51	0x3b1b4f5a	0.002369842
52	0xbd5718f6	-0.05251404
53	0xbff4ac98	-1.9115171
54	0xbf634b0d	-0.88786393
55	0x3ed66f72	0.418819
56	0xbdabd22b	-0.08389696
57	0xbe5443b7	-0.20728956
58	0xbf808dae	-1.0043237
59	0xbdbee5e2	-0.093211904
60	0xbedb6431	-0.42849877
61	0x3e7473cb	0.23872297
62	0xc0a8d159	-5.275555
63	0x3fb47e60	1.4101067

decoder.MLP.L1.weight f4 [128, 64]
0	0x3e307632	0.17232588
1	0xc0232140	-2.5489044
2	0x3d9a33ae	0.07529388
3	0xbcdd9657	-0.027049227
4	0xc002b447	-2.0422533
5	0x3e3c4096	0.18384013
6	0x3cf46f95	0.029838363
7	0x3f13483e	0.5753211
8	0x3d1d11bd	0.038346995
9	0xc00a33e6	-2.1594176
10	0xbf8f7b45	-1.1209494
11	0x3d8b8eff	0.06814384
12	0x3d912433	0.070869826
13	0x3f457abf	0.7714042
14	0xbd9cace1	-0.076501615
15	0x3e8d22c8	0.27565598
16	0xc079e97c	-3.9048758
17	0x3f72e796	0.9488462
18	0xbd49a1d8	-0.04922661
19	0x3fb260d0	1.3935795
20	0xbd33ef93	-0.043929648
21	0x3f873ccd	1.056543
22	0x3f36db8f	0.7142877
23	0xbd9115e3	-0.07084253
24	0xbf3239f0	-0.69619656
25	0x3e6ad27f	0.2293186
26	0x3d51abe6	0.051189326
27	0xbf53d46d	-0.8274601
28	0x3ccf1ec1	0.02528322
29	0x3e1d9ca0	0.15391779
30	0xbb85cb5b	-0.0040830798
31	0x3b6a47dc	0.0035748398
32	0xbf2a53b4	-0.6653397
33	0xbe367ba1	-0.17820598
34	0xbfdcba59	-1.7244369
35	0xbd5ab6b3	-0.05339689
36	0x3f749f0d	0.9555519
37	0xbfed0c0f	-1.8519305
38	0xbe3c2232	-0.1837242
39	0xbe0c05d4	-0.13674098
40	0x3e123aad	0.14280196
41	0xbc1d53b9	-0.009602481
42	0x3d7f1e56	0.06228479
43	0x3fcdc24a	1.6074917
44	0x3dd3a8d0	0.10334933
45	0x40276b57	2.6159265
46	0x3e1f7c75	0.1557482
47	0xbda0f2ed	-0.078588344
48	0xbfd58f84	-1.6684422
49	0x3f9a3fa0	1.2050667
50	0x3ddcafeb	0.10775741
51	0xbca10de4	-0.019659944
52	0xbd03f0a5	-0.03221192
53	0xbf48d9fb	-0.7845761
54	0x3d894289	0.06702144
55	0xbeb0342b	-0.344148
56	0x3e04d136	0.12970433
57	0x3e0d3f7a	0.13793746
58	0xbe21ebd8	-0.15812624
59	0xbe1b4251	-0.15162016
60	0xbeee1f10	-0.46508074
61	0x4005b949	2.089434
62	0xbe3f0483	-0.18654065
63	0xbfa184f9	-1.2618705
64	0x3ce7b922	0.02828652
65	0xbe48ba87	-0.19602405
66	0xc0085e5e	-2.1307597
67	0x3e6f5994	0.23374015
68	0xbeca7458	-0.39541888
69	0x3f0cdd57	0.5502524
70	0xbd2681ea	-0.04065124
71	0xbd968473	-0.073494814
72	0x3daa0bf4	0.08303061
73	0xc0026bb8	-2.0378246
74	0x3fc39a18	1.5281401
75	0xc017db26	-2.3727508
76	0x3d976e4e	0.07394086
77	0x3c877ad9	0.01653807
78	0x3d952d32	0.07284011
79	0x3e589c58	0.2115339
80	0x3ec77c61	0.3896208
81	0x40134fd0	2.3017464
82	0x3eadc4be	0.33939165
83	0x3f0cc2c8	0.5498471
84	0x3ca982cc	0.020692252
85	0x3fb398f3	1.4031051
86	0x3f9e60bb	1.237327
87	0xbc0c22db	-0.008553232
88	0xc0101765	-2.251428
89	0xbffb901a	-1.9653351
90	0xbdb3c52d	-0.08777843
91	0xbec98103	-0.3935624
92	0x3ec8708d	0.3914837
93	0x3c0b3fb9	0.008499079
94	0xbd36c57d	-0.044621933
95	0xbd05990e	-0.032616667
96	0xc08706a2	-4.2195597
97	0x3d2ebd71	0.042661134
98	0xc0b8b415	-5.7719827
99	0xbe792239	-0.24329461
100	0xbe90c7d2	-0.2827745
101	0xbf42d688	-0.761086
102	0xbecd310b	-0.4007648
103	0xbd96e48e	-0.07367812
104	0xc1ca5744	-25.29261
105	0x3dd12d47	0.10213714
106	0xbea2e7b2	-0.31817394
107	0x3dcacc82	0.09902288
108	0x3fb4f663	1.4137691
109	0x3ee3d5c8	0.4449904
110	0xbe4405aa	-0.19142786
111	0xbe13f7a8	-0.14449942
112	0x3fc5ee0a	1.5463269
113	0x3f72ad42	0.9479562
114	0xbdf43f17	-0.11926096
115	0x3e7a5def	0.24449895
116	0x3ca95f67	0.020675374
117	0xbf812194	-1.0088372
118	0x3d6d6c52	0.05796463
119	0xc07bffc6	-3.9374862
120	0x3d905f07	0.07049375
121	0xbd7c663d	-0.06162094
122	0xbd122339	-0.035678122
123	0xbc42b3b4	-0.011883665
124	0xbeba2888	-0.36359048
125	0xbd400284	-0.0468774
126	0xbfa171ae	-1.2612817
127	0x3f2c38b8	0.67274046
128	0xbea41a5e	-0.32051367
129	0x3e2f5db8	0.17125595
130	0xbea47995	-0.3212401
131	0x3ecf9a98	0.40547633
132	0x3fb0ae44	1.3803182
133	0x3de8f6ab	0.11375173
134	0x3dcfb643	0.101421855
135	0x3df59e28	0.119930565
136	0x3d523c13	0.051326822
137	0xbc5cc647	-0.013475007
138	0xbff16884	-1.8860021
139	0x3e597ef4	0.21239835
140	0x3dae3974	0.08507052
141	0x3fb1af80	1.3881683
142	0x3d442c72	0.04789395
143	0x3fd0c387	1.630967
144	0xc01f867e	-2.4925838
145	0xbe385170	-0.17999816
146	0xbdc1b954	-0.09459177
147	0x3dbb84b6	0.09156172
148	0xbd012ebb	-0.031538706
149	0xbfb701f2	-1.4297469
150	0x3db694d3	0.08915105
151	0xbd7a0a80	-0.06104517
152	0xc12c50dc	-10.769741
153	0x3fa52b82	1.2903903
154	0x3e5a64fc	0.21327585
155	0x3ff375cc	1.9020324
156	0x3f9dbc48	1.2323084
157	0x3e3c7be1	0.18406631
158	0x3e1640a5	0.14673097
159	0x3c89ca26	0.016820025
160	0xbe7301b4	-0.23731118
161	0x3e6f9621	0.23397113
162	0xc0202afe	-2.502624
163	0xbe0b9ef3	-0.13634853
164	0x3e68cf3e	0.22735307
165	0xbe8d330e	-0.27578014
166	0x3cf16b93	0.02947024
167	0x3dff330b	0.124609075
168	0xc18435ac	-16.526207
169	0x3dd9947e	0.10624026
170	0xbe14e876	-0.14541802
171	0x3f00078a	0.50011504
172	0xbfb13663	-1.3844723
173	0x3fa4ecbc	1.2884746
174	0x3ea26b47	0.3172247
175	0x3e0da711	0.13833262
176	0xbfc49b8a	-1.5359967
177	0xbf750e61	-0.95725065
178	0xbd2d4b25	-0.04230799
179	0x3d4de0fe	0.050263397
180	0x3e24680c	0.16055316
181	0xbdc98515	-0.098398365
182	0xbd4e4cc7	-0.05036619
183	0xbff6bf6f	-1.9277171
184	0x3e2380eb	0.15967147
185	0xbe2c51d5	-0.16828091
186	0x3dd162f7	0.10223954
187	0x3d86e01e	0.06585716
188	0xbe23db74	-0.16001683
189	0x3f08fe21	0.5351277
190	0x3d9210dd	0.07132123
191	0xbde873d1	-0.11350215
192	0x3ea51d0b	0.3224872
193	0xbf2a09f7	-0.66421455
194	0xc0067891	-2.1011088
195	0xbf62e67c	-0.8863294
196	0xc031bee7	-2.7772768
197	0xbe99bdb1	-0.30027536
198	0xbe21df19	-0.15807761
199	0xbf590e53	-0.8478748
200	0x3e13647b	0.14393799
201	0x3fcaa93b	1.5832895
202	0xbda5d4ab	-0.08097204
203	0xc065b8d8	-3.589407
204	0x3ddb753c	0.1071572
205	0x3f7efe48	0.9960675
206	0xbd6ad3ab	-0.05733077
207	0x3f84a753	1.0363563
208	0x3e9b7c30	0.30368185
209	0xbc98fad9	-0.018674301
210	0xbd31b1b4	-0.04338236
211	0x3f3df4b8	0.74201536
212	0x3d433003	0.04765321
213	0xbe4f9068	-0.2026993
214	0x401f8213	2.492314
215	0xbd66ea3c	-0.056375727
216	0x3d1a6d3b	0.037701827
217	0xbeb3ae9c	-0.35094154
218	0x3df306eb	0.11866554
219	0xc01382d0	-2.3048592
220	0x3ef67aa7	0.4814045
221	0x3d114bf9	0.035472844
222	0x3dafb5aa	0.085795715
223	0xbd255fe2	-0.040374644
224	0xbf39e56f	-0.7261571
225	0xbdecf7bb	-0.11570688
226	0x3fdaccff	1.709381
227	0xbd8f35c5	-0.069926776
228	0xbea780f5	-0.32715574
229	0xbf9bdb32	-1.2176268
230	0xc04d97c9	-3.2123892
231	0xbdf3a078	-0.11895841
232	0x3ea3d582	0.3199883
233	0xbd94c135	-0.07263414
234	0x3e1c622f	0.15271829
235	0xbf69bbfb	-0.9130246
236	0x401f52de	2.4894328
237	0xbdd7b547	-0.10532623
238	0x3e03d288	0.1287328
239	0xbd518dac	-0.0511605
240	0x3ddb9bbd	0.10723064
241	0xbe0c42d3	-0.13697366
242	0xbd217c97	-0.03942546
243	0x3d83f229	0.06442673
244	0xbd1ddc59	-0.038540218
245	0x403f1d8f	2.986179
246	0x3c32e399	0.010918521
247	0xbf5c6be4	-0.8610213
248	0xbc4f0929	-0.012636461
249	0xbf92a191	-1.1455556
250	0x3e01df92	0.12682942
251	0xbe5f1457	-0.21785103
252	0xbf8ea97e	-1.1145475
253	0xc0142f9d	-2.315406
254	0x3f2b24bb	0.6685292
255	0xbf19f47c	-0.6013868
