model/CVAE_5000_0.01_32_[12, 128, 64]_12_[64, 128, 6].pth (torch, 93372 bytes, 14 tensors)

encoder.MLP.L0.weight f4 [128, 12]
00000000: 641b 4cbd 949b 4f3e 67d4 91be 7121 85be
00000010: 7a9d 22be ad18 f13c bd88 5cbd 601d 3c3e
00000020: 743e 8fbd 49a1 053d ac7b 05be 8792 ccbd
00000030: 3649 a6be a934 10be 4184 2cbe c5ce 2cbd
00000040: ae4d 7a3d 3937 f83d 2e93 7abe da34 2bbe
00000050: 1190 853d ab4c 4e3e 0949 c4bd cfc7 373e
00000060: d895 3ebd 603b fa3c b6d4 853e 791c 89be
00000070: f017 3abe 48ac 95bd cc73 e6bd c866 7f3e
00000080: a49a 3fbe 7013 08be 3c85 4ebe df6c 8abe
00000090: ebb3 85be d207 a03e c092 d53c 659b 263d
000000a0: f956 abbd b522 78be c357 d8bc d17c b0be
000000b0: 5646 91be d501 65be 2d5f dd3d 46df e53d
000000c0: 7fc2 93be b994 143e 9788 5f3d a5ad fa3d
000000d0: 20e2 4cbd 769b febd adfb db3d 93d5 6fbe
000000e0: 1ee1 3d3d 0ba2 60be ed50 3ebe 8e65 8ebe
000000f0: 56d1 b13d a773 193e 37bb 3cbe 093d 723d
00000100: 672d 013e 48a4 eabd 9eab b9bc 531c 8e3d
00000110: 444b 453e 48d2 953e a13d 53be 9090 b8bd
00000120: 197b 0c3d 4cf5 af3e 5a01 453e 0260 283e
00000130: a0cd 09bd ff83 abbe 6cea 42bc fd05 5fbe
00000140: 7208 9abe 23ac 643e ff12 3f3e 7f3f adbe
00000150: 7b26 26bc f7dd 683c 9d10 e1bd b0ee 45be
00000160: 1059 4c3d 2476 6dbe 6f35 283d e062 a23d
00000170: 2eaa 0e3e fb60 273d ad6d b4be 501f 82be
00000180: 8288 453d 0cbf 0c3e e5af 97be aa7a 6dbe
00000190: a990 503e 97e9 e43d e150 58be fba3 20be
000001a0: fc9e b3be 1406 8fbd 024c 96be f352 99be
000001b0: 104d 82bc 9888 313d f61d f2bd 8667 2f3e
000001c0: dde2 33be 5e1c 863e b293 4a3e fa46 79be
000001d0: 5e24 93bd 206a 553c f083 2c3d 1038 8c3d
000001e0: 9801 e83d 50a7 8d3c be3b 10be 52e0 0b3e
000001f0: 51c7 8dbe c134 2fbe 26ff 93bd 09fe 0fbe
00000200: e6d2 cebd 6c48 72be 6884 7bbd 98bf 7c3d
00000210: e43e 88be 1a2e 833d 7798 033e de70 dcbd
00000220: 8938 8fbd 2164 d2bd afc3 9ebc f65d d63d
00000230: b4e5 463e 8eb9 d43d cee8 463e b009 cebd
00000240: ffc5 84be 8923 0cbe 2247 493e 0047 f5ba
00000250: b6ed 12be 3a86 62be 0c52 8abe dc7d 79be
00000260: 3cd6 6fbd 541c 223e b8d0 1f3e 6d8b 8ebe
00000270: 5e64 383e fa4f 67be 70f9 79bd d8b7 efbd
00000280: 38c0 63bd 8028 68bd 3ca1 84be 313c 7fbe
00000290: 0006 39bd 80a8 743b 0149 06be 04b5 de3d
000002a0: 7721 a9be eb46 7f3d fe7e 3c3e 581a 57be
000002b0: 1bbd 2c3e e17e b93c 94e9 9ebe e836 0c3e
000002c0: a610 9ebd b624 30be d069 413e d041 8dbe
000002d0: 7769 663d eac6 a4bd 2e29 6e3e ce58 ba3d
000002e0: 3334 183e 85af e73d 990a 12bd 03d9 a0bc
000002f0: 4d93 46be 06b2 4d3e 4827 8c3e 91e9 763e
00000300: 1e83 50be 20f1 523c 8161 50be 97b9 22be
00000310: ec3f 2cbe bc0a ca3d 6827 30be 4060 cebb
00000320: c0f7 463c 808d 3e3e d673 5fbe 70ef 4abe
00000330: e3d5 8dbe da5e a23e f200 6cbe d8ff cd3d
00000340: 91f8 18bd 32e7 b3bd 0e28 9bbd 34ce 03be
00000350: 4f38 03bd 32ce 08be 05a0 8fbd 19b1 0abd
00000360: f238 67be 5cef 1abe 94b2 6e3e 5ae5 6fbe
00000370: 20cf a9bc 0c36 923e d490 d53d 20e9 053c
00000380: 1e16 80be 746f 123e 758d 52be 8cd2 a7bd
00000390: e1dc 4ebe 9c3c bb3d 0d8c 03be 5386 b03d
000003a0: 4436 e9bd f071 043e 59d9 d33d 4e24 81be
000003b0: bfd3 873d dcfa 87be 12ca 3ebe b1fb 633b
000003c0: bbe8 203d 8f77 853e ffb1 09be 3d40 2bbd
000003d0: 68e3 d53d 6071 a8be bca9 1a3e b3d9 97be
000003e0: 769f 5fbd 4648 dcbd 29fd 58be c2c0 aabc
000003f0: a070 743e 3ed2 acbd 7a7f 2fbe b4a6 dabd
-0.04983081 0.20274192 -0.28482363 -0.26002076 -0.15880385 0.029430712 -0.05384134 0.1837058
-0.06994334 0.032624517 -0.13035458 -0.099888854 -0.3247773 -0.14082588 -0.16847326 -0.04218938
0.061109237 0.12119908 -0.24470207 -0.1671938 0.06521619 0.20146434 -0.09584243 0.17947315
-0.04652962 0.03054589 0.26138848 -0.26779535 -0.18173194 -0.07308251 -0.11252555 0.24941552
-0.18711334 -0.13288665 -0.20168012 -0.27036187 -0.2611383 0.31255966 0.026070952 0.04067554
-0.08366198 -0.2423199 -0.026409036 -0.34470227 -0.28373975 -0.2236398 0.10809169 0.11224227
-0.28859326 0.14509858 0.05457362 0.12240151 -0.050020337 -0.124319956 0.10741363 -0.23421316
0.046357267 -0.21936814 -0.18585558 -0.27811855 0.08682506 0.14985524 -0.18430792 0.05914024
0.12614976 -0.114571154 -0.022664841 0.06938996 0.19266993 0.29261994 -0.20628978 -0.09011948
0.034297083 0.34366834 0.19238797 0.16442874 -0.033643365 -0.33499143 -0.011896711 -0.21779628
-0.30084568 0.2233129 0.1865959 -0.33837506 -0.01014101 0.014213077 -0.10989497 -0.19329333
0.049889624 -0.23189598 0.041066583 0.07929015 0.13932106 0.040863972 -0.35239926 -0.25414515
0.048225887 0.13744754 -0.29626384 -0.23191324 0.20367683 0.11177366 -0.21124603 -0.15687554
-0.35082233 -0.06983581 -0.29354864 -0.29946098 -0.015905887 0.043343157 -0.11822121 0.17129335
-0.1756701 0.26193517 0.19782904 -0.24343482 -0.07184671 0.01302579 0.042118013 0.068466306
0.11328429 0.017291695 -0.1408529 0.1365979 -0.2769113 -0.17109968 -0.072264 -0.1406175
-0.100988194 -0.23660439 -0.06140557 0.061706156 -0.26610482 0.064052776 0.1285113 -0.10763715
-0.06993205 -0.10273004 -0.019380419 0.104671404 0.19423562 0.10386954 0.19424745 -0.100604415
-0.2593231 -0.1368543 0.19656041 -0.0018713176 -0.14348492 -0.22121516 -0.27015722 -0.24364418
-0.05855392 0.15831119 0.15606964 -0.27840748 0.18007037 -0.22589102 -0.061028898 -0.11704987
-0.055603236 -0.05667925 -0.25904262 -0.24925305 -0.045171738 0.003733188 -0.13113786 0.1087437
-0.33033344 0.062323492 0.18407819 -0.21006143 0.16869013 0.022643508 -0.3103758 0.1369282
-0.07718019 -0.17201504 0.1888802 -0.27589273 0.056252923 -0.08045752 0.23257896 0.090989694
0.14863662 0.113127746 -0.035654638 -0.01963473 -0.19392128 0.20087442 0.2737372 0.24112536
-0.20362517 0.0128748715 -0.20349695 -0.1589111 -0.1682126 0.09865329 -0.17202532 -0.006298095
0.012144029 0.18608665 -0.21821532 -0.198179 -0.27702245 0.3171299 -0.23047236 0.10058564
-0.037346426 -0.087843314 -0.07575999 -0.12871629 -0.032036122 -0.13359907 -0.07012943 -0.0338603
-0.22580317 -0.15130371 0.2331031 -0.23427334 -0.020728648 0.2855686 0.104280144 0.008173257
-0.25016874 0.14300328 -0.20561774 -0.081944555 -0.20201446 0.0914242 -0.12846394 0.0861937
-0.113873035 0.12934089 0.1034419 -0.2522301 0.06632184 -0.26558578 -0.18631771 0.003478747
0.03928445 0.26067778 -0.13446806 -0.04180931 0.10443765 -0.32898998 0.15103811 -0.2965828
-0.054595433 -0.107559726 -0.21190323 -0.020843867 0.23871088 -0.08438538 -0.17138472 -0.10676327

encoder.MLP.L0.bias f4 [128]
00000000: 208d 13be 3034 263d a6c1 023e e3da d5bd
00000010: 3e44 e43d d331 8ebe ea03 e33c a4df 4b3e
00000020: b5c6 08be a4ae 6a3e 40ee 9b3b fd81 96be
00000030: 3f2c 22be 680e dc3d de8a 53be 8327 a63d
00000040: 7e79 913e 64ce d9bc e052 ddbc aeb0 6bbd
00000050: 3c18 5dbe b261 78be 7e96 abbe e840 69be
00000060: f2f3 3abd 43d1 f03d 889a 5bbe 3d69 bcbe
00000070: fa13 f03d 41a6 3fbe 9d3c 67be 25d0 b7be
00000080: 38da 60be 4c22 0f3e 5840 82be 1bc7 89be
00000090: 6c9f 5d3e dbd1 75be be08 f6bd 7196 38be
000000a0: 9532 1f3e f564 68be 70f9 c6bd 0014 603d
000000b0: df03 d9bd 68cd 553d 134b 8cbe 4b09 cb3c
000000c0: d085 073d d00e b6bd 38b0 95be c892 f33d
000000d0: 745e 023e d88b b3bd 272f 9e3d b4f8 063e
000000e0: 6945 a4bd b786 663d 1bcb a03e 8900 973d
000000f0: e5b6 83be 14b5 a8bd ddd2 673d ffa4 03be
00000100: 973e 023c f882 733e ac60 1c3e d48e f0bd
00000110: bb86 9dbd 5d19 7cbd a718 db3a 6c02 c6bc
00000120: 415f 70be 6fa4 a43d b306 2d3d 4aae 12be
00000130: ad25 2ebe 6454 713d 1ce7 7dbe 4635 a1bb
00000140: e961 e73d 5205 2fbe 7b17 92be 008b 89ba
00000150: 56bb 98bd cdb9 9bbe 3900 85be 276e 7d3e
00000160: a3c0 c93d 7da1 e13d 4542 173e d012 dd3c
00000170: ba5c 263e d4c8 433e 0feb 12be 904f 16bd
00000180: 66c7 523e 1edd 2b3e 5858 40be fb36 c4be
00000190: dc52 253e ec2b 963e ea85 3e3e b0c6 443d
000001a0: f734 f23d e27d 87be 1636 95be 7bfc 3ebe
000001b0: f50a 323e 1f96 3bbd 6a1d 08be 941c 4f3c
000001c0: 5065 65bd 9c96 94be b9c2 1d3e cb50 babb
000001d0: 5570 72be fb43 76be e246 0f3e ebd1 be3d
000001e0: 8083 c03c 257a 14be 1b27 e63c b6a5 abbd
000001f0: 387d 89be daaa 8cbe c466 813d 0d08 4a3d
-0.14409304 0.040577114 0.12769184 -0.1044214 0.11145829 -0.27772388 0.027711827 0.19909531
-0.1335705 0.22918183 0.004758626 -0.29396048 -0.15837191 0.10744935 -0.20658442 0.08113005
0.28413004 -0.026587673 -0.027017057 -0.05754154 -0.21591276 -0.24256018 -0.33513254 -0.22778666
-0.0456428 0.117586635 -0.21445668 -0.3679904 0.1172256 -0.18715765 -0.22581716 -0.3590099
-0.21958244 0.13977927 -0.25439715 -0.26909718 0.21642846 -0.24005835 -0.12013386 -0.18026139
0.1554664 -0.22694762 -0.09715545 0.054706573 -0.105964415 0.052197844 -0.27401027 0.024784705
0.033086598 -0.08889544 -0.29236007 0.11893231 0.12731344 -0.087669075 0.07723837 0.1318081
-0.080210514 0.056280818 0.31404957 0.07373149 -0.25725475 -0.08237663 0.05659758 -0.1285591
0.007949493 0.2378043 0.15271252 -0.11745992 -0.076917134 -0.061547626 0.0016715721 -0.024171077
-0.23473836 0.08039176 0.042242717 -0.14324299 -0.1700656 0.05891837 -0.24795192 -0.0049196808
0.11297972 -0.17091873 -0.2853354 -0.0010493696 -0.074576065 -0.30415192 -0.25976732 0.24749051
0.09851196 0.110171296 0.14771374 0.02698651 0.1624631 0.19119579 -0.1434748 -0.03669697
0.20583877 0.16783568 -0.187837 -0.38323197 0.1614489 0.29330385 0.18605772 0.048041046
0.118265085 -0.26463228 -0.29142827 -0.18651001 0.17386992 -0.045797464 -0.1329247 0.012641091
-0.056004822 -0.29021156 0.15406312 -0.005685901 -0.23675664 -0.2404937 0.13991883 0.093173824
0.023500204 -0.1449972 0.028094819 -0.08381216 -0.26853347 -0.274741 0.06318429 0.049324084

encoder.MLP.L1.weight f4 [64, 128]
00000000: ae9e e8bc ce0e 2f3d 1537 60bd 3739 ad3d
00000010: d967 63bc 06c4 8bbd 6633 2ebd 6b33 5dbd
00000020: 54a3 55bd 800b 4aba 3015 c13c e50b 32bd
00000030: 7196 ad3d 859d 0bbd c853 0ebe 2fb4 00be
00000040: 5500 a8bd f243 3f3c c485 22bd e624 0cbe
00000050: 8b8e 8ebd d9f1 73bd e6c0 03be c9f8 1bbd
00000060: 95e8 87bd a296 1ebd 0658 97bc 6dc6 76bd
00000070: b960 38bd e584 09be 0f95 893a 1239 523b
00000080: 77f3 1fbd 6b26 84bb 40c8 b3bd 44dd 8ebd
00000090: 80de 8f3c 5c82 d5bd f62d 303d 4c41 c8bd
000000a0: bc0b eebd 92d0 1dbe 6f34 43bd 20b2 febd
000000b0: 4b28 c4bd 36d4 203d 857f 4cbc 5369 6abd
000000c0: f384 bebd 1c05 b13c c234 4b3d 8ea5 89bd
000000d0: 8439 fd3d 9025 bf3d d966 063e 4996 1fbe
000000e0: 3425 5cbc 1cb3 88bd 14e9 dbbd 00af 0a3a
000000f0: 9cc9 87bc 083a 8f3c 0d26 0e3e 1050 58bd
00000100: 08bb df3c 6b7c 91bd f861 633c 3320 953d
00000110: 28cf a7bc 790f 77bb 2bc6 0fbd 40a0 efbb
00000120: 8a74 17bd 1960 1f3a 085f a4bb 1638 f9bc
00000130: dd7b ffbd b0a3 fbbb a00e 69bd 28e4 653d
00000140: 542b c6bc d67e c5bd a4c8 28bb 56be 30bd
00000150: bbc2 2abe 3dbc 7bbd e416 90bc 999d 403a
00000160: 5cc5 91bc 3876 09be a894 b2bd 08fb d0bc
00000170: e5ad 41bd 80a7 7ebc aad7 debd 9a5c 4a3d
00000180: 7b8c 33bd 76ef 8ebd ba4d 4cbd 2758 e2bd
00000190: b380 8e3d dee3 c8bc 10d7 b4bd dfe1 ac3d
000001a0: 1da9 5abd 2b62 b9bd 1792 0abe 24ec ecbd
000001b0: 8214 e4bd 90b5 b0bc fcfa a0bc 1122 ccbb
000001c0: caa5 a2bd f442 e6bd a8cf 033d 9d85 2cbc
000001d0: 1d0b 8d3b c297 f9bc 402a 743b c734 22bd
000001e0: 028f 4c3d fada 51bd 34cf dcbd 30df 21be
000001f0: d228 2bbe 9f7f 113d 50c4 c43b 0e01 17bc
00000200: 3266 283c bc04 60bc c4e2 103d 1ce9 bbbc
00000210: 67cf 56bc 27c9 8fbc bb4f f1bc d737 80bd
00000220: 784f 583c 009c cd39 cf5e 83bd 3cf1 21bd
00000230: 5513 85bd 62a9 2f3d 82d8 e6bd 6c1f b6bd
00000240: afb2 2bbd 5e1a 1f3c 52f4 7ebd 967e 74bc
00000250: 99b2 80bc fefc 7f3d 5746 1bbd 937b 42bc
00000260: 8518 8f3d 27ac 2ebd a6c5 f5bc d644 04be
00000270: 278c abbd a728 55bd 0a1f 4abd 70f2 babd
00000280: b838 17be 9111 aabd 6e9a 0a3d e582 833c
00000290: 3b77 a3bd 8e45 92bc b7c3 abbd 060d 14be
000002a0: e45a ecbd 01e7 92bd cade 10bd 0c54 02be
000002b0: adc6 033c 4fb2 a33d e1b5 5fbd 11d5 423c
000002c0: 63f1 ccbd 5d9a c2bd 88e0 3abc 5e6d 4ebd
000002d0: ef44 f9bd 87f8 05be b8ef cdbc 9c99 0dbd
000002e0: 045f d83c f0cb c4bd 2745 ecbc 7b0a c4bd
000002f0: 5eb8 323d 0071 a0bb 482c b33b 9664 33bc
00000300: c7ab 963d ce0c 3a3d c0a0 593b 5bff 9b3d
00000310: f451 e5bd f4f7 be3c 8096 d73c 7eb7 c73c
00000320: 118b cfbd 43e8 dabd 7214 5fbd 553f 05bd
00000330: 0ac1 80bc a17c c5bc d522 9a3d 6458 a8bd
00000340: 5c61 b6bd 8d42 f9bc df18 11bd ea2f 53bd
00000350: aaf7 52bd 3b37 02be 066c d4bc b309 c2bd
00000360: 32be 8e3c 63f8 0ebe fade e5bd 6112 16be
00000370: c09d b63c 1e54 8bbd d4d9 00bd e079 7bbd
00000380: 41ea 67bd 9178 d7bd b852 593c 9c5e ad3c
00000390: 2390 a93d 2fab 88bd 7726 16be 9437 efbc
000003a0: 2dfb bfbd a47e a1bd 3e4f d7bc 222e 7fbc
000003b0: fcee aabc f98f 0ebd 3990 12bd 7bd3 79bd
000003c0: e3e8 47bd a374 d7bd 9f2f 8bbd d396 91bd
000003d0: ce02 13be e926 0db9 7869 12bc e37b 9cbd
000003e0: bd37 8f3d b9cd 42bd af9d ebbc f91a e23c
000003f0: ce39 65bd 5ad3 0dbd 2ed9 0f3d d31e dd3b
-0.028395977 0.04273873 -0.05474003 0.084581785 -0.01387974 -0.06824498 -0.042529486 -0.054004114
-0.052157715 -0.0007707402 0.023569673 -0.043468375 0.0847596 -0.03408577 -0.13899148 -0.12568735
-0.08203188 0.011673914 -0.03967835 -0.1368595 -0.06960782 -0.059556816 -0.12866554 -0.038079057
-0.066361584 -0.038717873 -0.01847459 -0.060247827 -0.045014117 -0.13429601 0.0010496693 0.0032077474
-0.039050546 -0.0040329 -0.08778429 -0.06975797 0.017562151 -0.10425255 0.04301258 -0.097780794
-0.11623332 -0.15411595 -0.047657426 -0.124363184 -0.09577998 0.03926488 -0.012481575 -0.05722935
-0.09302702 0.021608882 0.04961086 -0.0672103 0.12364486 0.09333336 0.13125171 -0.15584673
-0.013436604 -0.066747874 -0.107378155 0.0005290359 -0.016575627 0.017483726 0.13881703 -0.05281073
0.027310863 -0.07103809 0.013878338 0.07281532 -0.020484522 -0.0037698431 -0.035101097 -0.0073128045
-0.036976375 0.00060796883 -0.0050162114 -0.030422252 -0.12474797 -0.007679425 -0.056898713 0.05612579
-0.024190582 -0.09643333 -0.0025754357 -0.04315027 -0.16675846 -0.061458815 -0.01758904 0.00073477026
-0.017794304 -0.13424003 -0.0871976 -0.025510326 -0.04728498 -0.015542865 -0.108809784 0.049404718
-0.043835144 -0.06979267 -0.049878813 -0.1105197 0.06958141 -0.024522718 -0.088300824 0.08441519
-0.053383935 -0.09051927 -0.13532291 -0.11568478 -0.11136724 -0.02157095 -0.019650929 -0.006229647
-0.07941778 -0.11243239 0.03218046 -0.010529903 0.0043043033 -0.030467872 0.0037256628 -0.039601114
0.04994107 -0.051234223 -0.10781708 -0.15807796 -0.1671479 0.0355221 0.0060048476 -0.00921656
0.0102782715 -0.013673004 0.03537251 -0.022938304 -0.013110972 -0.017551972 -0.029456964 -0.062606506
0.013202541 0.00039216876 -0.06414568 -0.0395367 -0.06497828 0.042886145 -0.11271764 -0.08892712
-0.041918453 0.009710876 -0.06224472 -0.014922759 -0.015710162 0.06249713 -0.03790888 -0.011870283
0.069870986 -0.042644646 -0.030001473 -0.12916884 -0.08376341 -0.052040722 -0.049346007 -0.091282725
-0.1476773 -0.08304132 0.033838682 0.016053626 -0.07981726 -0.017855432 -0.08386939 -0.14458093
-0.115407735 -0.07172967 -0.03536872 -0.12727374 0.0080429735 0.07992994 -0.054616813 0.011891619
-0.10006978 -0.09502099 -0.0114060715 -0.05039727 -0.12171351 -0.13083087 -0.02513872 -0.03457032
0.026412494 -0.096092105 -0.028841568 -0.095723115 0.043632858 -0.004896283 0.005467925 -0.0109492745
0.07356983 0.045422368 0.0033207387 0.076170646 -0.11197272 0.023311593 0.026316881 0.024379488
-0.10133947 -0.10688832 -0.054462858 -0.0325311 -0.015717048 -0.02410728 0.07526175 -0.08219984
-0.089052886 -0.030427242 -0.03542411 -0.051559366 -0.051505722 -0.12716381 -0.025930416 -0.09474506
0.017424677 -0.1396194 -0.1122417 -0.14655448 0.022292018 -0.068031535 -0.031457737 -0.061395526
-0.056619886 -0.10521043 0.013264351 0.021163277 0.08279445 -0.06673276 -0.1466311 -0.029201306
-0.0937408 -0.07885483 -0.026282903 -0.015574964 -0.02086591 -0.03480527 -0.035782073 -0.0609927
-0.048806082 -0.105202936 -0.067961924 -0.071088456 -0.14356539 -0.00013461303 -0.0089362785 -0.07640817
0.06993053 -0.047559474 -0.028761713 0.027600752 -0.05596333 -0.03462539 0.035119228 0.0067480593

encoder.MLP.L1.bias f4 [64]
00000000: 34c7 cdbd f39d c4bd cde3 f4bd fefe 03bd
00000010: 47f7 b1bd 59e5 f0bd 1b1e 32bd 4ff0 22bd
00000020: 2c96 0abd 1fd2 9dbc b47d e93c d272 f2ba
00000030: cd75 ccbd 2df5 d0bd fffd 103d 6c99 84bd
00000040: c23c 9cbd 1166 e73a 2e35 6a3d 5da7 edbc
00000050: bf9e 8ebd 72b0 c63c 0703 35be 7b9b 10be
00000060: af26 3fbd 2e21 d4bc 4f75 01be ae86 813b
00000070: bb32 07bd 0249 42bd 6263 35bb d6d4 8c3b
00000080: 9b97 1cbd 6760 aa3c 7e4a b3bb 1820 acbc
00000090: a9c7 ddbd a0bc 02be 8930 7bbd ec46 abbd
000000a0: 1a03 0fbe f779 a9bd 37e5 edbd e952 84bd
000000b0: fdd5 ccbd 848a 09be 953b 9abd a95e b9bd
000000c0: 1186 93bd 4df0 d7bb 1651 f9bb aa79 1dbb
000000d0: d599 b43d b700 5dbd 393e dbbd 3755 84bd
000000e0: c422 3cbd 156b b2bd e950 0d3d ae2e 3e3d
000000f0: 6ac2 ecbd dfaf 53bd 509d 083c 4c90 c3bc
-0.100477606 -0.09600439 -0.11957512 -0.0322256 -0.086897425 -0.117624946 -0.043485742 -0.039779957
-0.03383462 -0.019265233 0.028502323 -0.0018497354 -0.09983406 -0.102030136 0.03539848 -0.064745754
-0.07628776 0.001765432 0.057179622 -0.02901047 -0.06963872 0.024254058 -0.17676936 -0.14121811
-0.04666775 -0.025894728 -0.12642406 0.0039528226 -0.033007365 -0.047432907 -0.0027677645 0.004297833
-0.03823052 0.020797921 -0.0054715266 -0.021011397 -0.10829098 -0.12767267 -0.061325584 -0.08363137
-0.13966027 -0.08275216 -0.11615985 -0.06461126 -0.100017525 -0.13431746 -0.075308956 -0.09051258
-0.072033055 -0.0065899254 -0.007608543 -0.0024028816 0.08818404 -0.05395576 -0.107052274 -0.06461566
-0.045931593 -0.087118305 0.03450099 0.046431236 -0.11560519 -0.051681396 0.0083382875 -0.023872517

encoder.linear_means.weight f4 [12, 64]
00000000: aab1 7fbc 53d6 803d 27b1 8a3c 5936 55bc
00000010: b570 d2bb 500d d23d b7f2 883c ddec 85bb
00000020: 20d7 77bd dfa8 e03d 9070 8c3c 09db afbc
00000030: d3c0 f1bb deff 08bd 641d 0c39 828a d33d
00000040: ca16 613d 4648 90bd 191f 943d ff0c 10be
00000050: 60db 1c3d 7748 063d 34cd cd3a ce1b 23bd
00000060: 9f7f 173e ea9a 903d 49a6 a6bc b01e e1bc
00000070: 9015 d23d 2eeb c8bd 0079 3e3d a783 f9bd
00000080: 7d1d 9cbd 71d3 963d ba56 e5bd b29b ddbb
00000090: ff54 ab3d e47a 14bb 59d4 273d 48b0 7e3d
000000a0: 4390 89bc 68f2 13bd e5e8 a6bd 0a57 313e
000000b0: 2607 18bd 8dae f33c 761b f13d 92ef cb3d
000000c0: 29ba 943d c1c5 27be b17e ef3d 3b75 8abd
000000d0: 80d1 d53a 1cf4 023b 8904 1a3e 6f7d 4dbd
000000e0: 69d3 71bd f8a5 51bd 5ac2 253e c24d ecbd
000000f0: 2c7e cf3c f32f acbb c8e9 9b3c 2078 30be
00000100: 682a 033c 89f9 8bbd ca12 4cbd 7fd5 cdbd
00000110: e2a2 abbd 522e ac3c b985 dc3c ca51 aa3d
00000120: a3f0 98bb 5b1f 833b 3098 003c 14d1 003d
00000130: d234 2ebe 03d2 f9bd 5ace d63c 059e ee3d
00000140: dc43 183d bd46 babd b537 bebd 83c7 fabd
00000150: 00e2 7b3c 82eb b43d e8be 4aba 0e7f 95bc
00000160: eec8 3a3d 7287 be3d bc86 933c 2463 bcbc
00000170: 2ad9 d838 a04b d33b a263 d93d 96d9 7d3d
00000180: aa1f a8bd 8c09 5f3d 98b1 ceba 019e 9d3d
00000190: 26cc 5a3d 8544 a1bd f0b8 2fbd 9e87 68bd
000001a0: 0e08 1cbe 1c6f 2abd 15ce 0d3d 83b1 dc3b
000001b0: 2de0 dbbc b06e 44bd b139 b23d 693a 11bd
000001c0: 4a39 a3bd 9a5d b2bd fab3 373c 5c66 0ebe
000001d0: 407c 55bc e7c0 693d 3f16 9d3c 10d3 b3bd
000001e0: 159b c9bd c7ab 9abd 463a 16bd 1aa9 d03d
000001f0: 1f75 71bc 6f8e a53b 9055 e1bd 1b92 69bd
00000200: 4325 413d 8f75 3dbd a433 883d ae2d 08bd
00000210: 65e9 38bc 5498 0d3e e0d0 263d 944c 163d
00000220: de8c 38bc fe1d 1f3d b2b0 f1bd a0fe 3c3e
00000230: cbf5 043d fc15 b03d 28ce 5f3d 5207 a4bd
00000240: 51e9 01be 8056 a93d 0312 ffbc 4a39 b53d
00000250: a016 2ebc 4447 6abd ea69 69bd 826d 14be
00000260: 24b9 933d 62a5 bc3d daf4 973d 02c0 69bd
00000270: e85c 8b3d bc0a c5bd f421 f8bc 05f4 033e
00000280: a941 c5bd 9b12 d7bc 5649 55bd 861d 1abd
00000290: e950 dd3d c195 01bd 25ac 543d 0f80 873c
000002a0: 279f 313e b8b6 eabd 58c7 18bc 6672 6bbd
000002b0: a103 19bd 1606 203e db67 60bd dbdc 373c
000002c0: c5f4 ef3b 2e4b 713d c361 e7bc 9063 193e
000002d0: b862 dcbd 8b9d c0bb 3953 3a3b 39b2 76bd
000002e0: 45ec 82bd 3d19 3cbc 1a27 983d 308f 9cbc
000002f0: e3f4 e2bd aae7 ea3d fcd8 963d c457 79bd
00000300: 9e18 cbbd 00c7 3a3d 2e6f 013e 8053 34be
00000310: fc21 6d3d facb 0dbd e811 16bd 44b3 bf3c
00000320: 8f01 953d 5420 fc3a 06f6 af3d 5ea8 31be
00000330: 59d4 843d 520b 593d 6277 a2bd b038 dd3c
00000340: 43c0 d43b c011 8ebd 0064 bb3d e5cd 1abe
00000350: bcd2 a2bd e6c6 463d 730a 7bbd 7acc 42bc
00000360: 322d 6bbd 5491 09bd e023 103e 39ad 13bd
00000370: 0b7b dbbc 1c9d 7a3d 12c7 663d fae0 c5bd
00000380: cf4d 163e 641c a03d 2af2 13be 4cf3 153e
00000390: a230 9a3d 4c31 9fbd 0b3d 2cbe 9d04 f8bb
000003a0: dc1b 6c3c 484c febd 54ed 33be 8af0 853d
000003b0: 3ebe 2dbe cbdc fabd c764 213e 6711 ebbc
000003c0: 8f28 b13d dbcf fabc 9b3e 383e 4a61 08bc
000003d0: 1cc4 163d 279d 0d3d 0dab e0bd 57ad 6c3d
000003e0: 5b35 45bd ff17 2e3e 790e 09bc f8e5 adbd
000003f0: be76 ea3c c334 07be 98df c53c 2170 893d
-0.015606323 0.06290879 0.016930176 -0.013013446 -0.006422127 0.102564454 0.016717298 -0.004087074
-0.060507894 0.109697096 0.017143518 -0.021466749 -0.0073777228 -0.03344714 0.0001336239 0.10329153
0.054953374 -0.07045035 0.07232494 -0.14067458 0.03829515 0.03278395 0.0015701414 -0.03982144
0.14794777 0.070607975 -0.020342963 -0.027480453 0.10258019 -0.09810482 0.046502113 -0.12183314
-0.07622812 0.07364548 -0.111981824 -0.006762945 0.08365821 -0.0022656256 0.040973995 0.062179834
-0.016792422 -0.03611985 -0.0814989 0.17318359 -0.037116192 0.029746318 0.11772816 0.09957804
0.0726207 -0.16384031 0.11694086 -0.06760641 0.0016313046 0.0019981926 0.15040793 -0.05016845
-0.059039507 -0.05118367 0.1618742 -0.115382686 0.025328718 -0.0052547394 0.019032374 -0.17233324
0.008005716 -0.068347044 -0.049822606 -0.10050487 -0.08380677 0.021018181 0.026919233 0.08316381
-0.004667358 0.0040015406 0.007848784 0.031449392 -0.17012337 -0.1219826 0.026221443 0.116512336
0.03717409 -0.090955235 -0.09287969 -0.12245085 0.015373707 0.08833982 -0.0007734136 -0.018249061
0.045601778 0.09303178 0.018008582 -0.022996493 0.000103401326 0.006448224 0.106147066 0.061975084
-0.082091644 0.054452464 -0.001576948 0.076961525 0.053417347 -0.07874397 -0.04290098 -0.05676996
-0.15237448 -0.04160987 0.034620363 0.0067350282 -0.026840294 -0.047957122 0.0870241 -0.035456095
-0.079699114 -0.08709259 0.011212343 -0.13906235 -0.013030112 0.05706873 0.019175647 -0.08780491
-0.09844033 -0.07552295 -0.036676668 0.101885036 -0.0147373965 0.00505238 -0.11002648 -0.057024103
0.047154676 -0.04625469 0.06650475 -0.03324669 -0.011286114 0.1382764 0.040726542 0.036694124
-0.011264054 0.038846962 -0.1180128 0.18456507 0.03246097 0.08597943 0.054639965 -0.08009209
-0.1268666 0.08268452 -0.031136518 0.08848818 -0.010625511 -0.05719687 -0.056985773 -0.14494899
0.07213047 0.09211232 0.074197486 -0.05706788 0.0680483 -0.09621188 -0.030289628 0.12886055
-0.09631664 -0.026253989 -0.05207189 -0.037625812 0.10806448 -0.031636957 0.051921982 0.016540555
0.17345868 -0.11460632 -0.009324871 -0.057482146 -0.037356976 0.15627322 -0.054786544 0.01122209
0.00732288 0.058909588 -0.028244859 0.14979386 -0.107610166 -0.0058781556 0.0028430952 -0.06022856
-0.06392721 -0.011480627 0.07429333 -0.019111246 -0.11081865 0.11469968 0.07365605 -0.060874715
-0.09916805 0.045599937 0.12640068 -0.17609978 0.05789374 -0.034618355 -0.03663817 0.02340091
0.07275688 0.0019235709 0.08591847 -0.17349383 0.064858146 0.05298931 -0.07932927 0.02700457
0.006492646 -0.06936979 0.09149933 -0.15117605 -0.07950351 0.048529528 -0.061289262 -0.011889571
-0.05741615 -0.03358586 0.14076185 -0.03605387 -0.02679207 0.061184987 0.056342192 -0.096620515
0.14678119 0.07817915 -0.14447847 0.14643592 0.07528807 -0.077730745 -0.16820161 -0.0075689093
0.014410939 -0.12416893 -0.17571002 0.0654002 -0.16967103 -0.12249144 0.157611 -0.028694822
0.08650314 -0.030616691 0.17992632 -0.008323977 0.03680812 0.0345737 -0.10970125 0.057782497
-0.048146587 0.17001341 -0.008365267 -0.08491129 0.028621074 -0.13203721 0.02415447 0.0671084

encoder.linear_means.bias f4 [12]
00000000: 0a54 d8bb 279f acbb fa4e dd3a c53d 3c3b
00000010: c1c1 afb9 02c9 cc3a ad1e 9dbb 4e0b aa3b
00000020: 9bca 1e3c 22d7 b63b 946e 00bb d1b9 11bc
-0.006601815 -0.005267996 0.0016884499 0.002872334 -0.0003352296 0.001562387 -0.0047949166 0.005189336
0.00969186 0.005579845 -0.001959716 -0.0088944

encoder.linear_log_var.weight f4 [12, 64]
00000000: a724 1d3e 055b 013d 8f7e 253d 77a8 c53c
00000010: 88c9 37be 0f1d 093e 553f 603b 4dd5 a13d
00000020: df6a 053c 2e82 993d 80b9 363d 9766 cd3d
00000030: 0584 92bd aa3d 593d 69df f5b9 7951 153e
00000040: 7f4b 5abc 0d7f 913d e61f 21bd 839f 60bd
00000050: f63d d6bd ef0a 173e 8430 be3b 3628 28be
00000060: bbbf 42bd 7a26 d53d daa6 ed3d d743 a5bc
00000070: dc17 c83a 64d4 9d3d d66f f93c fdcd 613d
00000080: 956d 2dbd d5ec e53c cfb7 b83c 8116 09be
00000090: 4e52 27bc 7f1d 183e 9379 a53d 2502 cf3d
000000a0: 822e fcbc 08d9 bd3c 3f86 2f3e ac64 bdbb
000000b0: d896 5f3d 6c88 243b d5c3 383e 58c4 d6bd
000000c0: e013 eb3c aa3e 873d 4614 1abd 58ce 613d
000000d0: 2002 f1bc ddea 66bc 57ff 7a3d acea e53d
000000e0: 78dd 7dbd 9468 43bc b775 9d3d 2297 a4bd
000000f0: 3463 213d 7c1e 113e d02f 233d 4ad0 b53a
00000100: 2f48 c13d 255a f13d 2932 2b3d 02ab cd3b
00000110: 2601 6d3d efa4 39bd 2097 173e f8e0 083d
00000120: 245d d9bd fd53 633d 0a49 86bd d81b 273d
00000130: 588b babc dc04 c03d 0415 e53d 697b e63c
00000140: b07d b43b 7d83 293e 7650 86bd 1236 aabc
00000150: 7024 3b3c 9a93 dbbb 3078 d4bb 55f1 643d
00000160: eebc 26bc 3002 7b3c 25ca 963d f7bc 2a3e
00000170: 91bb b9bd d860 303d 965f febd 5dbe 3ebd
00000180: 72bd da3d 2011 1a3e e6a6 81bd acbd 183e
00000190: e313 3c3b fed3 293e 1397 a43d 3eca a43c
000001a0: f8d8 923d e088 b8bc d3c0 743d eebe 013c
000001b0: f74e f93d cacd d8bc 0b95 8c3d c0e3 1fbd
000001c0: 2d07 ad3b 905d 983d 156f dcbb 4f9b 5abd
000001d0: f413 0b3d 1d35 cd3d 88ed 143b a5c6 9d3d
000001e0: 69dd c7bb 58af 56bd 8303 363d b027 a93d
000001f0: 2560 6cbd 72e7 e8bc 2638 c73d 2a84 91bd
00000200: ab1a 29bd 117f cf3d d344 2bbd 8886 103e
00000210: 8719 a53d abc4 c53d e60b 4cbd 81e7 e23c
00000220: 3b0a 233d 4729 00bd 9431 113d 80f3 56bd
00000230: d1d3 d3bd 7186 5cbd 3bb8 ec3b fc5e 9c3c
00000240: eb58 053e f379 003d 6348 c4bd e903 853d
00000250: 0c40 493d 6371 edbd 3f7c 77bd f10c e73c
00000260: 62e8 e0bd 74b8 a63d b2b1 c1bc ea2e a53d
00000270: f7d7 093d 8856 e2bd e145 713d 6cbf 2cbd
00000280: 57d5 1abd 943b 9cbd b7bc 633d 1125 d13b
00000290: 0f59 cd3d 4d5d 3cbd d1ee b2bb 8e11 163e
000002a0: 4436 ee3c 70fa 5c3c d409 263b d99f 8abc
000002b0: 7c76 de3c e1f2 7f3d 0bd1 1e3d 22db 84bd
000002c0: 3af8 ddbb 0e4f 023e a2dd f6bd 23a2 553d
000002d0: 449d a63d d697 b3bd a359 d33b 3d02 b23c
000002e0: b9aa 3dbd 375c 8f3d 2b5a 59bd f037 a5bd
000002f0: 6838 f7bd 0867 283e c095 963d 3975 873d
00000300: be96 713d 850b f8bc c210 ccbd 88bd a6b9
00000310: 1d09 30bc e359 1c3d c742 543d 95f1 0a3e
00000320: e7c1 023d bcb3 413c 9c69 4dbd 0853 d7bd
00000330: 5de0 f5bd e4e4 6c3d e435 efbd be75 413d
00000340: 899b c5bd 3aa3 bfbc f21e 1fbd 2013 65bd
00000350: 76fa d53d af75 d4bd ad64 b8bd afea d83d
00000360: cc7c 253d 1202 f6bd 790f 19bc cb88 1abe
00000370: b4de 2abd 1a27 95bd 1e77 0a3e 45d8 153d
00000380: 7f4d 8d3d 49db 39bd c2f0 95bd d7f7 a5bd
00000390: fcfb 8f3d e734 2cbc f315 2bbe 5a0c febc
000003a0: 8f4a d43c fcad 9c3d 68c1 543d 0a50 123e
000003b0: 6cb5 2a3d 635d b0bd 87c9 d6bc 8cce c23d
000003c0: 282a 27be 1094 97bc 7d77 80bd 99b6 7a3d
000003d0: 86d7 ae3d d071 553d 05af 3c3d 471f 5d3d
000003e0: 741e 3bbe a475 4dbd 4e64 7cbd eeb9 cb3d
000003f0: 9f9a 62bc b8be c83c d891 4a3d bf55 323e
0.15346013 0.031580944 0.0404039 0.024128182 -0.17947972 0.13389991 0.0034217436 0.07902012
0.008143156 0.07495533 0.0446105 0.10029333 -0.07154087 0.053037323 -0.00046896495 0.1458186
-0.013323664 0.07104311 -0.03933706 -0.054839622 -0.10461037 0.14750265 0.0058041234 -0.1642159
-0.04754613 0.104077294 0.1160409 -0.02017395 0.00152659 0.07706526 0.030448835 0.055128086
-0.042340834 0.028067032 0.022548584 -0.13387491 -0.010212494 0.14855002 0.08079829 0.10107831
-0.030783895 0.023174778 0.17141055 -0.0057798233 0.054587215 0.0025105728 0.18043454 -0.10486668
0.028696 0.06603749 -0.03761699 0.055128425 -0.029419959 -0.014094082 0.061278667 0.11226401
-0.061978787 -0.011926789 0.07688468 -0.08036639 0.039401248 0.14171785 0.03984052 0.0013871279
0.09437596 0.11784772 0.041795883 0.0062764892 0.057862423 -0.04532331 0.14803743 0.033417672
-0.10613468 0.05550002 -0.065569 0.04079804 -0.022771522 0.09375927 0.11185649 0.028135018
0.005508147 0.16554065 -0.065583155 -0.020777736 0.011422262 -0.006700945 -0.006484054 0.055894215
-0.01017688 0.015320346 0.07362775 0.16673647 -0.090689786 0.043061107 -0.12420575 -0.046568263
0.10680665 0.15045595 -0.063306615 0.14916104 0.0028698377 0.16584775 0.080366276 0.020115968
0.0717029 -0.022526205 0.059754204 0.007919056 0.121732645 -0.026465315 0.06864365 -0.03903556
0.0052803964 0.07439721 -0.006727109 -0.05337077 0.033954576 0.10019896 0.0022724587 0.07703904
-0.006099392 -0.052413315 0.044436943 0.08259523 -0.057708878 -0.028430674 0.09727506 -0.071052864
-0.0412852 0.10131658 -0.041813683 0.1411382 0.080615096 0.09656652 -0.049816035 0.02769828
0.03980468 -0.031289365 0.035447672 -0.052478313 -0.10343135 -0.05383915 0.0072241104 0.01908826
0.13022201 0.0313663 -0.09584119 0.064948864 0.049133345 -0.115938924 -0.060421225 0.028204413
-0.109818235 0.081406504 -0.023644302 0.08065589 0.033653226 -0.11051661 0.058904532 -0.04217474
-0.037801113 -0.07628551 0.055599894 0.0063825925 0.10026752 -0.045987416 -0.005460598 0.14655134
0.02907861 0.013487443 0.0025335448 -0.016921924 0.027156107 0.062487487 0.038773578 -0.06487109
-0.0067739757 0.1272547 -0.12053992 0.05215658 0.08135465 -0.08769195 0.0064498945 0.021729583
-0.046305392 0.070000105 -0.053064507 -0.0806731 -0.120713055 0.16445553 0.07352781 0.06614155
0.05898165 -0.03027893 -0.09964134 -0.000318032 -0.01074436 0.03817166 0.051821496 0.13568719
0.0319232 0.011822637 -0.050149545 -0.10513884 -0.120056845 0.057835475 -0.11680201 0.04723143
-0.096488066 -0.023393262 -0.03884787 -0.055926442 0.10448162 -0.10374009 -0.090035774 0.10591637
0.04040222 -0.12012114 -0.009342068 -0.15091245 -0.041716293 -0.07282849 0.13522002 0.036583204
0.06899547 -0.045375142 -0.073213115 -0.08103912 0.07030484 -0.01051066 -0.16707592 -0.031011749
0.025914459 0.076503724 0.05194226 0.14288345 0.041676924 -0.08611562 -0.026219143 0.09512052
-0.16324675 -0.018503219 -0.062727906 0.061209295 0.085372016 0.052110493 0.04606535 0.053984907
-0.18273336 -0.05016102 -0.061619096 0.09947573 -0.01383081 0.024505004 0.049455494 0.17415522

encoder.linear_log_var.bias f4 [12]
00000000: e9ea 3eb9 50b9 783a 6a8b d4ba 891b dc3b
00000010: a9b3 d3ba e8bb c7b8 783f 44bb 741e 0dbc
00000020: bb94 f1b8 041c 93ba 977e 213b a4cc 06bb
-0.00018207323 0.0009488063 -0.0016215865 0.0067171496 -0.0016151565 -9.52406e-05 -0.0029945057 -0.008613218
-0.00011519479 -0.0011223559 0.0024642104 -0.0020568753

decoder.MLP.L0.weight f4 [64, 18]
00000000: 918b 60bd a028 143e 8a2e 06be 49c7 08be
00000010: 70c8 d03d ba24 1fbd 68c8 383e 8620 0fbe
00000020: d928 883e fe39 e03c 31ba 953d 2b32 60be
00000030: 6db3 63bf 82b4 62bf afd4 99be 7b82 b0be
00000040: a8c2 1ebe 7ffe eabe 2af5 8dbd 853b 05bf
00000050: ccd8 8b3d 01d9 8c3e 3c6c 503e eb27 83bd
00000060: 7bf6 d83d da89 14bc a5d3 35bd 2ad2 31be
00000070: f20f c4be cbfe 44be 0225 33c0 f8a9 1ac0
00000080: e580 acbf 4a5f 7cbf 8d32 ecbf 2cd7 22c0
00000090: b404 c43b 250d 66bd ad9f 5c3d a988 d2bc
000000a0: 0b1b e5ba 1db3 8d3c d5b2 ae3c 5eda 8fbc
000000b0: 825a 343c 2132 a1bc c37d 1f3d 4167 f33b
000000c0: 2f0c 09c1 c6da 4e40 24a4 2f41 72ed b3bf
000000d0: 3084 86c1 ca6d 40c0 1f67 013e e248 16bf
000000e0: 4e53 25bf 8520 303e b98f 40bd 8d5d 1a3e
000000f0: e8a9 0cbe 4e48 4ebe fe0b af3d a284 993d
00000100: 456e 72be fef2 2a3f cc86 5dc0 6fa1 1dc0
00000110: 39e3 02c0 9ce6 e9bf 4f9a c2bf 9f87 09c0
00000120: 048c 653e 4f21 453c 57d7 be3c 50c1 683e
00000130: d70a a03e dcf5 81bd 30bf 2d3d 198c 18be
00000140: 08c7 203e e074 a23d 00ac 483e d0cb 5dbe
00000150: c668 eebf 7574 c8bf 71c7 78bf 692e 41bf
00000160: 31d2 6cbf f3ab d9bf 5c6a 1abc 26f2 e1bd
00000170: 6d49 e23d 28d2 22bd 52f2 4f3d 1aa0 9c3c
00000180: b1ed 69bd a60e dfbc 7572 26bc de2c 843d
00000190: d973 87bc 96d7 59bc 54ff 7e3f 3a3e 83c0
000001a0: 33ca 37c1 5b56 5940 dfb3 20c2 3429 1142
000001b0: fbdf 49bd 2ad1 66bd e4a4 313b e314 4a3d
000001c0: e35c c5bc c749 053d 0aee 09bc f17e 79bd
000001d0: 5495 083d fabe 2cbd 5d28 0d3c c74a b63c
000001e0: c72c d93c 8fe9 bebe 53e1 09be 095b 433e
000001f0: 661e 743e 0cac 02bf b45a 95be ad9b 81be
00000200: 50ec 2fbe 4d16 48bd 448d b73d 8d75 a9be
00000210: 86db 0a3f f8d2 043e e4a0 dabd 8394 81bd
00000220: f9dd 0a3e 679c 763d 6c3e b8bf 552c d5bf
00000230: aa45 9abf 8a58 a9bf 1a5b 31bf 5d4c 95bf
00000240: c5f5 ac3c 5fc6 923c 5c56 6fbc 4b62 6ebc
00000250: e3f1 61b9 f8d8 353d e7cb 033d cbef 33bd
00000260: 73bd 26bd 137a 11bd 6213 55bd 7eae 05bd
00000270: 6782 3440 57b9 97c0 e3b1 9a41 8c2a 30c1
00000280: 7f73 33c1 a444 03c0 d51e 123a 61d4 cd3e
00000290: a5f1 873e 44e5 ae3e 636c c1bd fb78 2dbe
000002a0: ea73 09be 6606 073f 982d a5be 415f 803e
000002b0: af1f cbbe b851 71be f7ed 36c0 3740 2ec0
000002c0: d44b c7bf c2b5 c7bf a510 b1bf 131d 08c0
000002d0: 9cac a63e d44d 2c3e 7322 c33e 488e 0e3f
000002e0: baef 44be c3d5 65bd caca edbe d2b6 143e
000002f0: 66bd 0c3e 3244 36bd 4b0a 3f3d 6ea7 0b3e
00000300: ce60 2bc0 08f4 09c0 6341 08c0 b045 00c0
00000310: de54 febf 436b 15c0 fd70 dfbd d484 f03d
00000320: ca40 cfbe 9e92 0c3d 76ba b4be 5255 da3e
00000330: ff52 8fbe 44c0 7cbe 93eb a13e c578 2c3e
00000340: 2d4f 373f b119 67be e41c 5fc0 76c9 4ec0
00000350: d395 a0bf 19ec 07c0 4d06 3fc0 2c39 d8c0
00000360: 94c1 a43c 596e aa3d 2aa6 3dbd bc71 353e
00000370: 1541 0f3d c21b b9bd 26db 3ebd 6d28 283e
00000380: 31cb f43d 0b5b 16be 9af6 fbbb 3fd5 3e3d
00000390: 6b2d 8dbe 0d8d 3bbe 01b3 0abe eaf2 dbbc
000003a0: 38c7 86be 8941 70be 09c8 033e 6d33 62be
000003b0: 618c 883e 5120 c73d 0fbf 8abe eb5d 93be
000003c0: 3b76 d53e 821e 413d 536a 8f3d cef9 36bd
000003d0: 1a8f a53d ad1d 6f3e a0d7 65c0 eebd 4bc0
000003e0: c468 21c0 81c4 e6bf e90c ffbf 97fc 32c0
000003f0: f149 033d d743 2b3e 7539 903e c95b ac3e
-0.0548206 0.14468622 -0.1310369 -0.13357271 0.101944804 -0.038853385 0.18045199 -0.1397725
0.26593664 0.027371403 0.07310904 -0.21894138 -0.88945657 -0.88556683 -0.30045077 -0.3447455
-0.15503943 -0.4589729 -0.06931527 -0.52043945 0.0682846 0.2750931 0.20353788 -0.06404098
0.105938874 -0.0090660695 -0.044391293 -0.17365327 -0.38293415 -0.19237821 -2.7991338 -2.416624
-1.3476835 -0.985829 -1.8452927 -2.544383 0.005982006 -0.05616488 0.053863216 -0.02569993
-0.0017479373 0.017297322 0.021325508 -0.01756018 0.011007907 -0.019677224 0.038938295 0.0074280803
-8.5654745 3.2321029 10.977573 -1.4056838 -16.814545 -3.006701 0.12636994 -0.5870496
-0.6458024 0.17199905 -0.047012065 0.1507475 -0.13736689 -0.2014477 0.08547209 0.07496001
-0.23674877 0.66777027 -3.4613523 -2.4629781 -2.0451186 -1.8273501 -1.5203341 -2.1489027
0.22416693 0.012031867 0.023296041 0.22729993 0.3125827 -0.06345722 0.04241866 -0.14897193
0.15700924 0.079324484 0.19596863 -0.2165978 -1.8625724 -1.566054 -0.97179323 -0.7546144
-0.92508227 -1.70056 -0.009424772 -0.11032514 0.11049161 -0.039751202 0.050768204 0.019119311
-0.057111446 -0.027228665 -0.010159125 0.0645387 -0.016534733 -0.013296029 0.9960835 -4.101346
-11.486865 3.3958957 -40.175655 36.290237 -0.04928587 -0.05635182 0.002710634 0.049336325
-0.024092143 0.032541063 -0.008418569 -0.060912076 0.033345535 -0.042174317 0.00861558 0.022252453
0.02651061 -0.37287566 -0.1346486 0.19077696 0.23839721 -0.5104377 -0.29170763 -0.25314084
-0.1717999 -0.048849393 0.08962491 -0.33097497 0.54241216 0.12971103 -0.10675219 -0.063271545
0.13561238 0.06020775 -1.439405 -1.6654154 -1.205251 -1.3230145 -0.69279635 -1.1663929
0.021113286 0.017916856 -0.014607992 -0.014549802 -0.00021547782 0.04439637 0.03217688 -0.043929856
-0.040708017 -0.03551681 -0.052020438 -0.03263711 2.8204591 -4.7413745 19.336859 -11.010387
-11.215697 -2.0510645 0.00055740523 0.40201095 0.26551548 0.3415929 -0.09444501 -0.16940682
-0.13423124 0.5274414 -0.32261348 0.25072673 -0.3967261 -0.2356633 -2.8582742 -2.7226694
-1.5570016 -1.5602343 -1.3833205 -2.1267745 0.32553566 0.16826564 0.3811222 0.55685854
-0.19232073 -0.056112062 -0.46443778 0.14522865 0.13744125 -0.04449863 0.046640676 0.13638088
-2.6777835 -2.1555195 -2.128991 -2.0042534 -1.986965 -2.3346717 -0.10910223 0.11744085
-0.40479118 0.034319513 -0.35298508 0.4264322 -0.27993008 -0.24682719 0.3162504 0.16842945
0.7160519 -0.22568394 -3.4861383 -3.2310462 -1.2545723 -2.1237853 -2.9847596 -6.756979
0.020111836 0.083218284 -0.046301045 0.17719167 0.034974176 -0.090384975 -0.046595715 0.16421671
0.11952818 -0.14683168 -0.0076893093 0.046590086 -0.27573714 -0.18315525 -0.13544847 -0.026849229
-0.26323867 -0.234625 0.12869276 -0.2208993 0.266696 0.09722961 -0.2709889 -0.2878259
0.41691765 0.047148235 0.070027016 -0.044671826 0.08083935 0.23351164 -3.5912857 -3.1834674
-2.5220194 -1.8028718 -1.9925815 -2.7966669 0.032052938 0.16725098 0.28168836 0.33663777

decoder.MLP.L0.bias f4 [64]
00000000: 6057 c9bf 87bd 29c0 1714 4c41 6835 68c0
00000010: d377 1ec0 05c2 1440 0b11 f4be c8e0 1bc0
00000020: 0a75 92bf 4f71 66c0 5017 6cc0 4fb8 0dc0
00000030: 19c0 babf 32a5 37c0 812d 05c0 f577 6bc0
00000040: 8739 36bf c114 e83f 792b 4ac0 4040 21c0
00000050: b003 14c0 3efd 41c0 e860 18c0 4043 11c0
00000060: 7c02 4fc0 2d6e 4ec0 f24c 1fc0 0f92 5bc0
00000070: 4eeb 12c0 4f18 0ac0 3345 11c0 d183 1dc0
00000080: f983 18c0 f31b 14c0 17de 35c0 2c1a 4cc0
00000090: 0aca 33c0 9fe7 14c0 f822 45c0 9f7f 1840
000000a0: c446 2bc0 5940 e7bf 0ca4 fdbf 4fa4 27c0
000000b0: 4282 c2bf 5677 44c0 be68 a0c1 8a86 f8bf
000000c0: 82a4 8dbf 55b4 32c0 94c4 48c0 bcff 22bf
000000d0: 52e2 68c0 3fea b1bf a9be 55c0 ea0f ebbf
000000e0: b3e7 21c0 5b04 22c0 4b40 2fc1 7420 31c0
000000f0: 91c7 07c0 0fde febf 04be 55c0 12a4 10c0
-1.572979 -2.6521928 12.754905 -3.6282597 -2.4760635 2.324342 -0.47669253 -2.4355946
-1.1441967 -3.6006658 -3.688923 -2.2143743 -1.4589874 -2.8694577 -2.0809023 -3.6791966
-0.7118153 1.8131334 -3.1589034 -2.5195465 -2.312725 -3.0310817 -2.3809147 -2.2697296
-3.2345266 -3.2254746 -2.4890714 -3.4307897 -2.2956119 -2.1577337 -2.2698486 -2.4611704
-2.383055 -2.314206 -2.8416803 -3.1890974 -2.8092065 -2.326637 -3.0802593 2.3827894
-2.6761942 -1.8066512 -1.9815688 -2.6194036 -1.5196002 -3.0697837 -20.051144 -1.9416058
-1.1065829 -2.7922566 -3.1369982 -0.6367147 -3.6388135 -1.3899611 -3.339762 -1.8364232
-2.5297668 -2.5315158 -10.953197 -2.7676058 -2.1215556 -1.9911517 -3.3397226 -2.260014

decoder.MLP.L1.weight f4 [128, 64]
00000000: 6541 44bd 8ca7 5abd f6e9 0740 6118 f8bd
00000010: d32a 5d3e d08b 84c2 666e 27bd a5db a83e
00000020: 1923 8cbf ebe7 dabe 3143 593f b324 3a3f
00000030: c9c6 febd a865 053f e082 7b3f 781c fcbe
00000040: 8c03 49bd c5ed 24c0 bbad 32be de2b 66be
00000050: 54ac 763f ace2 68bf 95cf 4f3d 2523 48be
00000060: 4301 183e 5579 3d3e 2406 103d bb51 1f3e
00000070: 9593 453f f82c efbc 979d 433d 5b0f 853f
00000080: 6304 b33e c553 5fbe 281d a73e e9ea d33d
00000090: 9d65 fb3e 73be 86be abdd 103f 43d9 543f
000000a0: 1e12 bcbe f040 6e3e 21ee 7cbe e11b 70be
000000b0: 5020 923b 589b 813f 9620 1dc0 113b ddbe
000000c0: 1a0c e1bc 6c56 b2be 99a3 5bbe d1dd 97bf
000000d0: 2ab7 4fbd f2e3 14be 8888 a4bd ae30 f6bc
000000e0: 57a7 c63d 64c7 813e 5f99 b6c2 810e a73e
000000f0: a8c8 5b3d c339 d2c2 c8f6 bbbd e454 a7be
00000100: 640a a4be 67ec bbbe 973f 6bbe 702c e83c
00000110: b775 3f3c 1907 c8bc 72d6 4fbe f6d6 bc3d
00000120: 4e2c 24be 4550 10be 9431 2abe 4569 3ebe
00000130: f6b0 723d ecc1 00be d217 c3bd c078 73be
00000140: 0eaa 45be f9ac c6be f8b1 d0bd 0b4d c6be
00000150: a5b8 4ebe bb98 02be 6e92 11be 9aad b0be
00000160: adc5 0cbe d80e 853d 5868 9cbd 13d7 cfbe
00000170: 7728 72be 7a7b c1bd 3033 aebe eb6d a4be
00000180: 44b7 83be e982 b4bd 80d1 64bb 9ab0 b7bd
00000190: 20bf 353d e089 5fbd 2cfb acbe 868a 63bd
000001a0: 6dae 96be a510 9dbe a430 29be 2dc1 c0be
000001b0: 2d58 503d 60e7 5cbe de18 c1be 1ad1 c4bd
000001c0: c411 cdbd 31a4 893d 76e3 773d d424 60be
000001d0: 0355 833d 6645 29be e725 46be 1830 f1bd
000001e0: 4ebf 54be a0e8 55be 10d6 eabb 0039 0f3c
000001f0: f366 d9bd 1235 65be d62e 2ebe 1700 c23c
00000200: 1ca1 b53d e453 52bd f735 8abe 1c46 22bd
00000210: 9d2a 36bc 893e 6c3c b216 b6bd 70fe 98bd
00000220: a098 c4bd 1b6c f6bd ed95 843d 24ab 4cbe
00000230: 2a21 7abd 5ed4 b8bd cc66 87bc 304a b73c
00000240: 8033 d13a 69ef 08be b010 903d 5c9d 11bd
00000250: 622b c4bd 8ab5 9d3c 98b8 b2bc 1450 b0bd
00000260: da96 b8bd 601d 22bc 089d f2bd 6476 0bbe
00000270: 0c85 683d 5334 6ebd 8b29 c0be b9b7 3ebd
00000280: 1d32 c6be 6ecf 3f3d a654 e9bd 6efb 93bd
00000290: 38f7 cebc de7e f3bd 801b 24be 3819 18be
000002a0: de96 06be 49da 76bc df38 3bbe 4575 c7be
000002b0: 1473 d33b 3caa 64bd 4e88 27be 803b fbbc
000002c0: 4e2f 483b 274a 9ebc bce0 c1bd 373b 83be
000002d0: 8ca5 f53b 88e4 e13c f8fc e13c 10dd 723d
000002e0: 8854 5dbe 38d7 cb3d 1272 0dbe 84d2 5cbd
000002f0: 2941 57bd 8ac9 cb3c 7461 fbbd 856c 543b
00000300: def3 b13c 964f 70be 8ded 0fbf 3c49 adbd
00000310: a835 35be 7350 0fbf ce6f 1abe 6c22 24bd
00000320: a29c 8dbf 9512 fa3a 3570 aa3b 1d55 48bf
00000330: 665b c73d 06dc 313e d357 96bd 22c3 a93d
00000340: d1e6 cbbd fd40 073d 7dbb 7b3c ab5d 033e
00000350: 3c2b 91bc bc10 283d 63a7 d03d a2a8 7cbd
00000360: 793e bbbc 703b 623d 6c0d 91bd 1db6 25be
00000370: f521 a0bc 6201 603c 7d60 99bd 8dc7 bfbd
00000380: 5908 bebd c888 8c3c 529b c1bd f914 123e
00000390: 557a fabd 5b41 0dbd be65 b6bc 6afd 65bf
000003a0: 1298 273c 2da8 a13d c7c4 02be 1f9a 11bc
000003b0: b7c0 b83d 0296 c4bd c311 61bf c293 3b3e
000003c0: 44c0 7dbd 9b81 37bd f3bf 0dbe 2c01 ebbe
000003d0: efae 02be 4ec4 7e3c 195e 443e 6e57 acbc
000003e0: a20f 873c a64b 7a3d b1bd aabf 6c85 a9be
000003f0: d667 b8bd 437f e9be 2fcc ad3d 9efd e53d
-0.047913928 -0.05338244 2.1236548 -0.12114025 0.21598367 -66.27307 -0.04087677 0.32980075
-1.0948211 -0.42755064 0.8486815 0.7271225 -0.12440259 0.5210824 0.98246574 -0.4924047
-0.04907565 -2.5770123 -0.17449085 -0.22477672 0.963567 -0.90970874 0.050735075 -0.19544657
0.14844231 0.18503316 0.035162106 0.15558521 0.7717832 -0.029196247 0.04775771 1.0395311
0.34964284 -0.218093 0.32639432 0.1034754 0.49100962 -0.26317176 0.5658824 0.83144015
-0.36732572 0.23266959 -0.24700214 -0.23448135 0.0044594184 1.0125532 -2.455114 -0.43209127
-0.02747159 -0.3483156 -0.21449126 -1.1864568 -0.05071179 -0.14540079 -0.08033854 -0.03005251
0.09699886 0.25347435 -91.29955 0.32628253 0.053658158 -105.112816 -0.09177929 -0.32681954
-0.32039177 -0.36703798 -0.22973476 0.028341502 0.01168578 -0.024417447 -0.20296648 0.09220688
-0.16032526 -0.1409312 -0.16620475 -0.18594845 0.059250794 -0.12573975 -0.09526028 -0.23776531
-0.19303152 -0.38803843 -0.10190195 -0.38730654 -0.20187624 -0.12753575 -0.14216015 -0.34507447
-0.13747282 0.06496972 -0.076370895 -0.40593776 -0.23648249 -0.094473794 -0.34023428 -0.3211511
-0.25725758 -0.08814032 -0.003491491 -0.08969231 0.044371724 -0.054574847 -0.3378538 -0.055552028
-0.2942995 -0.3067676 -0.16522461 -0.3764738 0.05086534 -0.21572638 -0.37714285 -0.096101955
-0.10013154 0.0672077 0.060519658 -0.21889049 0.06412699 -0.1653038 -0.19350396 -0.11776751
-0.20776102 -0.2088952 -0.0071666315 0.008741617 -0.10615339 -0.22383526 -0.17010054 0.023681683
0.0886862 -0.051349536 -0.26994297 -0.039617643 -0.011118558 0.014419206 -0.088910475 -0.07470405
-0.095994234 -0.12032338 0.064739086 -0.1998716 -0.061066784 -0.09024881 -0.01652851 0.022374243
0.0015960783 -0.13372578 0.07034433 -0.03555046 -0.09578587 0.019251604 -0.021816537 -0.08609024
-0.09013148 -0.009894699 -0.118463576 -0.13619381 0.05676751 -0.05815537 -0.37531695 -0.04656193
-0.38710108 0.04682868 -0.113930985 -0.07225691 -0.025264367 -0.11889432 -0.16026115 -0.1485337
-0.13143489 -0.015066692 -0.18283413 -0.38956657 0.0064529274 -0.05582641 -0.1636059 -0.03066802
0.0030545774 -0.019322468 -0.09466693 -0.25631115 0.0074965414 0.027574793 0.027586445 0.059292853
-0.21614277 0.09953159 -0.13813046 -0.0539117 -0.052552376 0.024876375 -0.12274447 0.0032413315
0.02172273 -0.2346786 -0.5622185 -0.08461234 -0.1769625 -0.5598213 -0.15081713 -0.04007189
-1.1063426 0.0019079024 0.0052013644 -0.7825487 0.0973423 0.17369089 -0.0734097 0.08289172
-0.09956134 0.033020962 0.015364525 0.128287 -0.017720811 0.041031584 0.101881765 -0.06168426
-0.022856938 0.055232465 -0.07082638 -0.16182752 -0.019547442 0.013672205 -0.07489107 -0.09364233
-0.09278936 0.017155066 -0.09453453 0.14265813 -0.12230364 -0.034486156 -0.022265311 -0.89839804
0.0102291275 0.07893405 -0.12770377 -0.008886843 0.090211324 -0.09598924 -0.8791773 0.18318084
-0.061950937 -0.044801336 -0.13842754 -0.45899332 -0.12762044 0.015549732 0.1917652 -0.021037783
0.016486946 0.0611073 -1.3339139 -0.33109605 -0.0900418 -0.45604905 0.084862106 0.11230014

decoder.MLP.L1.bias f4 [128]
00000000: 6cdd 52c1 1ab4 80be 2973 c7be 922e 41be
00000010: 08fe 6abc 4be2 9a3e 6d7e 15bf 4aa1 84c0
00000020: 9dfd 11bf ccfe 0841 ba5d d7be 2501 a2bd
00000030: daa8 5c40 30bd 73be feb9 14be 2227 a3c0
00000040: 3165 8abe 2d6e 28bd 2bb3 88be 1ecb 363f
00000050: b2c4 e3be 3aac a7be 7464 25be 223a a1be
00000060: 364e 9bbe 5d00 f8be 3eeb 0abe 5cbf 40bf
00000070: 06ce 49be cc33 05bf 2947 ffbd ef8e 9abe
00000080: 7de9 dbbd 5ae3 91bd e0f8 1dbe 82b8 28be
00000090: 844c 5fbe 4e28 c7be e15f f7be 9b4a 01be
000000a0: 61b3 78be f3e9 d9bf ceaa 95bd 748d 0bbe
000000b0: 164b c740 e8de 81bd 9e6e acbc efb2 78be
000000c0: 5c3c d8bc 5619 18bd 56dd c0bc dace 26be
000000d0: a2fb 4fbe d302 c5bd 11b9 9fbe 4530 7dbe
000000e0: 47c5 7d3e 774d efbc f4a2 83be 8a58 d6bd
000000f0: 1b31 79be b8b7 973f f880 9ebe e8f2 82be
00000100: 25dd babd 39d4 e8bd c455 14bf 7c23 33bd
00000110: c6f2 99bb fcf4 82bc 1d52 86be d0af efbe
00000120: ec61 dac0 b595 4cbd f715 08be 1e69 c2be
00000130: 83bc c3be 349e 1641 9a49 8fbc 8160 dbbe
00000140: 1bec dabe 7999 0bbf 47b9 ecc0 d166 a3bd
00000150: cb88 28bd ba32 1fc1 83f7 d840 664d 34be
00000160: 848c e7be da26 34c1 196f e4be d828 1ebd
00000170: 53cc bcbe 045f 67be df83 84be 0934 9ebc
00000180: d70c c5bd 9b38 80bc 9ee9 adbe ee90 45c1
00000190: e6b7 97c0 2bab e3bd d442 88be 950e 94be
000001a0: 94f7 58be 1e32 bebe f769 cf40 c14d f4be
000001b0: d39c e4be 1aa3 48bc 9b9b c3be 3c82 bcbe
000001c0: 0f6b 8abe 5dc6 0ac1 9e6a 9ebe 9ea2 c8be
000001d0: 7594 9cbe b55d 03be 2e43 c4be e990 30bd
000001e0: babf cbbe e25d dbbf bf47 0bbe 589b dabe
000001f0: 2819 b3be d1c8 49be 9af2 acbd 07ec 32be
-13.179058 -0.25137407 -0.38955048 -0.18865421 -0.014342792 0.30250773 -0.58396035 -4.1446886
-0.5702761 8.562206 -0.42063695 -0.079103746 3.447806 -0.23802638 -0.14524075 -5.098527
-0.27030328 -0.041120697 -0.26699194 0.7140368 -0.44486004 -0.32748586 -0.16151601 -0.31489664
-0.30333108 -0.48437777 -0.135663 -0.7529199 -0.19707498 -0.5203216 -0.124647446 -0.30187175
-0.10737894 -0.07123442 -0.1542697 -0.16476634 -0.21806532 -0.38897938 -0.48315337 -0.12626116
-0.24287178 -1.7024521 -0.07307969 -0.13628179 6.227916 -0.06341344 -0.02104884 -0.24287008
-0.02639597 -0.037133537 -0.023543041 -0.16289845 -0.20310834 -0.09619679 -0.31195882 -0.24725445
0.24782287 -0.029211743 -0.2571026 -0.10466106 -0.24335138 1.1852942 -0.3095777 -0.25575948
-0.09124211 -0.11368603 -0.5794337 -0.043735012 -0.0046981303 -0.015985958 -0.26234522 -0.46813822
-6.8244534 -0.04994746 -0.13289629 -0.37970823 -0.3822976 9.413624 -0.01749115 -0.42847064
-0.4275826 -0.54531056 -7.397617 -0.07978595 -0.04114608 -9.949884 6.780214 -0.1760765
-0.45224392 -11.259485 -0.4461601 -0.03861317 -0.36874637 -0.2259484 -0.2588186 -0.019311922
-0.0962159 -0.015651992 -0.33967298 -12.347883 -4.7411985 -0.11116632 -0.26613486 -0.28917375
-0.21188194 -0.3714761 6.481685 -0.47715572 -0.44650897 -0.012245918 -0.38204655 -0.3681811
-0.27034804 -8.673429 -0.30940717 -0.39186567 -0.30582014 -0.12828715 -0.38332504 -0.043106947
-0.39794713 -1.7138026 -0.13601588 -0.42696643 -0.3498013 -0.19705512 -0.0844471 -0.1747285
