model/CVAE_5000_0.001_64_[12, 256, 128, 64]_6_[64, 128, 256, 6].pth (torch, 363948 bytes, 18 tensors)

encoder.MLP.L0.weight f4 [256, 12]
0	0x3cd0a486	0.025469076
1	0x3e670f4d	0.2256443
2	0xbe8a4ffc	-0.27014148
3	0xbe73b184	-0.23798186
4	0xbe09a663	-0.13442378
5	0x3daf78f4	0.08567992
6	0x3d06fc29	0.032955322
7	0x3e72aa86	0.23697862
8	0xbced7c68	-0.028989986
9	0x3d88d0ac	0.06680426
10	0xbdcc43d3	-0.09973874
11	0xbd938a3f	-0.07204103
12	0xbeada0fb	-0.3391188
13	0xbe279062	-0.16363671
14	0xbe3a1189	-0.18170752
15	0xbca337b3	-0.01992402
16	0x3db27965	0.087145604
17	0x3de42681	0.111401565
18	0xbe98f962	-0.29877764
19	0xbe4c3022	-0.19940236
20	0x3d57c296	0.052675806
21	0x3e417085	0.18890579
22	0xbdde3e22	-0.10851695
23	0x3e2233b5	0.15840037
24	0xbd3e95d8	-0.04652962
25	0x3cfa3b60	0.03054589
26	0x3e85d4b6	0.26138848
27	0xbe891c79	-0.26779535
28	0xbe3a17f0	-0.18173194
29	0xbd95ac48	-0.07308251
30	0xbde673cc	-0.11252555
31	0x3e7f66c8	0.24941552
32	0xbe3f9aa4	-0.18711334
33	0xbe081370	-0.13288665
34	0xbe4e853c	-0.20168012
35	0xbe8a6cdf	-0.27036187
36	0xbe6e0e81	-0.2324772
37	0x3e9afb2d	0.30269757
38	0x3de211df	0.11038565
39	0x3de767d6	0.11299102
40	0xbc41cba6	-0.011828339
41	0xbe5310a4	-0.20611817
42	0x3c949dad	0.018141592
43	0xbe7e3d23	-0.2482801
44	0xbdc1dfc7	-0.0946651
45	0xbc1830e2	-0.009288998
46	0x3eab8afc	0.33504474
47	0x3e40fe94	0.18847114
48	0xbe9ab99c	-0.30219734
49	0x3cfdf70b	0.031001588
50	0x3d4cbe13	0.049985956
51	0x3e12591e	0.14291808
52	0xbd00722a	-0.031358875
53	0xbde1f160	-0.11032367
54	0x3dd95f76	0.10613911
55	0xbe75ad1b	-0.23991816
56	0x3cd45c21	0.025922837
57	0xbe74d532	-0.23909453
58	0xbe593770	-0.21212554
59	0xbe275148	-0.163396
60	0x3df35231	0.11880911
61	0x3e8f8a05	0.28034988
62	0xbe78b47e	-0.24287602
63	0x3cf6fe5f	0.03015059
64	0x3dd09953	0.10185494
65	0xbda59873	-0.08085718
66	0xbda26ad1	-0.0793053
67	0xbd32ad54	-0.04362233
68	0x3d82080c	0.06349191
69	0x3e2bd352	0.16779831
70	0xbea94b8a	-0.33065444
71	0xbe7743ba	-0.2414693
72	0x3da6c046	0.08142142
73	0x3e9470b4	0.28992236
74	0x3e8d9b70	0.27657652
75	0x3e6543e1	0.22389175
76	0x3cb287ec	0.021793328
77	0xbe9e08aa	-0.30865985
78	0x3d1c0f98	0.03810081
79	0xbe27bff9	-0.16381826
80	0xbe4f5323	-0.20246558
81	0x3ea9c7a6	0.33160132
82	0x3ea33069	0.31872872
83	0xbee860ea	-0.4538644
84	0x3d80f255	0.06296221
85	0xbb251a80	-0.0025192797
86	0xbe185875	-0.14877494
87	0xbe549c72	-0.20762804
88	0x3d369902	0.044579513
89	0xbe578769	-0.21047749
90	0x3d8d8b02	0.06911279
91	0x3d9fdfa4	0.07806328
92	0x3dddf92e	0.10838543
93	0x3c10e85f	0.008844464
94	0xbec843ca	-0.3911422
95	0xbe895545	-0.26822868
96	0x3ddf8b3d	0.109152295
97	0x3d3c5519	0.045979593
98	0xbe8f7608	-0.28019738
99	0xbe49bb92	-0.19700459
100	0x3e76e7aa	0.2411181
101	0x3e1a9fef	0.15100072
102	0xbe55b1c0	-0.20868587
103	0xbe1f21ec	-0.15540284
104	0xbec1de4b	-0.3786491
105	0xbe2aafd1	-0.16668631
106	0xbe2c7a54	-0.1684354
107	0xbe65dd9a	-0.22447816
108	0xbc824d10	-0.015905887
109	0x3d318898	0.043343157
110	0xbdf21df6	-0.11822121
111	0x3e2f6786	0.17129335
112	0xbe33e2dd	-0.1756701
113	0x3e861c5e	0.26193517
114	0x3e4a93b2	0.19782904
115	0xbe7946fa	-0.24343482
116	0xbd93245e	-0.07184671
117	0x3c556a20	0.01302579
118	0x3d2c83f0	0.042118013
119	0x3d8c3810	0.068466306
120	0x3de80198	0.11328429
121	0x3c8da750	0.017291695
122	0xbe103bbe	-0.1408529
123	0x3e0be052	0.1365979
124	0xbe8dc751	-0.2769113
125	0xbe2f34c1	-0.17109968
126	0xbd93ff26	-0.072264
127	0xbe0ffe09	-0.1406175
128	0xbdced2e6	-0.100988194
129	0xbe72486c	-0.23660439
130	0xbd7b8468	-0.06140557
131	0x3d7cbf98	0.061706156
132	0xbe8d97d8	-0.2765491
133	0x3d79d95d	0.06099831
134	0x3de16f62	0.11007573
135	0xbdf09f42	-0.11749126
136	0xbd9f32c8	-0.07773358
137	0xbde21354	-0.11038843
138	0xbd1f5245	-0.038896818
139	0x3d2e76a3	0.04259361
140	0x3dec9a77	0.11552899
141	0x3ca6bbfa	0.020353306
142	0x3ddd6bd9	0.10811586
143	0xbe3f3286	-0.18671617
144	0xbe84c5ff	-0.2593231
145	0xbe0c2389	-0.1368543
146	0x3e494722	0.19656041
147	0xbaf54700	-0.0018713176
148	0xbe12edb6	-0.14348492
149	0xbe62863a	-0.22121516
150	0xbe8a520c	-0.27015722
151	0xbe797ddc	-0.24364418
152	0xbd6fd63c	-0.05855392
153	0x3e221c54	0.15831119
154	0x3e1fd0b8	0.15606964
155	0xbe8e8b6d	-0.27840748
156	0x3e38645e	0.18007037
157	0xbe674ffa	-0.22589102
158	0xbd79f970	-0.061028898
159	0xbdefb7d8	-0.11704987
160	0xbd63c038	-0.055603236
161	0xbd682880	-0.05667925
162	0xbe84a13c	-0.25904262
163	0xbe7f3c31	-0.24925305
164	0xbd390600	-0.045171738
165	0x3b74a880	0.003733188
166	0xbe064901	-0.13113786
167	0x3ddeb504	0.1087437
168	0xbe801a7f	-0.25020215
169	0xbcb4c95a	-0.022068668
170	0x3e74554a	0.2386066
171	0xbe1d8e70	-0.15386367
172	0x3e640276	0.22266564
173	0x3d9827be	0.07429455
174	0xbe745815	-0.23861726
175	0x3e42a4ba	0.1900815
176	0xbd1ef298	-0.038805574
177	0xbe10f785	-0.14156921
178	0x3e55e361	0.2088752
179	0xbe812fc0	-0.25231743
180	0xbdd4104a	-0.103546694
181	0xbba3270b	-0.0049790195
182	0x3de75a5d	0.11296532
183	0xbd0e7304	-0.034777656
184	0x3cb7b96e	0.022427287
185	0xbd12da3f	-0.035852667
186	0xbe29b8dc	-0.16574425
187	0xbe0e1dc6	-0.13878545
188	0xbe8ead98	-0.27866817
189	0x3df4d340	0.11954355
190	0x3e4e0cde	0.20122096
191	0x3e0163a4	0.12635666
192	0xbe50831e	-0.20362517
193	0x3c52f120	0.0128748715
194	0xbe506181	-0.20349695
195	0xbe22b997	-0.1589111
196	0xbe2c3fec	-0.1682126
197	0x3dca0abc	0.09865329
198	0xbe302768	-0.17202532
199	0xbbce6040	-0.006298095
200	0x3c46f7c0	0.012144029
201	0x3e3e8d80	0.18608665
202	0xbe5f73d6	-0.21821532
203	0xbe4aef70	-0.198179
204	0xbe7b5fd5	-0.24548276
205	0x3ec2db04	0.3805772
206	0xbe370857	-0.17874275
207	0x3e48e654	0.19619113
208	0x3d65981a	0.05605326
209	0x3c5067e5	0.012720083
210	0xbe315305	-0.17316826
211	0xbe76d331	-0.24104
212	0xbe3d6e02	-0.18498996
213	0xbe9243bf	-0.2856731
214	0xbe6f8b38	-0.23392951
215	0x3c07ae78	0.008281343
216	0xbe6738f2	-0.22580317
217	0xbe1aef5c	-0.15130371
218	0x3e6eb294	0.2331031
219	0xbe6fe55a	-0.23427334
220	0xbca9cf20	-0.020728648
221	0x3e92360c	0.2855686
222	0x3dd590d4	0.104280144
223	0x3c05e920	0.008173257
224	0xbe80161e	-0.25016874
225	0x3e126f74	0.14300328
226	0xbe528d75	-0.20561774
227	0xbda7d28c	-0.081944555
228	0xbe767a5f	-0.24070118
229	0x3dc8c238	0.09802669
230	0xbda813ac	-0.08206877
231	0x3e1a2a79	0.15055265
232	0xbd6594db	-0.056050163
233	0x3e36d9e6	0.17856559
234	0x3dd9c9dd	0.106342055
235	0xbe7c0b08	-0.24613583
236	0x3db03938	0.086046636
237	0xbe73fa64	-0.23825985
238	0xbe0f9fc3	-0.14025788
239	0x3d7e6303	0.062106144
240	0x3d65eba3	0.056132924
241	0x3e6d72b3	0.23188286
242	0xbe05c871	-0.13064744
243	0xbd1e2bd2	-0.03861601
244	0x3ddfbbd8	0.109245
245	0xbea2813c	-0.31739223
246	0x3e33587c	0.17514223
247	0xbe8b32b1	-0.27187112
248	0xbcd59989	-0.026074188
249	0xbd9d4db2	-0.07680835
250	0xbe2db40c	-0.16963214
251	0xbb3abcef	-0.002849396
252	0x3e7470a0	0.23871088
253	0xbdacd23e	-0.08438538
254	0xbe2f7f7a	-0.17138472
255	0xbddaa6b4	-0.10676327

encoder.MLP.L0.bias f4 [256]
0	0x3e844e11	0.2584081
1	0x3e240e33	0.16021042
2	0xbe8153f7	-0.25259373
3	0xbe31000a	-0.17285171
4	0x3b43baf9	0.0029866083
5	0xbe559b5a	-0.20860043
6	0xbb088c79	-0.0020835681
7	0xbe27e2d1	-0.16395117
8	0x3c8f8ec6	0.017524134
9	0x3e103ca2	0.1408563
10	0x3db9d2c0	0.090734005
11	0x3df66b55	0.12032191
12	0xbd0e4930	-0.034737766
13	0x3e20797a	0.1567134
14	0x3d841394	0.06449047
15	0xbe6af478	-0.2294482
16	0xbe50c650	-0.2038815
17	0x3e7c184e	0.24618647
18	0xbdb044ec	-0.08606896
19	0x3e0f1612	0.13973263
20	0x3e1335cf	0.14375995
21	0xbc3e7480	-0.011624455
22	0xbebc0310	-0.36721087
23	0x3d70ee0a	0.05882076
24	0xbe38e4fb	-0.18056099
25	0x3d87d5be	0.06632565
26	0xbe198a50	-0.14994168
27	0x3e0c7a45	0.13718517
28	0xbeaedaac	-0.34151208
29	0xbe029bcb	-0.12754743
30	0xbc3ab99c	-0.011396792
31	0x3dace2af	0.08441674
32	0x3e7eb6d3	0.2487443
33	0xbdead900	-0.11467171
34	0xbe921294	-0.285298
35	0x3d93cc06	0.07216649
36	0x3da5336c	0.080664486
37	0x3e6b97a2	0.23007062
38	0xbe2ef458	-0.17085397
39	0xbe8370af	-0.25671908
40	0xbd8df293	-0.06931033
41	0xbd55ed03	-0.052227985
42	0x3c9d4491	0.019197734
43	0xbe4c60e2	-0.19958833
44	0xbdd0e326	-0.10199575
45	0xbd4c5c58	-0.049892753
46	0x3e91b3b6	0.2845742
47	0xbd8bc9c7	-0.06825595
48	0x3e84d2d2	0.25942093
49	0xbdfa5564	-0.12223318
50	0xbe02337c	-0.12714952
51	0xbeae8527	-0.34085962
52	0x3e329db0	0.17442966
53	0xbe566cb4	-0.20939904
54	0x3da2d637	0.079510145
55	0xbdec64e8	-0.11542684
56	0x3e717b89	0.23582281
57	0x3d343c21	0.044002656
58	0xbe83620d	-0.25660744
59	0x3c6d6031	0.014488266
60	0x3c9757fa	0.018474568
61	0xbea12a30	-0.314775
62	0x3dcee2be	0.101018414
63	0x3eb5113c	0.3536471
64	0x3d8d2c34	0.06893197
65	0xbac93800	-0.0015351772
66	0xbd751dec	-0.05984299
67	0x3d8d39f9	0.06895823
68	0xbe8aab3c	-0.27083766
69	0x3e8990f4	0.26868403
70	0x3e861e93	0.261952
71	0x3deaa032	0.11456336
72	0xbe059f93	-0.13049154
73	0xbe70e5c7	-0.23525153
74	0xbe2bbbc6	-0.16770849
75	0x3de82fe3	0.11337259
76	0xbe8ed8ba	-0.27899724
77	0xbeba2327	-0.36354944
78	0xbd883415	-0.06650559
79	0x3ddd46ce	0.108045205
80	0xbe9a4830	-0.301332
81	0xbea0568b	-0.31316027
82	0xbbdc9e35	-0.006732727
83	0xbdc64f94	-0.09683147
84	0x3df1296a	0.11775477
85	0x3d5e5763	0.054282557
86	0xbe7f2753	-0.24917345
87	0xbe8942f9	-0.2680891
88	0x3e1f05f4	0.15529615
89	0x3d4288c4	0.04749371
90	0xbe1ab09a	-0.1510643
91	0x3d6de9b0	0.05808419
92	0xbd6862c0	-0.0567348
93	0x3e0d5f1c	0.13805813
94	0xbd03ddd1	-0.032193962
95	0xbdfffa16	-0.12498872
96	0xbe6cec47	-0.23137008
97	0x3e3ffe3e	0.1874933
98	0xbe319a06	-0.17343912
99	0xbe2595c6	-0.16170415
100	0x3d21ab58	0.039470047
101	0xbe3c2b71	-0.18375947
102	0x3da6ac98	0.081383884
103	0xbe4fec79	-0.20305051
104	0xbd36bfba	-0.04461644
105	0x3dc0f17c	0.094210595
106	0x3d8ceac3	0.06880715
107	0xbea7fd7e	-0.32810587
108	0xbd38415a	-0.0449842
109	0x3dd70746	0.10499434
110	0xbe3d4014	-0.18481475
111	0x3dfdc7a4	0.12391594
112	0x3cd93838	0.026516065
113	0x3e3e25c0	0.18569088
114	0xbd92939f	-0.07157063
115	0xbd841d29	-0.06450874
116	0xbd605399	-0.054767225
117	0xbd9569c2	-0.07295562
118	0x3d3999a4	0.04531254
119	0xbea90e06	-0.33018512
120	0x3e603f34	0.2189911
121	0x3e491374	0.19636327
122	0x3d4ca254	0.049959496
123	0x3dd6291d	0.104570605
124	0xbe5f96d6	-0.21834883
125	0x3caa45d1	0.020785244
126	0x3c709ea0	0.014686257
127	0xbe4c87c7	-0.1997367
128	0xbe4be652	-0.19912079
129	0xbe234879	-0.15945615
130	0xbd922d88	-0.07137591
131	0xbe89b3c8	-0.26894975
132	0xbe871ab3	-0.26387557
133	0xbce09200	-0.027413368
134	0xbd33df54	-0.043914154
135	0xbec8a73a	-0.39190084
136	0x3d708748	0.058722764
137	0x3e4c1aaa	0.19932047
138	0x3e4d3522	0.200398
139	0x3e4bc2e6	0.19898567
140	0xbe782e4e	-0.24236414
141	0xbe44c33c	-0.19215101
142	0xbdc6c5d6	-0.09705703
143	0x3c9cfdd7	0.019164009
144	0xb820d703	-3.8347218e-05
145	0x3d838910	0.06422627
146	0x3e2b27c6	0.16714391
147	0x3ca10921	0.019657673
148	0xbe8f8234	-0.28029025
149	0x3dcd9ce7	0.10039692
150	0x3e47679e	0.1947312
151	0xbd92a3e0	-0.07160163
152	0xbe80974c	-0.2511543
153	0xbe42e35f	-0.19032048
154	0xbd59018e	-0.05298
155	0x3deb8551	0.115000375
156	0x3e89d152	0.2691751
157	0x3e10d4dc	0.141437
158	0xbb1a2882	-0.002352268
159	0x3d9a4f1b	0.075346194
160	0x3dd9a7d8	0.10627717
161	0xbe463f10	-0.19359994
162	0x3b570578	0.0032809656
163	0xbe8e659c	-0.27811897
164	0x3d9545f4	0.07288733
165	0x3ddb98fe	0.1072254
166	0x3d77b561	0.06047571
167	0xbda8e640	-0.08247042
168	0xbb6f8d00	-0.0036552548
169	0xbde7c35a	-0.11316557
170	0xbcd38bdf	-0.025823532
171	0x3df5ee37	0.120083265
172	0x3de536bc	0.111920804
173	0xbea1d56a	-0.31608135
174	0xbe591523	-0.2119947
175	0x3e0348a0	0.12820673
176	0xbd294d9c	-0.04133378
177	0x3d7ffcbe	0.062496893
178	0x3e0fb077	0.1403216
179	0xbe4e6529	-0.20155777
180	0xbe2e3a6b	-0.17014472
181	0xbeb47d5b	-0.3525189
182	0x3d5cb919	0.05388746
183	0x3e1b844b	0.15187185
184	0xbd19ee68	-0.037580878
185	0xbe9280b2	-0.28613812
186	0xbe8fc060	-0.28076458
187	0xbcc2278c	-0.023700498
188	0x3cdcbffb	0.026947012
189	0xbe656f87	-0.22405826
190	0xbe4be45d	-0.19911332
191	0xbe6cf941	-0.23141958
192	0x3e40eb73	0.18839817
193	0x3e1bc1de	0.15210673
194	0xbe7cffee	-0.24707004
195	0xbe8cf514	-0.2753073
196	0xbea27f1a	-0.31737596
197	0xbb324fb0	-0.0027208142
198	0xbe73a534	-0.23793489
199	0xba801600	-0.0009772182
200	0xbd9d26de	-0.07673429
201	0xbe816082	-0.25268942
202	0xbe687b58	-0.22703302
203	0xbe904fd1	-0.28185895
204	0xbe048c6b	-0.1294419
205	0xbc8a2c59	-0.01686685
206	0xbe42c400	-0.1902008
207	0x3b042823	0.0020165525
208	0x3bbaa81c	0.0056963097
209	0x3e4700ba	0.19433871
210	0xbe06c1b5	-0.13159831
211	0x3e8add5a	0.27122003
212	0xbe7c04d5	-0.24611218
213	0xbe76a1d6	-0.24085173
214	0xbb5bc91e	-0.0033536623
215	0xbe5616ea	-0.20907179
216	0x3c781899	0.015142583
217	0xbe238ab0	-0.15970874
218	0x3e46867c	0.19387239
219	0x3e7defb8	0.24798477
220	0xbce30b06	-0.027715217
221	0x3d9bf901	0.07615853
222	0x3eb5b837	0.35492107
223	0x3e38495c	0.17996734
224	0xbe9951da	-0.2994526
225	0xbd435a15	-0.04769333
226	0xbe856ad0	-0.26058054
227	0x3e61ceb4	0.22051507
228	0xbe060075	-0.13086112
229	0xbd09db46	-0.03365638
230	0xbe70c0a5	-0.23510988
231	0xbe727469	-0.2367722
232	0x3cbfd42f	0.023416607
233	0x3e66c384	0.22535521
234	0xbe1495fb	-0.14510338
235	0xbd8f273b	-0.069899045
236	0x3e9fab5b	0.3118542
237	0x3e447edd	0.1918902
238	0xbe656bb2	-0.22404364
239	0x3e8a8760	0.27056408
240	0x3cb2751a	0.021784354
241	0x3e4ca8a0	0.199862
242	0x3c0c53c0	0.008564889
243	0xbe7a85b6	-0.24465069
244	0xbdd6e020	-0.10491967
245	0x3d945942	0.07243587
246	0xba9a3d7f	-0.0011767595
247	0xbed945e2	-0.4243613
248	0x3d919310	0.07108128
249	0xbe916812	-0.28399712
250	0x3db80e8a	0.08987148
251	0x3e250e6a	0.1611878
252	0x3c0cc7d6	0.0085925665
253	0xbd5f2890	-0.054482043
254	0x3dfbca63	0.122944616
255	0xbdc6f036	-0.09713785

encoder.MLP.L1.weight f4 [128, 256]
0	0xbd8515c3	-0.06498291
1	0xbd35ae18	-0.044355482
2	0x3cf0bbb0	0.029386371
3	0x3d34ee54	0.0441726
4	0x3b25dbc0	0.0025307983
5	0xbd78370c	-0.06059937
6	0xbd7b8c32	-0.061412998
7	0xbc673a10	-0.014112964
8	0x3d0a3198	0.033738703
9	0xbd2a98e0	-0.0416497
10	0x3c8a0140	0.0168463
11	0xbd597c7d	-0.053097237
12	0x3d50490c	0.050850913
13	0xbc8628f0	-0.016376942
14	0xbc652573	-0.013985979
15	0xbd608858	-0.054817528
16	0xbd654c0c	-0.055980727
17	0x3b8a69e0	0.004224047
18	0x3c259260	0.010105699
19	0x3d0a4ef6	0.03376671
20	0xbd5fda96	-0.05465182
21	0x3c336d08	0.010951288
22	0xbc13ed30	-0.009028718
23	0x3c3ce13c	0.011528309
24	0xbce8cde8	-0.028418496
25	0x3c9889e0	0.018620431
26	0x3cce5208	0.0251856
27	0x3d009934	0.031396106
28	0xbd152829	-0.036415253
29	0x3ca4c464	0.020113178
30	0xbc48af98	-0.012248896
31	0xbbb856e1	-0.005625591
32	0xbd1d6a4a	-0.038431443
33	0xbd9c5587	-0.076335005
34	0xbd51678e	-0.051124148
35	0xbd20edb6	-0.0392892
36	0xbcd8b14c	-0.02645173
37	0xbc8c6267	-0.017136766
38	0xbc5ffca8	-0.013671078
39	0xbd11bc10	-0.03557974
40	0x3a09a280	0.00052503496
41	0xbd267574	-0.040639356
42	0x3d1dce62	0.0385269
43	0xbd52d7ce	-0.05147534
44	0xbcbcfbd0	-0.023069292
45	0xbd248398	-0.04016456
46	0x3bfcb460	0.007711932
47	0x3b5f75e0	0.0034097359
48	0xbce556d3	-0.027995503
49	0x3d1a56d2	0.037680455
50	0xbcc351d8	-0.023842737
51	0xbc132dc0	-0.008983076
52	0x3c844768	0.01614733
53	0x3d55a920	0.052163243
54	0x3cc38cad	0.02387079
55	0x3be9f5e0	0.0071399063
56	0xbcc1b408	-0.023645416
57	0x3ca83394	0.020532407
58	0x3d21124c	0.03932409
59	0xbaaed400	-0.0013338327
60	0x3d0c8d78	0.034314603
61	0x3d51840c	0.05115132
62	0xbd793571	-0.06084198
63	0xbd1acb93	-0.0377918
64	0xbd7dba45	-0.06194522
65	0x3c6b1008	0.014347084
66	0x3d3672de	0.04454314
67	0xbc46da08	-0.012136944
68	0x3c236608	0.009973057
69	0x3ca399f4	0.019970872
70	0xbcb22efa	-0.021750916
71	0x3d47065c	0.04859005
72	0x3c153800	0.00910759
73	0xbdb2ab32	-0.08724059
74	0xbd5366b8	-0.051611632
75	0xbd7da2cc	-0.061922833
76	0x3b28d280	0.0025760233
77	0x3d0a62a8	0.033785492
78	0xbc0718c8	-0.008245654
79	0x3d662c44	0.05619456
80	0xbc383878	-0.011243932
81	0x3c515b70	0.012778148
82	0x3d10a0a8	0.035309464
83	0x3d018f3c	0.03163074
84	0xbb02aca0	-0.0019939318
85	0x3d1ecb7d	0.03876828
86	0xbd18f36e	-0.037341528
87	0x3cbeb520	0.023279727
88	0x3d21ac68	0.03947106
89	0xbd1e8358	-0.038699478
90	0xbd7078d2	-0.058708973
91	0x3ca3c4f8	0.019991383
92	0xbcc23f40	-0.0237118
93	0xbd013032	-0.031540103
94	0x3c4badd8	0.012431584
95	0xbd39b5aa	-0.045339264
96	0x3d663f54	0.05621274
97	0xbbb7d730	-0.005610369
98	0xbca3f820	-0.020015776
99	0x3d5602de	0.052248828
100	0x3c8e8fe4	0.017402597
101	0xbc3d8e4d	-0.011569572
102	0xbcf4cd94	-0.029883184
103	0x3d73fcb4	0.05956717
104	0xbc9bf06c	-0.01903554
105	0x3cc63533	0.02419529
106	0xbb968ba0	-0.0045942813
107	0x3d006b52	0.03135235
108	0x3d160b08	0.036631614
109	0xbd3e97b6	-0.0465314
110	0xbd2a9ff4	-0.04165645
111	0xbd7d258c	-0.061803386
112	0x3c84db57	0.01621787
113	0x3cdcfa88	0.026974931
114	0xbcbb1ed4	-0.022841848
115	0xbcfac458	-0.030611202
116	0x3c2b6858	0.010461889
117	0x3c1302e3	0.008972856
118	0x3c7cc270	0.015427217
119	0xbc556968	-0.013025619
120	0xbd22d5cc	-0.039754674
121	0x3d5af2d6	0.053454243
122	0xbd827694	-0.06370273
123	0xbdabca5b	-0.083882056
124	0xbd09296a	-0.03348676
125	0xbb51f928	-0.0032039378
126	0x3cbe4e44	0.02323068
127	0x3cc5f940	0.024166703
128	0xbd144cec	-0.03620617
129	0xbcc4801c	-0.023986869
130	0xbce3ad10	-0.027792484
131	0xbcf7f0dc	-0.030266218
132	0xbd579f3a	-0.052642085
133	0x3c519cc8	0.012793727
134	0xbc94e604	-0.018176086
135	0xbd8349ac	-0.06410536
136	0xbd157b9a	-0.03649483
137	0xbd19bd62	-0.037534125
138	0xbcdcdb94	-0.026960172
139	0xbd1e2ef8	-0.03861901
140	0xbc3194d0	-0.010838702
141	0x3cb77b54	0.022397675
142	0xbd4f2f32	-0.05058212
143	0xbc3ac27f	-0.011398911
144	0xbc93592c	-0.017986856
145	0xbd02e1d2	-0.03195364
146	0xbc6360a0	-0.013878018
147	0xbcd90068	-0.026489452
148	0x3b03ad60	0.0020092353
149	0xbd38cb2a	-0.045115627
150	0x3c4230b0	0.011852428
151	0x3d6b0ab8	0.05738327
152	0x3d541fdc	0.051788196
153	0xbce58f54	-0.028022446
154	0xbbe56831	-0.007000946
155	0xbdaeb51b	-0.08530637
156	0x3d57899a	0.05262146
157	0xbd7f1ede	-0.062285297
158	0xbd64c4b0	-0.05585164
159	0xbda7250a	-0.081613615
160	0xbd6dbc44	-0.058040872
161	0x3c0aae20	0.008464366
162	0xbc8763b8	-0.016527042
163	0x3c751780	0.014959216
164	0xbce3523b	-0.027749171
165	0xbc4835ea	-0.012219885
166	0xbd432f96	-0.047652803
167	0xbd17e22a	-0.03708092
168	0xbd565662	-0.052328475
169	0x3c367364	0.01113591
170	0xbd03fe52	-0.03222496
171	0xbd07e680	-0.033178806
172	0x3bca4e18	0.0061738603
173	0xbc7d9b10	-0.015478864
174	0xbc8117cc	-0.015758418
175	0xbd2aa948	-0.041665345
176	0xbd5b08a4	-0.053475037
177	0x3cf5be38	0.02999793
178	0xbc670870	-0.014101133
179	0x3d20f95c	0.039300308
180	0x3b86cad0	0.0041135326
181	0xb8a67c00	-7.9385936e-05
182	0xbd671df8	-0.056425065
183	0x3ab4dd00	0.0013798773
184	0xbc676bb0	-0.014124796
185	0xbd121518	-0.035664648
186	0xbc6cfe08	-0.014464863
187	0xbcbffe89	-0.023436802
188	0xbd40e438	-0.047092646
189	0x3c2a4640	0.0103927255
190	0x3d3220ee	0.043488435
191	0x3c4a49d0	0.0123467
192	0x3d745d92	0.059659548
193	0x3ceeebb8	0.029165134
194	0xbd49e4e6	-0.04929056
195	0xbcc987d0	-0.024600893
196	0xbc766b18	-0.015040182
197	0xbbd94eb6	-0.0066316975
198	0xbbcfa024	-0.006336229
199	0x3d4e009a	0.050293542
200	0x3bede890	0.0072603896
201	0xbd2220a4	-0.03958191
202	0xbd4be85c	-0.049782142
203	0xbd54fb68	-0.051997572
204	0xbc8d2c6c	-0.017233096
205	0x3cfbba74	0.030728556
206	0x3a1e3680	0.0006035343
207	0xbd98ba7b	-0.07457443
208	0xbd74da22	-0.05977834
209	0x3cb99fa4	0.02265913
210	0xbd60b11e	-0.054856412
211	0xbd4c30d0	-0.04985124
212	0xbd75ad61	-0.0599798
213	0x3d73ff90	0.059569895
214	0xbc9195c4	-0.01777161
215	0xbce8b825	-0.02840812
216	0xbd2cdac0	-0.042200804
217	0x3d23c3d8	0.039981693
218	0xbc255810	-0.0100917965
219	0x3a6094e0	0.0008567106
220	0xbba63551	-0.005072274
221	0xbb9de88d	-0.004818982
222	0x3d23dcd8	0.040005535
223	0x3b548e40	0.003243342
224	0x3bd3d710	0.0064648464
225	0xbccd8171	-0.025086137
226	0xbd46ede2	-0.048566706
227	0xbc6a5738	-0.014303021
228	0x3d73a62a	0.05948464
229	0xbd356ed4	-0.044295147
230	0xbd5b36a7	-0.053518917
231	0xbd7e0848	-0.062019616
232	0x3b785f40	0.003789857
233	0xbd6f714a	-0.05845765
234	0xbd031f28	-0.032012135
235	0x3d6be390	0.057590067
236	0x3cd40d6c	0.025885306
237	0x3d0863b8	0.033298224
238	0x3c2f5738	0.010701947
239	0xbd598b2a	-0.053111233
240	0xbd456275	-0.0481896
241	0xbda13f6a	-0.078734234
242	0xbd1e4cc4	-0.03864743
243	0x3cae5bd0	0.021284014
244	0xbc8e015c	-0.017334633
245	0x3d7a2dec	0.06107895
246	0xbd3a9cee	-0.045559816
247	0xbd5a7914	-0.053338125
248	0x3d7cc668	0.061712652
249	0xbd5d25aa	-0.053990997
250	0x3cec1182	0.028816942
251	0xbbce00d7	-0.006286721
252	0xbd6954e0	-0.05696571
253	0x3d5ef880	0.054436207
254	0xbc8b6398	-0.017015263
255	0xbd3c0ec2	-0.04591251

encoder.MLP.L1.bias f4 [128]
0	0x3d453501	0.04814625
1	0xbae7df88	-0.0017690519
2	0x3dd508e2	0.10402085
3	0xbd1171e3	-0.035509
4	0xbd9284dc	-0.07154247
5	0x3b08738c	0.0020820824
6	0xbcf21a1c	-0.029553466
7	0x3ba3e69b	0.0050018555
8	0xbdb00ffa	-0.08596797
9	0xbd76e8c1	-0.060280565
10	0xbcff29a3	-0.031147784
11	0x3bfb60ec	0.007671466
12	0xbd28ab83	-0.04117919
13	0x3c491156	0.0122722
14	0xbce75572	-0.028238986
15	0x3cc7d0ce	0.024391558
16	0x3cb9d64d	0.022685194
17	0xbd046bc1	-0.032329325
18	0xbda89e41	-0.082333095
19	0xbd7e13cd	-0.062030602
20	0xbd51a20f	-0.05117994
21	0xbd8f5474	-0.0699853
22	0xbd78df2e	-0.060759716
23	0xbabefe7f	-0.0014571695
24	0xbd118426	-0.035526417
25	0xbceef588	-0.029169813
26	0xbc329849	-0.010900565
27	0xbd544bfc	-0.051830277
28	0xbd521811	-0.051292483
29	0x39abbf16	0.00032758032
30	0xbcfe6f57	-0.03105895
31	0x3c9a5eea	0.018844087
32	0xbd933b92	-0.071890965
33	0xbc821a8d	-0.015881801
34	0xbd8405b0	-0.06446397
35	0xbd0dfb1a	-0.034663297
36	0xbc037735	-0.008024027
37	0x3cf601bc	0.030030124
38	0xbd49ab8a	-0.049235858
39	0x3c6c8269	0.014435389
40	0xbc5d5298	-0.013508461
41	0x3d4ba7d1	0.04972059
42	0x3c7d871b	0.015474106
43	0xbdb50697	-0.088391475
44	0xbc642674	-0.013925184
45	0x3c750117	0.014953873
46	0xbc7f3416	-0.015576383
47	0xbd670032	-0.05639667
48	0x3b6c6214	0.0036069201
49	0xbce1bca3	-0.02755577
50	0xbc7db512	-0.015485065
51	0x3d3c6bf7	0.0460014
52	0xbd676a66	-0.056497954
53	0xbc446dbd	-0.011989054
54	0xbd66f3f6	-0.056385003
55	0x3d273279	0.04081962
56	0xbd7dcb30	-0.061961353
57	0xbcc1a700	-0.023639202
58	0xbd052dc1	-0.032514337
59	0xbc31b64a	-0.010846684
60	0xbcf8090d	-0.030277753
61	0x3c269e1b	0.010169531
62	0x3c348f2b	0.011020462
63	0xbd26510c	-0.040604636
64	0xbcb9cbfa	-0.022680271
65	0xbd35772f	-0.044303115
66	0xbcd8df47	-0.026473654
67	0xbba92656	-0.0051620407
68	0xbda8f3bc	-0.08249614
69	0xbdad6b62	-0.08467747
70	0x3c951c1d	0.018201882
71	0x3d26732d	0.040637184
72	0xbd0c9600	-0.03432274
73	0xbd75aedc	-0.059981212
74	0xbce560ff	-0.028000353
75	0xbc2681a5	-0.010162746
76	0xbd57f4e4	-0.05272378
77	0xbcdda171	-0.02705452
78	0xbcba17f6	-0.022716504
79	0x3cc02e42	0.023459557
80	0x3b0d6bf6	0.0021579242
81	0xbb95249a	-0.0045514824
82	0xbb75be1a	-0.0037497343
83	0xbd37cd0d	-0.044873286
84	0x3cb877c4	0.022518046
85	0xbd1bc4fc	-0.038029656
86	0x3d0fc526	0.035100125
87	0xbc345fd4	-0.011009175
88	0x3c5415ee	0.012944682
89	0xbd516e30	-0.051130474
90	0xbcd9d0ca	-0.026588816
91	0xbd1b4cc9	-0.037915025
92	0xbcd19d3e	-0.025587674
93	0xbdd96884	-0.10615638
94	0xbdb13579	-0.08652777
95	0xbd11c194	-0.035585
96	0x3c66c0a6	0.014084017
97	0xbd547ac7	-0.051874902
98	0xbdbffd4c	-0.093744844
99	0xbcc5aa57	-0.024129076
100	0x3bdee38a	0.006802027
101	0xbce8cde2	-0.028418485
102	0xbcccbae4	-0.02499146
103	0xbd9abd65	-0.075556554
104	0xbd62d961	-0.05538309
105	0xb8a4ebb6	-7.864034e-05
106	0x3b96034f	0.004578031
107	0xbb230952	-0.0024877382
108	0xbd2fc03a	-0.04290793
109	0xbd3550bd	-0.04426645
110	0xbd9925c1	-0.07477904
111	0x3cd27154	0.025688805
112	0xbd07bba4	-0.033137932
113	0xbd4c139b	-0.049823385
114	0xbc8c621a	-0.017136622
115	0xbd86dba0	-0.06584859
116	0xbd1fb31a	-0.038989164
117	0xbdaa63c4	-0.0831981
118	0xbba1248b	-0.0049176863
119	0xbca0bca5	-0.019621203
120	0xbddeb9d6	-0.10875289
121	0x3d1d4228	0.03839317
122	0xbdc42eb7	-0.09579223
123	0xbd5b879e	-0.05359613
124	0xbd499197	-0.04921111
125	0xbd7a5936	-0.061120234
126	0xbbdd3ba6	-0.0067514954
127	0xbbe6e920	-0.0070468336

encoder.MLP.L2.weight f4 [64, 128]
0	0x3db1b7c1	0.086776264
1	0xbd7ca9ce	-0.061685376
2	0xbb16c30b	-0.0023004438
3	0xbd9a8e55	-0.07546679
4	0x3cc26f29	0.023734646
5	0x3d733fb2	0.059386916
6	0x3cee2920	0.029072344
7	0x3c125212	0.0089307
8	0x3cd7ebe2	0.026357595
9	0x3bfe6e7e	0.0077646365
10	0x3d9c4e47	0.07632118
11	0xbd996980	-0.07490826
12	0xbd4c0d62	-0.04981745
13	0xbdb37aee	-0.08763681
14	0xbd942efb	-0.07235523
15	0xbb7bfcfe	-0.0038450356
16	0xbca8b6b9	-0.020594941
17	0xbd6df309	-0.058093105
18	0xbd7965a7	-0.06088796
19	0xbcffe79a	-0.031238366
20	0x3d43326f	0.04765552
21	0xbbe2e947	-0.0069247815
22	0xbd3b57fe	-0.045738213
23	0xbbebefa4	-0.0072001982
24	0xbd915789	-0.07096774
25	0x3cbe27fc	0.023212425
26	0xbcc6a212	-0.024247203
27	0x3d0813fa	0.033222176
28	0x3cad48ec	0.021152936
29	0xbb79e954	-0.003813346
30	0xbd8b2fc4	-0.0679622
31	0x3da26804	0.07929996
32	0x3cf0b147	0.029381407
33	0x3c4091e8	0.011753537
34	0x3d67596f	0.056481775
35	0x3c0785ec	0.008271676
36	0x3c7bba77	0.015364281
37	0x3db0d8e5	0.08635119
38	0xbd693aa3	-0.056940686
39	0x3d2f779a	0.04283867
40	0xbc159a65	-0.009131049
41	0x3da8e52f	0.08246838
42	0xbc204cf2	-0.00978397
43	0xbd7eb58b	-0.06218485
44	0x3cf73f7c	0.030181639
45	0xbd9cd862	-0.07658459
46	0xbd8dfc18	-0.06932849
47	0xbd466d6e	-0.048444204
48	0xbd0f67fe	-0.035011284
49	0x3cbd9277	0.023141129
50	0xbda69e2a	-0.08135636
51	0xbda4d735	-0.0804886
52	0x3db5a002	0.0886841
53	0x3b03f740	0.0020136386
54	0x3d5b49da	0.053537227
55	0xbdb90780	-0.09034634
56	0xbc6bdb39	-0.0143955285
57	0x3c8853a8	0.016641453
58	0xbc240d4f	-0.010012939
59	0x3d264206	0.04059031
60	0x3d56df63	0.052459132
61	0x3d98417f	0.074343674
62	0xbd52741f	-0.051380273
63	0x3b2dd400	0.0026524067
64	0xbd3f5ee3	-0.04672135
65	0xbd495e31	-0.049162094
66	0x3d9bf211	0.0761453
67	0xbd77437b	-0.06036709
68	0xbcff9099	-0.03119688
69	0x3d5a61ba	0.053315856
70	0x3bb58980	0.005540073
71	0xbda8d8c8	-0.08244473
72	0xbd22b33e	-0.03972172
73	0xbd516fe6	-0.051132105
74	0xbd86a2a4	-0.0657399
75	0xbc31b473	-0.010846245
76	0xbca34e50	-0.019934803
77	0xbd8abfcd	-0.06774864
78	0xbda13950	-0.078722596
79	0x3c366880	0.011133313
80	0xbb07a7d0	-0.002069939
81	0xbd71d7ce	-0.059043698
82	0x3d7b2921	0.06131852
83	0x3d24279a	0.04007683
84	0xbcbe3974	-0.023220755
85	0x3d0f4092	0.03497369
86	0x3c721c43	0.014777246
87	0x3daba3d2	0.083808556
88	0x3d66f00d	0.056381274
89	0x3ce9f501	0.02855921
90	0x3d8b3233	0.06796684
91	0x3ce3d9a8	0.027813748
92	0x3d1f199c	0.038842782
93	0x3d66eda5	0.05637898
94	0x3cf4733d	0.029840106
95	0xbd878b1e	-0.066183314
96	0x3da51510	0.08060658
97	0xbd86c7e1	-0.065810926
98	0xbd835734	-0.06413117
99	0xbc26f5c1	-0.010190428
100	0x3c6ed157	0.014576278
101	0xbc2b860c	-0.010468971
102	0x3cb6de89	0.02232291
103	0xbc7c106a	-0.015384773
104	0xbbdbc883	-0.0067072525
105	0x3d8365f3	0.0641593
106	0xbe2b4757	-0.16726433
107	0x3d737959	0.059441898
108	0x3d32fffa	0.04370115
109	0xbd1664d0	-0.036717236
110	0xbc25ab35	-0.01011162
111	0xbd040302	-0.03222943
112	0x3c17796e	0.00924526
113	0xbd9df9f2	-0.07713689
114	0xbca59e67	-0.020217134
115	0x3d72880c	0.059211776
116	0xbd60825e	-0.054811828
117	0x3d84ddb1	0.06487597
118	0x3cffbbb8	0.031217441
119	0xbc766f8b	-0.015041242
120	0xbdc4b161	-0.09604145
121	0x3d1a84f3	0.037724447
122	0xbceaf210	-0.028679878
123	0xbd59872b	-0.05310742
124	0xbd1af11a	-0.03782759
125	0x3c91a026	0.01777656
126	0x3daf81d7	0.08569687
127	0xbb8bd7f4	-0.004267687
128	0x3d89ebad	0.06734405
129	0xbc84dec8	-0.016219512
130	0xbdc3fe00	-0.09569931
131	0xbce4e02a	-0.027938921
132	0x3d1d9c37	0.038479056
133	0xbd99164a	-0.074749544
134	0x3c2a6760	0.010400623
135	0xbdacf54c	-0.08445224
136	0xbdae339d	-0.08505938
137	0x3c146a52	0.009058552
138	0x3d21c088	0.039490253
139	0x3d6b4749	0.05744103
140	0xbd601f83	-0.054717552
141	0xbd3b0871	-0.045662347
142	0xbd98765f	-0.074444525
143	0xbb12447a	-0.0022318647
144	0x3d262816	0.040565573
145	0xb8f3303d	-0.00011596128
146	0x3cf26652	0.029589806
147	0x3da85a06	0.082202956
148	0xbcd3c9fc	-0.02585315
149	0xbd40e1d7	-0.047090378
150	0x3d908dd9	0.07058305
151	0x3b51be95	0.0032004465
152	0xbc9faf46	-0.019492757
153	0xbd1fb388	-0.038989574
154	0x3d459c70	0.048244894
155	0xbcd34c30	-0.025793165
156	0xbd87b5e9	-0.066264935
157	0x3d9a08e1	0.07521225
158	0x3cb3bbda	0.02194016
159	0xbd7e35de	-0.06206309
160	0xbbfd3ed3	-0.0077284365
161	0xbd0be331	-0.034152213
162	0x3d1bef84	0.038070217
163	0xbd7cbe40	-0.061704874
164	0x3cee1fe5	0.029067943
165	0xbdac2d6a	-0.084070995
166	0xbc58ff55	-0.01324447
167	0xbb4e8baa	-0.0031516352
168	0xbd625fe2	-0.055267222
169	0x3d15ebf7	0.036601987
170	0xbdb01b53	-0.08598962
171	0xbdd1491c	-0.10219023
172	0x3d6c2daa	0.057660736
173	0xbd12227d	-0.03567742
174	0x3d7adf44	0.06124808
175	0xbd9c9329	-0.07645256
176	0x3d0bfd77	0.03417727
177	0x3c1c117c	0.009525653
178	0x3cab5e17	0.020918889
179	0xbd67436c	-0.056460783
180	0x3d90168b	0.0703555
181	0x3da0eff3	0.07858267
182	0x3d20c9eb	0.039255064
183	0x3caaaaef	0.02083346
184	0xbdc0c209	-0.09412009
185	0x3cafbdc8	0.0214528
186	0xbddbdafb	-0.107351266
187	0x3c619a30	0.013769671
188	0xbd22c3ba	-0.03973744
189	0x3cd9283e	0.026508447
190	0xbd100e4b	-0.03516988
191	0x3c22a420	0.009926826
192	0x3dae30dd	0.08505414
193	0xbc2ac9f1	-0.010424123
194	0x3cdf07a9	0.027225332
195	0x3c9681bb	0.018372407
196	0xbdc8acee	-0.09798609
197	0xbc8669c8	-0.016407862
198	0x3ac04f18	0.0014672009
199	0xbcca65bf	-0.02470672
200	0x3d173302	0.03691388
201	0x3d2ceee6	0.04222002
202	0xbce5a38e	-0.02803209
203	0x3d36695f	0.044534083
204	0xbc499637	-0.01230388
205	0xbd6e8d77	-0.05824038
206	0x3d1f5107	0.038895633
207	0xbd63fc29	-0.0556604
208	0x3c44779f	0.0119914105
209	0x3af36604	0.0018569832
210	0x3cfd5db0	0.030928463
211	0xbcb5b974	-0.022183158
212	0x3d071a02	0.032983787
213	0xbdac8107	-0.084230475
214	0xbd9a896c	-0.075457424
215	0xbd9862fb	-0.07440754
216	0xbd3a542a	-0.04549042
217	0xbd2650ab	-0.040604275
218	0xbc53dabd	-0.012930569
219	0x3cfd5994	0.030926503
220	0x3d8c8942	0.06862117
221	0xbd02daa5	-0.031946797
222	0xbbe305fd	-0.006928204
223	0x3d6e5678	0.05818793
224	0x3d5fc94f	0.054635342
225	0xbb5a8636	-0.0033344156
226	0xbd0437e6	-0.03227987
227	0x3d3f455a	0.046697
228	0xbcdee8ae	-0.02721056
229	0xbda4d0bb	-0.08047625
230	0xbd4e03bf	-0.05029654
231	0x3c8c86bf	0.017154096
232	0x3da87888	0.082261145
233	0x3cc5ca60	0.024144351
234	0xbd682a4a	-0.056680955
235	0x3d2c4439	0.04205725
236	0x3c6fffa0	0.014648348
237	0xbdabc38b	-0.08386906
238	0xb93b1af6	-0.00017843753
239	0xbd63f750	-0.055655777
240	0x3d958724	0.07301167
241	0x3d3ad73a	0.045615412
242	0xbd52bf83	-0.05145217
243	0xbc9adb90	-0.018903524
244	0x3ccde7d4	0.025134958
245	0xbcf926f7	-0.030414088
246	0xbc0678b0	-0.008207485
247	0xbc383feb	-0.011245708
248	0x3c9cf01f	0.019157467
249	0x3d8f1cb5	0.06987897
250	0xbda6127c	-0.08108994
251	0x3d9c0195	0.07617489
252	0xbd66f4ea	-0.056385912
253	0xbce9096f	-0.028446881
254	0xbc8a7610	-0.016902
255	0xbc8097e3	-0.015697425

encoder.MLP.L2.bias f4 [64]
0	0xbdd8ca1a	-0.10585423
1	0xbd2ab61b	-0.041677576
2	0xbccef2e3	-0.025262302
3	0xbc4ec872	-0.012621032
4	0xbcb9c671	-0.022677632
5	0x3c9bfb1c	0.019040637
6	0xbdd43e03	-0.1036339
7	0xbc736c09	-0.014857301
8	0xbda98329	-0.0827697
9	0xbc8167a6	-0.015796494
10	0xbe1bc67b	-0.15212433
11	0xbdfeb886	-0.12437539
12	0xbd0dae0e	-0.03458982
13	0xbcdfe627	-0.027331425
14	0x3bc8f3d3	0.0061325817
15	0xbe15e8df	-0.14639615
16	0xbc94e05e	-0.018173393
17	0xbd43579d	-0.047690976
18	0xbd0fa11b	-0.03506575
19	0xbcdb94ae	-0.026804294
20	0xbd32653d	-0.04355358
21	0xbdf519ec	-0.11967835
22	0x3c88e987	0.016712917
23	0xbd41e338	-0.047335833
24	0xba34dad7	-0.0006899065
25	0xbdf16007	-0.11785894
26	0xbd88f2bc	-0.06686923
27	0x3c111b24	0.0088565685
28	0xbe223110	-0.15839028
29	0xbcb9e369	-0.022691445
30	0xbdddcc9d	-0.108300425
31	0xbd457073	-0.048202943
32	0xbdbbe2c6	-0.09174113
33	0x3d1f30f6	0.038865052
34	0xbd71a3e1	-0.058994178
35	0x3cbf0657	0.023318453
36	0xbd116f72	-0.035506673
37	0xbdd1bbe8	-0.102409184
38	0xbd184836	-0.03717824
39	0xbd9914cc	-0.0747467
40	0xbd9810bb	-0.07425066
41	0x3c9cdd6b	0.019148549
42	0xbde6f931	-0.11277998
43	0xbdddef53	-0.10836663
44	0xbd880b40	-0.06642771
45	0xbd86a71d	-0.06574843
46	0xbb98bdad	-0.004661283
47	0xbcd90f0d	-0.026496435
48	0xbd1de2cf	-0.03854638
49	0xbca70b6c	-0.020391189
50	0x3d08b648	0.033376962
51	0xbd8f5765	-0.06999091
52	0xbd411822	-0.047142155
53	0xbdeb4502	-0.114877716
54	0xbcd1ed5a	-0.025625873
55	0xbdb5742f	-0.08860051
56	0xbd2123fd	-0.03934096
57	0xbd5df517	-0.054188814
58	0xbdb7ef9a	-0.08981247
59	0xbd86a5ac	-0.06574568
60	0xbd2a5dc7	-0.04159334
61	0xbe06bcb6	-0.13157925
62	0xbd864d44	-0.06557706
63	0xbe0d4ddd	-0.13799234

encoder.linear_means.weight f4 [6, 64]
0	0xbdf8442c	-0.12122378
1	0xbca281b0	-0.01983723
2	0x3d92722a	0.07150681
3	0xbd83049b	-0.06397363
4	0x3e105b0a	0.14097229
5	0x3dbc879d	0.09205554
6	0xbd26f8f0	-0.04076475
7	0xbdacfb27	-0.08446341
8	0xbd2aee8c	-0.041731402
9	0xbc841dc6	-0.016127478
10	0x3e08c764	0.13357311
11	0x3c62b65c	0.013837423
12	0xbdc62c4a	-0.09676416
13	0xbd7fd342	-0.06245733
14	0xbca0b01b	-0.019615224
15	0x3b478fb8	0.0030450653
16	0x3cd1560b	0.025553724
17	0x3d914a6a	0.070942715
18	0xbc2e9ab4	-0.010657001
19	0x3d98d1f4	0.074619204
20	0x3e18abdb	0.14909308
21	0xbbc475b5	-0.005995477
22	0x3d4a5191	0.049394194
23	0x3cc6d19c	0.024269871
24	0xbd22b759	-0.039725635
25	0x3d852aa6	0.06502275
26	0xbda5fd4c	-0.08104953
27	0xbbe009da	-0.006837112
28	0xbd6e40b0	-0.05816716
29	0x3d88f482	0.06687261
30	0xbe048d37	-0.12944494
31	0x3bf01e49	0.007327829
32	0x3db39fd2	0.08770718
33	0xbcb43000	-0.021995544
34	0x3ddfbeb4	0.109250456
35	0xbd1f1714	-0.03884037
36	0xbd1877e5	-0.037223715
37	0xbdb64164	-0.08899191
38	0xbc42c370	-0.011887416
39	0xbd8b49af	-0.068011634
40	0x3cfdce71	0.030982228
41	0x3d88f116	0.066866085
42	0xbda230ed	-0.07919488
43	0xbd6afeed	-0.057372022
44	0xbd2866d0	-0.041113675
45	0xbbad262d	-0.005284092
46	0xbc878ff8	-0.016548142
47	0xbcd377a4	-0.025813885
48	0x3d940a5e	0.0722854
49	0xbd54c327	-0.051943924
50	0x3d16aa1b	0.03678332
51	0x3de4c8f9	0.11171145
52	0xbdc2d4f1	-0.095132716
53	0x3d27f778	0.04100749
54	0xbc0dacc6	-0.008647149
55	0x3ca170ca	0.019707102
56	0x3d5685b7	0.052373614
57	0x3d6cd6b3	0.05782194
58	0xbdc67412	-0.096901074
59	0x3dc3905d	0.095490195
60	0x3d02f06b	0.03196756
61	0xbc9de0b7	-0.019272191
62	0xbdf1bd38	-0.11803669
63	0xbd1f7410	-0.038929045
64	0x3d2f8ed5	0.042860825
65	0x3d8a5071	0.06753624
66	0x3b7950f2	0.0038042632
67	0x3e06eb6b	0.13175742
68	0xbd1b1749	-0.037864003
69	0x3ce953fb	0.028482428
70	0x3ce2be50	0.027678639
71	0x3d7efd58	0.062253326
72	0x3c034756	0.008012613
73	0xbcfbefd0	-0.030754
74	0x3d75ae7a	0.059980847
75	0xbd4eaa20	-0.050455213
76	0xbb8a78aa	-0.00422581
77	0xbd8f3af2	-0.06993665
78	0x3da7d294	0.081944615
79	0xbbd6b3a2	-0.0065521756
80	0x3df06581	0.1173811
81	0x3b0b65c7	0.002127038
82	0xbd86d824	-0.06584194
83	0xbddd2f0e	-0.107999906
84	0x3d90febb	0.07079836
85	0x3c6ad510	0.014333025
86	0x3cb32006	0.021865856
87	0xbd80aedf	-0.06283354
88	0x3d2ba19f	0.04190218
89	0x3ddde812	0.108352795
90	0x3c214ee9	0.009845474
91	0x3dd3c3fc	0.103401154
92	0xbd97a919	-0.074053
93	0x3c4908e3	0.012270185
94	0x3de03867	0.10948258
95	0xbc8d34ba	-0.017237056
96	0x3c9447da	0.018100668
97	0x3d67a073	0.0565495
98	0x3c81c94a	0.015843052
99	0x3c839953	0.016064322
100	0xbcfdc8b5	-0.030979494
101	0x3dbb7a01	0.0915413
102	0x3ba77e66	0.0051115034
103	0xbd6b7f6e	-0.057494573
104	0xbe087268	-0.13324893
105	0xbda5ee1b	-0.08102056
106	0x3ca680e0	0.020325124
107	0x3d771f1c	0.060332403
108	0x3dde2a39	0.10847897
109	0x3dbab044	0.09115651
110	0x3bc7f5f9	0.0061023203
111	0x3a15f926	0.0005721025
112	0xbcb138ee	-0.021633592
113	0x3dc280f4	0.09497252
114	0x3c308fa5	0.010776435
115	0xbd64ae14	-0.055830076
116	0xbdf61339	-0.12015385
117	0xbcaa4bc2	-0.020788077
118	0x3dbe6b79	0.092978425
119	0xbda5b639	-0.08091397
120	0xbe24c453	-0.16090517
121	0x3dd97b75	0.10619251
122	0xbdf66a8c	-0.12032041
123	0xbd3f9ca8	-0.04678026
124	0x3b9b6027	0.004741687
125	0x3d61e68f	0.05515152
126	0xbd6e2149	-0.058137212
127	0x3d376883	0.044777405
128	0x3e11d320	0.14240694
129	0x3d7d6fde	0.061874263
130	0xbc9c41d1	-0.019074352
131	0xbc94ec3e	-0.018179055
132	0xbcb6d0b5	-0.022316316
133	0xbd58b735	-0.052909095
134	0x3d494094	0.049133852
135	0xbcc6c2e5	-0.024262855
136	0xbd539b9a	-0.051662065
137	0xbdbc9b04	-0.092092544
138	0xbc6dcaff	-0.01451373
139	0xbcfafaf3	-0.03063724
140	0x3dedc844	0.11610463
141	0xbd96a4f2	-0.073556796
142	0x395b4361	0.00020910568
143	0x3d15b16c	0.036546156
144	0x3beca454	0.007221738
145	0x3d28f648	0.041250497
146	0x3ddd8c59	0.10817785
147	0x3a887710	0.001041146
148	0x3c2d6521	0.010583193
149	0xbd04f47f	-0.032459732
150	0xbde704d0	-0.11280215
151	0x3d9a5152	0.07535042
152	0x3d9065c1	0.07050658
153	0x3d0456c6	0.032309316
154	0x3d13b95e	0.03606545
155	0xbd803d4e	-0.06261693
156	0xbc8a1427	-0.016855313
157	0x3dd36231	0.10321463
158	0xbd2fb397	-0.04289588
159	0x3ca40315	0.020021
160	0xbc7b7939	-0.015348726
161	0xbc134185	-0.008987789
162	0xbc2de743	-0.010614219
163	0xbd55da6d	-0.05221026
164	0xbdbd1d37	-0.09234088
165	0xbdca1a74	-0.09868327
166	0xbd958ca3	-0.07302215
167	0xbdea17d2	-0.114303246
168	0xbd4ef88b	-0.050529998
169	0xbe288c4e	-0.16459772
170	0xbd32f592	-0.043691225
171	0xbda36c3f	-0.07979631
172	0x3ba350b0	0.004983984
173	0xbc83226e	-0.016007628
174	0xbe0acb4a	-0.13554111
175	0xbd856276	-0.065129206
176	0x3ce8c0b0	0.028412193
177	0x3d8aa01c	0.0676882
178	0x3d72c436	0.059269153
179	0xbd9566f5	-0.07295028
180	0x3d3421f1	0.04397768
181	0x3e13b482	0.14424327
182	0x3c75cd3f	0.015002548
183	0xbb1f055e	-0.0024264674
184	0xbd36de61	-0.04464567
185	0x3d0b6358	0.03403029
186	0x3d2c30a6	0.042038582
187	0x3d5382d0	0.051638424
188	0x3c19a584	0.009377841
189	0xbd83cdff	-0.06435775
190	0xbddaaec0	-0.10677862
191	0xbc68dce8	-0.014212824
192	0x3d8666e8	0.065625966
193	0x3dd4cd8d	0.10390768
194	0x3d753b79	0.05987117
195	0xbdd8d1c0	-0.10586882
196	0xbe0b35e5	-0.13594778
197	0x3ce458d0	0.02787438
198	0x3c097950	0.00839074
199	0x3d2baffb	0.041915875
200	0xbde5853e	-0.112070546
201	0xbda925c7	-0.082591586
202	0x3d6e3e7b	0.058165055
203	0xbcffaa8d	-0.031209255
204	0x3bb88028	0.005630512
205	0xbdb303fd	-0.08740995
206	0x3dc3f1d3	0.09567609
207	0x3b1193c2	0.0022213315
208	0x3d2d9431	0.042377654
209	0x3d79cd50	0.060986817
210	0x3cedc5e5	0.029025028
211	0xbda99e60	-0.08282161
212	0x3df7bed3	0.12096944
213	0x3ca04469	0.01956387
214	0x3bf288e2	0.0074015716
215	0xbc0605c6	-0.008180087
216	0xbd513bb6	-0.051082335
217	0xbd650896	-0.05591639
218	0xbb03c3b7	-0.0020105669
219	0xbde5ac4a	-0.11214502
220	0xbd4e5714	-0.050376013
221	0xbb8eb3e5	-0.004354941
222	0x3c04d616	0.008107683
223	0x3d8ea626	0.06965284
224	0x3dbca921	0.09211946
225	0x3de243be	0.11048077
226	0xbddda2d4	-0.108220726
227	0x3d401a08	0.046899825
228	0x3dab21b3	0.08356037
229	0xbd85778c	-0.065169424
230	0x3dbd8aaf	0.092549674
231	0x3d219fe4	0.039459124
232	0xbd2632c4	-0.040575758
233	0x3e125c47	0.14293014
234	0xbd5ddb0c	-0.054163978
235	0x3d100d86	0.035169147
236	0x3cba2c99	0.022726344
237	0xbc86e4e1	-0.01646656
238	0x38e282d0	0.000108008855
239	0x3d6cb27c	0.057787403
240	0xbd1b58ba	-0.037926413
241	0xbd79ea98	-0.06101474
242	0xbc2a8e2b	-0.010409872
243	0x3d764d65	0.060132403
244	0x3d6a3769	0.05718175
245	0xbd1b0db7	-0.037854876
246	0x3d9b692d	0.0758842
247	0x3de88c5b	0.11354896
248	0x3db18cb9	0.08669419
249	0xbd6c1882	-0.05764056
250	0xbd9d9c78	-0.0769586
251	0x3ca611ae	0.020272102
252	0xbd3bea1f	-0.045877572
253	0xbdd1a21a	-0.102359965
254	0xbdf8ebf7	-0.12154382
255	0x3b56c605	0.0032771837

encoder.linear_means.bias f4 [6]
0	0xbac9dcda	-0.0015400902
1	0x3b1d3c0b	0.0023992087
2	0x3730f7a3	1.0548075e-05
3	0x3a152ef7	0.0005690897
4	0xba3a1550	-0.0007098513
5	0xb9173db3	-0.00014423467

encoder.linear_log_var.weight f4 [6, 64]
0	0x3db4a804	0.08821109
1	0x3e037975	0.12839301
2	0xbd182191	-0.037141386
3	0x3bb2fc3d	0.005462198
4	0x3d02b4f8	0.031910866
5	0xbc8c3509	-0.017115133
6	0xbc521238	-0.0128217265
7	0x3d4d45b3	0.0501153
8	0xbdadf4e2	-0.08493973
9	0xbcde6842	-0.027149323
10	0xbbf6ac64	-0.007527875
11	0x3bda70e9	0.006666292
12	0x3c2fd83f	0.010732709
13	0xbbd63fc5	-0.0065383636
14	0xbc9b72d1	-0.018975647
15	0xbc7b3ca0	-0.015334278
16	0xbd8b6c21	-0.06807733
17	0xbd341060	-0.04396093
18	0xbc3a3bfe	-0.011366842
19	0xbdab64c8	-0.08368832
20	0xbbbc2cd8	-0.0057426505
21	0x3d94388d	0.07237349
22	0xbd36d21c	-0.04463397
23	0x3dbd3b2e	0.09239803
24	0xbbddec18	-0.0067725293
25	0xbdb86de9	-0.09005339
26	0xbc46f4b1	-0.0121433
27	0x3d45832f	0.04822081
28	0x3d8ff126	0.07028417
29	0x3a60a70a	0.00085698126
30	0xbd8f62ac	-0.07001242
31	0x3cf4a15d	0.0298621
32	0x3c778442	0.015107216
33	0xbd03412c	-0.032044575
34	0xbd1a6f02	-0.03770352
35	0xbdc950c8	-0.09829861
36	0x3c76188d	0.015020502
37	0x3d343802	0.043998726
38	0xbd1a634c	-0.037692353
39	0x3d145cff	0.0362215
40	0x3c7a46e3	0.01527569
41	0xbd5f6642	-0.05454088
42	0xbd6058a9	-0.054772053
43	0x3cf6fd7d	0.03015017
44	0xbb3669f7	-0.0027834156
45	0xbd2e4aef	-0.04255193
46	0x3b88ce07	0.004174951
47	0xbd98ab0e	-0.07454501
48	0x3cc3d673	0.023905968
49	0x3db136b6	0.086530134
50	0xbd7b057c	-0.061284527
51	0xbd6db160	-0.058030486
52	0x3da42063	0.0801399
53	0x3c57ec18	0.013178848
54	0xbdaec3e7	-0.08533459
55	0x3db2672f	0.08711087
56	0xbcb1903d	-0.021675223
57	0xbc5cc3bd	-0.013474402
58	0xbd221d2b	-0.039578598
59	0x3d379965	0.044824023
60	0x3d90ceda	0.07070704
61	0xbd9effcf	-0.07763635
62	0x3c85498f	0.016270427
63	0x3bd4d815	0.0064954855
64	0xbb8e8428	-0.0043492503
65	0x3cc2a8f1	0.023762198
66	0xbc92a740	-0.017902017
67	0xbb022c43	-0.0019862808
68	0x3a9e90b5	0.0012097569
69	0x3b2aa86f	0.0026040336
70	0x3b9fdcaf	0.0048786025
71	0xbd07354a	-0.033009805
72	0x3d0f5cc8	0.035000592
73	0xbd81a1dd	-0.06329701
74	0xbca9a834	-0.020710088
75	0xbdcffa64	-0.1015518
76	0x3a9c019c	0.0011902335
77	0x3d5a8975	0.053353745
78	0x3dd83a32	0.10557975
79	0xbdfd2984	-0.12361434
80	0x3d7ca340	0.061679125
81	0x3c8e5d77	0.017378552
82	0xbcb85819	-0.022502946
83	0x3d80ceea	0.06289466
84	0x3db27296	0.08713262
85	0xbb0eb98f	-0.0021778082
86	0xbdb19b2c	-0.08672175
87	0xbd9c6754	-0.07636896
88	0xbc39e8a8	-0.0113469735
89	0x3d4707f2	0.04859156
90	0xbcf3e405	-0.029771814
91	0xbda2bef4	-0.07946578
92	0x3e11f632	0.14254072
93	0x3cab849a	0.020937253
94	0xbd4ae336	-0.04953309
95	0x3d3da740	0.04630208
96	0xbc416212	-0.011803167
97	0xbe031a91	-0.12803103
98	0x3dbcfb1c	0.09227583
99	0x3d8e76bf	0.06956243
100	0xbdcba664	-0.09943846
101	0xbd7d54f8	-0.06184861
102	0xbc887f26	-0.016662192
103	0x3da893aa	0.0823129
104	0xbe0dd057	-0.13849007
105	0xbc4037b3	-0.01173203
106	0xbd1cf63b	-0.03832076
107	0xbdcb2711	-0.09919561
108	0x3cb341b7	0.021881921
109	0x3d74561e	0.05965244
110	0x3b7f28d5	0.003893425
111	0x3db94734	0.09046784
112	0x3c097d14	0.008391637
113	0xbd615db4	-0.055021003
114	0xbd30f926	-0.043206356
115	0xbdb22018	-0.08697528
116	0xbde510b4	-0.111848265
117	0x3d7eedba	0.062238432
118	0xbe0a1bd1	-0.13487174
119	0xbdbeeeb6	-0.09322874
120	0xbd79f5df	-0.061025497
121	0xbd6d0ca7	-0.057873394
122	0xbdb89c23	-0.09014156
123	0x3cc97b8c	0.024595045
124	0x3d3b18a3	0.045677792
125	0xbd8cb35e	-0.06870149
126	0xbdafefcf	-0.08590662
127	0xbc2affd1	-0.010436968
128	0xbd798611	-0.06091887
129	0xbd91dd8e	-0.07122336
130	0x3ca85d9b	0.020552447
131	0xbc7434b8	-0.014905147
132	0xbd1ef57a	-0.038808323
133	0xbb2e6709	-0.0026611707
134	0xbd155ca3	-0.0364653
135	0xbd6cd2cf	-0.05781823
136	0xbd20c4f8	-0.039250344
137	0xbd3b96c6	-0.045798086
138	0x3c5cdf75	0.013481011
139	0xbdba1b06	-0.090871856
140	0x3c34032d	0.010987085
141	0x3d0fa2e8	0.03506747
142	0x3c7fdd9c	0.015616801
143	0xbdc8af44	-0.09799054
144	0xbd78e1aa	-0.060762085
145	0xbd3de517	-0.046361055
146	0xbd79287f	-0.060829636
147	0x3dcc328f	0.09970581
148	0x3d4e41cf	0.05035573
149	0xbcd6f00d	-0.026237512
150	0xbce75760	-0.028239906
151	0x3d1878a5	0.03722443
152	0xbc61563c	-0.01375347
153	0x3d2f2b51	0.04276592
154	0x3d94f1e5	0.072727
155	0x3daaeba8	0.08345729
156	0x3ce5cddb	0.028052261
157	0xbdea349f	-0.11435818
158	0x3ceb786f	0.02874395
159	0xbdd2a485	-0.10285286
160	0xbae876d9	-0.0017735615
161	0xbd33cbbc	-0.043895468
162	0xbdb7212c	-0.08941874
163	0x3d20c030	0.039245784
164	0x3cc27a9c	0.023740105
165	0x3d83c1fb	0.06433483
166	0x3c70ebd6	0.014704665
167	0x3d07e840	0.033180475
168	0xbd1954de	-0.03743445
169	0xbcd5ecbc	-0.02611386
170	0xbc826ff4	-0.015922524
171	0xbd4a60f1	-0.049408857
172	0xba101212	-0.0005495857
173	0x3d910413	0.07080855
174	0x3c011f76	0.007881036
175	0xbd9c6d19	-0.07637996
176	0xbd235640	-0.039877176
177	0xbd82b332	-0.06381835
178	0xbcf9c073	-0.030487275
179	0x3da1a458	0.07892674
180	0x3c5fb286	0.013653403
181	0x3c9d28a0	0.01918441
182	0xbdcaddbe	-0.09905575
183	0x3d40c9ec	0.047067568
184	0x3d649a78	0.055811375
185	0xbd838611	-0.064220555
186	0xbdae0296	-0.08496587
187	0x3b95513d	0.0045568035
188	0x3db1b960	0.086779356
189	0x3dd6f3c7	0.104957156
190	0x3c4c947d	0.012486574
191	0xbb314a7c	-0.0027052453
192	0xbd3858ba	-0.04500649
193	0xbbec2182	-0.007206143
194	0xbcd3c9dc	-0.02585309
195	0xbc83ce6f	-0.016089646
196	0xbd66f61a	-0.056387044
197	0xbb2f0744	-0.0026707212
198	0x3c1ea1ae	0.009682102
199	0x3cf73a99	0.030179309
200	0x3d156558	0.036473602
201	0xbb913ccc	-0.0044322964
202	0xbcaa9d96	-0.020827096
203	0xbd5842ca	-0.05279807
204	0xbbf39057	-0.007432978
205	0x3d759624	0.05995764
206	0x3d89d587	0.0673018
207	0x3da7e48c	0.08197889
208	0xbde53b4e	-0.11192952
209	0xbc8ce1ea	-0.017197568
210	0x3d264252	0.04059059
211	0x3db328e0	0.08748031
212	0x3d957348	0.07297379
213	0x3c872ad0	0.016499907
214	0xbd8f07d7	-0.06983917
215	0x3d31b726	0.043387555
216	0x3aac08a0	0.0013125129
217	0x3dd9e135	0.10638658
218	0x3bbf6b06	0.0058416156
219	0xbd1b86d1	-0.037970368
220	0x3c916208	0.01774694
221	0x3d74a45d	0.05972706
222	0x3da60f54	0.08108392
223	0x3c9e1f98	0.019302174
224	0x3dd91a94	0.106007725
225	0xbdbe1483	-0.09281256
226	0xbc83134f	-0.016000418
227	0xbcdf6ada	-0.02727263
228	0xbc852ee6	-0.016257714
229	0xbcb31773	-0.021861767
230	0xbcd7decd	-0.026351357
231	0xbca20094	-0.019775666
232	0x3d5ecd7a	0.054395176
233	0xbc12b445	-0.008954112
234	0xbdb83ab4	-0.08995572
235	0x3d9177e3	0.07102945
236	0xbc166fa0	-0.009181887
237	0x3c39d611	0.011342541
238	0xbbced080	-0.006311476
239	0xbdab71ae	-0.08371292
240	0xbcdbb7b3	-0.026820993
241	0xbcde3a08	-0.02712728
242	0xbce90bfa	-0.028448094
243	0xbd43d646	-0.04781177
244	0x3cb56046	0.022140633
245	0xbd68704a	-0.056747712
246	0xbcd575eb	-0.026057204
247	0x3c8e839a	0.017396737
248	0xbcee4885	-0.029087314
249	0xbd09e9bf	-0.033670183
250	0x3cf2b60d	0.029627824
251	0xbcd3404a	-0.025787491
252	0xbc110113	-0.008850354
253	0x3b293427	0.0025818439
254	0xbd840215	-0.064457096
255	0x3c3496cd	0.011022282

encoder.linear_log_var.bias f4 [6]
0	0xbaf1c9bb	-0.0018446961
1	0x3a940880	0.0011294037
2	0xba136e99	-0.00056240853
3	0xba6123a2	-0.00085883786
4	0xbb283cfe	-0.002567112
5	0xbb988962	-0.004655049
